Models/Torch2/my_model11700.pth (torch_old, 60054 bytes, 8 tensors)

conv1.weight f4 [16, 2, 3, 3]
0	0x3d92e482	0.07172491
1	0xbe6e1105	-0.2324868
2	0x3baedd32	0.005336427
3	0xbde06138	-0.10956043
4	0xbdb66dc5	-0.089076556
5	0xbe671b27	-0.22568952
6	0xbe2bd6fb	-0.16781227
7	0xbe3b4cde	-0.18291041
8	0xbe4b75e0	-0.19869184
9	0xbe2bd9a6	-0.16782245
10	0x3eb05193	0.34437236
11	0x3e7ec6af	0.2488048
12	0xbcef0abb	-0.029179921
13	0xbe6b5293	-0.22980718
14	0x3df822bd	0.12116001
15	0x3e3d4af1	0.18485619
16	0x3cbe3944	0.023220666
17	0xbd2f61c0	-0.04281783
18	0xbe045a6d	-0.1292512
19	0xbe12e365	-0.14344557
20	0x3e81130c	0.25209844
21	0x3e9ff8ed	0.31244603
22	0xbde1b648	-0.110210955
23	0x3ec4bc6b	0.38425002
24	0x3e8584c0	0.26077843
25	0x3ea505c5	0.32230964
26	0x3e4cda86	0.20005235
27	0x3db1008a	0.08642681
28	0xbe5fb94a	-0.21848026
29	0x3de3042b	0.11084779
30	0xbd577525	-0.052601952
31	0x3e96c40d	0.2944645
32	0xbe8ac6a7	-0.27104685
33	0xbe0b27ad	-0.13589354
34	0x3e6e37af	0.23263429
35	0xbe8f6b94	-0.28011763
36	0x3eaf575e	0.34246343
37	0x3c598d06	0.0132782515
38	0x3eff08a0	0.49811268
39	0xbe7b7a67	-0.24558412
40	0xbe582eea	-0.21111646
41	0xbdfd022f	-0.12353932
42	0x3d172214	0.036897734
43	0x3e0ea4df	0.13930081
44	0x3e6efc4e	0.23338434
45	0xbdff0540	-0.12452173
46	0xbde52bc4	-0.11189988
47	0xbe6204bc	-0.22072119
48	0xbc62f5a2	-0.013852509
49	0xbe63f42c	-0.22261113
50	0x3d894686	0.067029044
51	0xbd197730	-0.03746718
52	0x3dd613ae	0.10452972
53	0xbe810278	-0.25197196
54	0x3d36507d	0.044510353
55	0xbe580703	-0.21096425
56	0xbd98c651	-0.07459701
57	0x3e51bb26	0.20481548
58	0x3e8663fd	0.2624816
59	0xbce98fa4	-0.028510876
60	0xbc295698	-0.010335587
61	0x3e8d5ca7	0.2760975
62	0x3eaa0927	0.33210108
63	0xbdd0db5a	-0.10198088
64	0x3b9653f1	0.0045876433
65	0x3e3e824e	0.18604395
66	0xbd2390c3	-0.039932977
67	0x3d82b7f7	0.06382745
68	0x3e0cb7c8	0.13741982
69	0xbe0b231b	-0.1358761
70	0x3e2b3095	0.16717751
71	0xbd912084	-0.0708628
72	0xbe30ad89	-0.17253698
73	0xbdab089f	-0.08351254
74	0x3ec47835	0.3837296
75	0xbe1e7eea	-0.15478101
76	0x3e84eaf0	0.25960493
77	0xbd96d9f8	-0.07365793
78	0xbe270fda	-0.1631464
79	0x3e9e2b95	0.30892625
80	0xbdc49130	-0.09598005
81	0x3d5a2151	0.05325443
82	0xbe25d61f	-0.16194962
83	0x3e3ed246	0.186349
84	0x3cc97244	0.024590619
85	0x3d930e76	0.071804926
86	0xbc6de6a1	-0.014520318
87	0x3e12cef0	0.14336753
88	0x3d711b3c	0.058863863
89	0xbe7d548b	-0.24739282
90	0x3df5338f	0.11972725
91	0xbd90623f	-0.07049989
92	0xbdc4bd13	-0.096063755
93	0x3ea6b56a	0.32560283
94	0x3e632bd0	0.22184682
95	0x3f00b281	0.50272375
96	0xbe59fe4b	-0.21288411
97	0x3e8fb564	0.28068078
98	0xbe6b7bf5	-0.22996505
99	0xbe64f818	-0.22360265
100	0xbe78ad5a	-0.24284878
101	0xbe851327	-0.25991175
102	0xbd264ecc	-0.04060249
103	0xbead3383	-0.33828363
104	0x3bfde2bb	0.0077479756
105	0xbe0bb239	-0.13642205
106	0xbdb816bf	-0.089887135
107	0xbcd70d8b	-0.026251575
108	0x3e0db392	0.13838032
109	0xbdab38e6	-0.08360462
110	0xbd00ee10	-0.031477034
111	0xbdb91f54	-0.090391785
112	0x3da9f94e	0.08299504
113	0xbe2aa890	-0.16665864
114	0x3dc19737	0.0945267
115	0x3e91d647	0.28483793
116	0x3e03fc3f	0.12889193
117	0x3d1f8be3	0.038951766
118	0xbddb9b16	-0.1072294
119	0x3dab38f4	0.08360472
120	0x3e67d689	0.22640432
121	0x3e4d494d	0.20047493
122	0xbe57a846	-0.21060285
123	0xbdbd5cea	-0.092462376
124	0xbe401b3a	-0.18760386
125	0xbe1a20ef	-0.15051626
126	0xbda0b4d6	-0.07846992
127	0xbd0c7da4	-0.034299508
128	0xbc258dc8	-0.010104604
129	0xbe26db61	-0.16294624
130	0x3e3bb2b8	0.18329895
131	0x3a10a49a	0.00055176916
132	0xbd46e09c	-0.048554048
133	0xbddbb28c	-0.107274145
134	0x3e255eeb	0.1614949
135	0xbd363a15	-0.044488985
136	0xbe4c461c	-0.1994862
137	0xbe256f92	-0.16155842
138	0x3e315694	0.17318183
139	0xbe58fc16	-0.21189913
140	0xbe634ed3	-0.22198038
141	0xbbe10f76	-0.006868298
142	0xbdc9dcf0	-0.098565936
143	0xbe1cd1f6	-0.15314469
144	0xbe068071	-0.13134934
145	0x3e03e915	0.12881882
146	0xbe169fbe	-0.14709374
147	0xbdf21177	-0.118197374
148	0xbdfb4d2e	-0.1227058
149	0xbde3cb56	-0.111227676
150	0xbdaf53cc	-0.08560905
151	0xbe762485	-0.24037369
152	0xbbedda02	-0.0072586546
153	0xbd24eaae	-0.04026287
154	0xbe0e3e63	-0.13890986
155	0x3eb41095	0.351689
156	0x3e32d0f1	0.17462517
157	0x3e40c75f	0.18826054
158	0x3e67a08c	0.22619838
159	0x3e8ffa5d	0.281207
160	0x3e8dc648	0.2769034
161	0xbcc10c4c	-0.023565434
162	0xbe58b9d5	-0.2116464
163	0x3e2e01f4	0.16992933
164	0x3e09144f	0.13386653
165	0x3e46fa4d	0.1943142
166	0xbc36dccc	-0.0111610405
167	0x3e875f4f	0.26439902
168	0xbe2baf04	-0.16765982
169	0x3e0f5a9b	0.13999407
170	0x3d8f2590	0.06989586
171	0xbe0617fb	-0.13095085
172	0xbdf2d611	-0.11857236
173	0x3e0e7ace	0.13914034
174	0x3cad84d6	0.021181505
175	0x3e63007a	0.2216815
176	0xbdd3c539	-0.103403516
177	0x3b4ad7f6	0.0030951477
178	0x3b03ab6c	0.002009119
179	0x3e42740b	0.1898958
180	0x3d85dbb8	0.06536049
181	0x3db1c581	0.08680249
182	0x3d01ab52	0.031657524
183	0x3e7bc677	0.24587427
184	0x3d419ec8	0.047270566
185	0xbe6fc4d7	-0.23414932
186	0x3e438fb1	0.19097783
187	0xbd99116c	-0.07474026
188	0xbdaf7626	-0.08567457
189	0x3e070975	0.13187201
190	0xbd90b6f1	-0.07066143
191	0x3c26fe15	0.010192414
192	0xbc30dfaf	-0.010795518
193	0x3e2a5c08	0.1663667
194	0x3dd0827e	0.101811394
195	0x3e019db7	0.1265782
196	0x3e16ee3f	0.14739321
197	0x3e5a2215	0.21302064
198	0x3d764329	0.060122643
199	0xbd9b7166	-0.075899884
200	0x3e611048	0.21978867
201	0x3da82627	0.08210402
202	0xbe308956	-0.1723989
203	0x3e90b0f6	0.2826001
204	0xbe51b8c2	-0.20480636
205	0xbddab9bf	-0.106799595
206	0x3e193547	0.1496173
207	0x3e6b648b	0.22987573
208	0x3e855ed2	0.26048905
209	0xbe109beb	-0.14121978
210	0xbd1e5533	-0.03865547
211	0x3e68e11a	0.2274212
212	0x3e07afe8	0.13250697
213	0x3e3b2210	0.18274713
214	0xbd94029f	-0.072270624
215	0x3e2b66e3	0.16738467
216	0xbdaebc01	-0.08531953
217	0xbd1c1425	-0.03810515
218	0x3d07a8cc	0.03311996
219	0x3e814324	0.25246537
220	0x3ca76cdf	0.020437656
221	0xbe34054b	-0.17580144
222	0x3e03a268	0.12854922
223	0xbe39c4dd	-0.18141504
224	0x3d939ed6	0.0720803
225	0xbddbcd39	-0.107325025
226	0xbd779c76	-0.060451947
227	0xbd90b46d	-0.070656635
228	0xbe0fe40b	-0.14051835
229	0xbd6aef34	-0.057357028
230	0x3ebbb88b	0.36664233
231	0xbe53b1ce	-0.20673296
232	0x3d963ec1	0.07336188
233	0x3de767db	0.11299106
234	0xbe2e9923	-0.17050605
235	0x3dc0b309	0.09409148
236	0xbe4bf4b3	-0.19917564
237	0xbdf3a736	-0.11897127
238	0x3ebbc4e4	0.36673653
239	0x3e4924a5	0.19642885
240	0x3ee3efa8	0.4451878
241	0xbe9416d0	-0.28923655
242	0x3e9020ba	0.28149968
243	0x3c861902	0.016369347
244	0xbd0748e5	-0.033028502
245	0xbe137233	-0.14399032
246	0xbde1cf90	-0.110259175
247	0xbca5721c	-0.020196013
248	0xbec7b0be	-0.3900203
249	0xbdc3e1ff	-0.0956459
250	0x3d7c6df1	0.061628286
251	0x3e7c4ff2	0.24639872
252	0x3d83d075	0.064362444
253	0xbe640c32	-0.22270277
254	0x3dd82444	0.10553792
255	0x3d9e6bd1	0.07735408

conv1.bias f4 [16]
0	0xbcaee47e	-0.021349188
1	0xbd624fcb	-0.055251878
2	0x3de925b7	0.11384147
3	0xbd43a07f	-0.047760483
4	0xbda11520	-0.078653574
5	0x3dc4c3fa	0.09607692
6	0xbe545846	-0.20736799
7	0x3d7c008e	0.061523966
8	0xbbe139c4	-0.0068733413
9	0xbddaa2c7	-0.106755786
10	0xbe2a8279	-0.16651334
11	0xbda731c6	-0.081637904
12	0xbdbcb80c	-0.09214792
13	0x3dfdc467	0.123909764
14	0xbe17fdf9	-0.14842977
15	0xbda5fc01	-0.081047066

conv2.weight f4 [32, 16, 3, 3]
0	0x3d57f820	0.052726865
1	0xbda3d2b2	-0.07999171
2	0x3d0bcbb6	0.03412982
3	0x3d79d713	0.060996126
4	0x3a928aa8	0.0011180239
5	0x3e0e8be3	0.1392055
6	0x3d1899be	0.037255995
7	0xbd945bda	-0.07244082
8	0x3e4f1a55	0.20224889
9	0x3dc5692f	0.09639203
10	0xbe77fe22	-0.24218038
11	0x3e09831b	0.13428919
12	0xbce3b70c	-0.027797244
13	0x3ce1760f	0.027522115
14	0x3e45d4ca	0.19319454
15	0x3db3f910	0.08787739
16	0xbcf01380	-0.029306173
17	0x3e4f76d6	0.20260176
18	0x3db34ffb	0.087554894
19	0xbdb6987b	-0.08915802
20	0x3eb59d5d	0.3547162
21	0xbd9554cb	-0.072915636
22	0xbe2a75f8	-0.16646564
23	0x3c2bb631	0.01048045
24	0x3cf2e3a2	0.02964956
25	0xbd004854	-0.031318977
26	0x3d89488b	0.067032896
27	0xbcc3fd72	-0.023924563
28	0xbbb69ed9	-0.0055731353
29	0x3d3b689e	0.045754068
30	0xbd5ca396	-0.053866945
31	0x3de94a42	0.11391117
32	0x3e4bf3ee	0.1991727
33	0x3cc228fe	0.023701187
34	0xbd5a1c11	-0.053249422
35	0x3d855102	0.06509592
36	0x3c6e1fe9	0.014533975
37	0xbd266337	-0.040621962
38	0x3e43a7ce	0.19106981
39	0xbd0742b1	-0.033022586
40	0xbcc03b09	-0.02346565
41	0xbd152fd2	-0.036422558
42	0x3c4fd125	0.012684141
43	0x3b7c9888	0.0038543064
44	0xbbe48940	-0.0069743693
45	0xbe3e34a9	-0.18574776
46	0xbdae6799	-0.085158534
47	0xbe82d559	-0.25553396
48	0xbdd48db1	-0.10378588
49	0xba2dfc7e	-0.00066370505
50	0xbe20e76f	-0.15713285
51	0xbe16d016	-0.14727816
52	0x3ba82c25	0.0051322156
53	0xbe50a0ba	-0.20373812
54	0xbd6ef8fd	-0.058342922
55	0x395b89dd	0.00020936826
56	0x3d8d2ede	0.06893705
57	0xbda3c118	-0.07995814
58	0xbd3ba297	-0.045809355
59	0xbbee2d0f	-0.007268555
60	0xbc1738c9	-0.009229847
61	0x3d5e96f2	0.05434317
62	0x3c330619	0.010926747
63	0xbc33f686	-0.010984069
64	0xbce94515	-0.028475324
65	0xbd5595f7	-0.05214497
66	0x3d2eb72c	0.042655155
67	0xbc988cb5	-0.018621782
68	0x3d0a343b	0.033741217
69	0xbbcf5f61	-0.0063285087
70	0xbdf68ef7	-0.12038987
71	0x3e06ad7f	0.13152121
72	0x3d74e381	0.059787277
73	0x3e3f6946	0.18692502
74	0xbc9b3f64	-0.018951125
75	0x3d863ae7	0.065542035
76	0x3e02147a	0.12703124
77	0x3e07b1a0	0.13251352
78	0x3e14066d	0.14455576
79	0x3de9e439	0.11420483
80	0x3e11a1a2	0.14221814
81	0x3ce4d199	0.027931975
82	0x3ca94d82	0.020666841
83	0xbd9e10b5	-0.0771803
84	0x3a997739	0.0011708505
85	0x3dc00e56	0.09377734
86	0x3cf8a088	0.030349985
87	0x3d502844	0.05081965
88	0x3bf8e34c	0.0075954553
89	0xbcec56a2	-0.028849903
90	0x3d39f7eb	0.04540245
91	0xbd110f8e	-0.035415225
92	0x3dee9bb3	0.11650791
93	0x3dacee94	0.08443943
94	0xbdee7466	-0.11643295
95	0x3d519ec6	0.05117681
96	0x3cedf2ca	0.029046435
97	0xbd99c00b	-0.075073324
98	0x3da20d1d	0.079126574
99	0x3c30203c	0.010749873
100	0xbd85b06e	-0.06527792
101	0x3e07590e	0.13217565
102	0x3dad9837	0.08476298
103	0x3cb692ec	0.022286855
104	0x3df8333c	0.12119147
105	0x3d4951d1	0.04915029
106	0xbd00a82b	-0.031410377
107	0x3e17fc22	0.14842275
108	0xbd76a336	-0.060214244
109	0xbc490a46	-0.012270516
110	0x3d8cc3ff	0.06873321
111	0x3dc3245c	0.095284194
112	0x3d53840a	0.051639594
113	0x3b5367cf	0.003225792
114	0xbd11865d	-0.03552853
115	0x3d179cef	0.037014898
116	0x3d23dd2f	0.04000586
117	0x3c3c437a	0.011490697
118	0xbe849eb5	-0.25902334
119	0x3dc94d3b	0.09829184
120	0x3d87e8bb	0.06636187
121	0xbe53fef0	-0.2070272
122	0x3ccc8838	0.024967298
123	0x3d006560	0.03134668
124	0xbe12d9ff	-0.14340971
125	0x3e4dbf1b	0.20092432
126	0x3d08a8ac	0.033363983
127	0xbca18ddb	-0.019720962
128	0xbe1c28fd	-0.15250011
129	0x3c191976	0.009344449
130	0x3ce6ef5d	0.02819031
131	0xbddcb9fc	-0.10777661
132	0x3dace9af	0.08443009
133	0xbd43d9a6	-0.047814988
134	0x3d5fd15f	0.05464303
135	0x3ce78b29	0.028264599
136	0xbeb9485e	-0.36188024
137	0x3e70dc94	0.23521644
138	0x3d46771e	0.048453443
139	0xbe855b3a	-0.26046163
140	0x3ebb7780	0.3661461
141	0x3d0f449f	0.03497755
142	0xbe58abd8	-0.21159303
143	0x3e9224c2	0.2854367
144	0xbd82c04b	-0.06384333
145	0xbca71a11	-0.020398172
146	0xbc71bd24	-0.014754567
147	0x3c44b8b7	0.01200693
148	0xbe1ca76c	-0.15298241
149	0x3ddc8c62	0.107689634
150	0xbc96b205	-0.018395433
151	0xbda9d45f	-0.0829246
152	0x3e02573b	0.12728588
153	0x3e06e648	0.13173783
154	0xbe3ddc79	-0.18541135
155	0x3ef2bde8	0.47410512
156	0xbdc9ef73	-0.098601244
157	0xbdb17856	-0.086655304
158	0x3e2fc7c1	0.17166044
159	0x3c593f1c	0.013259675
160	0xbdc33419	-0.09531421
161	0x3d0f20c3	0.034943353
162	0x3ce4b7fa	0.027919758
163	0xbd4a4a2f	-0.049387153
164	0x3e5ca1ea	0.2154614
165	0x3d3eb839	0.046562407
166	0xbd903f72	-0.07043351
167	0x3e8e8ba0	0.278409
168	0x3d170c81	0.03687716
169	0x3d6c7c51	0.057735745
170	0x3baf3ff6	0.005348201
171	0x3cc148c3	0.023594266
172	0xbd9874e9	-0.07444174
173	0x3cbc889c	0.02301436
174	0xbdd9ee34	-0.10641137
175	0x3d29ffb9	0.04150364
176	0x3d6b26c1	0.057410005
177	0xbcf42485	-0.02980257
178	0xbce4449e	-0.02786475
179	0x3d820b72	0.06349839
180	0x3d80e93c	0.06294486
181	0xbe28fd8e	-0.16502973
182	0x3d27a0cc	0.040924832
183	0x3d58545a	0.05281482
184	0xbd6e7931	-0.058221046
185	0x3da390b7	0.079865865
186	0xbdbe016f	-0.09277617
187	0xba8ef196	-0.0010905738
188	0xbd97b325	-0.07407216
189	0x3d8833db	0.06650516
190	0xbd20eef8	-0.0392904
191	0x3e583329	0.21113266
192	0x3cc08d25	0.023504803
193	0x3d372f04	0.044722572
194	0xbda88bbe	-0.08229779
195	0xbd04eb19	-0.03245077
196	0x3cb0f5a3	0.021601504
197	0xbdb0f167	-0.08639794
198	0x3d2a872a	0.04163281
199	0x3d03594a	0.032067575
200	0x3df2cde2	0.11855675
201	0x3d782cf8	0.06058976
202	0xbc3a54e2	-0.011372777
203	0x3d5fa641	0.05460191
204	0xbc740877	-0.014894596
205	0x3d6f412c	0.058411762
206	0xbb37776d	-0.0027994767
207	0x3de2358b	0.11045369
208	0xbd784dd1	-0.060621087
209	0x3db1f99d	0.08690188
210	0x3e11a457	0.14222847
211	0x3c202420	0.009774238
212	0x3c0b0311	0.008484618
213	0x3d51376e	0.051078252
214	0xbd221dee	-0.039579324
215	0xbb96e17b	-0.004604516
216	0x3d044091	0.032288138
217	0x3db4415f	0.08801531
218	0xbcbf6606	-0.023364078
219	0xbd6f5ee9	-0.058440123
220	0x3c98e0d5	0.018661896
221	0xbd8f81c1	-0.070071705
222	0x3ca909ec	0.020634614
223	0x3c684304	0.014176134
224	0xbdb02990	-0.086016774
225	0xbd5b2d02	-0.05350972
226	0x3de4997d	0.11162088
227	0x3e20dc53	0.15709047
228	0xbd708828	-0.0587236
229	0x3ccbe08b	0.024887344
230	0x3e1c0fe6	0.1524044
231	0x3cdb35f8	0.026759133
232	0x3c7e4cd7	0.01552125
233	0xbd3b81dd	-0.045778144
234	0xbd43dedb	-0.047819953
235	0x3ac5ab7f	0.0015081017
236	0x3d61f4c2	0.05516506
237	0x3d0ee303	0.034884464
238	0x3d6a0aa4	0.057139054
239	0x3d14fcc3	0.036373865
240	0xbd0c828f	-0.034304198
241	0x3ce05b8d	0.027387405
242	0x3e08e1e1	0.13367416
243	0x3d8faad3	0.07015004
244	0xbd8cd771	-0.0687703
245	0x3e66c20c	0.2253496
246	0x3dc44397	0.09583204
247	0xbcd120a2	-0.025528256
248	0x3e1128dd	0.14175744
249	0x3d654cae	0.05598133
250	0xbdb94bcb	-0.090476595
251	0x3da89f2e	0.08233486
252	0x3d911cb2	0.07085551
253	0x3d5ee6a6	0.054419182
254	0xbd17303b	-0.03691123
255	0xbd5dc248	-0.05414036

conv2.bias f4 [32]
0	0x3e446d41	0.19182302
1	0x3e05c6a5	0.13064058
2	0x3d56511b	0.052323442
3	0x3d69aa25	0.057047028
4	0x3d983afc	0.074331254
5	0x3d836bbd	0.06417034
6	0x3d72fee8	0.05932513
7	0x3d677ebd	0.05651735
8	0xbd1ab6ec	-0.037772104
9	0x3d20dba1	0.039271954
10	0x3bc7cf1c	0.0060976874
11	0x3dae8562	0.085215345
12	0x3d4292d8	0.047503322
13	0x3e091ae5	0.13389166
14	0xbcc349be	-0.023838874
15	0xbd249c07	-0.04018786
16	0x3da70c77	0.08156674
17	0xbc525ae2	-0.012839051
18	0x3d888641	0.06666232
19	0xbe167fea	-0.14697233
20	0x3d7bc2ac	0.06146495
21	0xbd4ec0b5	-0.05047675
22	0xbe147351	-0.14497115
23	0xbdffa736	-0.12483065
24	0xbdafd3cf	-0.08585321
25	0xbd891edd	-0.0669534
26	0xbc0dc84f	-0.008653714
27	0xbd26b893	-0.040703367
28	0xbdcb56a6	-0.09928636
29	0xbdded571	-0.108805545
30	0xbd021ed5	-0.031767685
31	0xbd91fc33	-0.07128181

fc1.weight f4 [256, 32]
0	0x3d5cd731	0.05391616
1	0x3daa6f5c	0.08322021
2	0xbdaf6d57	-0.08565777
3	0x3c0edde6	0.008719897
4	0x3d105adf	0.03524291
5	0x3d757d2c	0.059933826
6	0x3d7a63d5	0.061130363
7	0xbd8f498d	-0.069964506
8	0x3d3fce99	0.046827886
9	0xbe21f1a9	-0.15814842
10	0xbcff6443	-0.031175738
11	0x3e308cd3	0.1724122
12	0x3dee575c	0.11637756
13	0xbe19e255	-0.15027745
14	0xbd55b2e4	-0.052172557
15	0x3dbb8279	0.09155745
16	0xbd7e622d	-0.062105346
17	0x3e1918a5	0.14950807
18	0x3d99d055	0.07510439
19	0xbda96ae4	-0.08272341
20	0xbd0a4d9b	-0.033765417
21	0xbcdf1ffb	-0.02723693
22	0x3d8a7f9b	0.0676262
23	0xbd3eee42	-0.04661394
24	0xbdd14b4b	-0.10219439
25	0xbc95910d	-0.018257642
26	0x3da12ffa	0.07870479
27	0xbdb79417	-0.08963793
28	0xbe2cd636	-0.1687859
29	0x3bc3171a	0.0059536817
30	0xbdf46529	-0.11933357
31	0x3cf82f90	0.030296117
32	0x3e034374	0.128187
33	0xbe2e730a	-0.17036071
34	0xbdd020d2	-0.1016251
35	0xbd1d4df9	-0.03840444
36	0x3db70c53	0.089378975
37	0x3e057121	0.13031437
38	0xbdc20d72	-0.09475221
39	0xbd98f058	-0.07467717
40	0xbcf42efb	-0.029807558
41	0x3e1b3b9e	0.15159461
42	0xbdd46806	-0.103714034
43	0x3e288c87	0.16459857
44	0xbdbef9cf	-0.09324991
45	0x3deab9bd	0.11461208
46	0x3e0c616d	0.1370904
47	0x3e26f820	0.1630559
48	0x3ce0db11	0.027448209
49	0x3df644d5	0.120248474
50	0xbdff35ae	-0.124614105
51	0xbd51ca36	-0.051218234
52	0xbdae7302	-0.0851803
53	0x3d888bf9	0.06667323
54	0xbddbb5ec	-0.10728058
55	0xbd824802	-0.06361391
56	0xbd4ce467	-0.05002251
57	0x3dc19ecf	0.094541185
58	0x3de15165	0.11001853
59	0x3d8142c3	0.06311562
60	0x3e0fe75c	0.140531
61	0x3df9b52b	0.12192758
62	0x3d757f91	0.05993611
63	0xbd810fcd	-0.06301842
64	0xbc979d65	-0.018507669
65	0xbd08774b	-0.03331689
66	0xbe3bb032	-0.18328932
67	0x3d5f5b29	0.054530296
68	0x3df9a10c	0.121889204
69	0x3daab025	0.08334378
70	0x3dbd7556	0.09250896
71	0x3dcd9858	0.10038823
72	0x3be25f86	0.00690836
73	0x3e2ad870	0.16684127
74	0x3e369a89	0.17832388
75	0x3c8b2352	0.016984615
76	0x3c225579	0.009908074
77	0xbe289531	-0.16463162
78	0xbe11b625	-0.14229639
79	0x3c09ee51	0.008418635
80	0xbe045797	-0.12924038
81	0x3d191b86	0.037379764
82	0x3e1d39fe	0.15354154
83	0x3d9c758c	0.07639608
84	0x3dcde43d	0.100532986
85	0xbe04bde4	-0.12963063
86	0xbcf0791c	-0.029354624
87	0x3e0b4a6e	0.13602611
88	0x3de58560	0.1120708
89	0xbc8e3f25	-0.017364094
90	0xbd2648e2	-0.04059685
91	0x3e36fd63	0.17870097
92	0xbc116b02	-0.00887561
93	0xbe3d1792	-0.18466023
94	0x3d215e03	0.039396297
95	0x3d23ddb5	0.04000636
96	0xbe1506dc	-0.14553398
97	0xbdf57461	-0.11985088
98	0x3cff8f4f	0.031196265
99	0xbe218281	-0.1577244
100	0x3e084d24	0.13310677
101	0xbdf8a1d8	-0.12140244
102	0x3d3c9cfb	0.046048146
103	0xbe2788bd	-0.16360755
104	0xbe12f73a	-0.14352122
105	0x3dbfe79d	0.093703486
106	0x3de034c0	0.10947561
107	0xbdb361a3	-0.08758857
108	0x3dda2989	0.106524535
109	0xbe0b17dc	-0.1358332
110	0xbe0f3708	-0.13985837
111	0xbde8ab29	-0.11360771
112	0xbd17c3a3	-0.037051808
113	0x3e0639db	0.13108008
114	0x3c93172d	0.017955387
115	0x3e0e0fda	0.13873234
116	0x3dc20d1c	0.09475157
117	0xbd3afde3	-0.04565228
118	0xbd12cec7	-0.03584173
119	0xbd94e005	-0.07269291
120	0xbce14ddf	-0.027502952
121	0xbe2b3d0b	-0.16722505
122	0xbe1a7122	-0.15082219
123	0xbd01d204	-0.031694427
124	0xbd3c8344	-0.046023622
125	0x3dc11ab3	0.094289206
126	0xbdd38cb9	-0.10329575
127	0x3d519472	0.05116696
128	0x3c4b77a3	0.01241866
129	0xbd38c51a	-0.045109846
130	0x3e19ed6f	0.1503198
131	0xbde6a663	-0.112622045
132	0xbdf5a2ea	-0.11993964
133	0xbe32b313	-0.17451124
134	0xbdfc91d8	-0.12332505
135	0x3df90f6c	0.121611446
136	0x3d4444ed	0.047917295
137	0x3dee0132	0.11621322
138	0x3d756290	0.05990845
139	0x3e089989	0.13339819
140	0x3dbe37ed	0.09288011
141	0x3d571bcc	0.052516744
142	0xbe16fa1e	-0.1474385
143	0x3d5ba365	0.053622622
144	0xbe1dd6d5	-0.15413983
145	0x3c99bcba	0.01876675
146	0xbe2f161b	-0.17098276
147	0x3d10cae6	0.03534975
148	0xbe099197	-0.13434444
149	0x3cf0c600	0.029391289
150	0xbe20259f	-0.15639351
151	0xbc3891d0	-0.011265233
152	0xbdcb483c	-0.09925887
153	0xbdff073f	-0.12452554
154	0x3de0d747	0.10978561
155	0x3df9c4fa	0.121957734
156	0x3df162d2	0.117864266
157	0xbdc33057	-0.095307045
158	0xbe29636a	-0.1654183
159	0x3c4d0e20	0.012515575
160	0xbdf124f8	-0.11774629
161	0x3dd2f05a	0.1029975
162	0xbdcb49f9	-0.099262185
163	0x3d8eae06	0.06966786
164	0xbccbf454	-0.024896778
165	0xbd129773	-0.035788964
166	0x3df2f218	0.11862582
167	0x3cceeea1	0.025260272
168	0xbd58a7a5	-0.052894253
169	0xbcddfbf6	-0.027097683
170	0x3dfbe4c2	0.122994915
171	0xbe266b35	-0.16251834
172	0xbe151552	-0.14558914
173	0x3e0e762c	0.13912266
174	0x3da5f340	0.08103037
175	0xbc22d112	-0.009937542
176	0xbde99af7	-0.1140651
177	0xbc6e8673	-0.014558422
178	0x3d892ad0	0.06697619
179	0x3d3ac13f	0.04559445
180	0x3dcefb85	0.10106567
181	0xbe342c6f	-0.17595075
182	0x3d71c4c3	0.059025537
183	0xbb937dd1	-0.0045010825
184	0x3dd41b13	0.103567265
185	0x3d04480b	0.032295268
186	0x3ca3c5ed	0.01999184
187	0xbe185666	-0.14876708
188	0xbd4d6a18	-0.050150007
189	0xbca209ea	-0.019780118
190	0x3c29f38e	0.010373009
191	0xbd977d2b	-0.07396921
192	0x3b32dec7	0.002729343
193	0xbdc02cab	-0.0938352
194	0xbdaeacd6	-0.085290596
195	0x3e298648	0.1655513
196	0xbdba9733	-0.0911087
197	0x3b9d42cd	0.004799223
198	0x3d8fca29	0.07020981
199	0x3d111ab6	0.035425864
200	0x3c416cfa	0.011805767
201	0x3d47d4bc	0.048786864
202	0x3dea244b	0.114327036
203	0xbe1ff8be	-0.15622231
204	0x3ac911f6	0.0015340436
205	0x3e016a88	0.12638295
206	0xbe097076	-0.13421807
207	0x3d858423	0.06519344
208	0x3d94bb2a	0.07262261
209	0x3dffaedf	0.12484526
210	0xbd63b577	-0.05559298
211	0xbda16431	-0.07880438
212	0x3d8ed1f2	0.06973638
213	0xbdb49c7b	-0.08818909
214	0x3def7d05	0.116937675
215	0xbd4efb96	-0.0505329
216	0xbe25455f	-0.16139744
217	0x3d63818f	0.05554348
218	0x3e0ea4d2	0.13930061
219	0x3e19e5ad	0.1502902
220	0x3db8c847	0.09022575
221	0xbc902ddb	-0.01759999
222	0xbd81b2a7	-0.06332903
223	0xbe301644	-0.17195994
224	0x3deab6e3	0.11460664
225	0x3cb67f56	0.022277515
226	0xbd21b673	-0.039480638
227	0xbe24901f	-0.16070603
228	0xbbc4ff6a	-0.006011893
229	0x3d4b47a0	0.049628854
230	0x3de2ce3e	0.11074494
231	0x3df72410	0.12067425
232	0xbe0ad2ba	-0.13556948
233	0xbc7818c8	-0.015142627
234	0xbded4bef	-0.11586749
235	0xbda60793	-0.081069134
236	0xbbd39ec8	-0.006458137
237	0x3e0114e2	0.12605622
238	0xbd4e750b	-0.05040459
239	0x3d92884e	0.07154904
240	0xbe031e7c	-0.12804598
241	0xbd099f61	-0.03359926
242	0x3d9bae6c	0.07601628
243	0xbd6e7a0a	-0.058221854
244	0x3dc68444	0.096931964
245	0xbe17c510	-0.14821267
246	0xbc61833f	-0.013764202
247	0xbdc8f0fb	-0.098115884
248	0x3e04f207	0.12982951
249	0xbd313854	-0.04326661
250	0xbe066870	-0.13125777
251	0x3cf28b54	0.029607452
252	0xbdb8e670	-0.090283275
253	0xbd79bf14	-0.060973242
254	0x3e03dad2	0.12876442
255	0x3d9b4eba	0.07583375

fc1.bias f4 [256]
0	0xbe0ffbcf	-0.14060901
1	0xbd3f2559	-0.046666477
2	0x3c1c0869	0.0095234895
3	0x3cac1c1c	0.021009497
4	0xbda63696	-0.0811588
5	0xbd9fb594	-0.07798305
6	0xbc5b8b94	-0.013399977
7	0xbc25695c	-0.01009592
8	0xbe2eeb14	-0.17081863
9	0xbd75208d	-0.059845496
10	0x3b97d435	0.0046334513
11	0xbdf08bdc	-0.11745426
12	0xbd3f3c81	-0.04668856
13	0x3be46da3	0.0069710775
14	0x3c6bfb68	0.014403202
15	0xbd800ce8	-0.06252462
16	0xbd8fde38	-0.07024807
17	0xbe02da07	-0.12778483
18	0xbd942cb1	-0.07235087
19	0xbddab209	-0.10678489
20	0xbdc22ff6	-0.09481804
21	0xbd92ec52	-0.07173981
22	0xbdf16a79	-0.11787886
23	0x3c968b97	0.018377108
24	0xbd6c61ce	-0.05771046
25	0xbdfef798	-0.124495685
26	0xbdd15338	-0.10220951
27	0xbd3bc920	-0.045846105
28	0x3c4d7d45	0.012542074
29	0xbbc0cd03	-0.0058838143
30	0xbdf078fe	-0.117418274
31	0x3cc2be18	0.023772284
32	0xbdff549b	-0.12467309
33	0x3b3a7cdd	0.0028455772
34	0xbd9830fa	-0.074312165
35	0xbe01086e	-0.12600872
36	0x3c1a3341	0.009411634
37	0xbdd9d949	-0.10637147
38	0xbdff2ad5	-0.124593414
39	0xbcc5ca93	-0.024144446
40	0xbdd8fdac	-0.10595259
41	0xbcf46e0e	-0.029837634
42	0xbe0404e8	-0.12892497
43	0xbd1e5070	-0.03865093
44	0xbc996b60	-0.018727958
45	0xbd6e50ab	-0.0581824
46	0x3bdd0443	0.006744893
47	0xbd42789b	-0.0474783
48	0xbd7caf48	-0.0616906
49	0xbe376a46	-0.17911634
50	0xbd12cb7a	-0.03583858
51	0xbdc73d73	-0.097285174
52	0xbd07038f	-0.032962378
53	0xbd0d0c8c	-0.034435794
54	0x3c5b1ad2	0.013373094
55	0xbddfcbe4	-0.10927561
56	0x3b01b7ee	0.0019793469
57	0xbc32d722	-0.0109155495
58	0xbc854a58	-0.016270801
59	0xbcf089ed	-0.029362643
60	0xbd8155d1	-0.06315196
61	0xbe1bbf63	-0.15209727
62	0xbe017027	-0.12640439
63	0xbd4641ca	-0.048402585
64	0xbcab4f8d	-0.020911956
65	0xbd72c73c	-0.059272036
66	0x3b880a26	0.0041516004
67	0xbdc1a68e	-0.09455596
68	0x3bf064f8	0.007336255
69	0xbcec0a1d	-0.028813416
70	0xbbb275fe	-0.0054461947
71	0xbcae7923	-0.021297997
72	0xbd1452bd	-0.036211718
73	0x3d27942a	0.040912785
74	0xba9c24e4	-0.001191285
75	0xbc39246d	-0.0113001885
76	0xbbda4958	-0.0066615753
77	0x3d034a3d	0.03205322
78	0xbd217a4e	-0.03942328
79	0xbe59ff73	-0.21288852
80	0x3af29b67	0.0018509448
81	0xbdf0a38f	-0.11749946
82	0x3cb0ad2c	0.02156695
83	0xbde80be3	-0.11330392
84	0xbe3da6e0	-0.18520689
85	0xbe03774a	-0.12838474
86	0xbe50efa9	-0.20403923
87	0x3d013737	0.031546798
88	0xbdf239bf	-0.118274204
89	0x3d1316fa	0.035910584
90	0x3b95ff70	0.0045775697
91	0xbe195506	-0.1497384
92	0xbbe94c7c	-0.0071197134
93	0xbe1f2bd6	-0.15544066
94	0xbdb333a8	-0.08750087
95	0xbd1e17df	-0.038596984
96	0xbcc6780f	-0.02422717
97	0xbe04f6c4	-0.12984759
98	0xbd467768	-0.04845372
99	0xbc77e4f3	-0.015130269
100	0xbddba318	-0.10724467
101	0xbd54c886	-0.051949047
102	0xbd469aad	-0.048487354
103	0xbd52f6d7	-0.051504936
104	0xbe2add47	-0.16685973
105	0xbe156ae6	-0.1459156
106	0xbdba41fd	-0.090946175
107	0xbd059291	-0.03261048
108	0xbe1885e8	-0.14894831
109	0xbdd36586	-0.103220984
110	0x3c90342c	0.017603002
111	0xbd95aba0	-0.073081255
112	0x3c688d92	0.014193909
113	0xbb8521c7	-0.0040628645
114	0xbc9de0c2	-0.019272212
115	0x3c9e90d4	0.019356169
116	0x3cc08f4d	0.023505831
117	0xbd25ccce	-0.04047852
118	0xbdff42d7	-0.124639206
119	0xbde70069	-0.11279375
120	0x3d5cadf3	0.05387683
121	0x3d9be0ce	0.076112375
122	0xbcbdbaa7	-0.023160292
123	0x3d0cfd80	0.034421444
124	0xbd3d418f	-0.0462051
125	0xbce029b6	-0.02736364
126	0x3b610c0d	0.0034339458
127	0x3bf8eb3d	0.007596402
128	0xbd69fe66	-0.05712738
129	0xbd919915	-0.07109276
130	0x3cfe68c9	0.031055825
131	0xbd4646ca	-0.048407353
132	0xbda2dafd	-0.07951925
133	0xbdad4b7e	-0.084616646
134	0xbd850b9d	-0.06496356
135	0xbd5c07ee	-0.0537185
136	0xbd2001b0	-0.03906411
137	0xbda8a5a8	-0.082347214
138	0xbe469750	-0.19393659
139	0xbde6140e	-0.11234294
140	0xbe2589fd	-0.1616592
141	0x3c75a8ee	0.014993889
142	0xbdc2edba	-0.09517999
143	0xbd81ccb7	-0.063378744
144	0xbe2118a9	-0.15732063
145	0xbc199453	-0.009373742
146	0xbe00687b	-0.12539856
147	0xbc96da9d	-0.01841479
148	0xbc35b02a	-0.011089364
149	0xbcc33051	-0.02382675
150	0xbc736e8c	-0.014857899
151	0x3d5d9ed0	0.054106534
152	0xbe239ed3	-0.15978555
153	0xbe0b51a9	-0.1360537
154	0xbd83a138	-0.064272344
155	0xbda1de92	-0.0790378
156	0xbc6c883a	-0.014436776
157	0xbd8164c8	-0.063180506
158	0xbdb9db13	-0.09074988
159	0xbe290db3	-0.16509132
160	0x3cb12132	0.021622274
161	0x3cc36585	0.02385212
162	0x3d4188a9	0.04724947
163	0xbcb8f370	-0.022577018
164	0x3c99fdef	0.018797843
165	0xbd9303a2	-0.07178427
166	0xbc26bad0	-0.0101763755
167	0xbe1217ba	-0.14266863
168	0xbe1500eb	-0.14551131
169	0xbcc615b3	-0.024180269
170	0x3cf2a19c	0.029618077
171	0xbddfd3c4	-0.10929063
172	0x3d3db1d8	0.046312183
173	0xbe1c3ba6	-0.15257129
174	0xbd6099ea	-0.054834284
175	0xbe23675e	-0.159574
176	0xbd68b835	-0.0568163
177	0xbe2c3453	-0.16816835
178	0xbd3c2e23	-0.045942437
179	0xbbca09b0	-0.0061657056
180	0xbe0d4b38	-0.13798225
181	0x3bbea199	0.005817604
182	0xbd00fdfd	-0.031492222
183	0xbe1d373d	-0.15353103
184	0xbd70c041	-0.058777098
185	0xbd30641e	-0.04306423
186	0xbe119913	-0.1421855
187	0xbe2425b0	-0.16030002
188	0xbc93c83d	-0.018039817
189	0xbe20c2cd	-0.1569931
190	0xbe891c9a	-0.26779634
191	0xbc116e8a	-0.008876452
192	0x3da57fab	0.08080991
193	0xbdc50b9e	-0.096213564
194	0xbe1723ba	-0.14759722
195	0x3d8016d9	0.06254358
196	0x3d015b8f	0.031581458
197	0xbdf018da	-0.1172349
198	0xbb9fc452	-0.004875698
199	0xbd4789eb	-0.048715513
200	0xbded021e	-0.115726694
201	0xbd8ef4a6	-0.06980257
202	0xbdcafb96	-0.099112675
203	0xbd3a7441	-0.045521025
204	0x3d1391f6	0.03602787
205	0xbd18c1fe	-0.03729438
206	0xbe1c20b2	-0.15246847
207	0x3daf85e1	0.08570457
208	0xbdcbc0d8	-0.099488914
209	0xbd43206c	-0.04763834
210	0xbd6c76fb	-0.057730656
211	0xbc575ef4	-0.013145197
212	0xbce7133b	-0.028207412
213	0xbd8e3948	-0.06944519
214	0xbdc832a5	-0.09775285
215	0xbe0725dd	-0.13198037
216	0xbdbecede	-0.093168005
217	0xbd917633	-0.07102623
218	0xbe052a9e	-0.13004538
219	0xbca0d979	-0.019634949
220	0xbc6fb171	-0.014629708
221	0xbca5c5d7	-0.020235939
222	0xbd160e19	-0.03663454
223	0xbd85ee79	-0.06539626
224	0xbe0d1280	-0.13776588
225	0xbe262450	-0.1622479
226	0xbd86d3fb	-0.06583401
227	0xbd69d7ca	-0.057090558
228	0xbcbd85eb	-0.023135146
229	0xbd29f34a	-0.041491784
230	0xbddd4c2a	-0.10805543
231	0xbd371579	-0.044698212
232	0xbd91a636	-0.0711178
233	0xbc802d2d	-0.015646541
234	0xbc55a76a	-0.013040403
235	0xbdc815af	-0.09769761
236	0xbcfd74f8	-0.030939564
237	0xbca87acc	-0.020566367
238	0x3c8a886e	0.016910758
239	0xbddb4e60	-0.10708308
240	0xbd864d75	-0.065577425
241	0xbd73b31f	-0.059496995
242	0xbe29b00f	-0.16571067
243	0xbde39ad9	-0.11113519
244	0xbd2ebb5e	-0.042659156
245	0xbdff9352	-0.12479271
246	0xbd369dc9	-0.04458407
247	0xbd2ded0b	-0.04246239
248	0xbd848c18	-0.06472033
249	0x3b88ab2f	0.0041707973
250	0xbd34da0b	-0.044153254
251	0xbe111d17	-0.14171253
252	0xbb409081	-0.0029383006
253	0xbe2421af	-0.16028474
254	0x3ba9e367	0.005184579
255	0xbb446149	-0.0029965213

fc2.weight f4 [5, 256]
0	0x3d2c89e6	0.042123698
1	0xbd6452ca	-0.055743016
2	0x3d694f6c	0.05696051
3	0x3ab62000	0.0013895035
4	0xbd1e1dca	-0.038602628
5	0x3d0f3280	0.03496027
6	0x3d4b050c	0.04956536
7	0x3cdace64	0.026709743
8	0x3c348b80	0.0110195875
9	0x3d201bd8	0.039089054
10	0xbc153b50	-0.0091083795
11	0x3bcfd7f0	0.0063428804
12	0x3cffb3f4	0.031213738
13	0x3c415000	0.011798859
14	0xbd2d3a64	-0.042292014
15	0x3bf749e0	0.0075466484
16	0x3b815d30	0.0039478764
17	0x3c564b48	0.013079472
18	0xbd7e4542	-0.06207777
19	0x3d61670c	0.055029914
20	0xbd3ac8e0	-0.045601726
21	0x3d3dc4d6	0.046330296
22	0xbd6345ec	-0.055486605
23	0xbd50d442	-0.050983675
24	0xbccbf0b4	-0.02489505
25	0xbba7cff0	-0.0051212236
26	0x3c9065f4	0.01762674
27	0xbcba94c4	-0.022776015
28	0x3d49130e	0.049090438
29	0xbd21a41c	-0.039463148
30	0xbcfec6f8	-0.031100735
31	0x3d4a96b4	0.049460128
32	0xbd0fd806	-0.035118125
33	0x3d06600c	0.03280644
34	0xbccb3230	-0.024804205
35	0x3d565eec	0.05233662
36	0xbd6501c6	-0.055909894
37	0xbcd843d8	-0.026399538
38	0x3d7d6dca	0.06187228
39	0xbd0c7e6a	-0.034300245
40	0x3c1d9168	0.009617187
41	0x3c6636b0	0.014051124
42	0x3d2c73b0	0.042102516
43	0xbd5528a4	-0.05204071
44	0xbb56d800	-0.0032782555
45	0x3bc9def0	0.0061606094
46	0x3d50bc7c	0.050961003
47	0xbd3b2c1e	-0.04569637
48	0x3d4e984e	0.050438218
49	0xbd383886	-0.04497578
50	0xbd072fb8	-0.033004493
51	0xbae8c600	-0.0017759204
52	0xbbd3be50	-0.006461896
53	0x3c9043a4	0.017610379
54	0xbd7b7b24	-0.061396733
55	0xbc5c9658	-0.013463579
56	0xbd55da2c	-0.052210018
57	0xbd5bc346	-0.053653024
58	0xbcabd308	-0.020974651
59	0xbd57e4be	-0.05270838
60	0xbcac0c24	-0.021001883
61	0x3c0d5778	0.008626811
62	0x3d0b18c0	0.03395915
63	0x3d378ed2	0.04481394
64	0x3cfe9110	0.03107503
65	0xbd249934	-0.04018517
66	0x3d3fc438	0.04681799
67	0x3d393304	0.045214668
68	0xb9450e00	-0.000187926
69	0x3c5271f0	0.012844548
70	0x3ceb5ec4	0.028731711
71	0xbc6a6680	-0.0143066645
72	0xbcf116c4	-0.0294298
73	0x3c4389f0	0.011934742
74	0xbd6e1396	-0.058124147
75	0xbd26504a	-0.040603913
76	0x3d7cbcd6	0.061703525
77	0x3d7145b2	0.058904357
78	0xbaff1780	-0.001946196
79	0x3d0f90a4	0.03505005
80	0xbd5baa68	-0.05362931
81	0x3cafabd0	0.021444231
82	0xbd58ac86	-0.052898906
83	0x3d476c84	0.048687473
84	0xbd1283c2	-0.035770185
85	0xbd1006f2	-0.035162874
86	0x3cdb38ac	0.026760422
87	0xbd76e32e	-0.06027525
88	0xbc3fb710	-0.01170136
89	0x3d549762	0.051902182
90	0x3c8fb168	0.017540649
91	0xbc55e7e8	-0.013055779
92	0x3ca84b34	0.020543672
93	0x3cdf9830	0.027294248
94	0xbc68eda8	-0.014216818
95	0xbca6e470	-0.0203726
96	0x3d359068	0.04432717
97	0x3c811620	0.01575762
98	0x3d612d20	0.054974675
99	0xbc675f78	-0.014121883
100	0x3d07e120	0.03317368
101	0xbc2064b0	-0.009789631
102	0x3d185c6a	0.037197508
103	0xbd0b6e48	-0.03404072
104	0x3d1e918c	0.038713023
105	0xbd5d93fe	-0.054096214
106	0x3c1bb418	0.009503387
107	0x3aff6180	0.0019484013
108	0x3d22657c	0.039647564
109	0x3c948668	0.018130496
110	0x3c7898b8	0.01517313
111	0xbc1f5770	-0.009725437
112	0xbd5364fe	-0.051609986
113	0xbd468056	-0.048462234
114	0xbd71c6a0	-0.059027314
115	0xbb46bce0	-0.003032498
116	0xbcacd968	-0.021099761
117	0xbce63244	-0.02810014
118	0xbc779d58	-0.015113197
119	0x3c81eba0	0.015859425
120	0xbc64a528	-0.013955392
121	0xbc7a3f90	-0.015273944
122	0xbcda71bc	-0.02666556
123	0x3d2692e2	0.040667422
124	0x3a073980	0.00051584095
125	0x3ce0dc38	0.027448758
126	0x3d608cbe	0.054821722
127	0xbcb676d4	-0.022273459
128	0xbb382660	-0.0028099045
129	0xbd416de0	-0.047223926
130	0x3d2ed418	0.042682737
131	0x3c2b6528	0.010461129
132	0xbd6e235a	-0.058139183
133	0x3d142be4	0.03617467
134	0x3bda97b0	0.0066709146
135	0xbd26bbd4	-0.04070647
136	0xbc5ba3b8	-0.013405733
137	0x3d153794	0.036429957
138	0x3cf742e8	0.03018327
139	0x3c7dcaf8	0.015490286
140	0x3cea74f4	0.02862022
141	0x3cc69068	0.02423878
142	0xbc723288	-0.014782555
143	0xbca9532c	-0.020669542
144	0xbd4132ec	-0.047167704
145	0xbd2cebe4	-0.04221715
146	0xbbe1c200	-0.0068895817
147	0xbcd3d1e0	-0.025856912
148	0xbd73dec6	-0.059538625
149	0xbd5b5ed6	-0.05355724
150	0xbcc34fb4	-0.023841716
151	0xbd4c837c	-0.04993008
152	0xbd649d12	-0.055813856
153	0x3d3ca010	0.046051085
154	0x3cb49aa4	0.022046395
155	0x3b912ec0	0.004430622
156	0x3bdc9b70	0.006732397
157	0x3c9a0380	0.018800497
158	0x3d2f4ac6	0.04279592
159	0x3b974ca0	0.0046172887
160	0x3caf4a14	0.021397628
161	0x3d7aa428	0.061191708
162	0x3d0a999a	0.033837892
163	0x3ce9dec0	0.028548598
164	0x3d182a54	0.037149742
165	0xbd449058	-0.04798922
166	0xbd37bd7e	-0.04485845
167	0xbcef5584	-0.029215582
168	0xbd4a36a0	-0.0493685
169	0xbc93dd08	-0.018049732
170	0x3d4ef424	0.0505258
171	0xba4d8180	-0.00078394264
172	0xbd308f72	-0.04310555
173	0xbd49480a	-0.049140967
174	0xbd02b044	-0.03190638
175	0x3d738440	0.059452295
176	0x3c79bb80	0.015242457
177	0xbd0fa950	-0.03507358
178	0x3c319968	0.010839798
179	0xbd4c14d6	-0.04982456
180	0x3d4a8544	0.0494435
181	0xbd481896	-0.048851572
182	0x3d7b8c34	0.061413005
183	0xbcdc6a88	-0.026906267
184	0x3d660e72	0.05616612
185	0xbd295bcc	-0.04134731
186	0xbb92eb90	-0.0044836476
187	0xbd252fc6	-0.040328763
188	0xbbcf0fa0	-0.0063190013
189	0xbceec87c	-0.029148333
190	0xbd1024fe	-0.03519153
191	0xbd32c8d4	-0.043648556
192	0x3d43c7a6	0.04779782
193	0x3d149e5a	0.03628383
194	0xbd6b0868	-0.057381064
195	0x3d4fd680	0.050741673
196	0x3d031292	0.032000132
197	0xbcacc940	-0.021092057
198	0x3c223dc8	0.009902425
199	0xbd73b6ae	-0.05950039
200	0x3d29e7b8	0.04148075
201	0xbcdf00d8	-0.027222082
202	0x3ca239b4	0.019802906
203	0x3d1d0fcc	0.038345143
204	0xbd6b234c	-0.05740671
205	0x3d23cbbc	0.039989218
206	0xbd1e4fc6	-0.038650297
207	0x3b0b4080	0.0021248162
208	0x3d20ff5e	0.039306037
209	0x3d18af98	0.037276834
210	0x3b83ee50	0.004026212
211	0x3d4a18dc	0.049340114
212	0xbd387c9e	-0.04504072
213	0xbcecd674	-0.028910853
214	0x3c6fb968	0.014631607
215	0x3d0a3782	0.033744343
216	0x3d2adf94	0.041717127
217	0xbd6ce556	-0.0578359
218	0x3d4089f6	0.04700657
219	0x3d6d2f26	0.057906292
220	0xbd5bcdf0	-0.053663194
221	0x3d49eac8	0.04929617
222	0x3d6774ac	0.05650775
223	0xbc517358	-0.012783848
224	0x3bf6c020	0.0075302273
225	0xbd603fec	-0.05474846
226	0xbd594274	-0.05304189
227	0xbd4321e2	-0.047639735
228	0xbb854150	-0.0040666237
229	0xbd26a604	-0.04068567
230	0xbd6e3c10	-0.05816275
231	0x3d5b4870	0.05353588
232	0x3cf154d8	0.029459402
233	0x3c82b33c	0.015954606
234	0xbd1beef2	-0.038069673
235	0x3d516dc4	0.05113007
236	0x3ce92ed0	0.028464705
237	0xbd1cfda2	-0.03832782
238	0xbd70df20	-0.05880654
239	0xbcf75180	-0.03019023
240	0xbc62bc78	-0.01383888
241	0x3d7951d0	0.060869038
242	0x3ce3b674	0.027796961
243	0x3b691820	0.0035567358
244	0xbd6324ee	-0.05545514
245	0x3d5522a0	0.052034974
246	0xbc171c70	-0.009223089
247	0xbc85e414	-0.016344108
248	0x3cc70ca4	0.02429802
249	0xbc93b500	-0.018030643
250	0x3d76948a	0.06020025
251	0xbd77b248	-0.060472757
252	0xbbb29140	-0.005449444
253	0x3d6ab93a	0.057305552
254	0xbcebd244	-0.028786786
255	0xbd13f08c	-0.036118075

fc2.bias f4 [5]
0	0xbca8710c	-0.020561717
1	0x3d484860	0.048897147
2	0xbd01f7d4	-0.031730488
3	0xbd52fc0a	-0.051509894
4	0x3de75106	0.11294751
