Models/Torch2/my_model31700.pth (torch_old, 60054 bytes, 8 tensors)

conv1.weight f4 [16, 2, 3, 3]
00000000: 25c0 793e f7eb debe 05f1 01be bc6f 3e3e
00000010: 51b7 4e3d 44e8 8dbe 3472 35be a01c a2be
00000020: ab51 e9bd a6d9 2bbe 2703 353f 45e0 273f
00000030: 8d83 72bd 9352 6bbe 7119 8d3d e300 a63d
00000040: 54fb 2e3c e51d 3f3c edba afbe 0522 c4be
00000050: 4c5b a6bd a988 383f cab4 9c3e 7349 053f
00000060: c0b0 1b3f 412c 4e3f 111c 2f3e aabc 313e
00000070: 52cf 17bf 2f3b 9d3e cb7e 063d d3d5 393e
00000080: d4b1 54bf d7b8 873d f869 843e fcbe 1bbf
00000090: 65b0 413f 5885 2f3f 18c4 173f e57e bfbe
000000a0: 30ec cfbe 4148 3ebe 1304 d33e c3c5 ca3e
000000b0: d615 b3bd 7aa8 8dbd 9151 a13e dfdf 26bf
000000c0: aabd 243e 5c0e ecbe 7536 4e3e f74c 133d
000000d0: 343f 0c3e 8668 02bf b5cc 623e 4b82 5bbe
000000e0: da86 babd 8a18 ec3e 890a 953e 9c18 babd
000000f0: f2c5 b3bc edb4 013f 2b13 003f 041d b8bd
00000100: 0563 c6bd 5097 013f d9ae d8bd c0df f43d
00000110: 08c5 e23e 0437 14be c0e8 6a3e 0a23 22be
00000120: 5eb6 2ebe 1aaf 25be e2bf 133f f381 2abe
00000130: bab8 ae3d 655a 3fbd e434 26be fab3 cc3e
00000140: f3d6 2fbd ed0c 983b 17df 91be 99ea 933e
00000150: f207 cd3c d611 b13d 5d90 16be aac9 ac3d
00000160: cc48 eb3b 9c89 90be 1f0e fa3e f87c 06be
00000170: 926c f5bd b0f3 443f 41b1 a03e 35b8 e33e
00000180: f5b4 5bbe 162a e83e 828a 6bbe 76bc e1be
00000190: 8236 e5be 894e ccbe 3779 14bd a4b5 39bf
000001a0: 1e70 2e3d 62ad 0dbe a685 1a3d 04e4 8bbd
000001b0: 1820 0b3e e638 abbd d065 02bd 541f b9bd
000001c0: ae5e ab3d 90a8 2abe eab9 f03d 1876 8d3e
000001d0: d620 fa3d 7c1e 163d 169b dbbd 9f5b d23d
000001e0: 9279 383e 0cee 703e 46a8 57be 86de bcbd
000001f0: 3a1b 40be ef20 1abe c59b 9dbd 7dc8 fa3d
00000200: 3c08 99bd 61db 26be a7f6 c23e 73b3 0abd
00000210: 7f28 2fbd 9e2d e5bd d080 ec3e a76d 87bd
00000220: 299f 8abe df22 3cbe b1e7 643d f3f5 5cbe
00000230: b9e1 cebe 15dd 98bd 70f6 26be b107 e0bd
00000240: 8de8 37bd eb81 343d 3353 c8bd 97bd 2fbe
00000250: 97cb d2bc f365 d2bd dcdc 1f3e 64ea 95be
00000260: 14d4 07be 8286 afbc 44bd 13be fd4f 1d3f
00000270: 7acf 843e cf9c ce3e 9d55 d33e aa2a 2a3d
00000280: 5ea2 e03e 84d2 05bd 916c 04bf fcc8 f13d
00000290: aaec 863d a6a4 da3e 1f06 83be 05ce 5e3e
000002a0: 5429 cdbe ab2c cb3e bda7 353e dbed 01be
000002b0: 1be8 9cbe ab0f 0d3f 39ac de3d 240a ae3d
000002c0: dc53 cfbe 628d 553d 592f 7cbd dec7 da3e
000002d0: ad1f ebbc ea91 c23d 360f 44bd bf68 1d3f
000002e0: 7105 44bc d7c4 6fbe 1565 143f 1538 1fbe
000002f0: bfd8 10be 16f2 0c3f 2e9b 06be 0567 96bd
00000300: c137 5f3e 3aa2 283f 1f83 c13e 87e1 c73d
00000310: 96dd 223f 45c4 a13e f46b 623e f290 5d3d
00000320: 39f1 3c3e c84f 953e 6c9a aebe 5f92 e13e
00000330: 8073 82be 5347 3e3e c1e1 e63c 6589 833e
00000340: 4302 0e3f e5aa 15bd e6a1 acbd 6e11 6f3e
00000350: 5cd3 183f a43a dd3d ac47 01be 32d4 ac3d
00000360: 9cd4 6cbe ee05 02be 4fa0 c83c ec4b b23e
00000370: bfbf f73d 4b05 34be b221 da3e fae6 973e
00000380: c895 063e c0a8 cbbd c687 94bd b823 05be
00000390: be79 11be 0645 13be 6fa1 253f ceb1 53be
000003a0: eedb 7abd 105c 953e aa38 b4bd 0793 eebd
000003b0: 7943 f9bd 4bd6 b8be a0f0 453f 8cf9 b93e
000003c0: 4875 553f 89d1 18bf 136d cf3e 4271 c4bd
000003d0: 7266 f9bd c511 85be 5adc 183e 735a d0bd
000003e0: da79 4cbf dd08 f93d 21c3 bb3e ab5b 153f
000003f0: 845b 58bd 7c55 64be e667 b73d e8b7 8fbd
0.24389704 -0.43539402 -0.12689598 0.18597311 0.050467793 -0.27716267 -0.17719346 -0.31662464
-0.1139253 -0.16782245 0.70707935 0.65576583 -0.059207488 -0.22980718 0.06889618 0.08105638
0.0106800385 0.011664842 -0.343223 -0.38307205 -0.08122882 0.72083527 0.3060668 0.520652
0.60816574 0.80536276 0.1710055 0.17357126 -0.5930072 0.30709216 0.032835763 0.18147974
-0.83083844 0.06627052 0.25862098 -0.60838294 0.7565978 0.6856284 0.5928359 -0.374015
-0.40609884 -0.1858225 0.41214046 0.39604005 -0.08744399 -0.069169 0.31507543 -0.6518535
0.16087976 -0.46104705 0.20137961 0.03596207 0.13695985 -0.5094074 0.22148402 -0.21436422
-0.09107752 0.46112472 0.291096 -0.09086725 -0.021944974 0.50666696 0.5002925 -0.08989909
-0.09686855 0.5062151 -0.105802245 0.119567394 0.44290948 -0.14474112 0.2294035 -0.15833679
-0.17061755 -0.16180077 0.57714665 -0.16651134 0.085313275 -0.046717066 -0.16231114 0.3998106
-0.0429296 0.0046402127 -0.28490517 0.2888992 0.025028203 0.0864598 -0.14703508 0.08436902
0.007180309 -0.28229988 0.488389 -0.1313361 -0.11983599 0.7693434 0.31385234 0.44476476
-0.21455748 0.4534461 -0.23002055 -0.44089097 -0.4476815 -0.39903668 -0.036248412 -0.72542787
0.042587392 -0.13835672 0.037725113 -0.068306 0.13586462 -0.08360462 -0.031835377 -0.090391785
0.08367668 -0.16665864 0.1175421 0.2762916 0.12213294 0.036650166 -0.1072294 0.102713816
0.18015125 0.23528308 -0.21060285 -0.092221305 -0.18760386 -0.15051626 -0.07695726 0.12245271
-0.07472274 -0.16294624 0.38078806 -0.033862542 -0.04276323 -0.111903414 0.46192026 -0.066127114
-0.27074555 -0.18372677 0.05588502 -0.21578197 -0.40406588 -0.07464043 -0.16304946 -0.10938967
-0.044899512 0.044069212 -0.09781494 -0.17162167 -0.025731845 -0.102733515 0.15611595 -0.29280388
-0.13264495 -0.021426443 -0.14427668 0.6145018 0.25939542 0.4035401 0.41276255 0.041544594
0.43873876 -0.032671466 -0.5172816 0.11805913 0.06588109 0.42703742 -0.25590608 0.21758278
-0.40070593 0.39682516 0.17739768 -0.12688391 -0.30645832 0.5510203 0.108726926 0.08498028
-0.40493667 0.052136786 -0.06156859 0.42730612 -0.028701628 0.09500487 -0.04786607 0.61487955
-0.011964188 -0.23414932 0.5796674 -0.15548737 -0.14145182 0.55056894 -0.13145134 -0.07343868
0.21798612 0.6587254 0.3779535 0.09759813 0.63619363 0.31595054 0.22111493 0.05409331
0.18451394 0.2916243 -0.3410219 0.44056985 -0.25478745 0.18581896 0.02818382 0.2569076
0.554722 -0.03653993 -0.08429317 0.23346493 0.5969751 0.108022004 -0.12624997 0.084389105
-0.23127979 -0.12697574 0.024490504 0.3482355 0.120971195 -0.17580144 0.42603832 0.2966841
0.13143075 -0.09944296 -0.07252459 -0.13001907 -0.14206597 -0.14381799 0.64699453 -0.20673296
-0.061244898 0.291718 -0.0879987 -0.11649137 -0.121710725 -0.36100993 0.7732029 0.36323202
0.8338208 -0.59694725 0.40512905 -0.09591915 -0.12177743 -0.2599012 0.14927807 -0.10173502
-0.7987343 0.12159894 0.3667231 0.58343 -0.05282165 -0.22298235 0.08955364 -0.07017499

conv1.bias f4 [16]
00000000: 4035 5dbe 3ab6 e8bd 894f d8bd a22b d9be
00000010: 9170 10be 4c14 7cbe 01f0 8ebe 769d 383d
00000020: ea33 50be 4a88 34be f1aa 2dbf 3e52 95be
00000030: 72a7 c1be ae8e 69bc 82cd 3cbe 009b 11bf
-0.21602345 -0.11362882 -0.10562045 -0.42416102 -0.1410544 -0.24617118 -0.27917483 0.04507204
-0.20332304 -0.17630115 -0.6783896 -0.29164308 -0.37823063 -0.014255209 -0.1843777 -0.56877136

conv2.weight f4 [32, 16, 3, 3]
00000000: f926 be3e 6d18 47be 2b25 7a3e 4e83 b53e
00000010: a163 52bd e829 a43e a29a a9bb f648 d63c
00000020: 3357 f13d a218 0b3e 49fc f4be 4579 9bbd
00000030: 607a c5bd 9ab8 9b3d afe0 93be b0c8 273f
00000040: 5141 b5bd 6cf2 013f 221d 133f aa00 0fbe
00000050: 8013 8a3e e7cd 963e 9c77 40be 0837 e6bd
00000060: dde2 e03d 961f febe 867d 403d e543 69bd
00000070: 7041 f63d 01d8 913d 5104 e23d b06c 563c
00000080: b5f7 483d 28ae 0b3e b08b a0bc 5e6c 8d3d
00000090: 1c22 d13d 8341 15be 934c 813e 0b17 003e
000000a0: 9ea0 54bd 8ecf debd f13f bebd dc55 45bd
000000b0: 463b 213d 60b1 b1be 2790 923d df3f 15bf
000000c0: 7db6 22bf 2ee2 83be beb9 5dbe 4939 08be
000000d0: a9aa 183d bdb5 d1be fbd4 82bd 7ec6 b03b
000000e0: 3f0f c73d 293b c6bd 0932 2dbb 2283 8dbc
000000f0: bdf6 adbc 3607 a93d edac 943b 3f03 a8bc
00000100: c4e2 b7bd d520 a3bc fb45 973d 56f2 21bd
00000110: 0443 8cbc f030 d53d a60d 54be 7321 d23d
00000120: 478c be3c 9889 4a3e 823e 80be 0794 003e
00000130: ab16 823d a434 2b3e 227b 753e 3522 d9ba
00000140: 70be 323e 0b3e 993d c6dd dbbd ee33 49be
00000150: a2ef 83bd 24f0 5b3e 427e 95be 88f2 c43d
00000160: 8dfa 29bd 5e1f 3fbe bcab c63e 6951 37be
00000170: 1622 5f3d 7736 c43e 64f7 47be d207 f5bc
00000180: 0e5c 003f 7a45 18be e8e2 da3e 8fb7 7d3e
00000190: 2070 2fbd a4a0 8c3d 2253 253e a1a4 c53d
000001a0: 6b2c bdbd 6442 423e 57b2 19be d99f a83d
000001b0: 1a17 10be 0182 003e d9ee 77bd 0883 343d
000001c0: 08b3 193d bbc0 2bbd 23ec aabc 07a4 123e
000001d0: b181 b8bd 0c57 b7bc 3bc0 35be 2d84 c9be
000001e0: 77b2 093e d8bf b4bd 5fa8 893e dd25 093f
000001f0: bf43 95bd 4ee6 b53e 0123 e1bd 44ac 91bd
00000200: 1fb4 0cbe b2b4 17be a540 f83d fb83 43be
00000210: 3660 84bd 4a6b cb3d a0a4 ffbd 74d8 a83e
00000220: 980c 0cbf eb10 a03e 3164 bb3e 52ac 8bbe
00000230: 24c6 ef3e 901b 833e 5b6a d6bd 65b9 ee3d
00000240: 9aec 0a3e a952 40bd be18 d03d 68a3 4c3e
00000250: b25c 5bbe 7cfe 5f3e bb03 20bd 0979 8fbc
00000260: ae3d ed3d 0002 b73e 73f7 01be 1a63 c03e
00000270: bb9f 31be 2ac3 83bd 84ac d83d df16 633e
00000280: 97e8 0fbe 8bf1 4a3e bdaa f23d 20d3 57be
00000290: 910b 143e 3dea ff3e 1612 dfbc 9a16 bd3e
000002a0: 3e0e a73d 94a9 92be 7bd8 103e b9f2 9e3c
000002b0: dd28 29bd 8e81 edbd 1870 65bd eeb4 99bc
000002c0: 139d 0d3d 570b 203d 2ee1 0d3a 22fd 7b3d
000002d0: 0250 3b3e f42d 67be ac8e fe3c b423 1b3e
000002e0: f613 e0bd 512d 283e 6578 23bd 2fe1 bbbd
000002f0: 183d e9bc fd5a 323e a65f 2d3e 96a2 623d
00000300: 5215 be3d 39c1 cc3d d0a8 69bd 6257 923d
00000310: ddea 0e3e cf19 9d3c 7d54 7f3c ce0b c9bb
00000320: df07 c33d 904d 593c eb28 13bc a8b2 123d
00000330: 21e3 74bd 1f1c 463d 4549 11bd aacf 763e
00000340: 841c 2dbe 53f4 703e 4455 503e c44f 603d
00000350: 116a 243c a2c9 503e 0f1b 60bd 9bc8 613d
00000360: 3623 66bd aab8 0c3e 23de 6abd 6353 1ebd
00000370: c889 7a3d e1d6 c6bd 0625 353e 0e0f 233e
00000380: dfcc dc3c db4f c73d 886d 2f3e 1109 963c
00000390: 28fe bebd 1f8b 613d e0f2 8d3c 01cb 6f3c
000003a0: aa50 113e 8f2d 0ebe 1a11 3a3e 5fd2 b3bd
000003b0: 9710 643d 264e 073e cca2 80bd ccdf 343a
000003c0: 87a6 663e c394 89bd 12e7 b63e f982 613e
000003d0: fa66 053c c457 873e df45 b43d 4f57 7d3c
000003e0: 2a70 263d d22e 363e 48fe debd b690 343e
000003f0: e0f5 633c c0e4 f03d 5282 19be 4179 a5bd
0.3713911 -0.19442911 0.24428241 0.3545174 -0.051364545 0.32063222 -0.0051759044 0.026157837
0.1178421 0.13583615 -0.47848728 -0.0759149 -0.09642482 0.07603569 -0.28882357 0.655406
-0.08850349 0.5076053 0.5746633 -0.13965097 0.26968002 0.29453966 -0.18795627 -0.11240965
0.10980771 -0.49633473 0.04699471 -0.056949515 0.120242 0.071212776 0.110359795 0.013087437
0.049064357 0.13640654 -0.019597858 0.06905435 0.10211584 -0.14575772 0.25253734 0.1250879
-0.05191099 -0.10879432 -0.092895396 -0.048177585 0.03936317 -0.3470564 0.07156401 -0.58300585
-0.63559705 -0.257585 -0.21652886 -0.13303103 0.03727213 -0.40958968 -0.06388279 0.005394756
0.09719705 -0.09679253 -0.0026427528 -0.017274443 -0.021235818 0.082533285 0.004537216 -0.02050936
-0.08978799 -0.019913116 0.073863946 -0.03953775 -0.0171218 0.10409725 -0.20708331 0.10260286
0.023260249 0.1977905 -0.2504769 0.12556468 0.0635198 0.167193 0.23972753 -0.0016565981
0.17455459 0.07482537 -0.10735659 -0.19648716 -0.06442191 0.21478325 -0.2919789 0.09616572
-0.04149871 -0.1866431 0.38802898 -0.1790215 0.054475866 0.38322803 -0.19527966 -0.029910956
0.50140464 -0.14870253 0.4275124 0.24777053 -0.04283154 0.06866577 0.16144994 0.09650541
-0.09236988 0.18970639 -0.15009438 0.082336135 -0.14071313 0.12549593 -0.060530517 0.044070274
0.037524253 -0.04193185 -0.020864552 0.14320384 -0.09009112 -0.022380374 -0.17749111 -0.39358655
0.13446985 -0.08825654 0.2688627 0.535734 -0.07288312 0.3552727 -0.109930046 -0.07112935
-0.13740586 -0.14815024 0.12121705 -0.19093315 -0.06463663 0.09932573 -0.124825716 0.3297764
-0.54706717 0.31262907 0.36599877 -0.27279907 0.46830857 0.25606966 -0.104695044 0.11656455
0.13566819 -0.04695383 0.10160969 0.1998421 -0.21422079 0.21874422 -0.039066058 -0.017513769
0.1158403 0.35743713 -0.1269205 0.37575608 -0.17346089 -0.06433709 0.1057978 0.22176693
-0.1405357 0.19818704 0.11848972 -0.21076632 0.14457537 0.49983397 -0.027230304 0.36931306
0.08157013 -0.28645003 0.14145081 0.019402849 -0.041298736 -0.11596976 -0.056015104 -0.018763032
0.034573626 0.039073315 0.00054122775 0.061520703 0.1829224 -0.22576123 0.03107389 0.15150338
-0.10941307 0.16423537 -0.03990974 -0.0917381 -0.028471515 0.17417522 0.16931018 0.055330835
0.0928141 0.09997792 -0.057045758 0.07145573 0.1395678 0.019177346 0.015584108 -0.0061354404
0.09522986 0.013263121 -0.008981924 0.03581491 -0.05978692 0.048366662 -0.035470266 0.24102655
-0.16905409 0.23530702 0.20345026 0.05476357 0.010035054 0.20389417 -0.054713305 0.055122953
-0.056185924 0.13742319 -0.057340752 -0.038653743 0.061166555 -0.09708954 0.17689905 0.15923712
0.026953159 0.09732028 0.17131627 0.01831487 -0.0932582 0.055064317 0.017327726 0.014635802
0.14190927 -0.13884567 0.18170586 -0.087803595 0.055679884 0.13213405 -0.06281051 0.00068998034
0.22524463 -0.06717827 0.35723168 0.22022618 0.008142227 0.26434147 0.08802389 0.0154627105
0.04063431 0.17791298 -0.10888344 0.17633328 0.013913602 0.117623806 -0.1499112 -0.08079768

conv2.bias f4 [32]
00000000: 3235 d03e 1e41 433e aa8d 8abd 1979 17be
00000010: 7faf cfbd 3460 493e 0351 8dbd 9766 3c3e
00000020: e3b1 08be 482d c03c ee41 483d fa5b f6bc
00000030: b938 1fbd 8540 073e ca3f ffbc 2f8f dabd
00000040: 232b 52bb cb9d 2a3e 58a3 073e 1a06 23be
00000050: 3fc0 823d 171c 343d 935a fcbd 8142 34be
00000060: a28c be3c 52ce 1cbe b105 64bd e236 74bc
00000070: e7a7 a2bd 9fc6 9fbd 6ddb 82bd 4ae0 cfbd
0.40665585 0.19067809 -0.067653015 -0.14792289 -0.10140895 0.19665605 -0.069002174 0.1839851
-0.13349108 0.023459092 0.048891 -0.030073155 -0.038872454 0.13208206 -0.031158347 -0.10671841
-0.0032069169 0.16661756 0.13245904 -0.15920296 0.06384324 0.0439721 -0.12321963 -0.17603494
0.023260418 -0.1531308 -0.05566949 -0.014905663 -0.07942181 -0.07801556 -0.063895084 -0.101502016

fc1.weight f4 [256, 32]
00000000: e5f8 f93c ac0e 8c3d 1746 20be d31b cfbb
00000010: df33 703c 99a5 9c3c 1683 7e3d 3666 b3bd
00000020: adf3 413d 8abc 42be 5df8 f0bc 53a1 df3d
00000030: ef57 d63d 7e66 1dbe 635b d4bd 83ac b73d
00000040: 8d62 a0bd df11 033e 53b0 8e3d 28fd a1bd
00000050: 35c1 3fbd 2cfb 05bd 221b ab3d 4aad 47bd
00000060: 99cd d4bd 2461 cdbc c1a4 ac3d 3661 a0bd
00000070: b347 28be 1b2b a83b 09ab fdbd b79c d13c
00000080: a315 c93d 4c70 42be bc19 0fbe a333 79bd
00000090: 24f8 703d 14da cd3d 0342 ecbd 7cd7 f0bd
000000a0: e5c1 61bd e1cd 033e 82cd 15be 9cf7 d83d
000000b0: 24d7 e6bd 1679 ad3d 2b49 ca3d 9660 083e
000000c0: e3e7 60bc d3df c33d b1aa f4bd ea98 6dbd
000000d0: e390 b3bd d8b1 873d dde3 dfbd 69b2 98bd
000000e0: 4450 94bd b6fc 973d 930a be3d 30c2 5e3d
000000f0: dc14 ea3d fdb9 c93d 51f1 153d 9f68 9abd
00000100: cab1 d0bd d969 debd ba43 7bbe bd50 a33c
00000110: 6a7d 423e 429b 86bb fa59 87bd f317 0a3e
00000120: 1cc3 e43d 8730 4c3e c0e3 893e 20d8 e53d
00000130: 1438 d5bd 7a07 42be 919e 5ebe da5b 2dbd
00000140: ed6a 2fbe 2f68 6c3c b23e 133e 7220 163e
00000150: afb5 1c3e 3406 82bd 7b01 1abc 8b66 273d
00000160: 68ca 453d 9c2c d83c 0657 3fbc 62ef 5b3e
00000170: 24c4 15bd d9e2 8abe 1ee4 cbbd d4f0 7dbc
00000180: 435b 0dbe 1070 10be 4466 d83b 0785 28be
00000190: 3d3f 273e e1ee 09be ff88 0f3d 312f 2cbe
000001a0: 0273 18be 4c46 a03d 64a1 993d 71c8 bfbd
000001b0: d3b8 c93d 0090 13be 54b7 14be 6aa9 f7bd
000001c0: 6be8 2ebd aa64 ab3d 1111 3c3b 4054 f73d
000001d0: 7c35 a93d 0a67 81bd 67d1 3fbd 5be5 bfbd
000001e0: a928 21bd 461e 3abe a334 1ebe bdbb 1bbc
000001f0: 07f8 7cbd 8f22 cd3d ad62 cebd 2e3c fa3c
00000200: 7458 7ebb a32a 1ebd 8769 113e ef9a d9bd
00000210: dd8a 0abe b81f 53be cfe3 1bbe f340 aa3d
00000220: 3a91 13bb f20d 3e3d aec3 bc3d a14b 9d3d
00000230: 504e bc3d b33d 883c 6f62 31be d21e fe3c
00000240: e11a 3bbe bd34 a93c 10d2 28be 6c73 8e3d
00000250: 83f5 15be b079 8c3d 0b61 23be b6d2 a5bb
00000260: f6fe f2bd b95d c7bd b058 cd3d 9336 fe3d
00000270: 6f3f 183e dce0 9dbd bd65 35be cfa0 023c
00000280: 8966 2fbe b426 a03d b211 d0bd 9c9a e33b
00000290: 8c5d 29bc 8525 1cbd b6ee be3d c64e 4c3c
000002a0: 112a 5ebd ac64 c0bc f82a 553e e131 1fbe
000002b0: 01d7 febd 1521 203e f7ee bc3d 57d4 82bc
000002c0: 475b 0cbe e953 29bd 77a8 053d 3b6f 2a3d
000002d0: 96f3 b53d 4a95 3fbe f2b9 d03d 24c3 f2b9
000002e0: 7ea7 873d eb55 143d 167e 5e3d 7e1c 15be
000002f0: a4fe 16bb 6639 fbbc 7bc7 9d3c cfef b2bd
00000300: a4ad f2bc 1d72 f6bd 87b0 d1bd 035a 133e
00000310: feb7 fdbd a27c 143d b3c9 c83d 89ff 72bc
00000320: 2a47 fa3b a533 353d 07fa c23d 7a8e 3dbe
00000330: 12ad 0b3d cede 753d a719 f1bd 0b83 4e3d
00000340: 737f 273c e7a1 be3d 0107 6fbd 6064 dbbd
00000350: 36fc 333d fc60 94bd 37a9 193e a6bd 0fbd
00000360: a4b0 1ebe 0fbd 933d 718a 243e 873f 133e
00000370: 5662 c23d 3e49 e8bc 4fff b0bd 2387 47be
00000380: dbd1 403d 0ab9 013d 975f b6bd cd24 5fbe
00000390: a91d 983d 998d e3bc c43d 4e3d 0930 273e
000003a0: 2538 34be 1c45 48bd debd b3bd 6d68 a1bd
000003b0: c070 a5bc 3031 373e 738a c5bd 415b 373d
000003c0: a8ad aebd da1c fabd 0050 503c 0394 bbbd
000003d0: ef03 413d 53ab 46be 9368 39bd cf1b e8bd
000003e0: 705b 9f3d 1461 a0bd 771a 22be 91ec 3f3d
000003f0: f349 b2bd 38a8 adbd a2ee 103e 2a05 983d
0.03051419 0.06838736 -0.15651737 -0.0063204556 0.0146608045 0.019121932 0.062136732 -0.087597296
0.047351528 -0.19017234 -0.029415304 0.10919442 0.10465991 -0.15371129 -0.10368993 0.08968451
-0.07831297 0.12799786 0.06967225 -0.07909614 -0.046815116 -0.03271024 0.083547845 -0.048749246
-0.10390777 -0.025070734 0.08429862 -0.078310415 -0.16433601 0.0051320917 -0.12386138 0.025587423
0.0981858 -0.1898815 -0.1397466 -0.06084026 0.058830395 0.10051361 -0.11536028 -0.117598504
-0.055116553 0.12871505 -0.14629176 0.10594103 -0.112715036 0.08470361 0.09877237 0.13318095
-0.013727161 0.095641755 -0.11946619 -0.05800716 -0.08767869 0.06625718 -0.10932133 -0.07455904
-0.07241872 0.07421248 0.092793606 0.05438441 0.1142976 0.098499276 0.03660709 -0.07539486
-0.101901606 -0.108600326 -0.24537554 0.01993596 0.18993154 -0.0041078636 -0.066089585 0.13485698
0.11170027 0.19940387 0.26931572 0.11222863 -0.10411087 -0.18948165 -0.21740176 -0.042323925
-0.17130633 0.014429136 0.14379385 0.14660814 0.15303682 -0.063488394 -0.009399767 0.040869277
0.048288733 0.026388459 -0.011678463 0.21478036 -0.036564007 -0.27126196 -0.09955619 -0.015499312
-0.13804345 -0.14105248 0.006603988 -0.16456996 0.16332717 -0.13470031 0.03504276 -0.16814877
-0.14887622 0.07825908 0.07501486 -0.09364403 0.098497055 -0.144104 -0.14523059 -0.1209286
-0.04270212 0.083688095 0.0028696696 0.12076616 0.082621545 -0.06318481 -0.04683056 -0.09369918
-0.039345417 -0.18175611 -0.15449767 -0.0095052095 -0.061759975 0.10016357 -0.10077415 0.030546274
-0.0038810046 -0.03861488 0.14200412 -0.10625254 -0.13529535 -0.20617568 -0.15223621 0.08313169
-0.0022516982 0.046400018 0.092170104 0.07680441 0.091946244 0.016630983 -0.17322706 0.031020556
-0.18271972 0.02065503 -0.16486382 0.06955609 -0.14644437 0.068591475 -0.15954988 -0.005060519
-0.11865036 -0.09734673 0.100266814 0.12412753 0.14867948 -0.07708904 -0.17714591 0.00797291
-0.17128958 0.07819882 -0.10159625 0.006945921 -0.010337245 -0.03812172 0.09322874 0.012469953
-0.054239336 -0.023485504 0.20817173 -0.15546371 -0.124433525 0.1563762 0.092252664 -0.015970392
-0.13706695 -0.04133979 0.032631364 0.041609984 0.08884351 -0.18709293 0.10191716 -0.00046303228
0.066237435 0.03621475 0.054319464 -0.1456165 -0.0023039961 -0.030667018 0.019260159 -0.08737146
-0.029623814 -0.12033484 -0.10238748 0.14389805 -0.12388609 0.03625167 0.09804096 -0.014831432
0.007637878 0.044238705 0.09520345 -0.18511382 0.0341006 0.060026936 -0.11772471 0.05041794
0.010223257 0.09308224 -0.05835629 -0.107125044 0.0439417 -0.07245061 0.15005957 -0.035092972
-0.1549707 0.072137944 0.16068436 0.14379703 0.09491412 -0.028355237 -0.08642446 -0.19485144
0.047075134 0.031670608 -0.08904951 -0.21791382 0.07427532 -0.02777748 0.050351873 0.16326918
-0.17599542 -0.048894033 -0.08776449 -0.07881246 -0.020195365 0.17889857 -0.09645548 0.04476476
-0.08529216 -0.12212534 0.012714386 -0.0915909 0.047122892 -0.19401293 -0.045265745 -0.11333429
0.07781112 -0.07831016 -0.15830408 0.046856467 -0.08705511 -0.08479351 0.14153531 0.0742286

fc1.bias f4 [256]
00000000: ba78 13be 6972 16be 9875 28bd eb5d ffbb
00000010: 9755 06be 8b08 03be 3714 8bbd eec5 bdbd
00000020: 5c60 2fbe c6a6 16be 9ea1 52bd d4f7 1bbe
00000030: 34d0 33bd b70b f1bc 8e67 0cbe b74f ebbd
00000040: 55a9 14be 3242 0abe 0111 08be 4e40 fcbd
00000050: 60d0 b8bd 4099 08be 259c 35be 4d5c 363c
00000060: e39d 56bd 7263 4bbe 26d9 07be 6d28 59bd
00000070: 9508 d2bc ec58 92bd 24de 82be 0aea a9bc
00000080: c33e 2bbe c825 34bd d29b 04be 8b42 04be
00000090: 5a8b 403c c0ac 32be c507 0bbd e214 06be
000000a0: ca10 86bd 336e 3fbe 7172 fabd 1571 82bd
000000b0: 438a 6bbd 7187 f6bd cd20 bc3d 0bac ecbd
000000c0: d9b7 d5bd 806e 3ebe bf70 acbd adb5 02be
000000d0: e447 3bbd 252b 0abe 26fb bdbd f9eb 0cbe
000000e0: db43 61bd d602 a8bd eae8 75bd a846 6dbd
000000f0: db80 f9bd 9dc0 e0bd 5f22 5cbe 48b5 c4bd
00000100: e595 10be c1cd ab3a e679 03bc fe9f 21be
00000110: e4f5 49bd 7314 fabd 9404 fdbb 3741 f2bd
00000120: 97dc 84bb 6ba0 c7bd 34cc f9bd bc57 d3bc
00000130: 0214 d6bd b49c a7bc 6642 5fbd 5522 54be
00000140: 39cc 3cbd 9b7f 51be beea 9bbd 0d11 22be
00000150: b092 66be 816a bfbd 08af 89be d7a3 15bd
00000160: ea65 4bbe 2668 e8bb 5252 93bc c696 55be
00000170: c547 0dbc 4950 6fbe e8c4 20be bc8d debd
00000180: a8a7 f4bd 23e9 0bbe 1ff4 ebbd 4c68 acbc
00000190: 5995 e1bd ae7b 71bd 8af2 2cbd d4b9 81bd
000001a0: 73f1 2fbe 43a7 1bbe e714 1abe 9b31 c23d
000001b0: c31b 1cbe 4e45 2ebe 2fb9 debd fb13 5cbd
000001c0: 8148 e8bd aa32 b1bc 7bf9 6bbe 95fa 51bd
000001d0: d7c8 41bd 28dd a4bd bd75 0bbe 80d1 e6bd
000001e0: 6929 67bd 0e75 f6bd 7fb9 59bc 0d58 23bd
000001f0: 5bb9 61bd 2eee 80bd 59f3 0fbd a885 17be
00000200: d9e2 05be 84d0 2ebe fa5f 07be 7298 3abe
00000210: f730 15be 440d 19be ad18 e0bd 42f3 eebd
00000220: 3b36 01be 6087 20be 8b20 5abe a034 4cbe
00000230: a7a2 23be 2103 6d3d 1d42 c7bd 10d3 debd
00000240: 492f 23be a397 13be 4c3e 46be b5ba 9cbe
00000250: 0fb7 46bd c542 c6bd 21f9 5bbe 058f fdbb
00000260: 86a5 40be b1c7 10be c75b fabd 6daf 40be
00000270: 8b31 77be 67f8 82bd e0f0 f5bd 05e8 20be
00000280: 887b 13be d4ec 92bd 5a1b 2ebd 3621 8fbd
00000290: d7ce 42bb 6a72 26be c14a 15bd 2020 0fbe
000002a0: 5224 07be bc60 06be 9603 7abc e781 eebd
000002b0: 1852 2a3d 8d2f 29be 91de c4bd 2f02 2fbe
000002c0: 0232 c3bc 9997 2fbe 8eff ecbd 165c c9bc
000002d0: 3cbb 13be 0a9b 853d 2ff5 20bd 348f 44be
000002e0: 0c60 32be 0273 e6bd 7099 0cbe a682 33be
000002f0: 057a d7bc cfa1 76be 1ada 41be 66fc cfbd
00000300: b402 de3c 69b3 f1bd bac6 5abe 39d6 f8bc
00000310: d2a5 593c d7a4 19be 024e 8abd 4ce0 38be
00000320: 54aa 95bd df0f b1bd f8ef bbbd bff4 27be
00000330: 5083 46bd 35ec 7dbd 4cad 21be ac89 15bd
00000340: 8191 edbd e7f7 943d c68f 86bd a7cc d5bd
00000350: 2f3a a3bd 32bf 60be 6043 8ebd bf58 0bbe
00000360: 86c9 44bd 21e9 13be 53a4 22be e36e 9abd
00000370: 075d b03c 6c93 b8bc 9ad0 80bd d40b b1bd
00000380: 845f 22be 6fc4 23be c830 d53d 1095 d9bd
00000390: 4dbb e3bd aa48 07be 971d 3cbe 3c32 13be
000003a0: ae1f 12be de77 34be b4cf a1bc 175f f2bd
000003b0: b1d9 a6bd 4007 96bd bdef 10bd acaf 0dbe
000003c0: 046d a7bd bdb5 a8bd 0fb0 29be 9293 49be
000003d0: 9f10 8fbd 697b 16be 2462 19be 4560 99bd
000003e0: 8028 33be 6dc3 8ebd dfac 8cbd 3196 55be
000003f0: 42b9 d4bd 971b 18be e9ee 33be 7395 16be
-0.14401522 -0.14692082 -0.04112777 -0.0077931783 -0.13118587 -0.12796228 -0.06790965 -0.09266268
-0.17126602 -0.14712057 -0.05142366 -0.15231258 -0.04389973 -0.029424531 -0.13711378 -0.11489814
-0.1451772 -0.13501814 -0.13287736 -0.12316953 -0.090241194 -0.1333971 -0.17735346 0.011130405
-0.052396666 -0.19862154 -0.1326643 -0.05301707 -0.025638858 -0.07145867 -0.25560105 -0.020741481
-0.1672316 -0.043981344 -0.12950066 -0.12916009 0.011751974 -0.17448711 -0.033942956 -0.13093904
-0.06546171 -0.18694381 -0.12228859 -0.06369225 -0.057504904 -0.12037552 0.09185944 -0.11556252
-0.10435457 -0.1859684 -0.08419942 -0.12764616 -0.045722857 -0.13493021 -0.092764184 -0.13761891
-0.054996353 -0.08203666 -0.060036577 -0.05792871 -0.1218278 -0.10974238 -0.21497487 -0.09604889
-0.1411968 0.0013107584 -0.008024668 -0.15783688 -0.049306765 -0.12210932 -0.007721493 -0.11828845
-0.0040546167 -0.09747394 -0.12197152 -0.025798671 -0.10453035 -0.020460464 -0.05450668 -0.20716222
-0.0460932 -0.20458834 -0.07613133 -0.15826817 -0.22516894 -0.09346486 -0.2689135 -0.036533203
-0.19863096 -0.0070924936 -0.01798359 -0.20858297 -0.008623068 -0.2337047 -0.15700114 -0.108668774
-0.119460404 -0.13663153 -0.11521172 -0.021045826 -0.11014814 -0.05895584 -0.04222349 -0.06334272
-0.1718195 -0.15200524 -0.15047036 0.09482118 -0.15244965 -0.17018625 -0.10875165 -0.053729992
-0.11341954 -0.021630604 -0.23044388 -0.051264364 -0.047310676 -0.08049995 -0.13619132 -0.11270428
-0.056435976 -0.12034045 -0.013288855 -0.039878894 -0.05510841 -0.06295429 -0.035144184 -0.1479708
-0.13074817 -0.1707173 -0.13220206 -0.18222216 -0.1456946 -0.14946467 -0.109422065 -0.116674915
-0.12618344 -0.15676641 -0.21301477 -0.1994195 -0.15980016 0.057864312 -0.09729407 -0.10880101
-0.15936007 -0.14413314 -0.19359702 -0.30611196 -0.048514422 -0.09680704 -0.21481754 -0.0077379965
-0.18813142 -0.14138676 -0.122245364 -0.1881692 -0.24139993 -0.06395035 -0.12008834 -0.15713508
-0.14402592 -0.07174078 -0.042506553 -0.06988756 -0.0029725337 -0.16254583 -0.036448244 -0.13977098
-0.13197449 -0.13122839 -0.015259644 -0.11645871 0.041582197 -0.16522045 -0.09612764 -0.17090677
-0.023827557 -0.17147674 -0.11572181 -0.024580043 -0.14426893 0.06523712 -0.039296325 -0.19195253
-0.17419451 -0.11252405 -0.13730407 -0.17530307 -0.0263033 -0.24085163 -0.18930855 -0.10155563
0.027100898 -0.11801798 -0.2136487 -0.030375587 0.013284164 -0.15004288 -0.0675316 -0.18054312
-0.07307878 -0.08645605 -0.0917663 -0.16401957 -0.048465073 -0.061992843 -0.15788764 -0.036508247
-0.11600018 0.07273846 -0.06570391 -0.10439425 -0.07970082 -0.21947935 -0.069464445 -0.13608073
-0.04804375 -0.144444 -0.15882997 -0.07540681 0.021528734 -0.022531234 -0.062897876 -0.08644834
-0.15856749 -0.15992902 0.10409695 -0.106241345 -0.11119709 -0.13211313 -0.18370663 -0.14374632
-0.14269897 -0.1762385 -0.01975236 -0.11834543 -0.0814699 -0.073256016 -0.035384882 -0.13836545
-0.0817509 -0.08237789 -0.16571067 -0.196852 -0.06985592 -0.14695515 -0.14978844 -0.07489065
-0.17495918 -0.06970868 -0.0686891 -0.20858075 -0.103868976 -0.14854275 -0.17571606 -0.14705448

fc2.weight f4 [5, 256]
00000000: e689 2c3d ca52 64bd 6c4f 693d 0020 b63a
00000010: ca1d 1ebd 8032 0f3d 0c05 4b3d 64ce da3c
00000020: 808b 343c d81b 203d 503b 15bc f0d7 cf3b
00000030: f4b3 ff3c 0050 413c 643a 2dbd e049 f73b
00000040: 305d 813b 484b 563c 4245 7ebd 0c67 613d
00000050: e0c8 3abd d6c4 3d3d ec45 63bd 42d4 50bd
00000060: b4f0 cbbc f0cf a7bb f465 903c c494 babc
00000070: 0e13 493d 1ca4 21bd f8c6 febc b496 4a3d
00000080: 06d8 0fbd 0c60 063d 3032 cbbc ec5e 563d
00000090: c601 65bd d843 d8bc ca6d 7d3d 6a7e 0cbd
000000a0: 6891 1d3c b036 663c b073 2c3d a428 55bd
000000b0: 00d8 56bb f0de c93b 7cbc 503d 1e2c 3bbd
000000c0: 4e98 4e3d 8638 38bd b82f 07bd 00c6 e8ba
000000d0: 50be d3bb a443 903c 247b 7bbd 5896 5cbc
000000e0: 2cda 55bd 46c3 5bbd 08d3 abbc bee4 57bd
000000f0: 240c acbc 7857 0d3c c018 0b3d d28e 373d
00000100: 1091 fe3c 3499 24bd 38c4 3f3d 0433 393d
00000110: 000e 45b9 f071 523c c45e eb3c 8066 6abc
00000120: c416 f1bc f089 433c 9613 6ebd 4a50 26bd
00000130: d6bc 7c3d b245 713d 8017 ffba a490 0f3d
00000140: 68aa 5bbd d0ab af3c 86ac 58bd 846c 473d
00000150: c283 12bd f206 10bd ac38 db3c 2ee3 76bd
00000160: 10b7 3fbc 6297 543d 68b1 8f3c e8e7 55bc
00000170: 344b a83c 3098 df3c a8ed 68bc 70e4 a6bc
00000180: 6890 353d 2016 813c 202d 613d 785f 67bc
00000190: 20e1 073d b064 20bc 6a5c 183d 486e 0bbd
000001a0: 8c91 1e3d fe93 5dbd 18b4 1b3c 8061 ff3a
000001b0: 7c65 223d 6886 943c b898 783c 7057 1fbc
000001c0: fe64 53bd 5680 46bd a0c6 71bd e0bc 46bb
000001d0: 68d9 acbc 4432 e6bc 589d 77bc a0eb 813c
000001e0: 28a5 64bc 903f 7abc bc71 dabc e292 263d
000001f0: 8039 073a 38dc e03c be8c 603d d476 b6bc
00000200: 6026 38bb e06d 41bd 18d4 2e3d 2865 2b3c
00000210: 5a23 6ebd e42b 143d b097 da3b d4bb 26bd
00000220: b8a3 5bbc 9437 153d e842 f73c f8ca 7d3c
00000230: f474 ea3c 6890 c63c 8832 72bc 2c53 a9bc
00000240: ec32 41bd e4eb 2cbd 00c2 e1bb e0d1 d3bc
00000250: c6de 73bd d65e 5bbd b44f c3bc 7c83 4cbd
00000260: 129d 64bd 10a0 3c3d a49a b43c c02e 913b
00000270: 709b dc3b 8003 9a3c c64a 2f3d a04c 973b
00000280: 144a af3c 28a4 7a3d 9a99 0a3d c0de e93c
00000290: 542a 183d 5890 44bd 7ebd 37bd 8455 efbc
000002a0: a036 4abd 08dd 93bc 24f4 4e3d 8081 4dba
000002b0: 728f 30bd 0a48 49bd 44b0 02bd 4084 733d
000002c0: 80bb 793c 50a9 0fbd 6899 313c d614 4cbd
000002d0: 4485 4a3d 9618 48bd 348c 7b3d 886a dcbc
000002e0: 720e 663d cc5b 29bd 90eb 92bb c62f 25bd
000002f0: a00f cfbb 7cc8 eebc fe24 10bd d4c8 32bd
00000300: a6c7 433d 5a9e 143d 6808 6bbd 80d6 4f3d
00000310: 9212 033d 40c9 acbc c83d 223c aeb6 73bd
00000320: b8e7 293d d800 dfbc b439 a23c cc0f 1d3d
00000330: 4c23 6bbd bccb 233d c64f 1ebd 8040 0b3b
00000340: 5eff 203d 98af 183d 50ee 833b dc18 4a3d
00000350: 9e7c 38bd 74d6 ecbc 68b9 6f3c 8237 0a3d
00000360: 94df 2a3d 56e5 6cbd f689 403d 262f 6d3d
00000370: f0cd 5bbd c8ea 493d ac74 673d 5873 51bc
00000380: 20c0 f63b ec3f 60bd 7442 59bd e221 43bd
00000390: 5041 85bb 04a6 26bd 103c 6ebd 7048 5b3d
000003a0: d854 f13c 3cb3 823c f2ee 1bbd c46d 513d
000003b0: d02e e93c a2fd 1cbd 20df 70bd 8051 f7bc
000003c0: 78bc 62bc d051 793d 74b6 e33c 2018 693b
000003d0: ee24 63bd a022 553d 701c 17bc 14e4 85bc
000003e0: a40c c73c 00b5 93bc 8a94 763d 48b2 77bd
000003f0: 4091 b2bb 3ab9 6a3d 44d2 ebbc 8cf0 13bd
0.042123698 -0.055743016 0.05696051 0.0013895035 -0.038602628 0.03496027 0.04956536 0.026709743
0.0110195875 0.039089054 -0.0091083795 0.0063428804 0.031213738 0.011798859 -0.042292014 0.0075466484
0.0039478764 0.013079472 -0.06207777 0.055029914 -0.045601726 0.046330296 -0.055486605 -0.050983675
-0.02489505 -0.0051212236 0.01762674 -0.022776015 0.049090438 -0.039463148 -0.031100735 0.049460128
-0.035118125 0.03280644 -0.024804205 0.05233662 -0.055909894 -0.026399538 0.06187228 -0.034300245
0.009617187 0.014051124 0.042102516 -0.05204071 -0.0032782555 0.0061606094 0.050961003 -0.04569637
0.050438218 -0.04497578 -0.033004493 -0.0017759204 -0.006461896 0.017610379 -0.061396733 -0.013463579
-0.052210018 -0.053653024 -0.020974651 -0.05270838 -0.021001883 0.008626811 0.03395915 0.04481394
0.03107503 -0.04018517 0.04681799 0.045214668 -0.000187926 0.012844548 0.028731711 -0.0143066645
-0.0294298 0.011934742 -0.058124147 -0.040603913 0.061703525 0.058904357 -0.001946196 0.03505005
-0.05362931 0.021444231 -0.052898906 0.048687473 -0.035770185 -0.035162874 0.026760422 -0.06027525
-0.01170136 0.051902182 0.017540649 -0.013055779 0.020543672 0.027294248 -0.014216818 -0.0203726
0.04432717 0.01575762 0.054974675 -0.014121883 0.03317368 -0.009789631 0.037197508 -0.03404072
0.038713023 -0.054096214 0.009503387 0.0019484013 0.039647564 0.018130496 0.01517313 -0.009725437
-0.051609986 -0.048462234 -0.059027314 -0.003032498 -0.021099761 -0.02810014 -0.015113197 0.015859425
-0.013955392 -0.015273944 -0.02666556 0.040667422 0.00051584095 0.027448758 0.054821722 -0.022273459
-0.0028099045 -0.047223926 0.042682737 0.010461129 -0.058139183 0.03617467 0.0066709146 -0.04070647
-0.013405733 0.036429957 0.03018327 0.015490286 0.02862022 0.02423878 -0.014782555 -0.020669542
-0.047167704 -0.04221715 -0.0068895817 -0.025856912 -0.059538625 -0.05355724 -0.023841716 -0.04993008
-0.055813856 0.046051085 0.022046395 0.004430622 0.006732397 0.018800497 0.04279592 0.0046172887
0.021397628 0.061191708 0.033837892 0.028548598 0.037149742 -0.04798922 -0.04485845 -0.029215582
-0.0493685 -0.018049732 0.0505258 -0.00078394264 -0.04310555 -0.049140967 -0.03190638 0.059452295
0.015242457 -0.03507358 0.010839798 -0.04982456 0.0494435 -0.048851572 0.061413005 -0.026906267
0.05616612 -0.04134731 -0.0044836476 -0.040328763 -0.0063190013 -0.029148333 -0.03519153 -0.043648556
0.04779782 0.03628383 -0.057381064 0.050741673 0.032000132 -0.021092057 0.009902425 -0.05950039
0.04148075 -0.027222082 0.019802906 0.038345143 -0.05740671 0.039989218 -0.038650297 0.0021248162
0.039306037 0.037276834 0.004026212 0.049340114 -0.04504072 -0.028910853 0.014631607 0.033744343
0.041717127 -0.0578359 0.04700657 0.057906292 -0.053663194 0.04929617 0.05650775 -0.012783848
0.0075302273 -0.05474846 -0.05304189 -0.047639735 -0.0040666237 -0.04068567 -0.05816275 0.05353588
0.029459402 0.015954606 -0.038069673 0.05113007 0.028464705 -0.03832782 -0.05880654 -0.03019023
-0.01383888 0.060869038 0.027796961 0.0035567358 -0.05545514 0.052034974 -0.009223089 -0.016344108
0.02429802 -0.018030643 0.06020025 -0.060472757 -0.005449444 0.057305552 -0.028786786 -0.036118075

fc2.bias f4 [5]
00000000: 0c71 a8bc 6048 483d d4f7 01bd 0afc 52bd
00000010: 3036 1c3d
-0.020561717 0.048897147 -0.031730488 -0.051509894 0.038137615
