Models/Torch2/my_model8800.pth (torch_old, 60054 bytes, 8 tensors)

conv1.weight f4 [16, 2, 3, 3]
00000000: 4838 673d 1abd 5dbe 75d8 0ebc 67d2 c4bd
00000010: 8cf4 afbd 85af 53be c779 2ebe dfca 3bbe
00000020: b584 49be a6d9 2bbe 89b1 763e 3e13 243e
00000030: 8821 8abc 9352 6bbe 6502 093e 158b 093e
00000040: 2d4b 313d 10a4 30bd b4c9 bfbd 7932 88bd
00000050: ab58 9d3e d04d 583e 8a58 00be 7a57 c13e
00000060: d0cd 103e f944 293e a3a6 423e 0258 853d
00000070: d2ce abbd ba6d 3f3d 9688 7dbc 00dd 2f3e
00000080: f580 8cbe 1863 dbbd d21b 5b3e bacd 23be
00000090: e72a a03e 4061 2dbe baf8 e63e 5bf1 62be
000000a0: 579e e4bd 6c15 b2bd 1862 d9bd f993 883d
000000b0: e5b9 7c3e dfdc 07bd a779 99be c730 64be
000000c0: 2529 bd3d a349 c8bd 35f7 e3bc 27b7 863a
000000d0: 86b7 263d a451 64be b39b d73b 49fa 41be
000000e0: 59a3 70bd 2b0f 553e 81f5 853e e0e5 98bb
000000f0: 6fa3 bfbd d8b5 8e3e 544f a63e 8d59 edbd
00000100: 953e 82ba 7cd5 293e 196d 02bd dbf6 ff3d
00000110: 2739 eb3d b8be 03be 7075 e03d 4563 b73c
00000120: d153 1fbe 06f8 2abc 11d9 c73e 2c22 29be
00000130: 33b6 803e 6b15 e1bd 054c 12be 4834 933e
00000140: dc83 babd a94d 283d 054f 15be 9709 1f3e
00000150: 818d dd3c d7be b13d 1dcf 873d e1f2 e63d
00000160: b5c8 163e 5408 4ebe c1eb e63d afc1 7cbd
00000170: 87bd e1bd 7484 9d3e ff55 493e fc4c 023f
00000180: 4bfe 59be d235 853e f57b 6bbe 60c9 4fbe
00000190: 5e33 37be 9b4f 81be a321 7dbd 6480 60be
000001a0: 23e7 b0bc f105 ebbd ac3f 0cbe 1d3b 8a3d
000001b0: 154c 153e e638 abbd 10ee 00bd 541f b9bd
000001c0: 3e12 9e3d 90a8 2abe b444 b33d e604 8e3e
000001d0: fe45 e33d a638 3d3d 169b dbbd 2108 953d
000001e0: 9636 423e 6f21 633e 46a8 57be ea5c bdbd
000001f0: 3a1b 40be ef20 1abe 77be e2bc c389 aabd
00000200: 2878 44bd 61db 26be fa35 233e ea9b 7abc
00000210: 9bef 28bd 58c0 e1bd e7a6 183e ac52 0dbd
00000220: d0cc 3bbe 1d67 34be 1c26 383e 7f1f 4abe
00000230: 6d3d 30be beb6 2abd 0d69 c8bd be98 23be
00000240: 0a96 0abe 36c3 2d3e 7ad3 0dbe 8bc4 12be
00000250: 9c23 41be c579 b1bd 0075 9dbd 7725 77be
00000260: 58ef 283d 9bad b2bc 4029 0dbe 8df4 9f3e
00000270: f108 4f3b 86f9 6a3e 8a82 2c3e fe41 543e
00000280: 9a67 933e f458 8fbc d5b9 58be f8f3 4c3e
00000290: e91f 1e3e 9388 383e fe56 ce3c 9bd7 753e
000002a0: 53a4 2abe 6cf8 f23d 3a92 533d 0e3c 02be
000002b0: cb75 d8bd e1ca c73d cbf7 4f3d 31ff 233e
000002c0: 723b 98bd 072a 023d 4b36 d23c c3e3 2c3e
000002d0: 814d b43d 65fb 583d 9338 063d df59 673e
000002e0: 3696 5b3d d7c4 6fbe b981 383e 5626 8dbd
000002f0: 2676 afbd b9e7 073e cfd6 40bd 1c7f 853b
00000300: 63ad fabb 96b1 013e a796 ac3d 2ce5 0d3e
00000310: e635 8d3d 45ae 053e 2017 39bd ee45 0fbe
00000320: 0ddf 7a3e 05d7 6d3d b316 efbd b7aa 923e
00000330: 37d5 46be ce06 9ebd bbcc 1e3e 5164 5e3e
00000340: d1a2 153e ed34 32be 080a 59bc 7c5f d83d
00000350: 1426 dd3d 590d 333e 637d f53c e852 ef3d
00000360: 0102 9cbd e31b edbc e4d6 ca3c 7720 6d3e
00000370: b5eb 64bc 4b05 34be e894 083e 5f66 49be
00000380: ce75 8d3d 24fb dbbd 951d 90bd 5e1a 77bd
00000390: 0be4 0fbe 4a3b 31bd 76d3 a03e ceb1 53be
000003a0: 035e 963d 7359 693d 2ada 23be d454 27bd
000003b0: 6c9c 65be 4519 0fbe c068 793e 677a 653e
000003c0: ad72 a73e 5c5e d7bd cb5f 973e 61b8 e53b
000003d0: 7719 883d 3145 1ebe 0390 b9bd 4e01 e43d
000003e0: 377a 50be 7a98 20be 4fad 853c 6672 013e
000003f0: a199 1a3e 320c 64be e735 ce3d ea83 a43d
0.05645016 -0.21654168 -0.0087186 -0.096104436 -0.085915655 -0.20672424 -0.17038642 -0.18339108
-0.1967953 -0.16782245 0.24091162 0.16022965 -0.016861692 -0.22980718 0.1337982 0.13431962
0.043284584 -0.043125212 -0.09364644 -0.06650252 0.3073171 0.21123433 -0.12533775 0.37762052
0.14141011 0.16530217 0.1900888 0.06510927 -0.08389057 0.046735503 -0.015474459 0.17174149
-0.27442136 -0.1071226 0.21397331 -0.15996447 0.31282732 -0.16931629 0.45111638 -0.22162382
-0.111630134 -0.08695492 -0.10614413 0.066688485 0.24680288 -0.033169623 -0.29975626 -0.22284232
0.09236363 -0.0977967 -0.027827838 0.0010277972 0.040702365 -0.22296768 0.00657984 -0.18943132
-0.05874953 0.20806567 0.26163867 -0.004666075 -0.09357344 0.2787311 0.32482398 -0.11589346
-0.0009936864 0.16585344 -0.031842325 0.12498256 0.1148551 -0.12865722 0.109598994 0.022386203
-0.15559317 -0.01043511 0.39032796 -0.16516942 0.25139007 -0.10990413 -0.14286812 0.28750825
-0.091071814 0.041089687 -0.14580925 0.15531002 0.027045013 0.08678978 0.066313006 0.11276794
0.14725001 -0.20120364 0.11275435 -0.06170815 -0.110224776 0.30765116 0.19661711 0.5089872
-0.21288411 0.26017624 -0.22996505 -0.20291662 -0.17890689 -0.25256047 -0.061799657 -0.21923977
-0.02159459 -0.114757426 -0.13696164 0.06749556 0.14579804 -0.08360462 -0.031477034 -0.090391785
0.07718323 -0.16665864 0.087533385 0.27738112 0.11097334 0.046196602 -0.1072294 0.07276941
0.18966135 0.22180723 -0.21060285 -0.092462376 -0.18760386 -0.15051626 -0.027678711 -0.08327057
-0.047966152 -0.16294624 0.15938559 -0.015295962 -0.04124413 -0.11023015 0.14907418 -0.03450267
-0.18339849 -0.1761746 0.17983288 -0.19738577 -0.17210932 -0.041678183 -0.09785662 -0.15976235
-0.13533798 0.16968998 -0.13850203 -0.14332788 -0.1886124 -0.08665804 -0.076883316 -0.24135385
0.04124388 -0.021811297 -0.13785267 0.31241265 0.0031591023 0.22946748 0.16846672 0.20728299
0.2878998 -0.01749847 -0.2116464 0.20014942 0.1544186 0.18020849 0.025187965 0.24008028
-0.16664247 0.11863789 0.051653124 -0.12718222 -0.10569342 0.09755493 0.050773423 0.16015317
-0.07433213 0.03177836 0.025660655 0.16883759 0.08803845 0.052974124 0.032768797 0.22592877
0.05361005 -0.23414932 0.18018235 -0.068920776 -0.08567457 0.13271989 -0.047079857 0.0040739905
-0.007650064 0.126654 0.08427172 0.13856953 0.06895046 0.1305476 -0.04518807 -0.1399152
0.2449915 0.058066387 -0.116742514 0.2864587 -0.19417273 -0.07716142 0.15507786 0.21717955
0.14612891 -0.17403002 -0.013247021 0.10565087 0.107982785 0.1748556 0.029967016 0.11685735
-0.0761757 -0.028943961 0.024760671 0.23156916 -0.013972213 -0.17580144 0.13338053 -0.19667958
0.06907235 -0.10741261 -0.07036892 -0.06032788 -0.14051835 -0.043269433 0.31411332 -0.20673296
0.0734215 0.05697007 -0.16001192 -0.040852383 -0.22422951 -0.13974483 0.24356365 0.22409974
0.32704678 -0.105160445 0.29565272 0.007010505 0.06645482 -0.15456082 -0.09060671 0.11133061
-0.20359121 -0.15683165 0.016317992 0.12641296 0.15097667 -0.22270277 0.10068875 0.08032973

conv1.bias f4 [16]
00000000: 87b4 7fbd 371b eabc 6210 193e 1207 4ebd
00000010: c6f0 acbb acd4 803d 71fb 77be 87a1 573d
00000020: 76da 003e 8cca 9cbd f52b 13be 6a04 88bd
00000030: 1f54 e1bd 5704 96bc 72dd 11be 431e 263d
-0.062428024 -0.02857743 0.14947656 -0.05029971 -0.005277726 0.06290564 -0.24217011 0.05264428
0.12583336 -0.0765582 -0.14372237 -0.06641467 -0.11002373 -0.018312616 -0.14244631 0.040556204

conv2.weight f4 [32, 16, 3, 3]
00000000: e349 1f3d 61af 8bbd b3ca acbc 91ea ce39
00000010: 0a23 4e3d e395 723d 5ec8 4bbc a997 44bd
00000020: 7d8e cb3d a634 683d 431d 37be 8423 813d
00000030: 34a1 60bd b564 873d 7b85 0b3e 84fc 7b3d
00000040: e4fa f9bc 5403 1e3e 4a7b 413d e239 1ebd
00000050: 2128 a23e 67ee bebd 990f 25be 1f89 a73b
00000060: f78d cfbc b20b 23bc a0ae 993d f18c dcbb
00000070: 3952 fe3c b52f c03c 8d33 5cbd 5045 133e
00000080: 3322 493e 35d6 323d cf1a b1bd a5f9 d73c
00000090: d5ce 473d c47b 1dbd 87d6 0d3e ab46 ae3a
000000a0: 686c 09bd bf99 a1bd cb3f d23c 75e9 ea3c
000000b0: 0985 16bd a306 fcbd 7386 0dbe 5a5f 43be
000000c0: 3647 c5bc 1c5e bfbc 3c3a e6bc e234 c7bd
000000d0: c32c 503c 91f7 19be 0bc9 76bd 9854 1cbb
000000e0: 564b a73d 97c9 97bd 89fe 47bd 197d 2cbc
000000f0: ae94 b1bc 5cc9 813d 9d0a 643c 012f 83bd
00000100: 67b9 29bd fda9 4ebd f3d7 833d 3990 83bc
00000110: 816c 27b9 56bc 2bbc 0d20 f0bd 0d8f e83d
00000120: 1cac 6c3d 0688 033e ccc0 87bc 141e e73d
00000130: c17b 963d 9b6e a03d c14d f53d 6603 553c
00000140: 2386 a73d c838 333d ad94 353b ba06 d3bd
00000150: abe1 9c3a ba4f a83d 2fe5 d63c 2ffb 5a3c
00000160: 9b64 cebc 12e9 c5bc 2111 03bc cf2c dd3c
00000170: cb4e 263d efc0 2b3d f592 96bd 9ac9 e6bc
00000180: 87bc b33c c0f7 3bbd 66d3 6d3c 2dab 25bc
00000190: 0f85 29bd fb5c 823d 7b75 b63c c261 d63b
000001a0: f0ae aa3d feee 0d3d d70a c1bc 5b17 013e
000001b0: 32b4 3dbd 2e75 98bc 79c4 8e3d df54 b23d
000001c0: 4195 eb3c ec72 e7bb 609d 11bd 443b 463d
000001d0: c26e 923d e2e1 23bd 45f4 09be d7b3 23b9
000001e0: 48a3 683d e954 59bd 94e4 713c 15fc 933c
000001f0: c171 e7bd 35a9 233e 8f56 7b3d 0210 b139
00000200: 7623 f5bd d6da d23b d1d0 8e3d 86f5 cdbd
00000210: 2d03 983d 4a4c 04bd 2a56 543d e3e5 62bd
00000220: d432 31be 4443 033e a019 df3c c6f8 8dbd
00000230: bec9 753e 7b87 c73c e5c2 c3bd 1246 b63d
00000240: 5104 70bd 0f9c 0a3c 47bc 2fbd 370e 253b
00000250: 75d5 e7bd 2d39 713d a2ff f4bc be48 05bd
00000260: 959a b03d 5148 e93d 0160 0fbe 36d0 bf3e
00000270: c433 bfbd 2e3b 98bd b8c1 b93d 8332 a63c
00000280: e78d 8fbd d867 7a3c 3dec cfbc 56ae 8a3c
00000290: 36fd 173e 8b94 213d 4822 56bd c1e4 a83e
000002a0: 8981 5a3c 957e be3d 8c89 8abc 51d1 d03c
000002b0: ea4f 56bd 2cd7 27bd c051 a4bd f44b fc3c
000002c0: 2bd2 3b3d add9 27bb 3939 4d3c 8ed7 a03d
000002d0: 4416 563d 3e7e c8bd 9358 a7bb 0413 913d
000002e0: ec15 6cbd e20c 933d 0523 80bd 9489 7a3c
000002f0: 17d9 dfbd 8a85 b93d e355 88bd 254e 8b3e
00000300: 527e 1f3d d414 ccba 9de0 22bd 5631 7ebb
00000310: d642 f1bb 1b22 99bc 3de2 333d 268f 5c3d
00000320: ecb2 d73d db58 833d 460a a4bc 577c 813d
00000330: e199 81bc 907d 893d 275e 11bb 4942 b43d
00000340: bc30 27bc d480 873d 3395 d03d ebdf 653b
00000350: f31a 093b 26c4 123d ddd5 dcbc fc6b 59bc
00000360: a95b 153d c01a 193d b465 debc ba76 84bd
00000370: 6e16 c93c c464 93bd 7460 9e3d 33b8 f73c
00000380: b159 62bd cc59 30bd 6b8b 893d 6c70 fb3d
00000390: 94fa 82bd 1eb3 a0bb 95fe 9d3d 6741 f03c
000003a0: 0da9 2bbc 0f3b 19bd 2bdf a8bd 5d65 ad3c
000003b0: 2104 1cbc b656 903c 88a2 ae3d b18c b4bc
000003c0: 9ea3 0fbd 394c 493d b165 a63d 5f35 ae3d
000003d0: 8ed0 7abd f2a6 323e 607b c23d 4f99 293c
000003e0: 996c bf3d 6122 4b3d 6443 90bd 9a6f 963d
000003f0: e5fd 6c3d 99d9 ad3c 0ffc 8bbd f712 3ebd
0.038888823 -0.0682056 -0.021092748 0.00039466147 0.050326385 0.059224974 -0.012437908 -0.047996197
0.09939287 0.056690834 -0.17882256 0.06305602 -0.054841235 0.06611005 0.13625138 0.061520115
-0.030515142 0.15430957 0.04723672 -0.03862942 0.3167124 -0.093228154 -0.16119231 0.0051127817
-0.025336249 -0.009951519 0.0750401 -0.0067306687 0.031045066 0.023460248 -0.0537601 0.1438191
0.19641952 0.043661315 -0.086476915 0.026364157 0.048781235 -0.03844811 0.13851367 0.0013296207
-0.03355065 -0.07890653 0.025665184 0.028675774 -0.036747966 -0.12305953 -0.1382082 -0.19079342
-0.024081808 -0.023360305 -0.02810394 -0.097268835 0.0127059845 -0.15035845 -0.060250323 -0.0023854133
0.08168666 -0.07411497 -0.048826728 -0.0105278725 -0.021677341 0.063372344 0.013918546 -0.0640545
-0.04143658 -0.050455082 0.064376734 -0.016059982 -0.00015966782 -0.0104819145 -0.11724863 0.1135541
0.057781324 0.12844858 -0.016571425 0.11285034 0.07347823 0.07833596 0.11977721 0.0130012985
0.081798814 0.043755323 0.0027707026 -0.10304017 0.001196911 0.08218332 0.02623233 0.013365551
-0.025194457 -0.024158988 -0.007999689 0.026998905 0.040602487 0.041932043 -0.073522486 -0.028172303
0.021940483 -0.04589057 0.014515733 -0.010111612 -0.04138666 0.06365391 0.022272816 0.0065424154
0.08334148 0.03465175 -0.02356474 0.12606566 -0.046314426 -0.018610563 0.06971068 0.08707594
0.028757693 -0.0070632603 -0.035550475 0.048396364 0.071500316 -0.04001034 -0.13472088 -0.00015611887
0.056796342 -0.053059492 0.01476397 0.018064538 -0.11300994 0.15982516 0.061361846 0.00033771998
-0.11969654 0.0064347787 0.06973422 -0.100565955 0.07422481 -0.032299317 0.051839985 -0.05539502
-0.17304546 0.12818629 0.027233899 -0.069322154 0.2400274 0.024356594 -0.095586576 0.089000836
-0.058597866 0.008460059 -0.042904165 0.0025185475 -0.113200106 0.058892418 -0.029907051 -0.032540075
0.08623234 0.113907464 -0.14001466 0.3746354 -0.093360454 -0.07433163 0.09070152 0.020287758
-0.070094876 0.015283547 -0.025381202 0.016928833 0.14842686 0.039448302 -0.052278787 0.32987025
0.013336548 0.09301487 -0.01691129 0.025490435 -0.052322306 -0.04097669 -0.08023405 0.030797936
0.04585473 -0.0025611923 0.01252585 0.07853614 0.052267328 -0.09789704 -0.0051069944 0.07083705
-0.057638094 0.071801916 -0.062566794 0.01529159 -0.109300785 0.09058674 -0.066570066 0.27208057
0.038938828 -0.0015570172 -0.03976499 -0.003878673 -0.007362704 -0.01869302 0.04391693 0.053847454
0.105321735 0.06413432 -0.02002443 0.06322544 -0.015820445 0.06713402 -0.0022181363 0.088017054
-0.01020449 0.06616369 0.101847075 0.0035076092 0.0020920604 0.035831593 -0.026957447 -0.013270374
0.036464367 0.037379026 -0.027148105 -0.06467958 0.024546828 -0.07196954 0.07733241 0.0302392
-0.055261318 -0.043054387 0.06716045 0.12277302 -0.0639545 -0.004904165 0.07714573 0.029328061
-0.010477317 -0.03740984 -0.08245691 0.021166498 -0.009522469 0.017619472 0.08527094 -0.022039743
-0.035068147 0.049144957 0.08124865 0.085062735 -0.06123405 0.17446497 0.09496188 0.010351493
0.09346885 0.049593333 -0.07044104 0.07345505 0.05785932 0.021221923 -0.06835186 -0.046404805

conv2.bias f4 [32]
00000000: 8213 093e eaac e73d 7757 ce3d 9db1 353d
00000010: d1c2 383e 2632 f73d afc0 1b3d 80bc 833d
00000020: 2c59 d03d cb1c b0bb e8b3 9ebc 6e0a 0f3d
00000030: 8177 e1bc 8eca 893d 4e12 903c 7cb7 2fbd
00000040: fe88 4b3c effa 8fbd f3f3 8f3d 7335 d1bd
00000050: 563e 8f3d 480a a4bd aec5 10be 3797 e8bd
00000060: 94c1 62bd 7827 cbbc f632 8bbd b8af 24bd
00000070: 8bfc acbd 47a7 333c 476f 323c 1c88 80bd
0.13386348 0.113122776 0.10075276 0.04435884 0.18043067 0.12070112 0.038025554 0.06432438
0.10173258 -0.005374526 -0.019372895 0.034922056 -0.027522804 0.06728087 0.017586853 -0.042899594
0.012422798 -0.07030284 0.070289515 -0.10215273 0.069943115 -0.080097735 -0.14137909 -0.11356967
-0.05536039 -0.024799094 -0.067968294 -0.04020664 -0.08446606 0.010965175 0.010890788 -0.06275961

fc1.weight f4 [256, 32]
00000000: 9c76 583d 49bf b13d 3cb0 c4bd b579 d13b
00000010: 9825 173d a5fc 533d e395 6a3d 4815 8dbd
00000020: 4b4b 2a3d 64b4 22be 2bb3 f8bc df90 2a3e
00000030: 483e e93d 244f 19be f927 69bd 19a2 b53d
00000040: e95c 7cbd 9ab1 163e 8d8c 993d 685d abbd
00000050: 7db3 10bd baff debc d299 883d bbb5 48bd
00000060: ef1c d1bd 0574 97bc 2e68 9c3d b0b9 b7bd
00000070: 4fc2 2cbe 1c55 d43b 00a3 f5bd 0536 f83c
00000080: 0f19 103e adc2 1ebe fc78 f4bd 35a7 0ebd
00000090: e52b ca3d bb34 fc3d 51c5 c1bd 4c6c 88bd
000000a0: 5d9c 1abd b58f 1f3e 87a4 c3bd d93e 243e
000000b0: 0195 bcbd 38ca ee3d 2e3a 093e faa7 253e
000000c0: d8bd ee3c 46a4 f03d d665 febd 9ed9 3cbd
000000d0: ebc5 bbbd c60b 8b3d 981a e6bd f854 84bd
000000e0: d24e 33bd 0a1e ba3d 0b00 e13d cc1a 7b3d
000000f0: 49df 173e 9112 f93d 9e05 873d 6907 79bd
00000100: 217c eabc e30a 2dbd 3185 2abe bf63 653d
00000110: b0d0 e73d 2db9 ca3d 6f86 b33d 334b cd3d
00000120: e87b 2e3b 4984 243e 7202 2c3e bd6f 9e3c
00000130: 0f4d 163b 6d9e 28be 3c4f 17be c165 8f37
00000140: d498 00be 5936 083d a39f 2a3e 859c 8a3d
00000150: 0950 c83d 8295 03be a2d6 e2bc ae08 0d3e
00000160: 74ce eb3d 74d8 cbbc 1488 3cbd 4276 293e
00000170: 7b59 c3bc 9a47 37be da3a 213d 84b0 c93c
00000180: 4e25 17be 2dc4 eebd a2df 0e3d 9970 1fbe
00000190: 4e96 003e 137c f7bd d726 3e3d 7857 24be
000001a0: 9d2f 15be 0298 cb3d 3e0d e83d 5814 b6bd
000001b0: f8e1 de3d b4ec 0abe 4e0a 0dbe c49c e8bd
000001c0: 7ab1 14bd 4fa4 083e 3e82 9e3c de03 0c3e
000001d0: 5c1f c73d d69d 34bd 90ec 12bd c96e 96bd
000001e0: 1642 cbbc 24cc 2abe 2315 18be 9b2e 07bd
000001f0: 73fb 3bbd 20dc c23d 58fd d2bd f34b 413d
00000200: 512e 443c ef5c 34bd 6ad1 173e b7bc e4bd
00000210: e002 f3bd 1db4 33be 8aba 00be b8ba 033e
00000220: 9843 3c3d 42c4 f33d 67e2 803d f930 0a3e
00000230: 884d b93d 279c 603d c930 1abe 2036 533d
00000240: ce9e 1cbe 620e 8f3c 994e 2fbe 6ee6 153d
00000250: 8047 08be 38b7 023d f726 1fbe 3197 2bbc
00000260: c0bc c0bd 7a91 febd 12ea ea3d 816a 013e
00000270: e62c f23d 5908 c4bd bd7c 26be 1267 653c
00000280: 3185 eebd 08f4 d13d 4c19 cabd b70e 933d
00000290: 3049 c4bc af70 0cbd a2bf f73d 9887 dd3c
000002a0: 03c0 55bd 9588 d6bc 7225 003e 9734 26be
000002b0: 9d19 14be 8a72 0f3e fc18 a73d 74bc 15bc
000002c0: 3eda e8bd a728 63bc 2ad1 873d fb74 3c3d
000002d0: 0ca8 d03d 95c3 33be 69ed 763d 3f8f 7ebb
000002e0: 076f d53d 2a47 073d 50d2 a73c 1ab9 18be
000002f0: 5214 4bbd 90c9 a2bc 9042 2a3c 9550 97bd
00000300: 0a45 d93a 25d8 ccbd bf1a a7bd 784b 253e
00000310: a4c3 b9bd 0bca 9d3b c585 8e3d 1229 ec3c
00000320: 66f3 333c 8779 343d 9179 e03d 1e97 22be
00000330: ead9 b1ba 854c fe3d fdfc 0fbe 7256 863d
00000340: 4c6d 8d3d d69d ff3d 15f9 61bd 5cc3 a1bd
00000350: 7826 8d3d 2721 adbd 0c95 f13d e44f 3cbd
00000360: d72d 28be f08c 793d a077 103e 2b08 1a3e
00000370: ddff bd3d 98b3 48bc 0aa3 85bd c352 31be
00000380: 6b94 fd3d 0b74 e03c 19d9 debc 85a8 12be
00000390: 8978 dfbb f611 3a3d f0ef 013e fe2b 043e
000003a0: acb0 03be 1a81 b2bb 2619 e2bd 8ff0 94bd
000003b0: 266c a43b 6da8 073e b195 2abd 9924 af3d
000003c0: 54a2 00be a35a 10bd eef5 8b3d 552e 5fbd
000003d0: f14a c03d 879e 1cbe 960f babc 8bab cfbd
000003e0: af67 f13d dc7b 21bd 8448 05be 582e e73c
000003f0: 8dac b7bd 8b28 88bd a442 023e 34b9 913d
0.05284749 0.08679063 -0.096039265 0.0063926824 0.036901087 0.051754612 0.05727185 -0.06888825
0.04157571 -0.15889126 -0.030358871 0.16656826 0.11388832 -0.14971596 -0.056922887 0.08868808
-0.061612044 0.14716187 0.07497511 -0.08367425 -0.035327423 -0.02722155 0.06669964 -0.049001437
-0.10210597 -0.01848794 0.07637058 -0.08970964 -0.16870998 0.0064798724 -0.119939804 0.030299196
0.14072059 -0.1550395 -0.119371384 -0.03482743 0.098716535 0.12314745 -0.09461463 -0.06661281
-0.037746776 0.15582164 -0.095528655 0.160396 -0.09208108 0.11659664 0.134011 0.16177359
0.029143259 0.11750083 -0.124217674 -0.046105973 -0.09168609 0.06789355 -0.11235541 -0.06461519
-0.04377634 0.09087761 0.10986336 0.061304852 0.1483127 0.121617444 0.06592868 -0.060798083
-0.028623642 -0.04224671 -0.16652371 0.05600333 0.11319101 0.09898601 0.087658755 0.10024109
0.0026624147 0.16066088 0.16797808 0.01934039 0.0022934114 -0.16466685 -0.1477632 1.7094311e-05
-0.125583 0.033254955 0.16662459 0.06768135 0.097808905 -0.12850001 -0.027690236 0.13772842
0.11513987 -0.024883486 -0.04602821 0.16549018 -0.023846379 -0.17898408 0.039362766 0.024620302
-0.14760324 -0.11658511 0.03488124 -0.15570296 0.12557337 -0.12084212 0.04642376 -0.16048992
-0.14568944 0.099411026 0.11330651 -0.08890599 0.10882944 -0.13566858 -0.13773462 -0.11358026
-0.036302067 0.13343929 0.019349214 0.1367335 0.09722778 -0.044095837 -0.035870135 -0.07345349
-0.024811786 -0.16679436 -0.14851813 -0.03300343 -0.045894098 0.09514642 -0.10302228 0.04719157
0.011973933 -0.04403394 0.14825979 -0.11168807 -0.11865783 -0.17549177 -0.12571159 0.12864196
0.0459629 0.119026676 0.06293183 0.13495244 0.09047991 0.05483642 -0.15057673 0.05156529
-0.15294954 0.017462913 -0.17119826 0.036596708 -0.13308525 0.031913012 -0.15542208 -0.010473059
-0.09411001 -0.12430091 0.114704266 0.12638284 0.1182497 -0.09571905 -0.16258521 0.014001625
-0.11646498 0.102516234 -0.09868106 0.07180541 -0.02396068 -0.03428715 0.12097098 0.027042195
-0.05218507 -0.026188174 0.12514284 -0.16230999 -0.14462896 0.14008537 0.08159062 -0.009139169
-0.113697514 -0.013864673 0.06631692 0.04601 0.101883024 -0.17555077 0.060285006 -0.0038842706
0.104215674 0.03302685 0.020486027 -0.1491436 -0.049579926 -0.019871503 0.010391846 -0.07388417
0.0016576361 -0.10002164 -0.08159398 0.1614207 -0.090705186 0.004815345 0.06959108 0.028828178
0.010983324 0.04406121 0.10960687 -0.15877959 -0.0013568972 0.12416939 -0.14061351 0.06559457
0.06905612 0.12481277 -0.055169184 -0.0789859 0.06892103 -0.08453589 0.117960066 -0.045974627
-0.16423737 0.060925424 0.14108133 0.15042178 0.09277318 -0.01224985 -0.06525238 -0.17316727
0.12381824 0.027399084 -0.02720313 -0.14322098 -0.006819789 0.045427285 0.12689185 0.12907407
-0.12860364 -0.005447519 -0.11039953 -0.072724454 0.005017775 0.13247843 -0.041646663 0.08551902
-0.12561923 -0.035242688 0.06834017 -0.054487545 0.09389294 -0.15294848 -0.02271251 -0.10140141
0.11787354 -0.039424762 -0.13015944 0.02822034 -0.08968458 -0.06648358 0.12720734 0.07115403

fc1.bias f4 [256]
00000000: d33a 17be 8372 29bd a745 bcbc 05c3 533d
00000010: c2ef 8cbd 2412 98bd a8fa a9bc 9373 f23b
00000020: 14eb 2ebe 2c7b 73bc 85ae 09bd 4bee eebd
00000030: abad 10bd d508 f83c 3b03 3fbc ddb9 75bd
00000040: a5b6 f4bc 507c 00be af99 99bd 9e7e debd
00000050: 81f7 80bd c0d8 c8bc 528d e9bd 6cba 043d
00000060: 1000 cabc 1956 d8bd 8fd2 e1bd 1f1c 523c
00000070: f367 863c a84d ebbc bb83 f4bd 15cf 063d
00000080: d9a3 00be dd07 0f3c 6202 a8bb 5280 00be
00000090: f7c1 093c c5bd e1bd bb52 813c 3ae3 4fbc
000000a0: 78af 98bd 7074 b4bc a11b 04be d48e 31bd
000000b0: 728f 21bc b32e dd3c 6946 c5bb e228 f6bc
000000c0: 9b99 2bbd 6bf3 2cbe 10c3 05bd c5f7 c6bd
000000d0: 23d1 cbba ff49 9bba 27e6 b33b 8d66 e1bd
000000e0: 05d3 893c 7735 12bc 4cca abbc 33ce 29bd
000000f0: fe8e 3dbd c5ed 19be 5315 e9bd a2b5 47bd
00000100: 5b86 1d3c 5c04 a1bd b45d 8239 552f 9abd
00000110: 1c67 553b fe4d 57bc 4f8f 4a38 197b 95bb
00000120: 86c6 52bd ffd2 9fbb bf47 c1bb 9c10 d33d
00000130: 99f9 09bc d9fa 3c3d 86c8 14bd cf6e 1fbe
00000140: cbc9 1eb9 7791 efbd b875 4a3c b7b9 14bd
00000150: c023 28be 8ba6 05be 887f 43be 8b77 f9b9
00000160: 46d8 b5bd eb23 853d d902 893b aeb6 17be
00000170: 0a1b 7f3c d4c9 1bbe 49c1 b0bd 6313 10bd
00000180: c250 55bb 1591 01be a3ab 2d3d 1f49 b2bc
00000190: 0990 dbbd e57d 51bd 7176 46bd acd3 9fbc
000001a0: ab97 1abe a26a 15be 2c04 a7bb 356f e13b
000001b0: e885 18be 5b6a d0bd 4a2e b53c a5b6 5abd
000001c0: 0947 963c cda8 14bd 74a4 c1bc 765f 2e3d
000001d0: 4b48 093d 4208 22bd c5e0 f6bd 6900 e7bd
000001e0: 0d85 52bc 911c a0bc 3a5c 38bc a334 643d
000001f0: db36 0ebd 6141 6f3d 36b9 b93c 349f f4bc
00000200: 9065 6fbd 1aec 85bd 95ec 49bd a4d6 c4bc
00000210: 353a a13b e1a2 b0bd c69a 20bd 2a5f 25bd
00000220: c713 fc3b 2e57 79bd 2345 3bbe 109d 5abd
00000230: a783 25be 712d 6b3c 08eb c5bd 2094 66bd
00000240: 87f9 1abe 43e4 c23a eecb c3bd 3517 b33b
00000250: b4a9 a53c ee2e debc ab6a d7bc e0c9 fc3c
00000260: b3c3 eebd f7b8 08be 6592 43bd 35c8 89bd
00000270: 84dc cfbc ce83 81bd f78e b6bd b024 29be
00000280: 7f29 0dbc 4f6e 813b 2a77 233d 15ab 02bb
00000290: 4812 803c fe4d 3dbd 7b49 f73a 640a 12be
000002a0: 2822 16be 2ca2 1bbc 88a8 c73d 9798 e1bd
000002b0: bbef fd3c eba4 1bbe 43e9 6dbd afa4 1ebe
000002c0: 93b0 65bd 7147 27be c8ac e5bc 215b 16bc
000002d0: 384b 0dbe a160 f63b 4e5f bbbc 11a2 20be
000002e0: c71f bcbc fea7 003c e280 11be a009 25be
000002f0: cab6 aa3d 002d 17be 8fcb babd 7a6f 1abb
00000300: fc57 823d 425c c3bd edca 03be f0e8 a93d
00000310: 84ce 1e3d 8bc2 ebbd 5480 81bc aeb4 2dbd
00000320: 65fd ecbd e70c 443c 7484 babd b6d2 3dbd
00000330: 0d32 9d3d ec19 02bd 42d7 1cbe ac0a 813d
00000340: fa85 c5bd 80c4 a2bc 1084 ae3b b0f1 2fbc
00000350: 621c bbbc 9f38 73bd 9470 59bd 92db 01be
00000360: 7013 03bd 213e 76bd 25f1 03be 2cb3 a5bc
00000370: 55f0 1dbd f91f afbc c907 79bd e091 6abd
00000380: f56b 0cbe 654b 2bbe 504c bbbd 5e92 3fbd
00000390: 1f26 883c fa1d 11bd 2184 90bd 1a1d 4bbd
000003a0: 91ba 53bd ca7a 22bd 5d8b ebbb c6fe a73d
000003b0: 666c b0bc 5dd2 c5bb 9127 a7bd da32 d7bd
000003c0: 29d1 21bd cf94 08bc 0fb0 29be ef18 c9bd
000003d0: 3ba7 51bc 7d1e febd d633 3fbd 1a68 fbbc
000003e0: ec99 52bd ee5b a03c 72ac 1abd 0a4e c9bc
000003f0: b65a 60bd da1b 24be 3bb4 3f3c 9bdc a23b
-0.14768533 -0.041368973 -0.022982432 0.051699657 -0.06881668 -0.07425335 -0.020749405 0.0073990314
-0.17081863 -0.014860909 -0.0336137 -0.116665445 -0.035321873 0.030277649 -0.011658485 -0.059991706
-0.029872248 -0.12547421 -0.07500016 -0.10863994 -0.062972076 -0.024517417 -0.11403908 0.03240435
-0.024658233 -0.10563297 -0.11026489 0.012824087 0.016406989 -0.028723553 -0.11939188 0.032912333
-0.12562503 0.008729902 -0.005127237 -0.1254895 0.008408061 -0.11022524 0.01578652 -0.012688452
-0.07455343 -0.022028178 -0.12901165 -0.043349102 -0.00986086 0.026999807 -0.0060203564 -0.030048791
-0.041894536 -0.16889732 -0.03265673 -0.09715227 -0.0015549998 -0.0011847614 0.005490083 -0.11005888
0.016824255 -0.00892388 -0.020970486 -0.041456413 -0.046278946 -0.15032108 -0.113810204 -0.048757203
0.009614552 -0.078621596 0.00024865346 -0.07528559 0.0032562679 -0.013141153 4.829402e-05 -0.0045617935
-0.051458858 -0.0048774476 -0.0058984454 0.10305902 -0.008421325 0.046137664 -0.036324047 -0.15569614
-0.00015143228 -0.11697667 0.012357168 -0.036309924 -0.16419888 -0.13051812 -0.19091618 -0.00047582047
-0.088791415 0.065009914 0.0041812477 -0.1481578 0.015570411 -0.1521371 -0.08630616 -0.03517474
-0.0032549356 -0.12653 0.042400014 -0.021763382 -0.10720832 -0.051145453 -0.0484528 -0.019510113
-0.15096919 -0.14591458 -0.005096933 0.006879712 -0.14894831 -0.10176536 0.022116799 -0.05339684
0.01834442 -0.036293793 -0.023637988 0.042571507 0.03351621 -0.039558657 -0.1205459 -0.11279375
-0.012849105 -0.019544872 -0.011252457 0.05571426 -0.034720283 0.05841196 0.022671323 -0.02986107
-0.058446467 -0.065391734 -0.049297888 -0.02402813 0.004920269 -0.08624817 -0.039210103 -0.04037396
0.0076927873 -0.060874157 -0.18288092 -0.053372443 -0.16163503 0.014354096 -0.09663969 -0.056293607
-0.1513425 0.0014869053 -0.09560381 0.005465413 0.020222522 -0.027121987 -0.02629598 0.03085798
-0.116584204 -0.13351808 -0.047747035 -0.067276396 -0.025373705 -0.06323968 -0.08913987 -0.16517901
-0.0086158505 0.0039499174 0.039908566 -0.0019938399 0.015633717 -0.046216957 0.0018866503 -0.14261776
-0.14661467 -0.009499114 0.09748942 -0.11015432 0.030998101 -0.1519963 -0.058083784 -0.1549251
-0.056076597 -0.16335846 -0.02803649 -0.009177 -0.13798225 0.0075188433 -0.022872593 -0.15686823
-0.022964371 0.007852552 -0.14209321 -0.16116953 0.083356455 -0.1476326 -0.09120857 -0.002356498
0.06364438 -0.09539081 -0.12870379 0.082963824 0.038771167 -0.115117155 -0.015808262 -0.042408638
-0.11571769 0.011965967 -0.09107295 -0.046343528 0.07675562 -0.031763002 -0.1531649 0.063008636
-0.096446946 -0.01986909 0.0053258017 -0.010738775 -0.022840682 -0.05938017 -0.05308588 -0.12681416
-0.03200096 -0.060117844 -0.12884958 -0.020227037 -0.038559277 -0.02137755 -0.06079844 -0.057268023
-0.13713057 -0.1672798 -0.09145415 -0.046770446 0.01661974 -0.03542898 -0.070564516 -0.0495883
-0.051691595 -0.039667882 -0.0071882443 0.08202891 -0.021536063 -0.00603704 -0.081618436 -0.10507746
-0.03950611 -0.00833626 -0.16571067 -0.09819209 -0.0127962185 -0.12408159 -0.046680294 -0.030689288
-0.051416323 0.019575085 -0.037762113 -0.024573345 -0.05477401 -0.1602625 0.011700685 0.004970146

fc2.weight f4 [5, 256]
00000000: e689 2c3d ca52 64bd 6c4f 693d 0020 b63a
00000010: ca1d 1ebd 8032 0f3d 0c05 4b3d 64ce da3c
00000020: 808b 343c d81b 203d 503b 15bc f0d7 cf3b
00000030: f4b3 ff3c 0050 413c 643a 2dbd e049 f73b
00000040: 305d 813b 484b 563c 4245 7ebd 0c67 613d
00000050: e0c8 3abd d6c4 3d3d ec45 63bd 42d4 50bd
00000060: b4f0 cbbc f0cf a7bb f465 903c c494 babc
00000070: 0e13 493d 1ca4 21bd f8c6 febc b496 4a3d
00000080: 06d8 0fbd 0c60 063d 3032 cbbc ec5e 563d
00000090: c601 65bd d843 d8bc ca6d 7d3d 6a7e 0cbd
000000a0: 6891 1d3c b036 663c b073 2c3d a428 55bd
000000b0: 00d8 56bb f0de c93b 7cbc 503d 1e2c 3bbd
000000c0: 4e98 4e3d 8638 38bd b82f 07bd 00c6 e8ba
000000d0: 50be d3bb a443 903c 247b 7bbd 5896 5cbc
000000e0: 2cda 55bd 46c3 5bbd 08d3 abbc bee4 57bd
000000f0: 240c acbc 7857 0d3c c018 0b3d d28e 373d
00000100: 1091 fe3c 3499 24bd 38c4 3f3d 0433 393d
00000110: 000e 45b9 f071 523c c45e eb3c 8066 6abc
00000120: c416 f1bc f089 433c 9613 6ebd 4a50 26bd
00000130: d6bc 7c3d b245 713d 8017 ffba a490 0f3d
00000140: 68aa 5bbd d0ab af3c 86ac 58bd 846c 473d
00000150: c283 12bd f206 10bd ac38 db3c 2ee3 76bd
00000160: 10b7 3fbc 6297 543d 68b1 8f3c e8e7 55bc
00000170: 344b a83c 3098 df3c a8ed 68bc 70e4 a6bc
00000180: 6890 353d 2016 813c 202d 613d 785f 67bc
00000190: 20e1 073d b064 20bc 6a5c 183d 486e 0bbd
000001a0: 8c91 1e3d fe93 5dbd 18b4 1b3c 8061 ff3a
000001b0: 7c65 223d 6886 943c b898 783c 7057 1fbc
000001c0: fe64 53bd 5680 46bd a0c6 71bd e0bc 46bb
000001d0: 68d9 acbc 4432 e6bc 589d 77bc a0eb 813c
000001e0: 28a5 64bc 903f 7abc bc71 dabc e292 263d
000001f0: 8039 073a 38dc e03c be8c 603d d476 b6bc
00000200: 6026 38bb e06d 41bd 18d4 2e3d 2865 2b3c
00000210: 5a23 6ebd e42b 143d b097 da3b d4bb 26bd
00000220: b8a3 5bbc 9437 153d e842 f73c f8ca 7d3c
00000230: f474 ea3c 6890 c63c 8832 72bc 2c53 a9bc
00000240: ec32 41bd e4eb 2cbd 00c2 e1bb e0d1 d3bc
00000250: c6de 73bd d65e 5bbd b44f c3bc 7c83 4cbd
00000260: 129d 64bd 10a0 3c3d a49a b43c c02e 913b
00000270: 709b dc3b 8003 9a3c c64a 2f3d a04c 973b
00000280: 144a af3c 28a4 7a3d 9a99 0a3d c0de e93c
00000290: 542a 183d 5890 44bd 7ebd 37bd 8455 efbc
000002a0: a036 4abd 08dd 93bc 24f4 4e3d 8081 4dba
000002b0: 728f 30bd 0a48 49bd 44b0 02bd 4084 733d
000002c0: 80bb 793c 50a9 0fbd 6899 313c d614 4cbd
000002d0: 4485 4a3d 9618 48bd 348c 7b3d 886a dcbc
000002e0: 720e 663d cc5b 29bd 90eb 92bb c62f 25bd
000002f0: a00f cfbb 7cc8 eebc fe24 10bd d4c8 32bd
00000300: a6c7 433d 5a9e 143d 6808 6bbd 80d6 4f3d
00000310: 9212 033d 40c9 acbc c83d 223c aeb6 73bd
00000320: b8e7 293d d800 dfbc b439 a23c cc0f 1d3d
00000330: 4c23 6bbd bccb 233d c64f 1ebd 8040 0b3b
00000340: 5eff 203d 98af 183d 50ee 833b dc18 4a3d
00000350: 9e7c 38bd 74d6 ecbc 68b9 6f3c 8237 0a3d
00000360: 94df 2a3d 56e5 6cbd f689 403d 262f 6d3d
00000370: f0cd 5bbd c8ea 493d ac74 673d 5873 51bc
00000380: 20c0 f63b ec3f 60bd 7442 59bd e221 43bd
00000390: 5041 85bb 04a6 26bd 103c 6ebd 7048 5b3d
000003a0: d854 f13c 3cb3 823c f2ee 1bbd c46d 513d
000003b0: d02e e93c a2fd 1cbd 20df 70bd 8051 f7bc
000003c0: 78bc 62bc d051 793d 74b6 e33c 2018 693b
000003d0: ee24 63bd a022 553d 701c 17bc 14e4 85bc
000003e0: a40c c73c 00b5 93bc 8a94 763d 48b2 77bd
000003f0: 4091 b2bb 3ab9 6a3d 44d2 ebbc 8cf0 13bd
0.042123698 -0.055743016 0.05696051 0.0013895035 -0.038602628 0.03496027 0.04956536 0.026709743
0.0110195875 0.039089054 -0.0091083795 0.0063428804 0.031213738 0.011798859 -0.042292014 0.0075466484
0.0039478764 0.013079472 -0.06207777 0.055029914 -0.045601726 0.046330296 -0.055486605 -0.050983675
-0.02489505 -0.0051212236 0.01762674 -0.022776015 0.049090438 -0.039463148 -0.031100735 0.049460128
-0.035118125 0.03280644 -0.024804205 0.05233662 -0.055909894 -0.026399538 0.06187228 -0.034300245
0.009617187 0.014051124 0.042102516 -0.05204071 -0.0032782555 0.0061606094 0.050961003 -0.04569637
0.050438218 -0.04497578 -0.033004493 -0.0017759204 -0.006461896 0.017610379 -0.061396733 -0.013463579
-0.052210018 -0.053653024 -0.020974651 -0.05270838 -0.021001883 0.008626811 0.03395915 0.04481394
0.03107503 -0.04018517 0.04681799 0.045214668 -0.000187926 0.012844548 0.028731711 -0.0143066645
-0.0294298 0.011934742 -0.058124147 -0.040603913 0.061703525 0.058904357 -0.001946196 0.03505005
-0.05362931 0.021444231 -0.052898906 0.048687473 -0.035770185 -0.035162874 0.026760422 -0.06027525
-0.01170136 0.051902182 0.017540649 -0.013055779 0.020543672 0.027294248 -0.014216818 -0.0203726
0.04432717 0.01575762 0.054974675 -0.014121883 0.03317368 -0.009789631 0.037197508 -0.03404072
0.038713023 -0.054096214 0.009503387 0.0019484013 0.039647564 0.018130496 0.01517313 -0.009725437
-0.051609986 -0.048462234 -0.059027314 -0.003032498 -0.021099761 -0.02810014 -0.015113197 0.015859425
-0.013955392 -0.015273944 -0.02666556 0.040667422 0.00051584095 0.027448758 0.054821722 -0.022273459
-0.0028099045 -0.047223926 0.042682737 0.010461129 -0.058139183 0.03617467 0.0066709146 -0.04070647
-0.013405733 0.036429957 0.03018327 0.015490286 0.02862022 0.02423878 -0.014782555 -0.020669542
-0.047167704 -0.04221715 -0.0068895817 -0.025856912 -0.059538625 -0.05355724 -0.023841716 -0.04993008
-0.055813856 0.046051085 0.022046395 0.004430622 0.006732397 0.018800497 0.04279592 0.0046172887
0.021397628 0.061191708 0.033837892 0.028548598 0.037149742 -0.04798922 -0.04485845 -0.029215582
-0.0493685 -0.018049732 0.0505258 -0.00078394264 -0.04310555 -0.049140967 -0.03190638 0.059452295
0.015242457 -0.03507358 0.010839798 -0.04982456 0.0494435 -0.048851572 0.061413005 -0.026906267
0.05616612 -0.04134731 -0.0044836476 -0.040328763 -0.0063190013 -0.029148333 -0.03519153 -0.043648556
0.04779782 0.03628383 -0.057381064 0.050741673 0.032000132 -0.021092057 0.009902425 -0.05950039
0.04148075 -0.027222082 0.019802906 0.038345143 -0.05740671 0.039989218 -0.038650297 0.0021248162
0.039306037 0.037276834 0.004026212 0.049340114 -0.04504072 -0.028910853 0.014631607 0.033744343
0.041717127 -0.0578359 0.04700657 0.057906292 -0.053663194 0.04929617 0.05650775 -0.012783848
0.0075302273 -0.05474846 -0.05304189 -0.047639735 -0.0040666237 -0.04068567 -0.05816275 0.05353588
0.029459402 0.015954606 -0.038069673 0.05113007 0.028464705 -0.03832782 -0.05880654 -0.03019023
-0.01383888 0.060869038 0.027796961 0.0035567358 -0.05545514 0.052034974 -0.009223089 -0.016344108
0.02429802 -0.018030643 0.06020025 -0.060472757 -0.005449444 0.057305552 -0.028786786 -0.036118075

fc2.bias f4 [5]
00000000: 0c71 a8bc 6048 483d d4f7 01bd 0afc 52bd
00000010: 9dde a13d
-0.020561717 0.048897147 -0.031730488 -0.051509894 0.07903788
