Models/Torch2/my_model48500.pth (torch_old, 60054 bytes, 8 tensors)

conv1.weight f4 [16, 2, 3, 3]
0.3288645 -0.5417024 -0.2078999 0.3813302 -0.07248934 -0.39899924 -0.20625666 -0.291416
-0.16048601 -0.16782245 0.8201664 0.8165304 -0.07619454 -0.22980718 0.017804136 0.07713256
-0.026937418 0.0115538025 -0.39850655 -0.38908407 -0.11993505 0.83109295 0.26038998 0.6841138
0.56327355 0.92005295 0.016291274 0.23350736 -0.74952495 0.26302558 0.12217371 0.17423956
-0.88482356 0.0077044303 0.13769762 -0.7116915 0.6387104 0.7632551 0.61243224 -0.40899405
-0.42706752 -0.17772143 0.45141202 0.5248582 -0.16901498 0.18166055 0.27905485 -0.64967346
0.14891393 -0.46032685 0.10608638 -0.02179879 0.23441784 -0.49394298 0.23580645 -0.21436422
-0.09358432 0.68840975 0.27150413 -0.106724724 -0.033999596 0.54585195 0.5209159 -0.09636648
-0.11755569 0.65733653 -0.104835756 0.05371618 0.55527586 -0.14458936 0.15152213 -0.16136359
-0.16942151 -0.16466132 0.67510414 -0.17681189 0.1261266 -0.03250024 -0.16377069 0.4301054
-0.039878875 0.021592079 -0.36758748 0.23151156 0.044028047 0.108714186 -0.18119803 0.08383054
0.01554508 -0.29594842 0.49142173 -0.13053602 -0.11917078 0.890339 0.33130127 0.6201754
-0.21455748 0.50782293 -0.23002055 -0.55763924 -0.4525252 -0.38796183 -0.07851466 -0.8529439
0.0935528 -0.09221881 0.0138481185 -0.039186954 0.11691587 -0.08360462 -0.035711277 -0.090391785
0.083975956 -0.16665864 0.14834759 0.2836506 0.09068049 0.037874352 -0.1072294 0.10230891
0.16773514 0.28262705 -0.21060285 -0.09260244 -0.18760386 -0.15051626 -0.08456142 0.1419411
-0.09382603 -0.16294624 0.44394344 -0.090963125 -0.03824571 -0.1129149 0.5520541 -0.03139708
-0.2975651 -0.22551711 -0.042120066 -0.19307396 -0.48457816 -0.09931317 -0.19503555 -0.12607938
0.0009068484 -0.011555447 -0.08788499 -0.4695339 -0.08994799 -0.10475425 0.1546202 -0.38235798
-0.24776372 -0.0809909 -0.14922893 0.7597077 0.122490175 0.56169367 0.5660392 0.067228176
0.49140537 -0.029822022 -0.5892725 0.16046208 0.041582983 0.59577113 -0.35588717 0.13653025
-0.4318434 0.39112398 0.04296867 -0.093153544 -0.39633298 0.86045635 0.11151496 0.057258885
-0.41006947 0.04702891 -0.09019192 0.6142398 -0.07908249 0.109936036 -0.054135013 0.633568
-0.0013962719 -0.23414932 0.7715488 -0.12401471 -0.14180836 0.57936776 -0.12813427 -0.10769533
0.16394018 0.7653305 0.42927524 0.080691725 0.64534265 0.6260694 0.161146 0.022298057
0.13679482 0.46040532 -0.35089952 0.3422652 -0.24853311 0.3174357 -0.041476805 0.23413202
0.6064195 -0.063112654 -0.061129734 0.30690548 0.6668637 0.099123985 -0.12838174 0.056107815
-0.25720295 -0.174832 -0.01347993 0.4025508 0.11622021 -0.17580144 0.5354514 0.3564198
0.098948635 -0.09920228 -0.07375174 -0.12954028 -0.1368639 -0.1429862 0.685724 -0.20673296
-0.08950389 0.36260572 -0.11172899 -0.17089933 -0.15368785 -0.3550469 0.9588624 0.32196906
0.8001392 -0.6319809 0.561044 -0.07975525 -0.10105641 -0.52531993 -0.03370464 0.040272325
-0.890794 0.044793967 0.28924212 0.7254296 -0.05132266 -0.22298235 0.08124391 -0.07729427
00000000: ee60 a83e 02ad 0abf b6e3 54be b63d c33e
00000010: 4b75 94bd a149 ccbe f234 53be 7a34 95be
00000020: 7256 24be a6d9 2bbe 6df6 513f 2308 513f
00000030: e20b 9cbd 9352 6bbe fbd9 913c adf7 9d3d
00000040: dcab dcbc 294c 3d3c 0d09 ccbe 0736 c7be
00000050: 82a0 f5bd 82c2 543f d651 853e 1522 2f3f
00000060: b232 103f 9788 6b3f 4775 853c 8e1c 6f3e
00000070: dee0 3fbf 4aab 863e 3636 fa3d db6b 323e
00000080: cc83 62bf 7275 fc3b 9b00 0d3e 6a31 36bf
00000090: 8682 233f b064 433f 5cc8 1c3f ab67 d1be
000000a0: 98a8 dabe 9bfc 35be 7a1f e73e 1b5d 063f
000000b0: 4312 2dbe 3905 3a3e 47e0 8e3e 0051 26bf
000000c0: e57c 183e f6af ebbe d143 d93d 6093 b2bc
000000d0: 3b0b 703e 18e6 fcbe 3f77 713e 4b82 5bbe
000000e0: 23a9 bfbd 9f3b 303f 9702 8b3e 7e92 dabd
000000f0: 2943 0bbd f4bc 0b3f bf5a 053f ca5b c5bd
00000100: 0ac1 f0bd 3547 283f 21b4 d6bd 7f05 5c3d
00000110: 8f26 0e3f 3c0f 14be 9e28 1b3e 7f3c 25be
00000120: d57c 2dbe fa9c 28be a0d3 2c3f 2d0e 35be
00000130: 5527 013e f91e 05bd 81b3 27be c636 dc3e
00000140: 0858 23bd dfe1 b03c 6d34 bcbe 5e11 6d3e
00000150: c156 343d 8ba5 de3d fa8b 39be 59af ab3d
00000160: cbb0 7e3c 8d86 97be a19b fb3e 3cab 05be
00000170: cf0f f4bd 42ed 633f 52a0 a93e d1c3 1e3f
00000180: f5b4 5bbe af00 023f 828a 6bbe 72c1 0ebf
00000190: 62b1 e7be efa2 c6be 4bcc a0bd 885a 5abf
000001a0: 9c98 bf3d 37dd bcbd 38e3 623c 8082 20bd
000001b0: 9671 ef3d e638 abbd fd45 12bd 541f b9bd
000001c0: 96fb ab3d 90a8 2abe 6ee8 173e a73a 913e
000001d0: b1b6 b93d 2322 1b3d 169b dbbd 5587 d13d
000001e0: c3c2 2b3e 7eb4 903e 46a8 57be 59a6 bdbd
000001f0: 3a1b 40be ef20 1abe 8a2e adbd 0259 113e
00000200: dd27 c0bd 61db 26be 8e4c e33e e04a babd
00000210: 89a7 1cbd ed3f e7bd 6b53 0d3f 399a 00bd
00000220: 745a 98be f5ed 66be 1786 2cbd 2eb5 45be
00000230: a11a f8be b464 cbbd 66b7 47be f41a 01be
00000240: 91b9 6d3a 0f53 3dbc 0cfd b3bd bf66 f0be
00000250: a736 b8bd 6589 d6bd c254 1e3e 6dc4 c3be
00000260: c6b5 7dbe 8fde a5bd 78cf 18be 347c 423f
00000270: 21dc fa3d 28cb 0f3f f2e7 103f edae 893d
00000280: 7c99 fb3e 504d f4bc 90da 16bf 2c50 243e
00000290: eb52 2a3d 7584 183f d836 b6be 96ce 0b3e
000002a0: 941a ddbe 6741 c83e ebff 2f3d 49c7 bebd
000002b0: 28ec cabe de46 5c3f f561 e43d 4b88 6a3d
000002c0: a0f4 d1be 63a1 403d 8bb6 b8bd d23e 1d3f
000002d0: 00f6 a1bd 2526 e13d adbc 5dbd 8331 223f
000002e0: 1c03 b7ba d7c4 6fbe 3984 453f 6dfb fdbd
000002f0: 3636 11be 7251 143f a135 03be 5f8f dcbd
00000300: efdf 273e b3ec 433f f7c9 db3e b441 a53d
00000310: 2d35 253f 1646 203f 7503 253e 6aaa b63c
00000320: f113 0c3e 3fba eb3e 1aa9 b3be 623d af3e
00000330: 777f 7ebe ef86 a23e 95e3 29bd 4ec0 6f3e
00000340: 4f3e 1b3f 3541 81bd 2c63 7abd b722 9d3e
00000350: 94b7 2a3f 8401 cb3d 8176 03be 4fd1 653d
00000360: 1bb0 83be 2907 33be edda 5cbc 231b ce3e
00000370: dd04 ee3d 4b05 34be 5813 093f a87c b63e
00000380: 95a5 ca3d 912a cbbd 270b 97bd 35a6 04be
00000390: 0d26 0cbe f96a 12be 9c8b 2f3f ceb1 53be
000003a0: d14d b7bd 75a7 b93e 2bd2 e4bd 3c00 2fbe
000003b0: 5960 1dbe b5c8 b5be 0278 753f 21d9 a43e
000003c0: ecd5 4c3f 80c9 21bf 94a0 0f3f b856 a3bd
000003d0: aaf6 cebd 5e7b 06bf e00d 0abd 98f4 243d
000003e0: 130b 64bf e179 373d 8b17 943e c1b5 393f
000003f0: b637 52bd 7c55 64be 3563 a63d 754c 9ebd

conv1.bias f4 [16]
-0.3549572 -0.33438578 -0.28196868 -0.5327963 -0.17025301 -0.18284439 -0.28755754 -0.05489234
-0.16517605 -0.33980495 -0.8114663 -0.47400892 -0.53107613 -0.26534706 -0.37082425 -0.8071946
00000000: f3bc b5be 9d34 abbe 335e 90be 5765 08bf
00000010: ce56 2ebe 8f3b 3bbe be3a 93be cad6 60bd
00000020: e923 29be eafa adbe 41bc 4fbf 4cb1 f2be
00000030: 9bf4 07bf 92db 87be addc bdbe 4ea4 4ebf

conv2.weight f4 [32, 16, 3, 3]
0.39870548 -0.1756536 0.32481623 0.46450326 -0.07329186 0.39489606 -0.027808527 0.029206559
0.13625792 0.24130891 -0.5884215 -0.014973753 -0.15050183 0.07003441 -0.26395696 0.53748256
-0.105392136 0.60246706 0.6030446 -0.11352357 0.25782868 0.279404 -0.24327736 -0.04275547
0.18099451 -0.49939448 0.18070334 -0.06821668 0.1910384 0.04092087 0.070249654 0.0032820925
0.04104109 0.105050825 0.0677043 0.07945394 0.13249259 -0.27197057 0.30055195 0.13338296
-0.13940023 -0.17009841 -0.13722704 -0.048025567 0.04370691 -0.35394028 0.17207408 -0.6988663
-0.7259587 -0.18341212 -0.1864614 -0.06178409 0.07620361 -0.5104069 -0.054174483 -0.00081526954
0.09982072 -0.09410035 -0.01437038 -0.027406717 -0.04596625 0.06533432 0.010485218 0.0037484164
-0.07400574 -0.05815363 0.10970371 -0.04342942 -0.049911343 0.14169665 -0.25254005 0.13162018
-0.0067511797 0.1852932 -0.3513561 0.0010634785 0.09469775 0.22164983 0.11991603 -0.002495089
0.21561022 0.15730578 -0.097892344 -0.21080835 -0.09883906 0.33859402 -0.3727274 0.022327911
0.029417334 -0.112161666 0.46892962 -0.19201085 0.084897295 0.30831975 -0.14366092 0.016026404
0.5159013 -0.12646054 0.516659 0.23312911 -0.028235802 0.07366946 0.14837395 0.106244154
-0.045557097 0.1596832 -0.14126164 0.054026805 -0.15838449 0.14233582 -0.11571175 0.01916863
0.044273686 -0.0009301051 -0.033591766 0.16882099 -0.1338253 -0.03896249 -0.19834736 -0.5169768
0.03845242 0.026739504 0.27829534 0.52098167 -0.10279199 0.4293582 -0.11860126 -0.09415446
-0.124031164 -0.17347296 0.14355302 -0.24813055 -0.12752402 0.1928756 -0.20037061 0.41131178
-0.5593571 0.308579 0.5460438 -0.17822243 0.45066997 0.24305311 -0.07671675 0.11536979
0.25294387 -0.0867784 0.14486691 0.22978929 -0.19035344 0.23843728 0.0042923247 -0.00091183383
0.020449784 0.3887956 -0.041652348 0.29429236 -0.20424348 -0.072331354 0.10681816 0.12074185
-0.12850639 0.25697634 0.14296293 -0.12165916 0.11509766 0.42881233 0.029291881 0.5081672
0.04542615 -0.1655315 0.08924859 -0.015879039 0.06548143 -0.14269774 -0.065066956 -0.016964868
0.07674553 0.019021217 0.04969253 0.052852225 0.19353424 -0.18738495 0.019183705 0.15671904
-0.045688827 0.23991437 -0.08487264 -0.094192654 0.031234879 0.2448193 0.23866194 0.068807766
0.087618425 0.102764204 0.0035905277 0.10058762 0.16600701 0.027982716 0.014404512 -0.008691465
0.111508265 0.009087136 -0.019122332 0.028732054 -0.06809076 0.040631786 -0.03993895 0.21847533
-0.22474699 0.31508663 0.23968399 0.06519799 0.021835733 0.22080496 -0.0744857 0.059715033
-0.09525407 0.13911524 -0.044822562 -0.051490072 0.07419649 -0.07382114 0.113711126 0.08852449
-0.04789964 0.13267441 0.1308916 0.09589276 -0.11934818 0.14289008 -0.07005026 -0.02254211
0.105684765 -0.1270606 0.24457903 -0.06364332 -0.0033786874 0.14730982 -0.064571045 -0.053431597
0.22868153 -0.0616039 0.38041276 0.18914855 0.051393144 0.2606039 0.018826455 0.04673278
0.039931014 0.1607105 -0.121130794 0.122388646 0.016871938 0.1479938 -0.16343978 -0.10903304
00000000: 2023 cc3e 8ade 33be 504e a63e 5fd3 ed3e
00000010: 0b1a 96bd d12f ca3e b5ce e3bc 9842 ef3c
00000020: 3287 0b3e af19 773e cba2 16bf 7954 75bc
00000030: 271d 1abe 336e 8f3d 5e25 87be 7598 093f
00000040: d5d7 d7bd 483b 1a3f 2261 1a3f 0c7f e8bd
00000050: 1f02 843e 0b0e 8f3e b31d 79be 5c20 2fbd
00000060: a056 393e a2b0 ffbe 4c0a 393e 30b5 8bbd
00000070: 929f 433e a49c 273d 0ddf 8f3d 6018 573b
00000080: b41a 283d e324 d73d 8da8 8a3d bfb8 a23d
00000090: 23ac 073e ba3f 8bbe f2e1 993e 8b95 083e
000000a0: efbe 0ebe 472e 2ebe 3f85 0cbe 75b6 44bd
000000b0: 0406 333d a937 b5be 3034 303e e7e8 32bf
000000c0: 6ed8 39bf 63d0 3bbe bdef 3ebe 5011 7dbd
000000d0: a310 9c3d 07aa 02bf 10e6 5dbd d0b7 55ba
000000e0: ce6e cc3d afb7 c0bd be71 6bbc 0d84 e0bc
000000f0: 1b47 3cbd 00ce 853d 31ca 2b3c fea7 753b
00000100: 5290 97bd 8032 6ebd 57ac e03d 0ce3 31bd
00000110: d66f 4cbd ed18 113e ee4c 81be 71c7 063e
00000120: 0039 ddbb 80bd 3d3e f2e4 b3be 6b64 8b3a
00000130: e5f0 c13d 2cf8 623e 8996 f53d a684 23bb
00000140: edc8 5c3e c414 213e c87b c8bd 25de 57be
00000150: 226c cabd 325c ad3e 20d6 bebe 06e9 b63c
00000160: 9ffc f03c 04b5 e5bd 8b17 f03e 7e9e 44be
00000170: a2de ad3d 16dc 9d3e d91b 13be ce49 833c
00000180: 1c12 043f df7e 01be c443 043f 66b9 6e3e
00000190: c54e e7bc 04e0 963d 57ef 173e 8996 d93d
000001a0: 149a 3abd fe83 233e e4a6 10be 364b 5d3d
000001b0: 8b2f 22be 7bc0 113e 48fa ecbd 8807 9d3c
000001c0: 5358 353d 4cd2 73ba 8597 09bd 69df 2c3e
000001d0: 8009 09be 2297 1fbd 921b 4bbe 9758 04bf
000001e0: 4980 1d3d ce0c db3c ba7c 8e3e 0e5f 053f
000001f0: 9b84 d2bd d7d4 db3e 38e5 f2bd 0ed4 c0bd
00000200: 0d04 febd e5a2 31be 90ff 123e ef15 7ebe
00000210: a895 02be 2e81 453e f42d 4dbe 7597 d23e
00000220: 0732 0fbf 11fe 9d3e 87c9 0b3f f17f 36be
00000230: 37be e63e eae2 783e ac1d 9dbd ff46 ec3d
00000240: dc81 813e e0b8 b1bd fe57 143e e24d 6b3e
00000250: 03ec 42be e728 743e a1a6 8c3b 2208 6fba
00000260: 4e86 a73c 3810 c73e a79b 2abd 7dad 963e
00000270: 3425 51be 7622 94bd 7bc3 da3d 8147 f73d
00000280: 2e97 03be 6792 833e e064 123e 7028 f9bd
00000290: 52b8 eb3d 4a8d db3e 87f5 ef3c 3f17 023f
000002a0: c510 3a3d 1781 29be f7c7 b63d c214 82bc
000002b0: 211b 863d 5b1f 12be d341 85bd e8f9 8abc
000002c0: c32c 9d3d 62d2 9b3c 658a 4b3d 937b 583d
000002d0: d72d 463e d7e1 3fbe 2527 9d3c f57a 203e
000002e0: 3524 3bbd 1dac 753e b5d1 adbd 14e8 c0bd
000002f0: 4ae0 ff3c e9b1 7a3e cc63 743e 16eb 8c3d
00000300: 4a71 b33d 0a76 d23d 0f4f 6b3b e200 ce3d
00000310: befd 293e 023c e53c e700 6c3c a566 0ebc
00000320: 725e e43d 36e2 143c 70a6 9cbc 7c5f eb3c
00000330: 2b73 8bbd 846d 263d 0697 23bd ffb7 5f3e
00000340: 1324 66be 0953 a13e b86f 753e 8686 853d
00000350: dae0 b23c b21a 623e f58b 98bd c097 743d
00000360: 9114 c3bd 3a74 0e3e dd97 37bd 41e7 52bd
00000370: 54f4 973d 8a2f 97bd 61e1 e83d 544c b53d
00000380: 6a32 44bd cddb 073e 7308 063e 6c63 c43d
00000390: d26c f4bd c751 123e 8376 8fbd 3baa b8bc
000003a0: 4171 d83d 2d1c 02be ed72 7a3e 6e57 82bd
000003b0: f86c 5dbb 63d8 163e d33d 84bd 17db 5abd
000003c0: 7e2b 6a3e 5f54 7cbd 76c5 c23e 28b0 413e
000003d0: 9e81 523d e06d 853e f039 9a3c df6a 3f3d
000003e0: b48e 233d 4b91 243e 6c13 f8bd e6a6 fa3d
000003f0: 0537 8a3c b08b 173e c25c 27be b74c dfbd

conv2.bias f4 [32]
0.2740822 0.080585755 -0.11293461 -0.1801418 0.0035194124 -0.0031422828 0.0048126117 0.015776483
-0.33880237 0.076230444 0.1732011 -0.022493163 0.031932823 0.13509567 -0.08586778 -0.1269614
-0.054738715 0.22159413 0.12579753 -0.16127723 0.04292427 -0.09924475 -0.12841868 -0.17606604
0.12086347 -0.13183187 -0.12804945 -0.033287197 -0.062349785 -0.10906998 -0.08680927 -0.12132621
00000000: 8154 8c3e 250a a53d 434a e7bd 1877 38be
00000010: f1a5 663b c2ee 4dbb 1db3 9d3b af3d 813c
00000020: 8177 adbe b51e 9c3d a15b 313e 9543 b8bc
00000030: fecb 023d 8556 0a3e 72db afbd 2b02 02be
00000040: b435 60bd 92e9 623e 11d1 003e dc25 25be
00000050: 5cd1 2f3d d540 cbbd 3080 03be a84a 34be
00000060: 4487 f73d effe 06be 651f 03be 2858 08bd
00000070: 7d62 7fbd 1560 dfbd 0fc9 b1bd e079 f8bd

fc1.weight f4 [256, 32]
0.02688673 0.06710485 -0.15701513 -0.0076658744 0.021071268 0.030018177 0.06457898 -0.08128088
0.052111715 -0.1956714 -0.04233033 0.10993144 0.09073687 -0.15042089 -0.09395025 0.1032632
-0.07679517 0.14261161 0.054647107 -0.07629028 -0.051830143 -0.031739105 0.10368353 -0.048456427
-0.111763075 -0.020685235 0.07645555 -0.0700636 -0.1637738 -0.007518841 -0.12604727 0.025051557
0.08722972 -0.19738069 -0.15823583 -0.07845095 0.049010534 0.07449976 -0.119184494 -0.11994166
-0.08323234 0.120890744 -0.15805767 0.06324112 -0.12379174 0.076738626 0.07617004 0.1100418
-0.026011266 0.08210373 -0.12567252 -0.060503766 -0.10209366 0.063622475 -0.109844 -0.09692027
-0.072610654 0.07082521 0.071569934 0.05571208 0.10504588 0.07525351 0.025251327 -0.08145699
-0.1695941 -0.09792535 -0.26951063 0.04487576 0.12753463 -0.032565866 -0.11233635 0.14799702
0.09852984 0.19800045 0.27639645 0.035648253 -0.14501344 -0.3055225 -0.19678882 -0.07026799
-0.19434246 0.035890885 0.119957514 0.16385481 0.17099856 0.010820428 0.01405157 0.107176326
-0.04189046 0.036384586 0.017684137 0.22701152 0.010203818 -0.27370712 -0.1257663 0.024794482
-0.14328517 -0.14665301 -0.0035764552 -0.16709158 0.14861348 -0.14367768 0.031650323 -0.17043795
-0.15056138 0.06847347 0.061168723 -0.09160763 0.09856666 -0.14755915 -0.1475207 -0.12268093
-0.043466315 0.05985718 -0.0042739483 0.09931739 0.08093149 -0.06553765 -0.05011287 -0.10013187
-0.043616794 -0.18426919 -0.1569758 -0.010214093 -0.064732105 0.0949862 -0.102123216 0.026102478
0.017429136 -0.050056595 0.16407451 -0.11355602 -0.14355034 -0.21424145 -0.158511 0.082448006
-0.014585847 0.0043146997 0.09055739 0.041036848 0.12213759 -0.011924137 -0.16867484 0.016121058
-0.20068109 0.030016214 -0.174906 0.081295945 -0.15304087 0.12790911 -0.17186962 -0.016210375
-0.11761001 -0.08529482 0.10368038 0.12263486 0.1366829 -0.020793635 -0.19479303 -0.008092582
-0.17495832 0.095504165 -0.11327423 -0.030512774 -0.047006644 -0.05526989 0.077036 -0.002007121
-0.06327678 -0.008099742 0.1879845 -0.14695834 -0.12612525 0.12760201 0.100286454 -0.0231025
-0.12686658 -0.05859788 0.012010498 0.07532031 0.091382265 -0.20055123 0.09157707 -0.016960992
0.04204054 -0.00037178563 0.051528756 -0.15624146 0.0054115513 -0.044250067 0.026234066 -0.11305574
-0.015502267 -0.1416026 -0.123725265 0.101905905 -0.12768038 0.054661497 0.11302122 -0.049168676
-0.0018105495 0.071223654 0.023843478 -0.1967275 0.018058026 0.029485095 -0.12400254 0.053421233
-0.014287338 0.07568448 -0.071849376 -0.12590612 0.022992838 -0.09666737 0.12505445 -0.030233447
-0.17486984 0.07647736 0.1260774 0.15533371 0.08846867 -0.066038996 -0.07811493 -0.1908198
0.049877577 0.033710837 -0.11244273 -0.2543603 0.12057687 -0.03282977 0.101986974 0.15699773
-0.12105821 -0.042708542 -0.07776504 -0.043898493 -0.03299382 0.23100191 -0.099225216 0.060335696
-0.076532535 -0.112022184 0.019631969 -0.07072543 0.09082165 -0.1845091 0.025413724 -0.13863336
0.09211639 -0.049610384 -0.1827524 0.0665218 -0.06455781 -0.08521283 0.10472054 0.077012174
00000000: 8f41 dc3c 456e 893d 93c8 20be 0432 fbbb
00000010: a79d ac3c aee8 f53c fc41 843d 9776 a6bd
00000020: 1873 553d 155e 48be 9162 2dbd bc23 e13d
00000030: 41d4 b93d ef07 1abe fd68 c0bd a87b d33d
00000040: c946 9dbd c708 123e a5d5 5f3d 143e 9cbd
00000050: d84b 54bd dd00 02bd 0858 d43d 3f7a 46bd
00000060: 0ae4 e4bd 1574 a9bc ba94 9c3d 817d 8fbd
00000070: 52b4 27be 9c60 f6bb 8912 01be ec38 cd3c
00000080: 7fa5 b23d 2a1e 4abe 9308 22be e4aa a0bd
00000090: 45bf 483d 5593 983d 0017 f4bd f9a3 f5bd
000000a0: b875 aabd 9195 f73d dfd9 21be 8f84 813d
000000b0: 8686 fdbd 2429 9d3d 0aff 9b3d 985d e13d
000000c0: 9415 d5bc 0026 a83d 4cb0 00be ccd2 77bd
000000d0: 7b16 d1bd 804c 823d e4f5 e0bd 227e c6bd
000000e0: e5b4 94bd cf0c 913d 4293 923d 5a32 643d
000000f0: 4b22 d73d 831e 9a3d dfdb ce3c ecd2 a6bd
00000100: 13aa 2dbe 168d c8bd 4cfd 89be a5cf 373d
00000110: 7098 023e c963 05bd 9a10 e6bd 888c 173e
00000120: 03ca c93d a1c0 4a3e d683 8d3e e703 123d
00000130: 677e 14be 726d 9cbe 0283 49be aae8 8fbd
00000140: b601 47be 5202 133d 49ac f53d 8ec9 273e
00000150: 3f1a 2f3e 2a48 313c 8e38 663c 437f db3d
00000160: 5595 2bbd 0108 153d 53de 903c b575 683e
00000170: ea2d 273c 5723 8cbe e2c8 00be cc1d cb3c
00000180: 59b9 12be 352c 16be f662 6abb 0e1a 2bbe
00000190: 222e 183e 3e20 13be c5a3 013d 4987 2ebe
000001a0: c32c 1abe d23b 8c3d 0e8c 7a3d c89c bbbd
000001b0: 51dd c93d bf19 17be ab0f 17be 2440 fbbd
000001c0: bc09 32bd cd2c 753d 7a0c 8cbb ea66 cb3d
000001d0: 69bf a53d 9a38 86bd 2743 4dbd f011 cdbd
000001e0: 86a7 32bd 10b1 3cbe 44be 20be 0359 27bc
000001f0: 4492 84bd 2088 c23d fa25 d1bd ddd4 d53c
00000200: 8cc7 8e3c 2508 4dbd 2603 283e 0f90 e8bd
00000210: dcfe 12be 1c62 5bbe b550 22be 80da a83d
00000220: 7af9 6ebc 5362 8d3b 2776 b93d 4116 283d
00000230: 4623 fa3d 755d 43bc 19b9 2cbe 4f10 843c
00000240: 587f 4dbe 90e4 f53c 8f1a 33be 7d7e a63d
00000250: bfb6 1cbe 9bfa 023e 97fe 2fbe 9fcb 84bc
00000260: 84dd f0bd 0daf aebd 6156 d43d fc27 fb3d
00000270: 9af6 0b3e 6a57 aabc d377 47be c096 04bc
00000280: 4628 33be b097 c33d 52fc e7bd edf5 f9bc
00000290: 0a8a 40bd ae62 62bd 0dc5 9d3d e789 03bb
000002a0: 4297 81bd c8b4 04bc 027f 403e 3f7c 16be
000002b0: fa26 01be 1aaa 023e fc62 cd3d 7441 bdbc
000002c0: 50e9 01be 5504 70bd aec7 443c 8941 9a3d
000002d0: a026 bb3d 4d5d 4dbe c28c bb3d c7f1 8abc
000002e0: b432 2c3d 39ec c2b9 d10f 533d c3fd 1fbe
000002f0: 6253 b13b 8f3f 35bd d3e8 d63c c589 e7bd
00000300: 38fd 7dbc 4600 11be ac63 fdbd 0bb4 d03d
00000310: a5be 02be bce4 5f3d ab77 e73d 1865 49bd
00000320: f64f edba b5dd 913d 6653 c33c ef72 49be
00000330: 6dee 933c ba8a f13c 0bf5 fdbd 39d0 5a3d
00000340: 7015 6abc 7700 9b3d c425 93bd 89ed 00be
00000350: 7a5b bc3c 8bf9 c5bd 460e 003e 22ac f7bc
00000360: 1411 33be 2aa0 9c3d 6f1a 013e cd0f 1f3e
00000370: 102f b53d 743f 87bd b8fa 9fbd 4466 43be
00000380: 6e4c 4c3d 6014 0a3d 6048 e6bd 833b 82be
00000390: 02f1 f63d 8278 06bd 8cde d03d 03c4 203e
000003a0: 5eed f7bd 27ef 2ebd 4743 9fbd e8ce 33bd
000003b0: 8724 07bd c48b 6c3e 9736 cbbd 9022 773d
000003c0: 17bd 9cbd e36b e5bd 39d3 a03c 7fd8 90bd
000003d0: b400 ba3d f4ef 3cbe 7130 d03c e7f5 0dbe
000003e0: 85a7 bc3d 4234 4bbd 7223 3bbe 953c 883d
000003f0: e336 84bd 1084 aebd b977 d63d 8fb8 9d3d

fc1.bias f4 [256]
-0.12649861 -0.16983089 0.0011933371 -0.037768036 -0.15041019 -0.16996603 -0.12163771 -0.044013184
-0.16928668 0.049842507 0.04488995 -0.19842283 -0.20051555 -0.060787726 -0.1723786 -0.1360313
-0.15236346 -0.029098203 -0.16523977 -0.14276515 -0.11903538 -0.1521397 -0.1597387 -0.015327836
-0.2623502 -0.20175101 -0.15598151 -0.094333276 0.1014696 -0.03660214 -0.258972 -0.05335059
-0.155735 -0.14550437 -0.14749168 -0.14545867 0.008065604 -0.19444837 -0.038080785 -0.18064632
-0.19409823 -0.17069 -0.10509065 -0.060277596 -0.09634326 -0.120287634 -0.12885837 -0.15962552
-0.049346495 -0.22804673 -0.03306187 -0.094720066 -0.14519279 -0.1300843 -0.15500706 -0.15447192
-0.097644374 -0.07558348 -0.06882328 -0.14997682 -0.09542517 -0.13962 -0.23670062 -0.13845624
-0.13840398 0.066276476 -0.17491764 -0.2696525 -0.15946032 -0.10943415 -0.041038346 0.027589623
0.050538477 -0.04598144 -0.04312268 -0.07412903 -0.1406712 -0.064653456 -0.09065715 -0.2323217
-0.0960079 -0.20461267 -0.19231455 -0.18037403 -0.21730046 -0.12288849 -0.29462516 -0.08911506
-0.20692027 -0.035865348 0.07749123 -0.22162746 -0.064952746 -0.29201144 -0.2303494 -0.1325369
-0.17671339 -0.16051127 -0.090514176 -0.12935746 -0.0946991 -0.012039717 -0.134656 -0.09512505
-0.19397937 -0.16418193 -0.24186149 0.0744512 -0.17466946 -0.13497187 -0.10770047 -0.05203977
-0.15353413 0.1357386 -0.17125791 -0.07207465 -0.05963266 -0.14316656 -0.11920127 -0.117783725
-0.1753881 -0.10195825 -0.079166174 -0.13251248 -0.071698055 -0.17941678 -0.1178897 -0.05824195
-0.123325445 -0.20241478 -0.13758968 -0.18382503 -0.14174964 -0.17646192 -0.1368351 -0.12217572
-0.11598992 -0.18594724 -0.23895395 -0.1796053 -0.16410665 0.19215894 -0.043664426 -0.13897157
-0.15927474 -0.10940567 -0.20635019 -0.38385135 -0.10075617 -0.12656538 -0.1992761 -0.016023362
-0.21878493 -0.19583318 -0.09837829 -0.23090844 -0.2458755 -0.07493025 -0.17618941 -0.13330644
-0.088851385 0.0033718925 -0.0739119 -0.109736964 -0.020096466 -0.185685 -0.036099307 -0.1335818
-0.16605438 -0.1590531 -0.1063665 -0.12502006 0.048821356 -0.19406721 -0.11925178 -0.21287942
-0.116225064 -0.09742552 -0.1763215 -0.040468175 -0.15012012 0.00209954 -0.11384332 -0.20210665
-0.18841818 -0.049389586 -0.13672082 -0.19448923 -0.04000996 -0.2570236 -0.27045062 -0.0505403
-0.002275195 -0.13487573 -0.23690957 -0.049713116 0.040771984 -0.16403599 -0.093849964 -0.20840229
-0.079041496 -0.17602794 -0.10673502 -0.19641428 -0.06133392 -0.065346055 -0.1671738 -0.0659015
-0.123311356 0.07995148 -0.13100408 -0.12239122 -0.113059334 -0.35251668 -0.09469103 -0.14871882
-0.15683055 -0.15478083 -0.19246948 -0.056694146 0.017358629 -0.054308873 -0.051914796 -0.08609961
-0.16325311 -0.18170668 0.055091787 -0.11783893 -0.12599568 -0.12445582 -0.19507544 -0.0062944912
-0.16289654 -0.21727882 -0.17076129 -0.04318939 -0.12999256 -0.0674068 -0.0940167 -0.15816644
-0.14986625 -0.06873046 -0.16502273 -0.2035186 -0.0926052 -0.15672885 -0.15105723 -0.12763853
-0.19534053 -0.12034693 -0.13961147 -0.24739902 -0.12494269 -0.18278706 -0.18784682 -0.19272855
00000000: da88 01be 26e8 2dbe c069 9c3a a8b2 1abd
00000010: 2105 1abe 930b 2ebe 311d f9bd 2b47 34bd
00000020: 7d59 2dbe a827 4c3d 86de 373d 5b2f 4bbe
00000030: f353 4dbe 8dfc 78bd 0484 30be ca4b 0bbe
00000040: 2b05 1cbe 5b5f eebc 9d34 29be 0731 12be
00000050: d2c8 f3bd 82ca 1bbe 8b92 23be 9b21 7bbc
00000060: c452 86be d197 4ebe 9eb9 1fbe ce31 c1bd
00000070: 4bcf cf3d 20ec 15bd fa97 84be 2686 5abd
00000080: ff78 1fbe 19ff 14be 0f08 17be 1ef3 14be
00000090: 9825 043c 791d 47be 99fa 1bbd 59fb 38be
000000a0: b0c1 46be 5cc9 2ebe c439 d7bd a4e5 76bd
000000b0: 9d4f c5bd 5d59 f6bd 73f3 03be df74 23be
000000c0: 8d1f 4abd 1585 69be e26b 07bd 98fc c1bd
000000d0: 6bad 14be d234 05be 2cba 1ebe e32d 1ebe
000000e0: c6f9 c7bd 83cb 9abd 38f3 8cbd 8693 19be
000000f0: 466e c3bd 8cf8 0ebe a661 72be 79c7 0dbe
00000100: c6b9 0dbe f6bb 873d 9c1d 33be e40f 8abe
00000110: 9149 23be 031f e0bd d317 28bd a203 e23c
00000120: 6f01 4f3d 0957 3cbd 68a1 30bd f6d0 97bd
00000130: 1c0c 10be 0869 84bd 75aa b9bd bde5 6dbe
00000140: ca9f c4bd fc85 51be 1bee 44be f8b3 38be
00000150: 0384 5ebe f6ac fbbd 1cd9 96be f581 b6bd
00000160: e8e2 53be 8be7 12bd b9b3 9e3d 4ff2 62be
00000170: f205 85bd 8682 95be b7e0 6bbe c1b7 07be
00000180: 5bf4 34be 115d 24be 7f5f b9bd 4876 04be
00000190: 9af1 c1bd 3c42 45bc 43e3 09be ecd0 c2bd
000001a0: 87a2 46be 4f1f 28be 8aaa 77be df79 983d
000001b0: 8ddc 32be 1136 0abe 1092 dcbd a727 55bd
000001c0: 0d38 1dbe 0fff 0a3e 3c5e 2fbe e09b 93bd
000001d0: 6041 74bd 419a 12be cc1f f4bd 9838 f1bd
000001e0: f098 33be 7dcf d0bd e021 a2bd 5ab1 07be
000001f0: 6ed6 92bd 08b9 37be 2870 f1bd 1c8f 6ebd
00000200: 0d92 fcbd d245 4fbe 4fe4 0cbe a13c 3cbe
00000210: d126 11be 6fb2 34be 801e 0cbe 4437 fabd
00000220: 208c edbd f468 3ebe 58b0 74be 74ea 37be
00000230: 930b 28be 50c5 443e 78d9 32bd 904e 0ebe
00000240: eb18 23be 1410 e0bd 774d 53be 2a88 c4be
00000250: 4059 cebd 5b9a 01be 090f 4cbe 6d43 83bc
00000260: 2809 60be 7e88 48be 8f7a c9bd 4373 6cbe
00000270: c9c6 7bbe 0875 99bd ff6a 34be 7c81 08be
00000280: b7f7 b5bd f8fa 5c3b 1f5f 97bd c6bd e0bd
00000290: 58a1 a4bc 3524 3ebe dedc 13bd abc9 08be
000002a0: 290a 2abe d1de 22be aed6 d9bd 4205 00be
000002b0: e7f8 473d 8eb9 46be 473a f4bd 10fd 59be
000002c0: 6807 eebd 0887 c7bd a08d 34be f5c1 25bd
000002d0: 17b9 19be 7098 093b b026 e9bd 0cf5 4ebe
000002e0: b2f0 40be bc4c 4abd 8b00 0cbe 2f28 47be
000002f0: 7ce1 23bd 9998 83be 8178 8abe 5803 4fbd
00000300: 701b 15bb dd1c 0abe 6c98 72be fb9f 4bbd
00000310: 8600 273d 0df9 27be 6934 c0bd 6967 55be
00000320: 82e0 a1bd ab40 34be e497 dabd d320 49be
00000330: 4739 7bbd 27d4 85bd 9c2f 2bbe 5ef7 86bd
00000340: aa8a fcbd 9abd a33d ef25 06be 3fa8 fabd
00000350: a78b e7bd 117d b4be 5fed c1bd bf49 18be
00000360: 3098 20be de7e 1ebe b816 45be 1f38 68bd
00000370: af33 8e3c fb72 5ebd 9ca4 54bd fe54 b0bd
00000380: d32b 27be 5111 3abe eda7 613d 8955 f1bd
00000390: 0305 01be b1e2 febd dbc1 47be 0542 cebb
000003a0: 5ace 26be 577e 5ebe 0cdc 2ebe 5ce7 30bd
000003b0: c51c 05be 940c 8abd d48b c0bd 62f6 21be
000003c0: 8a76 19be 8ec2 8cbd b8fb 28be 2e67 50be
000003d0: cca7 bdbd 877d 20be bfae 1abe adb3 02be
000003e0: 5907 48be 7478 f6bd 4ff6 0ebe 2b56 7dbe
000003f0: f4e1 ffbd 882c 3bbe eb5a 40be a25a 45be

fc2.weight f4 [5, 256]
0.042123698 -0.055743016 0.05696051 0.0013895035 -0.038602628 0.03496027 0.04956536 0.026709743
0.0110195875 0.039089054 -0.0091083795 0.0063428804 0.031213738 0.011798859 -0.042292014 0.0075466484
0.0039478764 0.013079472 -0.06207777 0.055029914 -0.045601726 0.046330296 -0.055486605 -0.050983675
-0.02489505 -0.0051212236 0.01762674 -0.022776015 0.049090438 -0.039463148 -0.031100735 0.049460128
-0.035118125 0.03280644 -0.024804205 0.05233662 -0.055909894 -0.026399538 0.06187228 -0.034300245
0.009617187 0.014051124 0.042102516 -0.05204071 -0.0032782555 0.0061606094 0.050961003 -0.04569637
0.050438218 -0.04497578 -0.033004493 -0.0017759204 -0.006461896 0.017610379 -0.061396733 -0.013463579
-0.052210018 -0.053653024 -0.020974651 -0.05270838 -0.021001883 0.008626811 0.03395915 0.04481394
0.03107503 -0.04018517 0.04681799 0.045214668 -0.000187926 0.012844548 0.028731711 -0.0143066645
-0.0294298 0.011934742 -0.058124147 -0.040603913 0.061703525 0.058904357 -0.001946196 0.03505005
-0.05362931 0.021444231 -0.052898906 0.048687473 -0.035770185 -0.035162874 0.026760422 -0.06027525
-0.01170136 0.051902182 0.017540649 -0.013055779 0.020543672 0.027294248 -0.014216818 -0.0203726
0.04432717 0.01575762 0.054974675 -0.014121883 0.03317368 -0.009789631 0.037197508 -0.03404072
0.038713023 -0.054096214 0.009503387 0.0019484013 0.039647564 0.018130496 0.01517313 -0.009725437
-0.051609986 -0.048462234 -0.059027314 -0.003032498 -0.021099761 -0.02810014 -0.015113197 0.015859425
-0.013955392 -0.015273944 -0.02666556 0.040667422 0.00051584095 0.027448758 0.054821722 -0.022273459
-0.0028099045 -0.047223926 0.042682737 0.010461129 -0.058139183 0.03617467 0.0066709146 -0.04070647
-0.013405733 0.036429957 0.03018327 0.015490286 0.02862022 0.02423878 -0.014782555 -0.020669542
-0.047167704 -0.04221715 -0.0068895817 -0.025856912 -0.059538625 -0.05355724 -0.023841716 -0.04993008
-0.055813856 0.046051085 0.022046395 0.004430622 0.006732397 0.018800497 0.04279592 0.0046172887
0.021397628 0.061191708 0.033837892 0.028548598 0.037149742 -0.04798922 -0.04485845 -0.029215582
-0.0493685 -0.018049732 0.0505258 -0.00078394264 -0.04310555 -0.049140967 -0.03190638 0.059452295
0.015242457 -0.03507358 0.010839798 -0.04982456 0.0494435 -0.048851572 0.061413005 -0.026906267
0.05616612 -0.04134731 -0.0044836476 -0.040328763 -0.0063190013 -0.029148333 -0.03519153 -0.043648556
0.04779782 0.03628383 -0.057381064 0.050741673 0.032000132 -0.021092057 0.009902425 -0.05950039
0.04148075 -0.027222082 0.019802906 0.038345143 -0.05740671 0.039989218 -0.038650297 0.0021248162
0.039306037 0.037276834 0.004026212 0.049340114 -0.04504072 -0.028910853 0.014631607 0.033744343
0.041717127 -0.0578359 0.04700657 0.057906292 -0.053663194 0.04929617 0.05650775 -0.012783848
0.0075302273 -0.05474846 -0.05304189 -0.047639735 -0.0040666237 -0.04068567 -0.05816275 0.05353588
0.029459402 0.015954606 -0.038069673 0.05113007 0.028464705 -0.03832782 -0.05880654 -0.03019023
-0.01383888 0.060869038 0.027796961 0.0035567358 -0.05545514 0.052034974 -0.009223089 -0.016344108
0.02429802 -0.018030643 0.06020025 -0.060472757 -0.005449444 0.057305552 -0.028786786 -0.036118075
00000000: e689 2c3d ca52 64bd 6c4f 693d 0020 b63a
00000010: ca1d 1ebd 8032 0f3d 0c05 4b3d 64ce da3c
00000020: 808b 343c d81b 203d 503b 15bc f0d7 cf3b
00000030: f4b3 ff3c 0050 413c 643a 2dbd e049 f73b
00000040: 305d 813b 484b 563c 4245 7ebd 0c67 613d
00000050: e0c8 3abd d6c4 3d3d ec45 63bd 42d4 50bd
00000060: b4f0 cbbc f0cf a7bb f465 903c c494 babc
00000070: 0e13 493d 1ca4 21bd f8c6 febc b496 4a3d
00000080: 06d8 0fbd 0c60 063d 3032 cbbc ec5e 563d
00000090: c601 65bd d843 d8bc ca6d 7d3d 6a7e 0cbd
000000a0: 6891 1d3c b036 663c b073 2c3d a428 55bd
000000b0: 00d8 56bb f0de c93b 7cbc 503d 1e2c 3bbd
000000c0: 4e98 4e3d 8638 38bd b82f 07bd 00c6 e8ba
000000d0: 50be d3bb a443 903c 247b 7bbd 5896 5cbc
000000e0: 2cda 55bd 46c3 5bbd 08d3 abbc bee4 57bd
000000f0: 240c acbc 7857 0d3c c018 0b3d d28e 373d
00000100: 1091 fe3c 3499 24bd 38c4 3f3d 0433 393d
00000110: 000e 45b9 f071 523c c45e eb3c 8066 6abc
00000120: c416 f1bc f089 433c 9613 6ebd 4a50 26bd
00000130: d6bc 7c3d b245 713d 8017 ffba a490 0f3d
00000140: 68aa 5bbd d0ab af3c 86ac 58bd 846c 473d
00000150: c283 12bd f206 10bd ac38 db3c 2ee3 76bd
00000160: 10b7 3fbc 6297 543d 68b1 8f3c e8e7 55bc
00000170: 344b a83c 3098 df3c a8ed 68bc 70e4 a6bc
00000180: 6890 353d 2016 813c 202d 613d 785f 67bc
00000190: 20e1 073d b064 20bc 6a5c 183d 486e 0bbd
000001a0: 8c91 1e3d fe93 5dbd 18b4 1b3c 8061 ff3a
000001b0: 7c65 223d 6886 943c b898 783c 7057 1fbc
000001c0: fe64 53bd 5680 46bd a0c6 71bd e0bc 46bb
000001d0: 68d9 acbc 4432 e6bc 589d 77bc a0eb 813c
000001e0: 28a5 64bc 903f 7abc bc71 dabc e292 263d
000001f0: 8039 073a 38dc e03c be8c 603d d476 b6bc
00000200: 6026 38bb e06d 41bd 18d4 2e3d 2865 2b3c
00000210: 5a23 6ebd e42b 143d b097 da3b d4bb 26bd
00000220: b8a3 5bbc 9437 153d e842 f73c f8ca 7d3c
00000230: f474 ea3c 6890 c63c 8832 72bc 2c53 a9bc
00000240: ec32 41bd e4eb 2cbd 00c2 e1bb e0d1 d3bc
00000250: c6de 73bd d65e 5bbd b44f c3bc 7c83 4cbd
00000260: 129d 64bd 10a0 3c3d a49a b43c c02e 913b
00000270: 709b dc3b 8003 9a3c c64a 2f3d a04c 973b
00000280: 144a af3c 28a4 7a3d 9a99 0a3d c0de e93c
00000290: 542a 183d 5890 44bd 7ebd 37bd 8455 efbc
000002a0: a036 4abd 08dd 93bc 24f4 4e3d 8081 4dba
000002b0: 728f 30bd 0a48 49bd 44b0 02bd 4084 733d
000002c0: 80bb 793c 50a9 0fbd 6899 313c d614 4cbd
000002d0: 4485 4a3d 9618 48bd 348c 7b3d 886a dcbc
000002e0: 720e 663d cc5b 29bd 90eb 92bb c62f 25bd
000002f0: a00f cfbb 7cc8 eebc fe24 10bd d4c8 32bd
00000300: a6c7 433d 5a9e 143d 6808 6bbd 80d6 4f3d
00000310: 9212 033d 40c9 acbc c83d 223c aeb6 73bd
00000320: b8e7 293d d800 dfbc b439 a23c cc0f 1d3d
00000330: 4c23 6bbd bccb 233d c64f 1ebd 8040 0b3b
00000340: 5eff 203d 98af 183d 50ee 833b dc18 4a3d
00000350: 9e7c 38bd 74d6 ecbc 68b9 6f3c 8237 0a3d
00000360: 94df 2a3d 56e5 6cbd f689 403d 262f 6d3d
00000370: f0cd 5bbd c8ea 493d ac74 673d 5873 51bc
00000380: 20c0 f63b ec3f 60bd 7442 59bd e221 43bd
00000390: 5041 85bb 04a6 26bd 103c 6ebd 7048 5b3d
000003a0: d854 f13c 3cb3 823c f2ee 1bbd c46d 513d
000003b0: d02e e93c a2fd 1cbd 20df 70bd 8051 f7bc
000003c0: 78bc 62bc d051 793d 74b6 e33c 2018 693b
000003d0: ee24 63bd a022 553d 701c 17bc 14e4 85bc
000003e0: a40c c73c 00b5 93bc 8a94 763d 48b2 77bd
000003f0: 4091 b2bb 3ab9 6a3d 44d2 ebbc 8cf0 13bd

fc2.bias f4 [5]
-0.020561717 0.048897147 -0.031730488 -0.051509894 0.0074376017
00000000: 0c71 a8bc 6048 483d d4f7 01bd 0afc 52bd
00000010: 20b7 f33b
