Models/Torch2/my_model20000.pth (torch_old, 60054 bytes, 8 tensors)

conv1.weight f4 [16, 2, 3, 3]
000000 81 30 70 3e 44 f6 a0 be 21 db 89 bd 0a 0d 99 3c
       0.23456003 -0.31437886 -0.06731249 0.018682975
000010 cf 7b 8c bd 03 07 78 be b6 28 37 be 1c 7f 93 be
       -0.06859552 -0.24221425 -0.17886624 -0.28807914
000020 c2 8e 0f be a6 d9 2b be 32 b1 0e 3f 68 a8 f2 3e
       -0.14019302 -0.16782245 0.5573913 0.4739411
000030 7a fb 5b bd 93 52 6b be 62 d3 3f 3d dc 91 e5 3d
       -0.053706624 -0.22980718 0.04683245 0.11209461
000040 f2 69 f2 3c 4b 0c d0 bc a0 17 b6 be 32 ab a9 be
       0.029591534 -0.025396487 -0.355649 -0.33138424
000050 1b 48 01 be 5b 9f 16 3f 04 7c af 3e 16 59 07 3f
       -0.12625162 0.5883691 0.34274304 0.5287031
000060 e8 23 ee 3e d4 db 32 3f cd d9 ee 3d 66 57 d0 3d
       0.4651177 0.6986668 0.11662636 0.1017292
000070 9e bd c8 be 58 47 97 3e a8 13 5c bd 28 77 93 3d
       -0.39207166 0.29546618 -0.053729683 0.072004616
000080 20 11 24 bf 5b e6 17 3e 98 0d 57 3e 7b f3 ef be
       -0.6408863 0.14833967 0.2100128 -0.46865448
000090 48 c6 09 3f 7d 80 f0 3e ea 5d 01 3f e1 cf bb be
       0.5381818 0.4697303 0.50533926 -0.36682037
0000a0 01 ba be be e6 0e 3e be 23 29 8a 3e 7b ec 99 3e
       -0.37251285 -0.18560371 0.2698451 0.30063233
0000b0 6d c5 24 3e 77 4a 0b be 6e 37 94 3e c1 91 17 bf
       0.16090937 -0.13602625 0.2894854 -0.5920678
0000c0 2d 9f 3e 3d 6e db ea be eb 47 79 3e 8d c6 02 3d
       0.04653852 -0.45870537 0.24343841 0.031927634
0000d0 23 f5 d3 3d 00 7c de be 0c ca 9e 3e 4b 82 5b be
       0.103494905 -0.4345398 0.31013525 -0.21436422
0000e0 93 07 b6 bd d3 9e e0 3e d9 76 12 3e 14 c2 b7 bd
       -0.088881634 0.43871173 0.1430315 -0.08972564
0000f0 ad 26 00 3d 71 52 a6 3e 81 70 03 3f 78 a8 ca bd
       0.031286884 0.32484773 0.5134354 -0.09895414
000100 ca 51 e3 bd 41 9e ba 3e 71 0f bf bd a1 65 ac 3d
       -0.110995844 0.36448863 -0.09329117 0.08417822
000110 51 84 b1 3e e7 d7 15 be 25 71 91 3e 0a 23 22 be
       0.34671262 -0.14633141 0.28406635 -0.15833679
000120 ec 49 29 be 8a 4c ff bd cb 72 07 3f 32 88 2a be
       -0.16532105 -0.124657705 0.52909535 -0.16653517
000130 90 81 61 3e 60 46 8b bd 75 d7 27 be 48 f6 b0 3e
       0.2202208 -0.06800532 -0.16390784 0.34562898
000140 39 84 8d bd 42 2b 62 3c c5 7b 41 be b5 cd 53 3e
       -0.06909985 0.013804259 -0.1889487 0.2068394
000150 10 bc 91 bc a3 06 44 3d a9 e1 32 be 2e 44 c9 3d
       -0.01778987 0.04785789 -0.17468895 0.09827457
000160 3c 65 89 3c 09 96 85 be b5 67 f2 3e fd e9 06 be
       0.016771905 -0.2609103 0.47344747 -0.13175197
000170 80 ca f4 bd 5a d1 10 3f b5 cf a2 3e 27 cd 0a 3f
       -0.11952686 0.56569445 0.31799093 0.5421929
000180 f5 b4 5b be b2 29 e0 3e 82 8a 6b be 1f d7 d9 be
       -0.21455748 0.4378181 -0.23002055 -0.42546937
000190 85 78 d3 be ba e9 8b be cd b6 74 3c 3e 16 1a bf
       -0.41302887 -0.27326757 0.014936161 -0.6019019
0001a0 76 c9 eb 3d 18 b5 ee bd cc 63 5c bd 82 3d db bc
       0.11513035 -0.11655635 -0.05380611 -0.026762728
0001b0 e4 52 09 3e e6 38 ab bd c4 14 00 bd 54 1f b9 bd
       0.13410527 -0.08360462 -0.031269804 -0.090391785
0001c0 1c 65 a1 3d 90 a8 2a be 04 51 9b 3d 26 13 87 3e
       0.07880613 -0.16665864 0.07583812 0.26381797
0001d0 12 e5 12 3e d5 bf fc 3c 16 9b db bd 70 05 a3 3d
       0.14345196 0.030853191 -0.1072294 0.079600215
0001e0 80 e0 47 3e 92 4f 66 3e 46 a8 57 be c6 b8 bc bd
       0.19519234 0.22491291 -0.21060285 -0.0921493
0001f0 3a 1b 40 be ef 20 1a be df 85 a3 bd ed 5a f3 3d
       -0.18760386 -0.15051626 -0.07984518 0.11882577
000200 1d 25 61 bd 61 db 26 be 90 80 aa 3e 4c b1 53 bc
       -0.054967035 -0.16294624 0.3330121 -0.012920689
000210 54 34 e4 bc 8c 90 de bd a2 71 63 3e b4 1a 9e bd
       -0.027856983 -0.10867414 0.22211316 -0.07719937
000220 4e a6 91 be 28 ab 1c be 4b 26 8a 3d 00 6f 4e be
       -0.28447193 -0.15299666 0.06745585 -0.2015953
000230 ed 21 b1 be 28 34 39 bd 8d af 06 be 3a cf 08 be
       -0.34596196 -0.045215756 -0.13152905 -0.133603
000240 d0 41 51 bd 94 85 2a 3e 96 ce ca bd f0 d9 d6 bd
       -0.051088154 0.16652519 -0.099026844 -0.10490787
000250 7d 65 3e bd 07 e7 f5 bd af e5 40 3d af 32 8e be
       -0.046483506 -0.120069556 0.047094043 -0.27773044
000260 0a d5 c0 bd 63 4d b8 3c 63 3e 0e be c7 e9 29 3f
       -0.09415634 0.022497838 -0.13890986 0.6637234
000270 7d a0 83 3e 1e 05 92 3e ee 53 db 3e fa 05 1a 3e
       0.2570838 0.2851953 0.4283747 0.15041342
000280 6d 4c d4 3e e5 8f b2 bc a5 c7 e1 be d7 99 5a 3e
       0.41464558 -0.02179713 -0.4409763 0.21347748
000290 1e af bb 3d 76 5a a1 3e 56 53 2c bd 91 33 96 3e
       0.0916426 0.3151433 -0.042071663 0.29336217
0002a0 fb 91 b1 be e6 9e 8e 3e 86 9a 11 3d c5 70 30 be
       -0.34681687 0.27855605 0.035547756 -0.17230518
0002b0 c7 4a 7f be 02 11 03 3f bf 59 ca 3d 1b e4 30 3e
       -0.24930869 0.51197827 0.09880399 0.17274515
0002c0 e1 51 a4 be 59 c0 94 3d 5e 00 06 bd ac 71 a0 3e
       -0.3209372 0.0726325 -0.032715194 0.31336725
0002d0 7f 69 7a 3b de 53 0c 3e 81 cd 46 bd e3 e3 e6 3e
       0.0038209853 0.13703868 -0.048535828 0.4509574
0002e0 b8 b1 ef bc d7 c4 6f be f2 b8 ea 3e 96 d1 21 be
       -0.029259548 -0.23414932 0.45844227 -0.15802607
0002f0 52 61 cb bd 57 4d c4 3e 8c 58 00 be 2c b1 5c bd
       -0.09930672 0.38340256 -0.12533778 -0.0538799
000300 05 1b 36 3e 67 f1 06 3f 18 9c bd 3e b7 81 d7 3d
       0.17783745 0.527121 0.37033153 0.10522788
000310 3e cd b1 3e 7b 41 c7 3e 6f 87 24 3e 33 b0 16 39
       0.347269 0.38917145 0.16067289 0.00014370754
000320 72 ec 9d 3e 80 de 64 3e 9b 1c 8b be ed 11 b2 3e
       0.30844456 0.22350502 -0.27170262 0.347793
000330 a3 46 66 be 79 d0 4b bd 01 84 e6 3d 9b fb 6c 3e
       -0.22487883 -0.049759362 0.112556465 0.23142855
000340 10 5f df 3e 50 96 d5 bd 5b b3 96 bd d6 a4 9b 3e
       0.43627214 -0.104290605 -0.07358428 0.30399197
000350 c1 c1 e9 3e d0 22 21 3e 1c 21 dc bd 9f c4 65 3d
       0.45655635 0.15735936 -0.107485026 0.056095716
000360 9b 8c 45 be 47 c4 bd bd 29 8d e5 3c cf 1f e0 3e
       -0.19291918 -0.092659526 0.028021412 0.43774268
000370 c9 d2 76 3d 4b 05 34 be 65 1c c3 3e ad df d3 bb
       0.060259614 -0.17580144 0.381076 -0.006465873
000380 0a 37 47 3d ae 16 da bd ed 5c 8e bd e9 7b 02 be
       0.048636474 -0.10648857 -0.06951318 -0.1274258
000390 0b e4 0f be 06 45 13 be be ff 13 3f ce b1 53 be
       -0.14051835 -0.14381799 0.57812107 -0.20673296
0003a0 84 ca 2a bd 31 d9 99 3e 0e c7 c6 bd 57 b1 3f bc
       -0.04169704 0.30048516 -0.097059354 -0.011699996
0003b0 5e a6 10 be 45 18 a1 be 31 d7 03 3f 68 30 57 3e
       -0.14125964 -0.3146383 0.5150023 0.2101456
0003c0 81 b0 4b 3f 48 3c 17 bf 3c 90 95 3e b2 7b ea bd
       0.795662 -0.59076357 0.29211605 -0.11449374
0003d0 37 e9 58 be 63 86 a5 be ec f8 d6 3d a9 a0 97 bd
       -0.21182714 -0.3232909 0.10496697 -0.0740369
0003e0 0c 41 2b bf 83 f7 c7 3c f5 1b 3e 3e a2 8a 05 3f
       -0.6689613 0.024410015 0.18565352 0.5216466
0003f0 93 1f 3a bb 32 0c 64 be 61 c2 e7 3d 28 c2 96 b9
       -0.0028400167 -0.22270277 0.11316372 -0.00028754887

conv1.bias f4 [16]
000000 53 e7 6c be af a5 06 3d d2 02 87 bd 2f e2 c4 be
       -0.23135118 0.032872852 -0.06592335 -0.38453814
000010 0e c1 e9 bd e1 7f 30 be 2c b0 83 be 03 6f bf bd
       -0.114137754 -0.17236282 -0.25720346 -0.09347346
000020 72 a9 e0 bd 66 95 45 bd 66 07 cc be 68 88 27 be
       -0.10969819 -0.04823818 -0.39849395 -0.16360629
000030 60 1e b2 be ce 15 4a be d5 eb 4f be 48 f8 b7 be
       -0.347888 -0.1973488 -0.20304807 -0.3593161

conv2.weight f4 [32, 16, 3, 3]
000000 77 f7 80 3e be 06 14 be ad 2e 7c 3e dc 78 80 3e
       0.251888 -0.14455697 0.2462718 0.25092208
000010 6e 3f 55 3c 9c 57 a2 3e af 27 52 3d 99 4d 58 bc
       0.013015611 0.31707466 0.051307376 -0.0132020945
000020 79 82 f4 3d dd a1 85 3e 03 49 c0 be 4a 7d 83 bd
       0.11938948 0.26100054 -0.37555704 -0.06420381
000030 a1 38 92 bd 97 0c b8 3d 29 6c 4f be 89 a2 e2 3e
       -0.07139707 0.08986776 -0.20256104 0.4426463
000040 f1 04 32 be ac 6c ec 3e 48 f5 dd 3e f9 85 3a be
       -0.17384697 0.4617666 0.43351197 -0.18215169
000050 7a c6 b7 3e ee a9 8f 3e e1 c3 2c be ab 21 f3 ba
       0.35893613 0.28059334 -0.16871597 -0.0018549463
000060 5a 9f ed 3d a8 11 dd be d4 e0 cb ba b6 e4 b2 bc
       0.116026595 -0.43177533 -0.0015554675 -0.021837573
000070 9b ac aa 3c 72 25 d3 3c ad bf 0e 3e 39 d1 39 3d
       0.020834258 0.025774691 0.13940306 0.045365546
000080 ad 61 a2 3d cb 39 2e 3e 33 36 e8 bd d7 d4 d8 3d
       0.079287864 0.17014234 -0.11338463 0.10587471
000090 64 b9 00 3e 50 b5 d2 bd 12 ba 3f 3e aa 59 c9 3d
       0.12570721 -0.10288489 0.18723324 0.09831555
0000a0 5e 31 cd 3c 0c 7c 1a be c3 2c 3c bd ce c4 e6 bc
       0.025047954 -0.15086383 -0.045941126 -0.028170016
0000b0 24 72 86 bd 37 60 80 be 53 9c b6 3c cf e9 04 bf
       -0.06564739 -0.25073406 0.022291338 -0.51919264
0000c0 f8 40 f4 be 1d b4 cc bd bf dd 5e be e7 88 f8 bd
       -0.47705817 -0.099952914 -0.21764277 -0.12135487
0000d0 b6 50 b4 3d 9b 73 af be d2 60 89 bd 61 d3 7e 3b
       0.08804457 -0.34267887 -0.0670792 0.0038883316
0000e0 7b ec 81 3d bd c3 cd bd b9 4d 98 bb 86 f4 f6 bc
       0.06343933 -0.100471 -0.004647937 -0.030145895
0000f0 36 d4 aa bc 7f 4c bb 3d b4 fc 86 bc 31 57 fc 3b
       -0.020853143 0.0914545 -0.01647792 0.0077008237
000100 56 69 95 bd 7a 85 aa bc 9c 64 eb 3d 65 2c a8 bc
       -0.07295482 -0.0208156 0.11493799 -0.020528981
000110 fa 96 0e 3b 65 b5 8f 3d 74 28 33 be 96 42 70 3d
       0.002175747 0.0701702 -0.174959 0.05865725
000120 2e 75 b6 3d b3 ea b3 3e ed 1f 9c be 43 97 9e 3d
       0.08909069 0.3514 -0.30493107 0.07743695
000130 ab 6c 1e 3e f0 b3 66 3d 52 82 da 3d ba 83 f9 bc
       0.15471141 0.056323946 0.10669388 -0.03045832
000140 b0 a9 4f 3e f4 2c 32 3e f0 ea ec bc 11 07 87 be
       0.20279574 0.17399961 -0.02892062 -0.2637258
000150 ed 02 f5 bc 32 d0 83 3e d8 c1 4f be 5f 5e d2 3d
       -0.029908622 0.25744778 -0.2028879 0.10271906
000160 3d 11 9a bd 42 38 2a be e5 a2 ac 3e 37 16 f6 bd
       -0.07522819 -0.16623023 0.3371803 -0.12015956
000170 f6 53 00 3e a9 f8 a5 3e 55 96 61 be d3 95 ee 3c
       0.12532029 0.32416275 -0.22030003 0.029124176
000180 87 59 85 3e 68 ff 5f be 0a ac bb 3e 2a c6 3c 3e
       0.26044866 -0.21874774 0.36654693 0.18434969
000190 3c 5f 3e bd f8 d4 d9 3d 76 81 2d 3e 74 25 86 3d
       -0.04647754 0.10636324 0.16943917 0.06550112
0001a0 58 b8 57 bd fe d6 22 3e 16 80 0e be 0c e9 1b 3d
       -0.05266604 0.15902326 -0.13916048 0.038064048
0001b0 35 3e ec bd bd 5d d7 3d 8c dc 45 bd 42 af 94 3d
       -0.115353025 0.10515926 -0.048306033 0.0725999
0001c0 3e c8 08 3d b8 8a a2 bb 3e 27 c9 bc 68 47 c1 3d
       0.03339409 -0.004960384 -0.024554845 0.09437448
0001d0 20 9c 51 3b a0 db 63 3d ab a0 52 be 49 3d 68 be
       0.0031983927 0.055629373 -0.20569102 -0.22679628
0001e0 c0 3d bd 3d 91 eb 67 be e1 de 8a 3e 32 80 ac 3e
       0.092402935 -0.22648455 0.27123168 0.33691555
0001f0 82 f5 4b be fa 84 b8 3e 6a 72 6e bd 8b 53 df bc
       -0.19917873 0.36038953 -0.058214583 -0.027261516
000200 29 f9 1d be 0b 79 b9 bd d4 14 aa 3d fc 94 ff bd
       -0.15427078 -0.0905629 0.08304754 -0.124795884
000210 72 98 d8 ba 7b 82 b6 3c 7e a8 18 bd 0f f4 73 3e
       -0.0016524924 0.022279015 -0.03727006 0.2382357
000220 43 10 ed be 38 29 dd 3e 2b 55 97 3e 56 b9 aa be
       -0.4630147 0.4319551 0.29557166 -0.33344525
000230 b9 ad d9 3e b2 98 8b 3e 32 e4 0c be ea d2 d4 3d
       0.42515352 0.27264935 -0.13758925 0.10391791
000240 8a 39 c8 3c 4a 38 92 bd 7b be d6 3d 8d f4 03 3e
       0.0244415 -0.071396425 0.1048555 0.12886257
000250 7f fc 38 be 4c d1 60 3e eb b0 20 3c 27 09 32 bd
       -0.1806507 0.2195484 0.0098078055 -0.04346576
000260 be 88 dc 3d 6b e3 a2 3e de 49 e5 bd 40 79 cf 3e
       0.10768269 0.3181413 -0.1119573 0.40522194
000270 0e 1d 48 be ae 7d 9f bd b3 8d 31 3d f8 6d da 3d
       -0.19542333 -0.077876434 0.043348026 0.10665506
000280 b7 0e 29 be 8e 75 2a 3e 01 8c e7 3d 59 29 59 be
       -0.1650952 0.16646406 0.113060005 -0.21207179
000290 60 4a 44 3e 1c 40 a8 3e 29 6b ab bd f8 ee b2 3e
       0.19168997 0.32861412 -0.083700486 0.34947944
0002a0 f5 32 be 3d 04 b0 5b be 5f 13 f0 bb 21 0b a6 3d
       0.09287063 -0.21453863 -0.007326528 0.081075914
0002b0 f3 18 a2 bd 9c f2 88 bd 7b cb 57 bd 1a d1 9d ba
       -0.07914915 -0.06686899 -0.05268429 -0.0012040467
0002c0 bc fc 39 3d 0a fb 18 3d 80 ba 32 bd 9e a8 b2 3d
       0.045407042 0.037348785 -0.04363489 0.087235674
0002d0 42 0f 34 3e 4f 6c 59 be 1b 1c a9 3b 98 5c 27 3e
       0.17583945 -0.21232723 0.005160821 0.16343915
0002e0 95 62 ca bd ac e3 a1 3d e1 27 d3 bc da 1a b5 bd
       -0.09882084 0.07904753 -0.025775852 -0.08843012
0002f0 85 50 ea bd 9f a5 27 3e ba e2 27 3e cc 76 ba 3d
       -0.11441139 0.16371773 0.16395083 0.0910469
000300 aa c7 f9 3c e3 c5 cf 3d 60 85 45 be d3 6c ca bb
       0.030490715 0.10145166 -0.1928916 -0.0061775236
000310 81 2b ef 3d ed e7 35 bd af 2b 1b 3d ac 1f cc 3c
       0.116782196 -0.044410635 0.037883457 0.024917446
000320 18 9e b1 3d fe 86 15 3d 1d 9e 2f bc 1b 48 0c 3d
       0.08672732 0.03650569 -0.0107188495 0.034248453
000330 d0 71 35 bd c8 52 5e 3d a7 ff d8 bc d6 50 4a 3e
       -0.044297993 0.054278165 -0.026489092 0.19757399
000340 05 9c 08 be f0 18 21 3e e4 23 53 3e 2e 84 67 3c
       -0.13340767 0.15732169 0.2061916 0.014130635
000350 13 e5 36 bc a7 da 20 3e 82 6f 72 bd 17 9c a5 3b
       -0.011163014 0.15708409 -0.059188373 0.0050540078
000360 87 fb 2d bc a0 49 48 3e dd 42 d2 bd be 4e 91 bc
       -0.010619051 0.19559336 -0.102666594 -0.017737743
000370 4d 06 dc 3d 82 ff f6 bd 92 35 f5 3d 4a 6e b1 3d
       0.10743389 -0.12060453 0.11973108 0.08663614
000380 74 90 1e bd 62 29 9e 3d 08 cc 3c 3e c6 d2 84 3c
       -0.03871198 0.07722737 0.18437207 0.016213786
000390 60 c6 f8 bc f0 b3 8f 3d ca b0 15 3c ed d4 c8 3c
       -0.03036803 0.07016742 0.009136388 0.024515593
0003a0 20 c4 43 3d c1 b3 2a be 0f fd f7 3d 52 a2 45 bd
       0.04779446 -0.16670133 0.12108814 -0.048250504
0003b0 37 24 c5 3d e9 c1 af 3d 46 83 a0 3c 98 c4 50 3d
       0.09626048 0.08581907 0.019593846 0.050968736
0003c0 70 73 b4 3d 7e a6 1f bd df 41 83 3e 4e 99 36 3e
       0.088110805 -0.03897714 0.25636193 0.17831919
0003d0 18 98 24 bd 60 e7 8a 3e e2 6a fa 3d 80 1a af bc
       -0.04018411 0.2712965 0.122274175 -0.02137494
0003e0 fb fc b7 3d 4c 8d e1 3d 8d 7a 9b bd b9 7d e1 3d
       0.08983799 0.11013278 -0.07591734 0.11010308
0003f0 8f 91 29 3d 13 66 07 3e 17 97 eb bd 28 0e 8a bd
       0.04139858 0.13222532 -0.115034275 -0.06740981

conv2.bias f4 [32]
000000 ac 0b 03 3f 13 28 f6 3d 01 37 62 3e e9 47 25 be
       0.51189685 0.12019362 0.22091295 -0.16140713
000010 62 04 70 3d fa 36 83 3e 1f 0f 40 3d b9 03 20 bc
       0.05859793 0.2562788 0.04688942 -0.009766513
000020 a7 3d 5d bd 0c 06 2b 3e f7 da 92 3c fe 55 40 3d
       -0.054013874 0.16701525 0.017926676 0.04695701
000030 91 87 22 3d f4 46 1a 3d d0 b7 3b bd 45 48 2a bd
       0.039680067 0.037665322 -0.045829594 -0.041572828
000040 e9 dd d7 bb a2 b9 66 3d 56 8d 13 3e 1d 5a 22 be
       -0.006587733 0.056329377 0.14409384 -0.15854688
000050 2b ba 97 bd a2 72 d8 3d 44 7c 15 be ab a5 1f be
       -0.074085556 0.105687395 -0.14598185 -0.15590541
000060 e2 b4 c7 bd c2 f0 2c 3d ee ac 28 bd 9c 58 c7 3c
       -0.097512975 0.042221792 -0.041180544 0.024334244
000070 fd f3 d9 bd 9d f4 e3 bd 44 59 ec bd 86 f7 c2 bd
       -0.1064224 -0.11130641 -0.115404636 -0.095198676

fc1.weight f4 [256, 32]
000000 57 38 1a 3d db cc 9e 3d b9 59 03 be cd be 6d bb
       0.037651386 0.07753917 -0.12827195 -0.0036277056
000010 bd 6b c1 3c ae 21 ed 3c 9d 2e 85 3d 75 4f b1 bd
       0.023610944 0.028946724 0.065030314 -0.08657733
000020 51 76 69 3d cc 87 37 be 93 73 04 bd 3d 96 19 3e
       0.0569976 -0.17922896 -0.032336783 0.14998718
000030 56 15 c8 3d 63 6e 1d be 0b 56 b0 bd 6b f1 b9 3d
       0.097696945 -0.1537414 -0.086101614 0.0907925
000040 47 8e 99 bd cc e1 11 3e 6e c0 92 3d 09 bb a3 bd
       -0.074978404 0.14246291 0.07165609 -0.079946585
000050 72 15 25 bd e6 99 ea bc e6 85 8b 3d be 65 2e bd
       -0.040303655 -0.028637838 0.068126485 -0.042577498
000060 98 6b cf bd 65 6c 9f bc 3c fc b5 3d 39 cd a5 bd
       -0.10127944 -0.019460866 0.088860005 -0.08095784
000070 01 7a 27 be 17 96 91 3c a2 81 f1 bd e3 76 fb 3c
       -0.16355135 0.017771764 -0.117923036 0.030696338
000080 c0 31 e0 3d 5b dd 3a be 37 05 e8 bd c3 49 58 bd
       0.10946989 -0.18248503 -0.1132912 -0.05280472
000090 e4 8f 8d 3d 01 c4 e2 3d 5d cd d7 bd a2 3b ea bd
       0.069122106 0.11072541 -0.10537217 -0.11437155
0000a0 66 6a 22 bd f4 67 0b 3e 93 ac 0c be b1 ed 07 3e
       -0.03965225 0.13613874 -0.13737707 0.13274266
0000b0 47 00 d7 bd 75 4f c6 3d e5 c1 e3 3d 8f f7 1a 3e
       -0.104981 0.09683124 0.11120967 0.15133499
0000c0 d9 7b aa ba 84 fb ea 3d 04 86 ea bd 21 16 68 bd
       -0.001300688 0.11473754 -0.11451343 -0.05666173
0000d0 d5 e4 a7 bd b3 94 96 3d 72 a0 d2 bd ad 59 94 bd
       -0.08197943 0.07352581 -0.10284509 -0.07243667
0000e0 bd a3 8c bd b7 11 a9 3d e2 2d d4 3d 1e 06 78 3d
       -0.06867168 0.08255332 0.10360314 0.06055271
0000f0 0e 60 03 3e cc 85 ee 3d 67 15 32 3d 0e b0 93 bd
       0.1282961 0.116466135 0.043477442 -0.07211314
000100 e5 45 70 bd b9 df 0c be 4b 7a 83 be b2 da 85 3d
       -0.058660407 -0.13757218 -0.2567924 0.065358534
000110 a4 a4 b7 3d 1b a9 0f 3d c4 0b 4e 3d 2f c4 10 3e
       0.089669496 0.03507338 0.05030419 0.14137338
000120 df e3 a7 bc fc 91 30 3e b1 76 4b 3e e4 79 e1 3d
       -0.0204944 0.17243189 0.19869496 0.11009577
000130 fc 8d b9 bc 8a f1 27 be dd 33 25 be c4 60 93 bc
       -0.022650711 -0.16400734 -0.16133066 -0.017990477
000140 87 ce 1c be bd 3b 7e 3c f3 44 31 3e d0 16 a4 3d
       -0.15313159 0.015517172 0.17311458 0.08012164
000150 64 d2 c5 3d 44 5c ec bd 7c 11 e1 bc 44 3e d3 3d
       0.096592695 -0.11541036 -0.027474158 0.103146106
000160 70 f4 28 3e 86 9c de ba 2b 80 2f 3c c0 5e 55 3e
       0.16499496 -0.0016983903 0.01071171 0.20836926
000170 25 9b 31 bd 20 03 5d be b4 77 be 3c 81 e9 6e 3c
       -0.043360848 -0.21583223 0.023250438 0.014582039
000180 4a 06 0c be 87 2b 11 be 2b 01 c4 3c 44 55 24 be
       -0.13674274 -0.1417676 0.023926338 -0.16048151
000190 b1 81 23 3e 79 86 00 be 2b bb 17 3d e4 97 2d be
       0.15967442 -0.12551297 0.03704373 -0.16952473
0001a0 90 18 18 be fe 9b aa 3d b1 60 9f 3d b9 a6 c6 bd
       -0.1485312 0.083305344 0.07782114 -0.096997686
0001b0 97 c0 c5 3d cb ed 13 be 73 8a 14 be 86 32 f2 bd
       0.09655874 -0.1444618 -0.14505939 -0.11826043
0001c0 14 bd 22 bd dc ab cf 3d df d7 bf 3b e4 31 f1 3d
       -0.0397311 0.101402014 0.0058545913 0.11777094
0001d0 a8 69 ac 3d 52 9d 49 bd b2 6a 20 bd b7 3e b7 bd
       0.0841859 -0.049222298 -0.039164253 -0.08947509
0001e0 19 89 fc bc c3 d9 37 be 43 94 1d be 80 c1 6e bc
       -0.030827092 -0.17954163 -0.15388589 -0.014572501
0001f0 fa fb 7e bd a2 f2 d6 3d 3b f6 ca bd b2 23 1d 3d
       -0.062252022 0.10495497 -0.09910246 0.03836412
000200 56 6b 8e 3b b5 6f 4e bd c3 28 01 3e f3 43 ee bd
       0.0043462915 -0.0503995 0.12613206 -0.11634054
000210 8e c0 01 be ac 4d 4f be a4 e1 0f be 4b af b7 3d
       -0.1267111 -0.20244473 -0.14050919 0.08968981
000220 59 4f 04 3d 21 e5 a2 3d 10 8a 8e 3d e5 cd de 3d
       0.032302234 0.07953859 0.06959927 0.10879115
000230 51 97 a9 3d 5c 54 1b 3d b3 49 3b be 80 91 0f 3d
       0.082808144 0.03792225 -0.18289833 0.03505087
000240 9a e1 31 be 12 2b 59 3b 6b 95 2a be 12 51 65 3d
       -0.17371216 0.0033137244 -0.16658561 0.055985518
000250 29 3e 12 be 56 8c 4d 3d 3c 37 1f be 35 34 6e 3b
       -0.14281525 0.050182663 -0.15548414 0.0036347036
000260 0e ba e8 bd 49 4e e9 bd 11 e3 eb 3d f6 93 1e 3e
       -0.11363612 -0.11391885 0.11517919 0.1548613
000270 37 65 0c 3e 52 19 9b bd e5 74 2c be 60 af e4 3b
       0.13710485 -0.07573189 -0.16841467 0.006978914
000280 cf 02 16 be 98 b3 dc 3d 26 43 e4 bd 5c bf 99 3c
       -0.14649509 0.10776442 -0.1114562 0.018768005
000290 5e 2e 25 3c 83 74 3a bd 63 24 f8 3d e0 07 fd 3c
       0.010081856 -0.04552127 0.12116315 0.030887544
0002a0 5f d5 4e bd 27 00 04 bd 71 89 2a 3e fc d4 2c be
       -0.050496455 -0.032226708 0.16653992 -0.16878122
0002b0 d8 b5 19 be 83 02 13 3e ec 9e 9e 3d f5 ad 83 bc
       -0.15010774 0.14356427 0.07745156 -0.01607416
0002c0 c0 23 de bd 95 74 26 bd ab ac 49 3d be 29 3d 3d
       -0.108466625 -0.040638525 0.049236935 0.046182387
0002d0 36 31 a0 3d 60 13 3f be 6c 0d 94 3d ec 75 3b 3b
       0.07821886 -0.18659735 0.072291225 0.0028604222
0002e0 2f c6 a4 3d e3 18 51 3d 23 58 af 3c 6e 23 15 be
       0.08045613 0.051049124 0.021404332 -0.14564297
0002f0 bf ec 18 bd 0f 5f bf bc da 95 74 3c f9 a2 94 bd
       -0.037335154 -0.023360757 0.0149283055 -0.07257647
000300 51 5c 74 3a 18 e6 c1 bd fd 45 ab bd 2d 3b 19 3e
       0.00093216175 -0.09467715 -0.083629586 0.1496398
000310 c4 5b d2 bd 5f c9 c9 bb f9 28 86 3d 8f 07 bc b9
       -0.10271409 -0.0061580385 0.06550784 -0.00035863786
000320 27 60 4f 3c 71 df 31 3d b6 7f d2 3d e2 2e 1f be
       0.012657202 0.04342598 0.10278265 -0.15545228
000330 fb f3 e0 3a 88 78 e0 3d cd 01 0b be 77 32 8e 3d
       0.0017162556 0.109604895 -0.13574906 0.06943219
000340 80 9b 85 3d 1f 0e 0a 3e 01 da 59 bd f4 d2 9e bd
       0.065238 0.1348195 -0.05318642 -0.0775508
000350 43 1e 76 3d 4e 78 9f bd 49 29 03 3e 2d 0a 32 bd
       0.060087454 -0.07786618 0.12808718 -0.043466736
000360 75 2b 2f be 5d 9c 84 3d 63 b8 0b 3e 23 17 20 3e
       -0.17106421 0.064751364 0.13644557 0.15633826
000370 49 8a bf 3d 1e 4d 7c bc 22 85 9b bd c2 88 33 be
       0.09352548 -0.015399246 -0.075937524 -0.17532638
000380 bd c2 9f 3d 96 9d 75 3d 90 0c 77 bd ea b7 52 be
       0.07800815 0.05996474 -0.060314715 -0.2057797
000390 68 06 d4 3d cf 2e 04 3b b1 5b 97 3d 43 48 2e 3e
       0.103527844 0.0020169502 0.073905356 0.17019753
0003a0 e7 ec 1d be 3d 57 58 bd e8 8e a4 bd 62 3d b0 bd
       -0.15422402 -0.052817572 -0.0803507 -0.08605458
0003b0 7f 0a f5 bc 08 41 33 3e e5 07 af bd 39 e1 8e 3d
       -0.029912231 0.17505276 -0.08546428 0.069765516
0003c0 0c 1d b4 bd 5f 7a bf bd f9 dd 00 3d 47 2a 92 bd
       -0.08794603 -0.09349512 0.03146169 -0.0713697
0003d0 f1 3d 57 3d 75 95 35 be f6 8d 73 bc 1e cb df bd
       0.052549306 -0.17732795 -0.014865389 -0.109274134
0003e0 86 05 c6 3d 09 a6 48 bd 5d b3 1e be 27 2b 2c 3d
       0.09669022 -0.04898647 -0.15498109 0.04203334
0003f0 29 e7 ca bd 29 01 99 bd ef 22 fa 3d 70 58 b3 3d
       -0.099073716 -0.074709244 0.12213694 0.087571025

fc1.bias f4 [256]
000000 11 bb 10 be ed 34 f4 bd f5 a1 bd bd 5f 10 47 3b
       -0.1413386 -0.11924157 -0.092594065 0.0030374748
000010 98 b8 bb bd 24 33 eb bd d6 cb 60 bd ea bb da bd
       -0.09166068 -0.11484364 -0.054881893 -0.10680373
000020 e6 88 2f be 7d 29 25 be 02 09 34 bd c1 1c 1a be
       -0.17142066 -0.16129108 -0.043953903 -0.15050031
000030 15 bb f4 bd 44 e2 1e bb 27 6c 6e bd b7 75 ec bd
       -0.119497456 -0.0024243752 -0.05820861 -0.1154589
000040 1c 5e d3 bd 15 f5 07 be 77 ee a1 bd 18 79 f2 bd
       -0.10320684 -0.13277085 -0.07906812 -0.11839503
000050 cf 66 23 be 28 a5 0f be e5 30 46 be 0b 55 98 ba
       -0.15957187 -0.14027846 -0.1935459 -0.0011622024
000060 0a d2 c7 bd 11 80 3b be 3d df d5 bd 0a 49 13 bd
       -0.09756859 -0.18310572 -0.1044297 -0.035958327
000070 b4 6c 29 3d 85 03 62 bd a7 53 54 be 29 0c f5 bb
       0.041363433 -0.055179138 -0.20735036 -0.0074782562
000080 2f fe 1a be 19 24 89 bc f8 46 0e be 71 58 ef bd
       -0.15136026 -0.016740846 -0.1389426 -0.11686791
000090 21 88 d5 bb 62 02 dd bd 0c 17 1e be 81 3a 35 be
       -0.006516472 -0.1079147 -0.15438479 -0.17698099
0000a0 1f af cb bd c9 33 11 be 64 92 07 be 3a bc 6c bd
       -0.09945511 -0.1417991 -0.13239437 -0.057796694
0000b0 da f7 a0 3c 42 12 16 be 7e 6a 16 3c 3c ca d7 bd
       0.019649435 -0.14655402 0.009180663 -0.1053662
0000c0 62 6f b1 bd 77 7e 31 be e5 a9 46 bd 1c ae ec bd
       -0.08663823 -0.17333399 -0.048501868 -0.11556646
0000d0 fb df 16 3d 70 ce cf bd 55 86 aa bd b8 44 dc bd
       0.0368347 -0.10146797 -0.08326403 -0.107552946
0000e0 30 cb 9d 3c 8e 4e 02 3b 0d a4 32 bd 17 cc 98 bd
       0.019261926 0.0019883248 -0.043613482 -0.07460802
0000f0 2c 96 d7 bd e0 c5 1d be 72 37 2f be 7f c1 8f bd
       -0.1052669 -0.15407515 -0.17110994 -0.07019328
000100 3e 4b 06 be 36 c4 0c be 67 f5 f5 bc 7a 87 2a be
       -0.1311464 -0.13746724 -0.030024244 -0.16653243
000110 c5 0c 42 bd 8b 19 30 bd 48 4f 2a bc 0d c6 b6 bd
       -0.04737546 -0.04299311 -0.010394879 -0.08924494
000120 f6 4d 17 bd d5 1f bd bd d2 f3 ea bd 3d 87 e4 bd
       -0.036939584 -0.09234587 -0.11472286 -0.11158607
000130 e5 33 83 bd 63 46 83 bd 7e 46 25 bd 99 97 8f be
       -0.064063825 -0.064099096 -0.04035043 -0.28045347
000140 bf 6b 4f bc a9 01 50 be 11 c6 b8 bc 1f 48 1d be
       -0.012659966 -0.20313133 -0.022555383 -0.15359543
000150 dd 64 76 be 7f 50 00 be b1 38 7d be 44 ed 62 bc
       -0.24061914 -0.12530707 -0.24728657 -0.013850514
000160 9c 9d 3e be 69 ec 27 bd 41 15 96 bb ec ab 1f be
       -0.1861481 -0.040996943 -0.0045801704 -0.15592927
000170 b5 03 e3 bc 14 8f 1a be 85 4e 06 be 45 f9 4f bd
       -0.027711729 -0.15093642 -0.1311589 -0.05077483
000180 63 ce 85 bd f9 8c f8 bd e8 16 ce bd 09 32 11 bd
       -0.06533506 -0.121362634 -0.10062963 -0.035448108
000190 20 b8 d3 bd 1d e0 73 bd 2d 24 4c bd e4 4a ea bc
       -0.103378534 -0.059539903 -0.049839187 -0.028600164
0001a0 1b ab 35 be 69 d3 15 be 6f 26 cf bd a4 f6 c4 3d
       -0.17741053 -0.14631428 -0.101147525 0.096173555
0001b0 e8 85 18 be bf 28 4c be d2 c1 47 bd 7e 4d ae bd
       -0.14894831 -0.19937418 -0.048768826 -0.08510874
0001c0 a2 44 1d bd 93 32 83 bd e3 57 67 be 7a 92 2a bd
       -0.03839553 -0.06406131 -0.2259212 -0.041643597
0001d0 00 6b 54 bd 28 3d 7e bd a0 53 0f be f6 0f e7 bd
       -0.051859856 -0.062070042 -0.13996744 -0.11282341
0001e0 0a c8 26 bc b3 21 be bd 90 56 61 ba da 09 b5 bd
       -0.010179529 -0.09283771 -0.00085959677 -0.0883977
0001f0 4d fc 31 bd 5f aa 87 3d cf aa 35 bc 41 cd 58 bd
       -0.043453503 0.066242926 -0.011088087 -0.05293012
000200 13 92 ee bd 90 be 8b bd ef 94 d6 bd fa 36 00 be
       -0.11648955 -0.06823456 -0.104776256 -0.12520972
000210 57 eb f9 bd f8 5c 0f be 22 59 1a be b6 3e 86 bc
       -0.12203091 -0.14000309 -0.15073064 -0.016387325
000220 93 a4 b3 bd 15 4e 22 be 41 69 55 be c8 73 12 be
       -0.087716244 -0.15850098 -0.20840932 -0.1430198
000230 94 29 25 be 53 53 ca 3c 3d 85 cd bd 65 1b da bd
       -0.16129142 0.024697935 -0.10035179 -0.10649756
000240 fb 33 14 be e9 3c f1 bd 45 8c 3c be 20 f7 80 be
       -0.14472954 -0.11779196 -0.18412884 -0.2518854
000250 a4 5a 36 bd 24 24 69 bc 8c d4 2c be 97 85 fa bc
       -0.044520035 -0.014229808 -0.16877955 -0.030581279
000260 29 e2 5c be fb eb 23 be 60 3f 6f bd 5c 4c 36 be
       -0.21570648 -0.16007988 -0.05841005 -0.17802566
000270 f2 6f a4 bd 48 59 7f bd 18 1b ef bd 77 8b 21 be
       -0.080291644 -0.062341005 -0.116750896 -0.15775858
000280 55 52 c1 bd 94 88 aa bc 0f 7a 3c bc 1e b6 47 bd
       -0.09439532 -0.020817079 -0.01150371 -0.048757665
000290 ca 9e 93 3c 17 95 13 be 78 ed b1 bc 7f 77 10 be
       0.018020052 -0.14412342 -0.02171968 -0.14108084
0002a0 cf af 11 be 4a 60 92 bd be a3 37 3d bb f4 f7 bd
       -0.14227222 -0.07147272 0.04483389 -0.121072255
0002b0 bc 43 51 3c ba 6e 1c be ed 1f 32 bd 13 29 c1 bd
       0.012772497 -0.15276614 -0.043487478 -0.094316624
0002c0 11 9f f5 bd e3 83 35 be ed 87 d1 bd bb 26 1d bd
       -0.1199323 -0.17726092 -0.10231004 -0.038367014
0002d0 32 ef 0d be f3 68 cf 3c 9d af 4e bd 12 ba 34 be
       -0.13860777 0.025318598 -0.050460447 -0.17649105
0002e0 d9 c2 e0 bd 25 5b ad bd b5 06 15 be 12 d9 28 be
       -0.10974664 -0.0846465 -0.1455334 -0.16489056
0002f0 a7 3c bf bb ef e7 4d be de 8c 8d be ee c3 94 bd
       -0.0058360877 -0.20108007 -0.27646536 -0.07263933
000300 af 46 c3 3c 62 61 c1 bd 61 76 44 be 93 79 cf 3c
       0.023837416 -0.094424024 -0.19185783 0.025326526
000310 b7 05 e0 bc d6 06 fc bd 9d 2b 73 bd 21 5a 1a be
       -0.027346475 -0.12305991 -0.059367765 -0.15073444
000320 e3 76 c9 bd 94 14 c3 bd d4 c5 0d be 7e 6d 09 be
       -0.09837129 -0.09525409 -0.13844997 -0.13420674
000330 61 c2 47 bd 49 85 c2 bc 27 37 2a be 2e d5 6a bc
       -0.04876936 -0.023745196 -0.16622601 -0.014333053
000340 19 9b d1 bd 36 ef dc bb f0 ce 8c bd 8d 77 e6 bd
       -0.10234661 -0.0067423834 -0.06875408 -0.11253271
000350 0e f9 8a bd 69 9f 23 be 16 07 ed bd ae b8 06 be
       -0.06785785 -0.15978779 -0.11573617 -0.13156387
000360 e5 36 d1 bd 68 95 dc bd 6e 14 15 be b2 cc 82 bd
       -0.102155484 -0.107706845 -0.14558575 -0.06386699
000370 a9 cf 39 bd b0 98 ca bc 27 5a b0 bd 4a 96 c9 bd
       -0.045364056 -0.02473101 -0.08610945 -0.098431185
000380 03 7d 18 be 5a 24 11 be f4 ec 04 bd 4c d7 b9 bd
       -0.14891438 -0.14174023 -0.03245254 -0.09074268
000390 b9 99 ff bd ba 02 df bd bd 0a 31 be 62 21 c9 bd
       -0.12480492 -0.10889192 -0.17289253 -0.098208204
0003a0 41 4e dc bd 16 d7 bd bd 68 b1 87 bd 7a 6d 17 be
       -0.10757113 -0.0926954 -0.066256344 -0.14787856
0003b0 b0 74 f9 bc 81 23 ec bd 9f 33 2b 3c 8c 5a fa bd
       -0.030451149 -0.11530209 0.010449319 -0.12224302
0003c0 0c 2b 86 bd ed 72 db bd 0f b0 29 be cd 86 15 be
       -0.06551179 -0.1071528 -0.16571067 -0.14602204
0003d0 0f 87 66 bd 2d ad e1 bd 3d 6c 2c bc 56 ad 8c bd
       -0.056281146 -0.11019359 -0.010523853 -0.06868999
0003e0 65 2b 25 be 9f 37 f3 bc 17 bf 93 bd c9 30 8a be
       -0.16129835 -0.029689608 -0.07214182 -0.26990345
0003f0 ca ee 95 bd 9c ec 24 be 22 fe 00 be c2 b8 d7 bd
       -0.07320936 -0.16105884 -0.12596944 -0.10533287

fc2.weight f4 [5, 256]
000000 e6 89 2c 3d ca 52 64 bd 6c 4f 69 3d 00 20 b6 3a
       0.042123698 -0.055743016 0.05696051 0.0013895035
000010 ca 1d 1e bd 80 32 0f 3d 0c 05 4b 3d 64 ce da 3c
       -0.038602628 0.03496027 0.04956536 0.026709743
000020 80 8b 34 3c d8 1b 20 3d 50 3b 15 bc f0 d7 cf 3b
       0.0110195875 0.039089054 -0.0091083795 0.0063428804
000030 f4 b3 ff 3c 00 50 41 3c 64 3a 2d bd e0 49 f7 3b
       0.031213738 0.011798859 -0.042292014 0.0075466484
000040 30 5d 81 3b 48 4b 56 3c 42 45 7e bd 0c 67 61 3d
       0.0039478764 0.013079472 -0.06207777 0.055029914
000050 e0 c8 3a bd d6 c4 3d 3d ec 45 63 bd 42 d4 50 bd
       -0.045601726 0.046330296 -0.055486605 -0.050983675
000060 b4 f0 cb bc f0 cf a7 bb f4 65 90 3c c4 94 ba bc
       -0.02489505 -0.0051212236 0.01762674 -0.022776015
000070 0e 13 49 3d 1c a4 21 bd f8 c6 fe bc b4 96 4a 3d
       0.049090438 -0.039463148 -0.031100735 0.049460128
000080 06 d8 0f bd 0c 60 06 3d 30 32 cb bc ec 5e 56 3d
       -0.035118125 0.03280644 -0.024804205 0.05233662
000090 c6 01 65 bd d8 43 d8 bc ca 6d 7d 3d 6a 7e 0c bd
       -0.055909894 -0.026399538 0.06187228 -0.034300245
0000a0 68 91 1d 3c b0 36 66 3c b0 73 2c 3d a4 28 55 bd
       0.009617187 0.014051124 0.042102516 -0.05204071
0000b0 00 d8 56 bb f0 de c9 3b 7c bc 50 3d 1e 2c 3b bd
       -0.0032782555 0.0061606094 0.050961003 -0.04569637
0000c0 4e 98 4e 3d 86 38 38 bd b8 2f 07 bd 00 c6 e8 ba
       0.050438218 -0.04497578 -0.033004493 -0.0017759204
0000d0 50 be d3 bb a4 43 90 3c 24 7b 7b bd 58 96 5c bc
       -0.006461896 0.017610379 -0.061396733 -0.013463579
0000e0 2c da 55 bd 46 c3 5b bd 08 d3 ab bc be e4 57 bd
       -0.052210018 -0.053653024 -0.020974651 -0.05270838
0000f0 24 0c ac bc 78 57 0d 3c c0 18 0b 3d d2 8e 37 3d
       -0.021001883 0.008626811 0.03395915 0.04481394
000100 10 91 fe 3c 34 99 24 bd 38 c4 3f 3d 04 33 39 3d
       0.03107503 -0.04018517 0.04681799 0.045214668
000110 00 0e 45 b9 f0 71 52 3c c4 5e eb 3c 80 66 6a bc
       -0.000187926 0.012844548 0.028731711 -0.0143066645
000120 c4 16 f1 bc f0 89 43 3c 96 13 6e bd 4a 50 26 bd
       -0.0294298 0.011934742 -0.058124147 -0.040603913
000130 d6 bc 7c 3d b2 45 71 3d 80 17 ff ba a4 90 0f 3d
       0.061703525 0.058904357 -0.001946196 0.03505005
000140 68 aa 5b bd d0 ab af 3c 86 ac 58 bd 84 6c 47 3d
       -0.05362931 0.021444231 -0.052898906 0.048687473
000150 c2 83 12 bd f2 06 10 bd ac 38 db 3c 2e e3 76 bd
       -0.035770185 -0.035162874 0.026760422 -0.06027525
000160 10 b7 3f bc 62 97 54 3d 68 b1 8f 3c e8 e7 55 bc
       -0.01170136 0.051902182 0.017540649 -0.013055779
000170 34 4b a8 3c 30 98 df 3c a8 ed 68 bc 70 e4 a6 bc
       0.020543672 0.027294248 -0.014216818 -0.0203726
000180 68 90 35 3d 20 16 81 3c 20 2d 61 3d 78 5f 67 bc
       0.04432717 0.01575762 0.054974675 -0.014121883
000190 20 e1 07 3d b0 64 20 bc 6a 5c 18 3d 48 6e 0b bd
       0.03317368 -0.009789631 0.037197508 -0.03404072
0001a0 8c 91 1e 3d fe 93 5d bd 18 b4 1b 3c 80 61 ff 3a
       0.038713023 -0.054096214 0.009503387 0.0019484013
0001b0 7c 65 22 3d 68 86 94 3c b8 98 78 3c 70 57 1f bc
       0.039647564 0.018130496 0.01517313 -0.009725437
0001c0 fe 64 53 bd 56 80 46 bd a0 c6 71 bd e0 bc 46 bb
       -0.051609986 -0.048462234 -0.059027314 -0.003032498
0001d0 68 d9 ac bc 44 32 e6 bc 58 9d 77 bc a0 eb 81 3c
       -0.021099761 -0.02810014 -0.015113197 0.015859425
0001e0 28 a5 64 bc 90 3f 7a bc bc 71 da bc e2 92 26 3d
       -0.013955392 -0.015273944 -0.02666556 0.040667422
0001f0 80 39 07 3a 38 dc e0 3c be 8c 60 3d d4 76 b6 bc
       0.00051584095 0.027448758 0.054821722 -0.022273459
000200 60 26 38 bb e0 6d 41 bd 18 d4 2e 3d 28 65 2b 3c
       -0.0028099045 -0.047223926 0.042682737 0.010461129
000210 5a 23 6e bd e4 2b 14 3d b0 97 da 3b d4 bb 26 bd
       -0.058139183 0.03617467 0.0066709146 -0.04070647
000220 b8 a3 5b bc 94 37 15 3d e8 42 f7 3c f8 ca 7d 3c
       -0.013405733 0.036429957 0.03018327 0.015490286
000230 f4 74 ea 3c 68 90 c6 3c 88 32 72 bc 2c 53 a9 bc
       0.02862022 0.02423878 -0.014782555 -0.020669542
000240 ec 32 41 bd e4 eb 2c bd 00 c2 e1 bb e0 d1 d3 bc
       -0.047167704 -0.04221715 -0.0068895817 -0.025856912
000250 c6 de 73 bd d6 5e 5b bd b4 4f c3 bc 7c 83 4c bd
       -0.059538625 -0.05355724 -0.023841716 -0.04993008
000260 12 9d 64 bd 10 a0 3c 3d a4 9a b4 3c c0 2e 91 3b
       -0.055813856 0.046051085 0.022046395 0.004430622
000270 70 9b dc 3b 80 03 9a 3c c6 4a 2f 3d a0 4c 97 3b
       0.006732397 0.018800497 0.04279592 0.0046172887
000280 14 4a af 3c 28 a4 7a 3d 9a 99 0a 3d c0 de e9 3c
       0.021397628 0.061191708 0.033837892 0.028548598
000290 54 2a 18 3d 58 90 44 bd 7e bd 37 bd 84 55 ef bc
       0.037149742 -0.04798922 -0.04485845 -0.029215582
0002a0 a0 36 4a bd 08 dd 93 bc 24 f4 4e 3d 80 81 4d ba
       -0.0493685 -0.018049732 0.0505258 -0.00078394264
0002b0 72 8f 30 bd 0a 48 49 bd 44 b0 02 bd 40 84 73 3d
       -0.04310555 -0.049140967 -0.03190638 0.059452295
0002c0 80 bb 79 3c 50 a9 0f bd 68 99 31 3c d6 14 4c bd
       0.015242457 -0.03507358 0.010839798 -0.04982456
0002d0 44 85 4a 3d 96 18 48 bd 34 8c 7b 3d 88 6a dc bc
       0.0494435 -0.048851572 0.061413005 -0.026906267
0002e0 72 0e 66 3d cc 5b 29 bd 90 eb 92 bb c6 2f 25 bd
       0.05616612 -0.04134731 -0.0044836476 -0.040328763
0002f0 a0 0f cf bb 7c c8 ee bc fe 24 10 bd d4 c8 32 bd
       -0.0063190013 -0.029148333 -0.03519153 -0.043648556
000300 a6 c7 43 3d 5a 9e 14 3d 68 08 6b bd 80 d6 4f 3d
       0.04779782 0.03628383 -0.057381064 0.050741673
000310 92 12 03 3d 40 c9 ac bc c8 3d 22 3c ae b6 73 bd
       0.032000132 -0.021092057 0.009902425 -0.05950039
000320 b8 e7 29 3d d8 00 df bc b4 39 a2 3c cc 0f 1d 3d
       0.04148075 -0.027222082 0.019802906 0.038345143
000330 4c 23 6b bd bc cb 23 3d c6 4f 1e bd 80 40 0b 3b
       -0.05740671 0.039989218 -0.038650297 0.0021248162
000340 5e ff 20 3d 98 af 18 3d 50 ee 83 3b dc 18 4a 3d
       0.039306037 0.037276834 0.004026212 0.049340114
000350 9e 7c 38 bd 74 d6 ec bc 68 b9 6f 3c 82 37 0a 3d
       -0.04504072 -0.028910853 0.014631607 0.033744343
000360 94 df 2a 3d 56 e5 6c bd f6 89 40 3d 26 2f 6d 3d
       0.041717127 -0.0578359 0.04700657 0.057906292
000370 f0 cd 5b bd c8 ea 49 3d ac 74 67 3d 58 73 51 bc
       -0.053663194 0.04929617 0.05650775 -0.012783848
000380 20 c0 f6 3b ec 3f 60 bd 74 42 59 bd e2 21 43 bd
       0.0075302273 -0.05474846 -0.05304189 -0.047639735
000390 50 41 85 bb 04 a6 26 bd 10 3c 6e bd 70 48 5b 3d
       -0.0040666237 -0.04068567 -0.05816275 0.05353588
0003a0 d8 54 f1 3c 3c b3 82 3c f2 ee 1b bd c4 6d 51 3d
       0.029459402 0.015954606 -0.038069673 0.05113007
0003b0 d0 2e e9 3c a2 fd 1c bd 20 df 70 bd 80 51 f7 bc
       0.028464705 -0.03832782 -0.05880654 -0.03019023
0003c0 78 bc 62 bc d0 51 79 3d 74 b6 e3 3c 20 18 69 3b
       -0.01383888 0.060869038 0.027796961 0.0035567358
0003d0 ee 24 63 bd a0 22 55 3d 70 1c 17 bc 14 e4 85 bc
       -0.05545514 0.052034974 -0.009223089 -0.016344108
0003e0 a4 0c c7 3c 00 b5 93 bc 8a 94 76 3d 48 b2 77 bd
       0.02429802 -0.018030643 0.06020025 -0.060472757
0003f0 40 91 b2 bb 3a b9 6a 3d 44 d2 eb bc 8c f0 13 bd
       -0.005449444 0.057305552 -0.028786786 -0.036118075

fc2.bias f4 [5]
000000 0c 71 a8 bc 60 48 48 3d d4 f7 01 bd 0a fc 52 bd
       -0.020561717 0.048897147 -0.031730488 -0.051509894
000010 08 57 32 bd
       -0.04354003
