Models/Torch2/my_model13200.pth (torch_old, 60054 bytes, 8 tensors)

conv1.weight f4 [16, 2, 3, 3]
0	0x3db7c779	0.08973593
1	0xbe8ab6c8	-0.27092576
2	0xbc27080f	-0.010194792
3	0xbdd90145	-0.10595945
4	0xbd8a7565	-0.067606725
5	0xbe786724	-0.24258095
6	0xbe1f36d3	-0.15548258
7	0xbe2b3a1e	-0.16721389
8	0xbe4515a5	-0.19246538
9	0xbe2bd9a6	-0.16782245
10	0x3ecaf657	0.39641067
11	0x3ea133c1	0.31484798
12	0xbd1582da	-0.036501743
13	0xbe6b5293	-0.22980718
14	0x3e048b8e	0.12943861
15	0x3e2c8ac7	0.16849814
16	0x3d113ebd	0.035460223
17	0xbd4047e5	-0.046943564
18	0xbe1b1318	-0.15144002
19	0xbe4b2d4f	-0.19841503
20	0x3e3a649e	0.18202445
21	0x3ec328b7	0.38117
22	0x3d6dc7f3	0.058052015
23	0x3ed4c873	0.4155918
24	0x3eb3b9b1	0.3510261
25	0x3eae65fd	0.34062186
26	0x3e8295d9	0.2550495
27	0xbd58f763	-0.0529703
28	0xbe53d96c	-0.20688409
29	0x3e1dde55	0.15416844
30	0xbd88236d	-0.06647382
31	0x3e842b88	0.25814462
32	0xbe42361f	-0.18965958
33	0xbde0e84b	-0.10981806
34	0x3e887bd7	0.26656982
35	0xbebc989e	-0.36835188
36	0x3eb06c82	0.34457785
37	0x3dfc3c46	0.12316184
38	0x3f01eb11	0.5074931
39	0xbe84eaed	-0.25960484
40	0xbe788f4b	-0.24273412
41	0xbe39be06	-0.18138894
42	0x3dd57c4b	0.104240976
43	0x3e21617d	0.15759845
44	0x3e762377	0.24036966
45	0xbe3cbb1a	-0.18430749
46	0xbd6ce3b6	-0.05783435
47	0xbe80e3ed	-0.25173894
48	0xbd38fb6f	-0.04516166
49	0xbe8fa626	-0.2805645
50	0x3deffa8a	0.117177084
51	0xbaea825f	-0.0017891637
52	0x3db9eaf3	0.09078016
53	0xbeaca564	-0.33719933
54	0x3da0ef5a	0.07858153
55	0xbe580703	-0.21096425
56	0xbd999082	-0.07498266
57	0x3e866541	0.26249126
58	0x3e872fd2	0.26403672
59	0xbd85f1b2	-0.0654024
60	0x3d88d854	0.06681886
61	0x3e8fe9cc	0.2810806
62	0x3ead5e43	0.33860978
63	0xbdd8f014	-0.10592666
64	0xbd0d5711	-0.03450686
65	0x3e7d44b2	0.24733236
66	0xbd676291	-0.056490485
67	0x3db3d3de	0.08780645
68	0x3e002a88	0.12516224
69	0xbe0ee7ad	-0.13955565
70	0x3e3ffc81	0.18748666
71	0xbe166fce	-0.14691088
72	0xbe30ad89	-0.17253698
73	0xbdab71d6	-0.08371322
74	0x3ecc9b7e	0.3996238
75	0xbe1e7eea	-0.15478101
76	0x3e81a4a8	0.25320935
77	0xbd94e733	-0.0727066
78	0xbe270fda	-0.1631464
79	0x3e995fcb	0.29955897
80	0xbdc4750a	-0.09592636
81	0x3d5dd831	0.054161254
82	0xbe23039b	-0.15919344
83	0x3e26e2d2	0.16297463
84	0x3d10a2a7	0.035311367
85	0x3d6dc846	0.058052324
86	0xbdb948ac	-0.09047064
87	0x3e2fc425	0.17164667
88	0x3d8483e4	0.06470469
89	0xbe824e1d	-0.2545022
90	0x3e580efb	0.21099465
91	0xbd9f625a	-0.07782431
92	0xbdc2949f	-0.095010035
93	0x3ec44735	0.38335577
94	0x3e3367eb	0.1752011
95	0x3ef2a4ca	0.4739135
96	0xbe59fe4b	-0.21288411
97	0x3e9fad23	0.3118678
98	0xbe6b7bf5	-0.22996505
99	0xbe884a40	-0.26619148
100	0xbeaa7eb1	-0.33299783
101	0xbe860db2	-0.26182324
102	0xbd6ba375	-0.05752893
103	0xbed9a0d0	-0.42505503
104	0x3c77482f	0.0150928935
105	0xbe0c6722	-0.13711217
106	0xbdca2810	-0.098709226
107	0x3c215c4f	0.009848668
108	0x3e09142f	0.13386606
109	0xbdab38e6	-0.08360462
110	0xbd0014c4	-0.031269804
111	0xbdb91f54	-0.090391785
112	0x3db7a234	0.08966485
113	0xbe2aa890	-0.16665864
114	0x3da3f6ff	0.08006095
115	0x3e84d6a0	0.25944996
116	0x3e04f833	0.12985305
117	0x3d0ee595	0.034886915
118	0xbddb9b16	-0.1072294
119	0x3daf65d9	0.08564348
120	0x3e67efea	0.22650114
121	0x3e31d387	0.17365848
122	0xbe57a846	-0.21060285
123	0xbdbcb8c6	-0.0921493
124	0xbe401b3a	-0.18760386
125	0xbe1a20ef	-0.15051626
126	0xbdac7899	-0.0842144
127	0x3d09ea26	0.033670567
128	0xbd1c6901	-0.038186077
129	0xbe26db61	-0.16294624
130	0x3e6946b4	0.22780877
131	0x3c0f55a5	0.008748447
132	0xbd7b28cb	-0.0613182
133	0xbde7b0fe	-0.113130555
134	0x3e35d6be	0.17757699
135	0xbd952285	-0.07281975
136	0xbe4c9092	-0.19977024
137	0xbe2a6740	-0.16640949
138	0x3e194066	0.14965972
139	0xbe592dec	-0.21208924
140	0xbe7cebdc	-0.24699348
141	0xbca98be4	-0.020696588
142	0xbddaf07c	-0.106904
143	0xbe1dcfe0	-0.1541133
144	0xbe29f188	-0.16596043
145	0x3dd898d4	0.10576025
146	0xbe1a8ed4	-0.15093547
147	0xbe0cd3bc	-0.13752645
148	0xbdef13e5	-0.116737165
149	0xbdd7fe20	-0.10546517
150	0xbd672b0c	-0.056437537
151	0xbe818503	-0.25296792
152	0xbc1b53ec	-0.009480458
153	0xbca00e5e	-0.0195381
154	0xbe0e3e63	-0.13890986
155	0x3ec5ec61	0.38656905
156	0x3e6326ef	0.2218282
157	0x3e82dd67	0.25559542
158	0x3e818fe5	0.25305095
159	0x3e916610	0.2839818
160	0x3ea1f846	0.3163473
161	0xbb09ea18	-0.0021044072
162	0xbe58b9d5	-0.2116464
163	0x3e38cc43	0.1804667
164	0x3e0c85bd	0.13722892
165	0x3e61c5b8	0.2204808
166	0xbc8aedd4	-0.016959108
167	0x3e965aa2	0.29366022
168	0xbe2baf04	-0.16765982
169	0x3e30069d	0.17190023
170	0x3d9614d8	0.073281944
171	0xbe03664d	-0.12831993
172	0xbe0173b6	-0.12641796
173	0x3e3ade65	0.182489
174	0x3c159c00	0.009131432
175	0x3e48df38	0.19616401
176	0xbdd16ace	-0.102254495
177	0x3a24f882	0.0006293134
178	0x3a76269c	0.00093899085
179	0x3e2b31f8	0.1671828
180	0x3d6c7b56	0.05773481
181	0x3de5d5b2	0.112224
182	0x3ce49778	0.027904257
183	0x3e8b8dd0	0.27256632
184	0x3d2664b5	0.040623385
185	0xbe6fc4d7	-0.23414932
186	0x3e6d7300	0.231884
187	0xbdfa580d	-0.122238256
188	0xbdaf7626	-0.08567457
189	0x3df941fc	0.12170789
190	0xbdcf9ed2	-0.101377144
191	0x3c107020	0.008815795
192	0x3c00597e	0.007833837
193	0x3e3ded76	0.18547615
194	0x3e02fe62	0.12792352
195	0x3e0fb36f	0.14033292
196	0x3e5a2199	0.21301879
197	0x3e8e872f	0.27837512
198	0x3d85a80e	0.065261945
199	0xbcd93d16	-0.026518386
200	0x3e787682	0.24263957
201	0x3dc1ae82	0.09457113
202	0xbe2d85e9	-0.16945614
203	0x3e9582ab	0.29201254
204	0xbe545164	-0.20734173
205	0xbdc93d0d	-0.09826098
206	0x3e1fa734	0.15591127
207	0x3e7f523f	0.24933718
208	0x3ea637c5	0.32464424
209	0xbe18812d	-0.14893027
210	0xbd561dd1	-0.05227453
211	0x3e621bbf	0.22080897
212	0x3e7568e6	0.23965797
213	0x3e3b706a	0.18304601
214	0xbdc898b1	-0.097947486
215	0x3e31a20b	0.1734697
216	0xbdbd93ca	-0.09256704
217	0xbd23f098	-0.04002437
218	0x3cbeead9	0.023305343
219	0x3e881256	0.2657649
220	0x3d227189	0.039659057
221	0xbe34054b	-0.17580144
222	0x3e01bdd1	0.12670065
223	0xbe1b6e30	-0.15178752
224	0x3d6c720c	0.05772595
225	0xbdc7e637	-0.09760707
226	0xbd801263	-0.06253507
227	0xbd9994ce	-0.07499085
228	0xbe0fe40b	-0.14051835
229	0xbdb55472	-0.08853997
230	0x3ec3dddf	0.38255212
231	0xbe53b1ce	-0.20673296
232	0x3d3df0ed	0.046372343
233	0x3df1c162	0.11804463
234	0xbe3929d4	-0.18082362
235	0x3dd63782	0.10459806
236	0xbe13da44	-0.1443873
237	0xbdff7e5b	-0.12475272
238	0x3ed82238	0.42213607
239	0x3e37bdb4	0.1794346
240	0x3f020320	0.5078602
241	0xbedff50b	-0.4374164
242	0x3ea239ab	0.31684622
243	0x3cdd217f	0.026993511
244	0xbda42011	-0.08013929
245	0xbe257750	-0.16158795
246	0xbd37fbbc	-0.044917807
247	0xbde25209	-0.11050803
248	0xbf05a8da	-0.5221077
249	0x3bfd8c3a	0.0077376636
250	0x3e118b21	0.1421323
251	0x3e9197ef	0.2843623
252	0x3c8cc84e	0.017185356
253	0xbe640c32	-0.22270277
254	0x3de5fc32	0.11229743
255	0x3d83f229	0.06442673

conv1.bias f4 [16]
0	0xbd599d36	-0.053128444
1	0x3db1b538	0.08677143
2	0x3e27e21a	0.16394845
3	0xbde02c2d	-0.10945926
4	0xbdce179f	-0.10063099
5	0xbc8a7e9c	-0.016906075
6	0xbe85497f	-0.26032636
7	0x3d17c781	0.037055496
8	0x3c23b341	0.009991468
9	0xbe064ce8	-0.13115275
10	0xbe608074	-0.21924001
11	0xbd93d7a5	-0.07218865
12	0xbe155f33	-0.14587097
13	0x3da53ae9	0.08067877
14	0xbe37f414	-0.17964202
15	0xbb4df7f4	-0.003142831

conv2.weight f4 [32, 16, 3, 3]
0	0x3de0da23	0.10979106
1	0xbdd408d6	-0.10353248
2	0x3d618fe1	0.055068854
3	0x3db9a1bf	0.09064054
4	0x3c6975a3	0.014249238
5	0x3e3d529c	0.18488544
6	0x3d020b9f	0.031749364
7	0xbd644817	-0.055732813
8	0x3e7a5cf8	0.24449527
9	0x3d874316	0.066045925
10	0xbe44f587	-0.19234286
11	0x3deb15ad	0.11478744
12	0xbd355820	-0.044273496
13	0x3d806fab	0.06271299
14	0x3e44532c	0.19172353
15	0x3e549cdd	0.20762964
16	0xbded5bd1	-0.11589778
17	0x3eaca610	0.33720446
18	0x3e0417a4	0.12899643
19	0xbdfe655a	-0.12421675
20	0x3ebfecd5	0.37485376
21	0x3c86a441	0.016435744
22	0xbe4d968b	-0.20076959
23	0x3d1c5002	0.03816224
24	0x3d8ffc51	0.070305474
25	0xbdeb9496	-0.1150295
26	0x3ddbc1c8	0.1073032
27	0xbc2160e8	-0.009849764
28	0x3c50b74a	0.012739012
29	0x3d37fb4a	0.044917382
30	0xbcbbbfa0	-0.022918522
31	0x3e0487cb	0.12942426
32	0x3e66f8e1	0.22555877
33	0x3d873a2e	0.06602894
34	0xbd865a5b	-0.06560203
35	0x3df2a0a1	0.11847044
36	0x3cf9b72d	0.030482853
37	0xbce933cd	-0.028467083
38	0x3e58b177	0.21161447
39	0xbcb77069	-0.022392469
40	0xbc835bc8	-0.016034976
41	0xbcbaafaa	-0.022788841
42	0x3c4ceddb	0.012507881
43	0x3ba5c6be	0.0050590923
44	0xbaf1b46c	-0.0018440611
45	0xbe408bf4	-0.18803388
46	0xbd53b9e3	-0.051690947
47	0xbe8fc278	-0.28078055
48	0xbe38b96c	-0.18039483
49	0x3d3ac9f7	0.045602765
50	0xbe4c9350	-0.1997807
51	0xbe32a019	-0.17443885
52	0x3d3d4aae	0.0462138
53	0xbe87afb1	-0.2650123
54	0xbd719b91	-0.05898625
55	0x3bcb75a2	0.0062090913
56	0x3d89e4b4	0.06733075
57	0xbdadb6fd	-0.08482168
58	0xbd2db832	-0.04241199
59	0xba58f93d	-0.00082768855
60	0xbc2f6260	-0.010704607
61	0x3d667cea	0.05627147
62	0x3c1caa7e	0.009562133
63	0x3c8bce8f	0.017066268
64	0xbcdb1660	-0.026744068
65	0xbd01dbb5	-0.03170367
66	0x3db4a41b	0.08820363
67	0xbd46162f	-0.048361
68	0x3d314035	0.043274123
69	0x3ca244e4	0.01980824
70	0xbe146c68	-0.14494479
71	0x3e0cbaff	0.13743208
72	0x3ce6295b	0.028095892
73	0x3e51db66	0.2049385
74	0xbceffa6b	-0.029294213
75	0x3db2d59f	0.08732151
76	0x3e29cfda	0.16583195
77	0x3df370a4	0.11886719
78	0x3e1fa90f	0.15591834
79	0x3e188dc2	0.14897826
80	0x3e3b904e	0.18316767
81	0x3c82ff23	0.0159908
82	0x3d1c48d3	0.038155388
83	0xbd820953	-0.06349435
84	0xbcefe9be	-0.029286262
85	0x3e02f763	0.12789683
86	0x3be843ff	0.007088184
87	0x3d87848a	0.06617077
88	0x3d3c3555	0.0459493
89	0xbca3766a	-0.019953925
90	0x3db0e2d7	0.08637016
91	0xbd6353bf	-0.05549979
92	0x3e161e6e	0.14660046
93	0x3dfd5edc	0.123716086
94	0xbe16d724	-0.14730507
95	0x3dad8c49	0.08474023
96	0x3db74066	0.0894783
97	0xbde9b50c	-0.11411485
98	0x3e12fa0b	0.14353196
99	0x3d5d86a0	0.054083467
100	0xbd4e127c	-0.050310597
101	0x3e18ff4b	0.14941137
102	0x3dcf924b	0.10135325
103	0x3d41f35e	0.047351234
104	0x3e0f0d9c	0.13970035
105	0x3da8c7c6	0.08241229
106	0xbd11d3af	-0.035602268
107	0x3e0dbcea	0.13841596
108	0xbd7a4f81	-0.061110977
109	0x3b97be92	0.004630872
110	0x3d523be3	0.051326644
111	0x3dc2f405	0.09519199
112	0x3d8e84b0	0.06958902
113	0x3d0f6e89	0.035017524
114	0xbd1dada5	-0.03849568
115	0x3d5a1886	0.053246044
116	0x3cb8ec3b	0.022573581
117	0x3d168ab2	0.036753364
118	0xbe5f2a71	-0.21793534
119	0x3e27b837	0.16378866
120	0x3e1aa586	0.15102205
121	0xbe8aee18	-0.27134776
122	0x3db07475	0.086159624
123	0x3e31c731	0.17361142
124	0xbe541c48	-0.20713913
125	0x3ea0bb9d	0.31393138
126	0x3c413864	0.01179323
127	0xbcbbb700	-0.02291441
128	0xbe21b7c6	-0.1579276
129	0xbc15393a	-0.009107882
130	0x3d21e738	0.039527148
131	0xbdc8512c	-0.09781107
132	0x3d7d1ee8	0.061797053
133	0xbd2f594e	-0.042809777
134	0x3d3e4904	0.046456352
135	0x3da3b0a5	0.07992677
136	0xbede8f73	-0.43468818
137	0x3e967236	0.2938401
138	0x3dfe8ff5	0.124298014
139	0xbeab2ee6	-0.33434218
140	0x3ecc4c14	0.39901793
141	0x3dcc4fb6	0.09976141
142	0xbe82f7b5	-0.2557961
143	0x3ecfcddd	0.4058675
144	0xbd59dc68	-0.05318871
145	0xbd5c34e1	-0.053761367
146	0xbc100a7f	-0.008791565
147	0x3d076c03	0.033061992
148	0xbe340de1	-0.1758342
149	0x3df3f608	0.11912161
150	0xbd040287	-0.032228973
151	0xbddd7fa2	-0.1081536
152	0x3e0d1ae3	0.13779788
153	0x3e0c55cd	0.13704605
154	0xbe36a093	-0.17834692
155	0x3ee48a9b	0.44636998
156	0xbe0518ee	-0.12997791
157	0xbda74209	-0.08166892
158	0x3e381065	0.17975004
159	0x3ce7e5d1	0.028307827
160	0xbe18e4d9	-0.14931048
161	0x3d9cc077	0.07653897
162	0x3d7dd78b	0.061973136
163	0xbddb0f8f	-0.10696327
164	0x3e62b7dc	0.2214045
165	0x3d935cae	0.071954116
166	0xbdbda4c7	-0.092599444
167	0x3ea37f6f	0.31933162
168	0x3dcd5fc2	0.1002803
169	0x3c2ef185	0.0106777
170	0x3d6c78d5	0.057732422
171	0x3d49c565	0.049260516
172	0xbdafd0cc	-0.08584747
173	0x3d24ee79	0.040266488
174	0xbdcca755	-0.099928536
175	0x3d307421	0.0430795
176	0x3d7f0890	0.062264025
177	0xbc3b9a48	-0.011450358
178	0xbd5675f9	-0.0523586
179	0x3dc2c7ec	0.09510788
180	0x3d9437ea	0.07237227
181	0xbe38e2ae	-0.18055221
182	0x3cf0351a	0.029322196
183	0x3db3d95b	0.08781692
184	0xbd9b641f	-0.07587456
185	0x3dafa834	0.08577004
186	0xbda5804b	-0.080811106
187	0xbc53f4e5	-0.012936805
188	0xbd78b41d	-0.060718644
189	0x3dd4d0cf	0.103913896
190	0x3c3464d1	0.011010365
191	0x3e556240	0.2083826
192	0x3cdd7f65	0.027038286
193	0x3dc68249	0.09692819
194	0xbdd2e6d5	-0.10297934
195	0xbd564248	-0.052309304
196	0x3d81e3ae	0.063422546
197	0xbde0ccd6	-0.10976569
198	0x3d34057c	0.043950543
199	0x3d122d79	0.035687897
200	0x3de23bf0	0.110465884
201	0x3d6a5154	0.057206467
202	0xbcd1f525	-0.02562959
203	0x3d4ff734	0.05077286
204	0xbcb2bcc1	-0.02181852
205	0x3d57f59b	0.052724462
206	0xbc20b5e0	-0.009808987
207	0x3df6dd7b	0.12053963
208	0xbd8fccfa	-0.07021518
209	0x3ddcaceb	0.10775169
210	0x3e35b9e2	0.1774669
211	0xbca4c136	-0.020111661
212	0x3bbef45c	0.0058274698
213	0x3d8c0dde	0.068385825
214	0xbd8e01f9	-0.0693397
215	0x3c166e32	0.009181546
216	0xbc90e889	-0.017689006
217	0x3d7b68c4	0.06137921
218	0xbd89d845	-0.06730703
219	0xbda45a0e	-0.08024989
220	0xba72471d	-0.0009242164
221	0xbdac97f3	-0.084274195
222	0x3d1b07d6	0.03784927
223	0x3d0f07e2	0.034919627
224	0xbd8fcf7f	-0.070219986
225	0xbd5933b1	-0.053027812
226	0x3e0f3711	0.1398585
227	0x3e2aa023	0.1666265
228	0xbd7883fd	-0.06067275
229	0x3d51772a	0.051139034
230	0x3e306582	0.17226222
231	0x3bd71e3a	0.0065648826
232	0x3d42b1be	0.04753279
233	0xbd4371e1	-0.047716025
234	0xbd063453	-0.032764744
235	0xbcdca8c5	-0.026935944
236	0x3dbebb68	0.09313089
237	0x3d5bbacc	0.05364494
238	0x3d7db3ae	0.061938934
239	0x3d9adbe3	0.07561471
240	0x3b60203b	0.0034198898
241	0x3c54dd2c	0.012992185
242	0x3e297edd	0.16552301
243	0x3da34854	0.0797278
244	0xbdcf6352	-0.10126366
245	0x3e5766be	0.21035287
246	0x3db348bf	0.087541096
247	0xbd2a6969	-0.041604433
248	0x3e161de0	0.14659834
249	0x3d4ff7a6	0.050773285
250	0xbdbe4a11	-0.09291471
251	0x3dc0e6fe	0.09419058
252	0x3d90e3ad	0.07074676
253	0x3d5bea4a	0.053690232
254	0xbca6f8b0	-0.020382255
255	0xbd9c37b1	-0.0762781

conv2.bias f4 [32]
0	0x3e943e72	0.28953892
1	0x3e797958	0.24362695
2	0xbb8b9a1d	-0.004260315
3	0xbd6cd045	-0.05781581
4	0x3e0281e4	0.12744862
5	0x3e0d54c0	0.13801861
6	0x3df69206	0.120395705
7	0x3d2e1ad1	0.042506043
8	0xbd524f4d	-0.05134516
9	0x3c87450d	0.016512418
10	0xbca5aea8	-0.020224884
11	0x3ce0c523	0.027437752
12	0x3d9a1c1d	0.075248934
13	0x3e18d84a	0.14926258
14	0xbcc08589	-0.023501175
15	0xbd0d9932	-0.034569927
16	0x3d961e2b	0.07329973
17	0x3d108f24	0.03529276
18	0x3ce7a664	0.028277583
19	0xbe1d6d85	-0.1537381
20	0x3d6a516d	0.05720656
21	0xbcfc20f9	-0.030777441
22	0xbe15d806	-0.14633188
23	0xbe07d126	-0.13263378
24	0xbd9ede74	-0.07757273
25	0xbc82e79d	-0.015979582
26	0x3c800329	0.015626507
27	0xbd01a04c	-0.03164701
28	0xbdd8c9f1	-0.10585392
29	0xbde492ea	-0.11160834
30	0xbd9d195e	-0.07670854
31	0xbd861366	-0.06546669

fc1.weight f4 [256, 32]
0	0x3d3f7f53	0.046752285
1	0x3d9e027e	0.07715319
2	0xbdb33108	-0.08749586
3	0x3bda51ac	0.006662568
4	0x3ce5c3ae	0.028047409
5	0x3d7812d7	0.060564842
6	0x3d7b74b3	0.06139059
7	0xbda30432	-0.079597846
8	0x3d4f75c7	0.05064943
9	0xbe2a4f13	-0.16631727
10	0xbd0c6e06	-0.034284614
11	0x3e2ca8fb	0.16861336
12	0x3de271ce	0.11056863
13	0xbe1d088e	-0.15335295
14	0xbd660afc	-0.05616282
15	0x3dbd9d2d	0.092584945
16	0xbd8a1a55	-0.06743304
17	0x3e1aee69	0.15130009
18	0x3d97d3dc	0.07413456
19	0xbda8c61a	-0.0824091
20	0xbd0d9fa2	-0.034576066
21	0xbce5d516	-0.028055709
22	0x3d8bcd69	0.06826288
23	0xbd42fd96	-0.04760512
24	0xbdd08c3f	-0.10183
25	0xbc9b5272	-0.018960211
26	0x3da4141f	0.0801165
27	0xbdb79eb0	-0.08965814
28	0xbe2da00c	-0.16955584
29	0x3bc12c24	0.0058951546
30	0xbdf21a13	-0.118213795
31	0x3cf47d5a	0.029844929
32	0x3dfe57bc	0.12419078
33	0xbe2d6b36	-0.16935429
34	0xbdcf67c6	-0.10127215
35	0xbd1f1997	-0.038842764
36	0x3d91a1ff	0.071109764
37	0x3e0aaa7f	0.13541602
38	0xbdc024aa	-0.09381993
39	0xbdca2dd5	-0.09872023
40	0xbcddb4bd	-0.027063722
41	0x3e21ce4b	0.15801351
42	0xbdf8642b	-0.121284805
43	0x3e1ac826	0.15115413
44	0xbdb9ee6f	-0.09078681
45	0x3dddd84f	0.10832273
46	0x3e0f38e5	0.13986547
47	0x3e2d59f3	0.16928844
48	0x3c93c8b5	0.01804004
49	0x3e022f67	0.12713395
50	0xbdf51273	-0.119664095
51	0xbd5fd9bf	-0.05465102
52	0xbdab1659	-0.08353872
53	0x3d93f20b	0.072239004
54	0xbded9b5f	-0.116019
55	0xbd93f4f9	-0.07224459
56	0xbd5b9b87	-0.05361512
57	0x3dac0564	0.08399466
58	0x3dd51e10	0.104061246
59	0x3d6f1358	0.058368057
60	0x3e0bb478	0.13643062
61	0x3ded44cf	0.1158539
62	0x3d6e838f	0.058230933
63	0xbd9072f0	-0.070531726
64	0xbcdf4579	-0.027254807
65	0xbd52975d	-0.051413883
66	0xbe3e8b34	-0.1860779
67	0x3d2ce210	0.042207778
68	0x3dff58b6	0.12468092
69	0x3d9cadb4	0.07650319
70	0x3d98f92e	0.07469402
71	0x3dc35ee4	0.09539583
72	0xba5a8957	-0.0008336505
73	0x3e1d3330	0.15351558
74	0x3e35c9f2	0.17752817
75	0x3cdc7643	0.02691186
76	0x3b267112	0.0025396985
77	0xbe2bd307	-0.1677972
78	0xbe0cf52d	-0.13765402
79	0x3b64db46	0.0034920736
80	0xbe0656df	-0.13119076
81	0x3d027fde	0.031860225
82	0x3e12ffd6	0.14355406
83	0x3d980191	0.07422174
84	0x3dcbedfd	0.09957502
85	0xbe1038f4	-0.14084226
86	0xbcedee91	-0.029044421
87	0x3e0e3e39	0.13890924
88	0x3dd8762d	0.10569415
89	0xbcc00f07	-0.023444666
90	0xbd2256a2	-0.0396334
91	0x3e362889	0.177889
92	0xbc7db893	-0.0154859
93	0xbe3c257b	-0.18373673
94	0x3d1bc541	0.038029913
95	0x3d1fb4f4	0.03899093
96	0xbe128b92	-0.14311054
97	0xbdf66ce1	-0.12032486
98	0x3cffe194	0.031235494
99	0xbe2261ce	-0.15857622
100	0x3e0c2960	0.13687658
101	0xbdfd6047	-0.12371879
102	0x3d3f5fee	0.046722345
103	0xbe26dfaa	-0.16296259
104	0xbe136c18	-0.14396703
105	0x3dbb46ec	0.09144387
106	0x3dde8685	0.10865501
107	0xbdb457df	-0.088058226
108	0x3ddaf01b	0.10690328
109	0xbe0b1844	-0.13583475
110	0xbe0be8f1	-0.13663079
111	0xbde841cf	-0.11340677
112	0xbd11fbd1	-0.03564054
113	0x3e0a2f1e	0.13494536
114	0x3c9576c7	0.018245114
115	0x3e13eca7	0.14445744
116	0x3dc5a4a5	0.09650544
117	0xbd2c5bf0	-0.042079866
118	0xbd099f67	-0.033599284
119	0xbd905752	-0.07047905
120	0xbcdd6bdc	-0.02702897
121	0xbe2a07ee	-0.16604587
122	0xbe194650	-0.14968228
123	0xbcf27522	-0.029596869
124	0xbd3e19be	-0.04641127
125	0x3dc5a5a2	0.096507326
126	0xbdd2d2bc	-0.10294101
127	0x3d56dd76	0.052457295
128	0x3c326d06	0.010890251
129	0xbd4294d7	-0.047505226
130	0x3e199332	0.14997557
131	0xbde9ad8f	-0.11410057
132	0xbdf67c88	-0.12035471
133	0xbe336cac	-0.17521924
134	0xbdfecf14	-0.12441841
135	0x3df64993	0.12025752
136	0x3d485c8e	0.048916392
137	0x3debca67	0.115132146
138	0x3d6f6d86	0.05845406
139	0x3e0b27e5	0.13589437
140	0x3dbb7779	0.09153647
141	0x3d5353b2	0.05159349
142	0xbe16ece0	-0.14738798
143	0x3d5b3327	0.05351558
144	0xbe1ea5e7	-0.15492974
145	0x3c9a7832	0.018856142
146	0xbe2f6126	-0.17126903
147	0x3d13d542	0.03609205
148	0xbe095234	-0.13410264
149	0x3cf88d29	0.030340748
150	0xbe1e4f3d	-0.15459915
151	0xbc072023	-0.008247408
152	0xbdcae9ae	-0.09907852
153	0xbdfc5b7b	-0.12322136
154	0x3de7b0f2	0.113130465
155	0x3e000805	0.12503059
156	0x3df5f7ad	0.12010131
157	0xbdc007c3	-0.093764804
158	0xbe27fa62	-0.16404107
159	0x3c42affb	0.011882777
160	0xbdee1238	-0.11624569
161	0x3dd875da	0.105693534
162	0xbdca2218	-0.09869784
163	0x3d91b872	0.07115258
164	0xbcabc63f	-0.020968555
165	0xbd09d6ed	-0.033652235
166	0x3df69a3a	0.12041135
167	0x3ce97282	0.028496984
168	0xbd588b67	-0.05286732
169	0xbcd7ad76	-0.02632783
170	0x3e017496	0.1264213
171	0xbe26956b	-0.16267936
172	0xbe143fc3	-0.14477448
173	0x3e11e445	0.14247234
174	0x3daa0272	0.08301248
175	0xbc0880ac	-0.008331459
176	0xbde3a49c	-0.11115381
177	0xbc61fbf2	-0.013792979
178	0x3d89b5d6	0.067241356
179	0x3d3c8b29	0.04603115
180	0x3dd03679	0.1016664
181	0xbe342aaf	-0.17594407
182	0x3d7bb27a	0.061449505
183	0xbb796dcf	-0.0038059836
184	0x3dd78f07	0.10525327
185	0x3d07054f	0.032964047
186	0x3cae1b33	0.021253204
187	0xbe17757e	-0.14790913
188	0xbd487c6b	-0.04894678
189	0xbc9279b5	-0.0178803
190	0x3c432cb3	0.011912513
191	0xbd96fd2b	-0.07372507
192	0x3aae087f	0.0013277679
193	0xbdbf2e38	-0.093349874
194	0xbdaddb3c	-0.08489081
195	0x3e27996b	0.16367118
196	0xbdbdd8fa	-0.092699006
197	0x3b54771d	0.003241963
198	0x3d8e9a8c	0.06963071
199	0x3d120607	0.03565028
200	0x3c1c85cb	0.009553383
201	0x3d402c46	0.046917222
202	0x3de30df1	0.110866435
203	0xbe2131f2	-0.15741709
204	0x38d60817	0.00010205822
205	0x3dfdf747	0.1240068
206	0xbe0aea21	-0.13565876
207	0x3d8181c8	0.06323582
208	0x3d916619	0.07099552
209	0x3dfa22af	0.122136466
210	0xbd68145f	-0.056660052
211	0xbda3bb90	-0.07994759
212	0x3d895256	0.067051575
213	0xbdbbc664	-0.091686994
214	0x3ded51f0	0.11587894
215	0xbd5af4b8	-0.05345604
216	0xbe26d798	-0.1629318
217	0x3d563992	0.052300997
218	0x3e0c6866	0.137117
219	0x3e156615	0.14589722
220	0x3db2ccf6	0.087304994
221	0xbcb562b8	-0.0221418
222	0xbd85d16b	-0.06534084
223	0xbe31dbca	-0.17368999
224	0x3de83b23	0.113394044
225	0x3cac5c8d	0.021040225
226	0xbd356b30	-0.044291675
227	0xbe1caaea	-0.15299574
228	0x3af3998e	0.0018585192
229	0x3d58f6bb	0.052969676
230	0x3df6e717	0.12055796
231	0x3e015a2e	0.12632057
232	0xbe0a031e	-0.13477752
233	0xbc64229e	-0.013924269
234	0xbde9083d	-0.113785245
235	0xbda70c7f	-0.0815668
236	0xbafa8838	-0.0019114083
237	0x3e060fa6	0.13091907
238	0xbd565541	-0.0523274
239	0x3d9a2ab0	0.07527673
240	0xbdfddba3	-0.12395408
241	0xbd0fb88a	-0.0350881
242	0x3da67f67	0.08129769
243	0xbd783304	-0.060595527
244	0x3dc47a91	0.0959369
245	0xbe179069	-0.14801182
246	0xbc56d733	-0.013112831
247	0xbdc713a3	-0.09720542
248	0x3e0f8bcc	0.14018172
249	0xbd2dac9c	-0.04240094
250	0xbe04a52d	-0.12953635
251	0x3cf0cb4e	0.029393818
252	0xbdbd6470	-0.092476726
253	0xbd6d9bd4	-0.058009937
254	0x3e025efb	0.12731545
255	0x3d9c9e9f	0.07647442

fc1.bias f4 [256]
0	0xbe124bf6	-0.1428679
1	0xbda2153c	-0.079142064
2	0xbd133341	-0.03593755
3	0x3cdd974b	0.027049681
4	0xbd9eee9f	-0.07760357
5	0xbd8bd4f7	-0.06827729
6	0xbd1c671e	-0.038184278
7	0xbcec2998	-0.028828427
8	0xbe2eeb14	-0.17081863
9	0xbd5eb274	-0.054369405
10	0xbcea3f58	-0.028594658
11	0xbde60362	-0.11231114
12	0xbd361a67	-0.044458773
13	0xbb5ffe2b	-0.0034178596
14	0x3d2b10aa	0.04176394
15	0xbd819d55	-0.06328837
16	0xbd822a03	-0.06355669
17	0xbe09cee0	-0.13457823
18	0xbdaa3ac6	-0.083119914
19	0xbdd68a9b	-0.10475656
20	0xbdd67286	-0.10471062
21	0xbd95fac7	-0.073232226
22	0xbdf9f6bc	-0.12205264
23	0x3c7fd538	0.0156148
24	0xbda4204f	-0.08013975
25	0xbe15b6bf	-0.14620493
26	0xbdb12780	-0.08650112
27	0xbd15313b	-0.036423903
28	0x3c1b3e21	0.009475262
29	0x3c3caa48	0.011515208
30	0xbdf65bcf	-0.1202923
31	0x3cecde50	0.0289146
32	0xbe06bcf1	-0.13158013
33	0x3b3805e0	0.0028079674
34	0xbdaed40a	-0.08536537
35	0xbe006b73	-0.12540989
36	0x3c8ffaba	0.01757561
37	0xbdd0b007	-0.101898246
38	0xbe1e1514	-0.15437728
39	0xbb8b44c4	-0.004250141
40	0xbde121c6	-0.1099277
41	0xbd2a2215	-0.04153641
42	0xbe05089d	-0.12991567
43	0xbd12fc53	-0.035885166
44	0xbc9a5f7f	-0.018844364
45	0xbde0ca1d	-0.1097605
46	0x3d8d87f8	0.069106996
47	0xbd5466e2	-0.05185593
48	0xbd78ff9f	-0.060790654
49	0xbe344c7f	-0.17607306
50	0xbcfbc571	-0.030733796
51	0xbdeec3ab	-0.116584145
52	0xbc9c2e57	-0.019065065
53	0xbd41be5b	-0.047300678
54	0xb8bfd0ee	-9.146506e-05
55	0xbde23554	-0.11045328
56	0xbbfa1b9a	-0.007632685
57	0xbc24fb9c	-0.010069754
58	0xbc7ea3d8	-0.015541993
59	0xbcd147f9	-0.025547015
60	0xbd931dc6	-0.07183413
61	0xbe1fa6d9	-0.15590991
62	0xbdfac0d4	-0.1224381
63	0xbcf48f27	-0.029853417
64	0xbd295b5b	-0.04134689
65	0xbd908a73	-0.07057657
66	0xbd7a4622	-0.06110204
67	0xbd93596b	-0.071947895
68	0xbc2c7c31	-0.010527656
69	0xbcee3114	-0.029076137
70	0xbbc2c588	-0.0059439577
71	0xbd34a4f8	-0.04410264
72	0xbd56f6cc	-0.052481458
73	0x3cf3bba6	0.029752564
74	0x3bb54687	0.005532089
75	0xbd385c9b	-0.04501019
76	0x3aee2fba	0.0018172183
77	0xbcc7791f	-0.024349747
78	0xbd101c80	-0.03518343
79	0xbe8f9149	-0.2804053
80	0x3b773045	0.003771798
81	0xbdf5ab66	-0.11995582
82	0x3bb0ce8e	0.005395717
83	0xbd8ea3ce	-0.06964837
84	0xbe422b3a	-0.18961802
85	0xbdfaa5ee	-0.1223868
86	0xbe56e1e7	-0.20984612
87	0x3d1f0ebe	0.03883242
88	0xbe19272a	-0.14956346
89	0xbb4a3c81	-0.0030858817
90	0x3c83fb51	0.016111048
91	0xbe1a6a2b	-0.15079562
92	0xbc9961f8	-0.018723473
93	0xbe20b238	-0.15692985
94	0xbda697cf	-0.08134424
95	0xbd2ab4d0	-0.041676342
96	0xbce68abf	-0.028142331
97	0xbe0e08ec	-0.13870591
98	0xbd787f8f	-0.060668524
99	0xbcd488c2	-0.025944117
100	0xbdd75e45	-0.10516027
101	0xbd6ad490	-0.05733162
102	0xbd53d8a8	-0.05172029
103	0xbd29982d	-0.04140489
104	0xbe2fbc29	-0.17161621
105	0xbe1575c7	-0.1459571
106	0xbd91920f	-0.071079366
107	0xbd5d151b	-0.053975206
108	0xbe1885e8	-0.14894831
109	0xbe0d5485	-0.13801773
110	0x3a286300	0.00064234436
111	0xbd956693	-0.07294955
112	0x3c21f3d6	0.009884795
113	0xbcccb5a7	-0.024988962
114	0xbd94293d	-0.07234428
115	0x3c6ef133	0.014583874
116	0x3cdb090e	0.026737716
117	0xbcfcd9d0	-0.03086558
118	0xbdfe49f2	-0.12416448
119	0xbde70069	-0.11279375
120	0xbb83d508	-0.004023198
121	0x3da8dba5	0.08245019
122	0x3cc974fc	0.024591915
123	0x3d48b431	0.04899997
124	0xbd529122	-0.05140794
125	0xbd274385	-0.040835876
126	0xbc0bd144	-0.0085337795
127	0x3c1a71d9	0.009426557
128	0xbd782b35	-0.06058808
129	0xbd8e8b51	-0.06960166
130	0xbd11c129	-0.035584603
131	0xbd8b11b3	-0.06790485
132	0xbdc11685	-0.094281234
133	0xbdd06e56	-0.10177295
134	0xbd68d416	-0.056842886
135	0xbd843179	-0.06454749
136	0xbd30ac86	-0.04313328
137	0xbdc64aac	-0.09682211
138	0xbe4f7863	-0.20260768
139	0xbdd62783	-0.10456755
140	0xbe2589b9	-0.16165818
141	0xba44744a	-0.0007494135
142	0xbdc7b2d4	-0.09750906
143	0xbd8487e4	-0.064712316
144	0xbe1bfaa2	-0.15232328
145	0xbcd6342d	-0.026147926
146	0xbde72d3a	-0.11287923
147	0xbce5d3c0	-0.028055072
148	0xbcbc194a	-0.022961278
149	0xbcb81690	-0.022471696
150	0xbcb0329e	-0.021508511
151	0xbb5d9431	-0.0033810253
152	0xbe2bc0f9	-0.16772832
153	0xbe1953a3	-0.14973311
154	0xbd80fdf4	-0.06298438
155	0xbd991b45	-0.074759044
156	0x3bdc0175	0.006714041
157	0xbd8184f9	-0.06324191
158	0xbdbcc864	-0.09217909
159	0xbe2916ab	-0.16512553
160	0x3ca235ae	0.019800987
161	0xbb9c0e0c	-0.0047624167
162	0x3d2bb4e2	0.04192055
163	0xbc2fc9f8	-0.010729305
164	0x3d273889	0.0408254
165	0xbdb805f4	-0.089855105
166	0xbcb7abe4	-0.022420831
167	0xbe1214db	-0.14265768
168	0xbe16d2d2	-0.14728859
169	0xbd43c58a	-0.04779581
170	0xbcdbe718	-0.026843593
171	0xbde20066	-0.11035232
172	0x3d77ba73	0.060480546
173	0xbe1c61f5	-0.15271743
174	0xbd2b2965	-0.041787524
175	0xbe1dc1d0	-0.15405965
176	0xbdb30aa9	-0.08742268
177	0xbe2b988e	-0.16757414
178	0xbd3be7e4	-0.045875445
179	0xbbcec0ac	-0.0063095894
180	0xbe0d4b38	-0.13798225
181	0x3c06264f	0.008187844
182	0xbcaa681d	-0.020801598
183	0xbe223e74	-0.15844136
184	0xbd9ad768	-0.07560617
185	0xbd84593f	-0.06462335
186	0xbe119913	-0.1421855
187	0xbe2490f8	-0.16070926
188	0x3cdc1c26	0.026868891
189	0xbe1e4d9f	-0.15459298
190	0xbe88193e	-0.26581758
191	0xbc0dc653	-0.008653241
192	0x3dc45398	0.09586257
193	0xbdc4b5cd	-0.09604988
194	0xbe1cdf27	-0.15319501
195	0x3d7cd3b4	0.061725333
196	0x3d1c4c59	0.03815875
197	0xbdf5003b	-0.119629346
198	0xbc37efc0	-0.011226594
199	0xbd88d768	-0.066817105
200	0xbdee0b8c	-0.11623296
201	0xbd9015c3	-0.07035401
202	0xbdd1a519	-0.10236568
203	0xbd33df25	-0.04391398
204	0x3ca23339	0.019799815
205	0xbd1923f4	-0.037387803
206	0xbe1ec4fb	-0.1550483
207	0x3d84351b	0.064554416
208	0xbddda38b	-0.10822209
209	0xbd512a08	-0.051065475
210	0xbd9677c6	-0.07347064
211	0xbd2c4dd4	-0.04206641
212	0xbd1c5843	-0.03817011
213	0xbe1d0916	-0.15335497
214	0xbdcfefb4	-0.101531416
215	0xbe0d49d8	-0.137977
216	0xbdbfeae9	-0.093709774
217	0xbd869760	-0.06571841
218	0xbe05c6f3	-0.13064174
219	0xbd2ea4d1	-0.04263765
220	0xbcabd412	-0.020975146
221	0xbca63f68	-0.020293906
222	0xbda25644	-0.0792661
223	0xbdab0340	-0.08350229
224	0xbe0c47d0	-0.1369927
225	0xbe394553	-0.18092851
226	0xbda8d5d4	-0.082439095
227	0xbd9f09cf	-0.07765543
228	0xbd1637c7	-0.036674287
229	0xbd4b9e95	-0.049711782
230	0xbe02a1d1	-0.1275704
231	0xbc4423e4	-0.011971448
232	0xbd8fdb4a	-0.07024248
233	0xbd59ec6b	-0.05320398
234	0xbcc15c78	-0.023603663
235	0xbd7efd74	-0.06225343
236	0xbcda1964	-0.026623435
237	0xbcef3f89	-0.0292051
238	0x3abd5ce2	0.0014447237
239	0xbdc7ca6c	-0.09755406
240	0xbda9ee79	-0.08297438
241	0xbd9d0d8b	-0.07668599
242	0xbe29b00f	-0.16571067
243	0xbdd28819	-0.10279865
244	0xbd3912fc	-0.04518412
245	0xbe0225e9	-0.12709774
246	0xbd1c0966	-0.0380949
247	0xbc84ba30	-0.016202062
248	0xbd9d332a	-0.076757744
249	0x3ba4a66e	0.005024723
250	0xbd366a39	-0.044534896
251	0xbe2dde4a	-0.16979328
252	0xbc0d3232	-0.0086179245
253	0xbe241ab1	-0.16025807
254	0x3bdc5137	0.0067235488
255	0xbb099f80	-0.002099961

fc2.weight f4 [5, 256]
0	0x3d2c89e6	0.042123698
1	0xbd6452ca	-0.055743016
2	0x3d694f6c	0.05696051
3	0x3ab62000	0.0013895035
4	0xbd1e1dca	-0.038602628
5	0x3d0f3280	0.03496027
6	0x3d4b050c	0.04956536
7	0x3cdace64	0.026709743
8	0x3c348b80	0.0110195875
9	0x3d201bd8	0.039089054
10	0xbc153b50	-0.0091083795
11	0x3bcfd7f0	0.0063428804
12	0x3cffb3f4	0.031213738
13	0x3c415000	0.011798859
14	0xbd2d3a64	-0.042292014
15	0x3bf749e0	0.0075466484
16	0x3b815d30	0.0039478764
17	0x3c564b48	0.013079472
18	0xbd7e4542	-0.06207777
19	0x3d61670c	0.055029914
20	0xbd3ac8e0	-0.045601726
21	0x3d3dc4d6	0.046330296
22	0xbd6345ec	-0.055486605
23	0xbd50d442	-0.050983675
24	0xbccbf0b4	-0.02489505
25	0xbba7cff0	-0.0051212236
26	0x3c9065f4	0.01762674
27	0xbcba94c4	-0.022776015
28	0x3d49130e	0.049090438
29	0xbd21a41c	-0.039463148
30	0xbcfec6f8	-0.031100735
31	0x3d4a96b4	0.049460128
32	0xbd0fd806	-0.035118125
33	0x3d06600c	0.03280644
34	0xbccb3230	-0.024804205
35	0x3d565eec	0.05233662
36	0xbd6501c6	-0.055909894
37	0xbcd843d8	-0.026399538
38	0x3d7d6dca	0.06187228
39	0xbd0c7e6a	-0.034300245
40	0x3c1d9168	0.009617187
41	0x3c6636b0	0.014051124
42	0x3d2c73b0	0.042102516
43	0xbd5528a4	-0.05204071
44	0xbb56d800	-0.0032782555
45	0x3bc9def0	0.0061606094
46	0x3d50bc7c	0.050961003
47	0xbd3b2c1e	-0.04569637
48	0x3d4e984e	0.050438218
49	0xbd383886	-0.04497578
50	0xbd072fb8	-0.033004493
51	0xbae8c600	-0.0017759204
52	0xbbd3be50	-0.006461896
53	0x3c9043a4	0.017610379
54	0xbd7b7b24	-0.061396733
55	0xbc5c9658	-0.013463579
56	0xbd55da2c	-0.052210018
57	0xbd5bc346	-0.053653024
58	0xbcabd308	-0.020974651
59	0xbd57e4be	-0.05270838
60	0xbcac0c24	-0.021001883
61	0x3c0d5778	0.008626811
62	0x3d0b18c0	0.03395915
63	0x3d378ed2	0.04481394
64	0x3cfe9110	0.03107503
65	0xbd249934	-0.04018517
66	0x3d3fc438	0.04681799
67	0x3d393304	0.045214668
68	0xb9450e00	-0.000187926
69	0x3c5271f0	0.012844548
70	0x3ceb5ec4	0.028731711
71	0xbc6a6680	-0.0143066645
72	0xbcf116c4	-0.0294298
73	0x3c4389f0	0.011934742
74	0xbd6e1396	-0.058124147
75	0xbd26504a	-0.040603913
76	0x3d7cbcd6	0.061703525
77	0x3d7145b2	0.058904357
78	0xbaff1780	-0.001946196
79	0x3d0f90a4	0.03505005
80	0xbd5baa68	-0.05362931
81	0x3cafabd0	0.021444231
82	0xbd58ac86	-0.052898906
83	0x3d476c84	0.048687473
84	0xbd1283c2	-0.035770185
85	0xbd1006f2	-0.035162874
86	0x3cdb38ac	0.026760422
87	0xbd76e32e	-0.06027525
88	0xbc3fb710	-0.01170136
89	0x3d549762	0.051902182
90	0x3c8fb168	0.017540649
91	0xbc55e7e8	-0.013055779
92	0x3ca84b34	0.020543672
93	0x3cdf9830	0.027294248
94	0xbc68eda8	-0.014216818
95	0xbca6e470	-0.0203726
96	0x3d359068	0.04432717
97	0x3c811620	0.01575762
98	0x3d612d20	0.054974675
99	0xbc675f78	-0.014121883
100	0x3d07e120	0.03317368
101	0xbc2064b0	-0.009789631
102	0x3d185c6a	0.037197508
103	0xbd0b6e48	-0.03404072
104	0x3d1e918c	0.038713023
105	0xbd5d93fe	-0.054096214
106	0x3c1bb418	0.009503387
107	0x3aff6180	0.0019484013
108	0x3d22657c	0.039647564
109	0x3c948668	0.018130496
110	0x3c7898b8	0.01517313
111	0xbc1f5770	-0.009725437
112	0xbd5364fe	-0.051609986
113	0xbd468056	-0.048462234
114	0xbd71c6a0	-0.059027314
115	0xbb46bce0	-0.003032498
116	0xbcacd968	-0.021099761
117	0xbce63244	-0.02810014
118	0xbc779d58	-0.015113197
119	0x3c81eba0	0.015859425
120	0xbc64a528	-0.013955392
121	0xbc7a3f90	-0.015273944
122	0xbcda71bc	-0.02666556
123	0x3d2692e2	0.040667422
124	0x3a073980	0.00051584095
125	0x3ce0dc38	0.027448758
126	0x3d608cbe	0.054821722
127	0xbcb676d4	-0.022273459
128	0xbb382660	-0.0028099045
129	0xbd416de0	-0.047223926
130	0x3d2ed418	0.042682737
131	0x3c2b6528	0.010461129
132	0xbd6e235a	-0.058139183
133	0x3d142be4	0.03617467
134	0x3bda97b0	0.0066709146
135	0xbd26bbd4	-0.04070647
136	0xbc5ba3b8	-0.013405733
137	0x3d153794	0.036429957
138	0x3cf742e8	0.03018327
139	0x3c7dcaf8	0.015490286
140	0x3cea74f4	0.02862022
141	0x3cc69068	0.02423878
142	0xbc723288	-0.014782555
143	0xbca9532c	-0.020669542
144	0xbd4132ec	-0.047167704
145	0xbd2cebe4	-0.04221715
146	0xbbe1c200	-0.0068895817
147	0xbcd3d1e0	-0.025856912
148	0xbd73dec6	-0.059538625
149	0xbd5b5ed6	-0.05355724
150	0xbcc34fb4	-0.023841716
151	0xbd4c837c	-0.04993008
152	0xbd649d12	-0.055813856
153	0x3d3ca010	0.046051085
154	0x3cb49aa4	0.022046395
155	0x3b912ec0	0.004430622
156	0x3bdc9b70	0.006732397
157	0x3c9a0380	0.018800497
158	0x3d2f4ac6	0.04279592
159	0x3b974ca0	0.0046172887
160	0x3caf4a14	0.021397628
161	0x3d7aa428	0.061191708
162	0x3d0a999a	0.033837892
163	0x3ce9dec0	0.028548598
164	0x3d182a54	0.037149742
165	0xbd449058	-0.04798922
166	0xbd37bd7e	-0.04485845
167	0xbcef5584	-0.029215582
168	0xbd4a36a0	-0.0493685
169	0xbc93dd08	-0.018049732
170	0x3d4ef424	0.0505258
171	0xba4d8180	-0.00078394264
172	0xbd308f72	-0.04310555
173	0xbd49480a	-0.049140967
174	0xbd02b044	-0.03190638
175	0x3d738440	0.059452295
176	0x3c79bb80	0.015242457
177	0xbd0fa950	-0.03507358
178	0x3c319968	0.010839798
179	0xbd4c14d6	-0.04982456
180	0x3d4a8544	0.0494435
181	0xbd481896	-0.048851572
182	0x3d7b8c34	0.061413005
183	0xbcdc6a88	-0.026906267
184	0x3d660e72	0.05616612
185	0xbd295bcc	-0.04134731
186	0xbb92eb90	-0.0044836476
187	0xbd252fc6	-0.040328763
188	0xbbcf0fa0	-0.0063190013
189	0xbceec87c	-0.029148333
190	0xbd1024fe	-0.03519153
191	0xbd32c8d4	-0.043648556
192	0x3d43c7a6	0.04779782
193	0x3d149e5a	0.03628383
194	0xbd6b0868	-0.057381064
195	0x3d4fd680	0.050741673
196	0x3d031292	0.032000132
197	0xbcacc940	-0.021092057
198	0x3c223dc8	0.009902425
199	0xbd73b6ae	-0.05950039
200	0x3d29e7b8	0.04148075
201	0xbcdf00d8	-0.027222082
202	0x3ca239b4	0.019802906
203	0x3d1d0fcc	0.038345143
204	0xbd6b234c	-0.05740671
205	0x3d23cbbc	0.039989218
206	0xbd1e4fc6	-0.038650297
207	0x3b0b4080	0.0021248162
208	0x3d20ff5e	0.039306037
209	0x3d18af98	0.037276834
210	0x3b83ee50	0.004026212
211	0x3d4a18dc	0.049340114
212	0xbd387c9e	-0.04504072
213	0xbcecd674	-0.028910853
214	0x3c6fb968	0.014631607
215	0x3d0a3782	0.033744343
216	0x3d2adf94	0.041717127
217	0xbd6ce556	-0.0578359
218	0x3d4089f6	0.04700657
219	0x3d6d2f26	0.057906292
220	0xbd5bcdf0	-0.053663194
221	0x3d49eac8	0.04929617
222	0x3d6774ac	0.05650775
223	0xbc517358	-0.012783848
224	0x3bf6c020	0.0075302273
225	0xbd603fec	-0.05474846
226	0xbd594274	-0.05304189
227	0xbd4321e2	-0.047639735
228	0xbb854150	-0.0040666237
229	0xbd26a604	-0.04068567
230	0xbd6e3c10	-0.05816275
231	0x3d5b4870	0.05353588
232	0x3cf154d8	0.029459402
233	0x3c82b33c	0.015954606
234	0xbd1beef2	-0.038069673
235	0x3d516dc4	0.05113007
236	0x3ce92ed0	0.028464705
237	0xbd1cfda2	-0.03832782
238	0xbd70df20	-0.05880654
239	0xbcf75180	-0.03019023
240	0xbc62bc78	-0.01383888
241	0x3d7951d0	0.060869038
242	0x3ce3b674	0.027796961
243	0x3b691820	0.0035567358
244	0xbd6324ee	-0.05545514
245	0x3d5522a0	0.052034974
246	0xbc171c70	-0.009223089
247	0xbc85e414	-0.016344108
248	0x3cc70ca4	0.02429802
249	0xbc93b500	-0.018030643
250	0x3d76948a	0.06020025
251	0xbd77b248	-0.060472757
252	0xbbb29140	-0.005449444
253	0x3d6ab93a	0.057305552
254	0xbcebd244	-0.028786786
255	0xbd13f08c	-0.036118075

fc2.bias f4 [5]
0	0xbca8710c	-0.020561717
1	0x3d484860	0.048897147
2	0xbd01f7d4	-0.031730488
3	0xbd52fc0a	-0.051509894
4	0x3e14033a	0.14454356
