Models/Torch2/my_model18200.pth (torch_old, 60054 bytes, 8 tensors)

conv1.weight f4 [16, 2, 3, 3]
00000000: acf4 443e 44f6 a0be 601b 75bd d119 2bbd
00000010: fd5d 99bc 100d 87be 1c4d 4ebe 3a9a 85be
00000020: a248 21be a6d9 2bbe 7e07 093f 0795 c93e
00000030: c10d 59bd 9352 6bbe 3a82 913d e6ed 0f3e
00000040: c8a3 143d 7564 ccbc f192 8fbe 388c 8bbe
00000050: bf2d 01be 7ed3 143f 5b98 803e c979 de3e
00000060: 5b8b f23e feb8 133f 0e08 5a3d 2162 743c
00000070: 3ca5 a1be 048d 9e3e d683 bfbc 90e6 3e3e
00000080: c64b 05bf 3d28 9c3c 16ef 703e 8672 ecbe
00000090: 4b5e 0f3f 596f cc3e 6b52 e03e 23a5 bbbe
000000a0: f7b5 aabe b318 58be f1a7 3e3e e99c 773e
000000b0: 6967 ed3d 0275 28be 87eb 4c3e d5ef f6be
000000c0: 4377 b83c 9e0c c1be 2463 623e bcaf 8d3d
000000d0: 4789 893d 1e89 c4be 8ecb 8b3e 4b82 5bbe
000000e0: 9307 b6bd a454 c23e 6d20 183e 49ff aabd
000000f0: deb7 3a3d a000 a83e 29f9 033f 362f c2bd
00000100: 0e88 d8bd 2c72 b23e addb acbd 4e86 083e
00000110: 4b00 563e f11d 15be 71a2 943e 0a23 22be
00000120: a7ba 33be 1d62 02be b229 fe3e 9148 1fbe
00000130: f445 703e 863b a1bd d76c 27be d8e6 b23e
00000140: 9527 b1bd 0138 d73c 19bc 41be 7cab 443e
00000150: ae1e d6bb 3e9a 853d b146 07be a2e6 193e
00000160: 2735 3b3d cfd9 7ebe 02ec b23e 8e55 03be
00000170: 6767 e5bd 214b 043f d32b be3e 4953 1a3f
00000180: f5b4 5bbe c476 f63e 828a 6bbe e53f a7be
00000190: 04f5 d3be e824 76be ea14 96bc 90cf 12bf
000001a0: 2714 793d 4ecc 12be 7ce7 77bd 6ad0 10bc
000001b0: 5d2c 053e e638 abbd c414 00bd 541f b9bd
000001c0: a3dd ac3d 90a8 2abe 647b 833d 3f8c 823e
000001d0: 3ad8 0a3e 722b e73c 169b dbbd 6e2f 9a3d
000001e0: 62a3 4e3e 0ccd 453e 46a8 57be c6b8 bcbd
000001f0: 3a1b 40be ef20 1abe de35 aabd 3ffe fc3d
00000200: 2c5f 7bbd 61db 26be b341 9d3e 80af 1bbc
00000210: d5fb 4dbd c545 e6bd d1be 8a3e 1a20 a4bd
00000220: 187e 84be 6944 20be 3af4 e43d eaa1 50be
00000230: 97ca a8be a7ab c3bc 52b9 f6bd 5e1c 12be
00000240: 8e21 a9bd 4732 003e ec6a d8bd fb75 bbbd
00000250: deb0 04bd 4f8f cfbd a6c5 a7bb ffce 92be
00000260: 7724 60bd 8aa2 4a3c 633e 0ebe 3ad7 153f
00000270: 2833 853e 05be a03e faae ca3e 654b 3b3e
00000280: e0f5 c63e 76a0 acbc aa0f b7be ae36 3e3e
00000290: dc9e 033e a8e6 5f3e 9e36 14bd 9168 a93e
000002a0: 2b6b 80be b646 563e 5215 443d 20b2 ebbd
000002b0: 5745 52be d099 ea3e e226 89bc c572 d83d
000002c0: 289f 90be 8327 153d b4a6 47bc 34ef 923e
000002d0: 981f 7e3c 66c2 ba3d eb38 bcbc 3067 dd3e
000002e0: 0877 1fbc d7c4 6fbe 987d c13e 96d1 21be
000002f0: cce3 cdbd 1b1e 823e eec0 febd 55d0 31bd
00000300: b1f6 623d 7d37 c83e 403f b73e d1f4 d33d
00000310: 7e19 a63e 1a59 9b3e 630d 033e 9dd3 20bc
00000320: 7800 8d3e d8fe 373e 4b41 6dbe af7c 973e
00000330: 0a7d 64be 4314 49bd 9f06 c33d 5979 4f3e
00000340: 32e8 d33e 86b2 14be 6ecb a6bd 454e ae3e
00000350: 5a6c be3e 3cc2 7d3e c71c c3bd 0fd2 8e3d
00000360: fb0c 3fbe 2e1f c1bd c85d 5b3c ed18 be3e
00000370: 3d55 353d 4b05 34be 9c05 983e bb35 3dbd
00000380: e2c5 993d ceaf cabd 07a1 8cbd 8933 fabd
00000390: 0be4 0fbe 1b7f 08be ebc7 033f ceb1 53be
000003a0: 04eb b3bc 91f8 363e 5fc2 afbd 333a dabc
000003b0: d47b d5bd ee40 8abe 95ad 133f bfd7 a43e
000003c0: f2e5 303f ae80 16bf c7d0 a63e 90cd acbd
000003d0: fb5c d8bd dcaa 68be 3357 f1bc cbd0 1fbe
000003e0: a1d4 16bf 7c01 a0bc caf0 9c3e d908 b93e
000003f0: 28ca 8d3a 320c 64be ee2b df3d 4d59 3d3d
0.1923396 -0.31437886 -0.05984056 -0.041772667 -0.018721575 -0.26377153 -0.20146602 -0.26094228
-0.15750363 -0.16782245 0.5352706 0.3937151 -0.052991632 -0.22980718 0.07104917 0.14055595
0.036289006 -0.024950245 -0.28041795 -0.27255416 -0.12615107 0.5813521 0.25116238 0.4345229
0.47371945 0.5770415 0.053230338 0.014915974 -0.31571376 0.3096696 -0.023378294 0.1864264
-0.52068746 0.019062156 0.23528704 -0.46181124 0.56003255 0.39928702 0.4381288 -0.36649427
-0.33341953 -0.21103172 0.18618752 0.2418095 0.115919895 -0.16450885 0.20011722 -0.48229852
0.022517806 -0.3770494 0.22108132 0.06918284 0.06715637 -0.38385862 0.27303737 -0.21436422
-0.088881634 0.379552 0.1485612 -0.08349473 0.045585506 0.32812977 0.51552063 -0.09481661
-0.10572825 0.3485273 -0.08440337 0.13332483 0.2089855 -0.14562203 0.29030183 -0.15833679
-0.17551671 -0.1273274 0.49641186 -0.15555026 0.23464185 -0.07872681 -0.16350113 0.34941745
-0.08650128 0.026271822 -0.1891941 0.19206041 -0.006534419 0.0652356 -0.1321056 0.15029386
0.045704987 -0.24887775 0.34945685 -0.12825605 -0.11201363 0.5167714 0.3714281 0.60283333
-0.21455748 0.48137486 -0.23002055 -0.32665935 -0.4139787 -0.24037516 -0.01832052 -0.57347965
0.060810234 -0.14335749 -0.060523495 -0.008838752 0.13005204 -0.08360462 -0.031269804 -0.090391785
0.08440711 -0.16665864 0.06420019 0.25497624 0.13559046 0.028218959 -0.1072294 0.07528578
0.20179513 0.193165 -0.21060285 -0.0921493 -0.18760386 -0.15051626 -0.083110556 0.12353181
-0.06137006 -0.16294624 0.30714187 -0.009502292 -0.050288994 -0.11243776 0.27098706 -0.080139354
-0.25877452 -0.15651096 0.11179395 -0.20374265 -0.32967064 -0.023885561 -0.12047066 -0.14268634
-0.08258353 0.1251918 -0.10567269 -0.09153362 -0.032395236 -0.10134756 -0.005119997 -0.2867355
-0.054722276 0.012367854 -0.13890986 0.58531535 0.26015592 0.31394973 0.39586622 0.1829048
0.38859463 -0.021072607 -0.35754138 0.18575546 0.12853569 0.21865332 -0.0361849 0.3308759
-0.25081763 0.20925412 0.047871895 -0.11508584 -0.20534264 0.45820475 -0.016742174 0.105687656
-0.28246427 0.036414634 -0.012185741 0.28698123 0.015510462 0.0911911 -0.02297636 0.43242788
-0.009732969 -0.23414932 0.37791133 -0.15802607 -0.100532144 0.25413594 -0.12439142 -0.04341157
0.055411045 0.39104834 0.35790443 0.103494294 0.32441324 0.30341417 0.12798075 -0.009816078
0.2753942 0.17968309 -0.23169439 0.29587314 -0.22313324 -0.04909159 0.09522747 0.20261134
0.41388088 -0.14521226 -0.0814427 0.3404409 0.3719204 0.24781126 -0.09526973 0.06973659
-0.18657295 -0.09429775 0.013389058 0.37128392 0.044270743 -0.17580144 0.2969178 -0.04619382
0.07508446 -0.09896813 -0.06866651 -0.12216861 -0.14051835 -0.13329737 0.51476926 -0.20673296
-0.02196265 0.17868258 -0.08581995 -0.02663908 -0.10424009 -0.27002662 0.5768674 0.3219585
0.6910087 -0.587901 0.3258116 -0.084376454 -0.105646096 -0.22721428 -0.029460525 -0.15606992
-0.58918196 -0.019531958 0.30652457 0.36139563 0.0010817694 -0.22270277 0.10897051 0.046227742

conv1.bias f4 [16]
00000000: 1c67 3fbe 68dd 183d c666 983d c433 d7be
00000010: 44b2 32bd 5764 42bd e767 91be 8cca bcbc
00000020: f1f7 0e3c a418 e4bc e2fd babe 1ca1 09be
00000030: a15c d8be 50d3 0c3e 8a08 5ebe 1855 d5be
-0.18691677 0.037320524 0.074414775 -0.42031682 -0.04362704 -0.047458973 -0.28399584 -0.0230458
0.008726106 -0.02784378 -0.36521822 -0.13440365 -0.4225817 0.13752484 -0.21682945 -0.41666484

conv2.weight f4 [32, 16, 3, 3]
00000000: 059a 6f3e 1e35 17be ea84 493e 79d9 573e
00000010: 6fb9 4e3c fea9 973e 3163 973d 35a1 5bbd
00000020: c71c 433e 4eff 353e 990f bcbe 8422 48bd
00000030: 55b8 563b b74d 52bc c6f0 80bd e834 c23e
00000040: d6bf 6fbe c074 ba3e 86dc c63e b5d0 6dbe
00000050: ba65 a23e 68b1 463e 639f 57be 9163 9fbd
00000060: 2cb1 0e3e e5ed b3be 60e0 bebc cdaa ac3b
00000070: af16 a23c 2912 383c 37c2 ac3d 409c e43d
00000080: d00f d93d 8248 023e 2a3c cbbd 00ac fa3d
00000090: a340 913d 37f0 b7bd 1bdf 5c3e 4481 8e3d
000000a0: 355e 893b 5644 11be b6e8 8d3c 1b32 1cbd
000000b0: a4c3 a3bd e246 77be 45eb 603c 0e7a 03bf
000000c0: 98d0 b0be 2241 63bd c3f0 72be 8231 32be
000000d0: 4324 183e ad42 a7be 3004 81bd 63a9 a73b
000000e0: 7040 903d 2a4c b6bd ac29 15bd cdde 41bb
000000f0: 285a 1bbc 8622 743d 1306 ef3b 4271 a73c
00000100: f632 8abd f50b 34bd 189d ca3d 3f58 a8bc
00000110: 0cae 7b3c ccd8 823d c634 32be 26a8 8d3d
00000120: 0520 9b3d b173 b53e 4739 5cbe efe4 a63d
00000130: f1e4 3b3e 4798 303d 8a74 d53d 0b23 bcbc
00000140: 14d9 2a3e 44d0 c93d 8d05 93bc 6eab 7cbe
00000150: 338b c9bc 24bb 433e 7c83 ccbd 49a3 233d
00000160: 4518 413a 604e 10be 344c 8b3e d7c8 e1bd
00000170: 6791 153e b7e0 8d3e 95b5 51be ac91 9a3d
00000180: 9b13 483e a996 4bbe 9600 8d3e 164b 2a3e
00000190: faf7 23bd 7f34 a23d a7cd 223e c16a 6e3d
000001a0: a00b ccbc 15b1 fb3d 9a4b b9bd edc8 c73c
000001b0: 6ec3 cebd d4c3 a23d 4448 b5bc 6499 993d
000001c0: b34e 673d b8e9 103b c263 2ebd 122c d03d
000001d0: 29aa 2b3d a550 ec3d 6342 8fbe 22b6 d6bd
000001e0: 990e ec3d a8cf 81be 5675 473e fd01 a43e
000001f0: 3559 93be 8a6e a73e 31fe 07bd c7b9 cebc
00000200: 79e3 1abe 378d 84bd cf4d 8e3d cbde d4bd
00000210: 33ca 8a3c 4f34 e3ba a190 993b 3ec6 4c3e
00000220: de25 f1be 2d91 c83e c98d 893e 7b76 b1be
00000230: 4456 d73e bfe8 933e 7d29 8bbe bde9 8f3e
00000240: 8c85 003b b614 9ebd e514 943d 68f1 d73d
00000250: 4d1c 24be d364 4b3e f507 793c ebd6 48bd
00000260: 0f0c f13d 60ca 8e3e 9e2f f5bd 2302 cc3e
00000270: d017 51be bc67 9abd 19c1 133e 0fc6 673d
00000280: 65f6 0cbe 0f0a 173e b497 a53d 76fb 2fbe
00000290: bcc6 2c3e 0708 8d3e 7928 a0bd 9f9d ac3e
000002a0: 0e7e a93c 5a21 27be 8ced d5bc 94c0 963d
000002b0: cb70 a6bd 3665 2bbd 24b2 83bd a3e9 473d
000002c0: a397 bc3c 4baf 8e3c 60ad 21bd 4b88 dd3d
000002d0: e16a 0a3e 0d81 3ebe 5b7e 903b 9e53 153e
000002e0: 7780 d6bd 761f a33d 51a6 46bd b272 c9bd
000002f0: 0ae7 babd 90cf 4e3e 6103 9f3d 350a a63d
00000300: c1a6 763d 7b77 bc3d ffaf 2fbe 809c 10bc
00000310: e65a 453e 3e3f 82bd b92b 233d 5d13 dc3c
00000320: 3cc3 c13d c99c 4b3d fd7c c1bc ce3e 5a3d
00000330: c357 03bd 1eb0 2b3d ffe5 a0bc 0435 263e
00000340: 0548 08be ca8a 1f3e 71d6 603e bcfa 043c
00000350: b2f0 e8ba 39d9 143e 1d5e 87bd 4541 ffba
00000360: adc3 95bc 1b29 4d3e 9588 6ebd b43b a1bb
00000370: aced ac3d 00d9 12be cc5d b43d bad8 0b3d
00000380: a149 b4bd 69cb 5f3d f519 233e e097 973d
00000390: f91a 95bc fe9a bb3d 1633 e83d 38d9 d83c
000003a0: 453e ae3d b796 f5bd 73fa a93d 5448 a7bb
000003b0: 98ac 8d3d b49a 523d c64f 803d 9537 813d
000003c0: 3131 f03c f3f4 b0bb 5909 813e ab2b 273e
000003d0: 7e5d 38bd 465e 883e 6b61 e33d 5240 06bc
000003e0: 3d2a ca3d 1761 8a3d 3038 73bd c96f cf3d
000003f0: b66f 683d d9b4 ff3d 8654 c2bd 62fb 7fbd
0.23398598 -0.14766356 0.19679609 0.21079053 0.012617453 0.2962188 0.07391966 -0.053620536
0.19053946 0.17773172 -0.3673065 -0.04886104 0.003276368 -0.0128359115 -0.06295924 0.3793099
-0.23413023 0.36417198 0.3884012 -0.23224147 0.31718236 0.19403613 -0.21056895 -0.07782663
0.13934773 -0.35142437 -0.02330035 0.0052693845 0.019786207 0.0112347985 0.08435481 0.11162615
0.10598719 0.12722972 -0.09923585 0.12239838 0.070924066 -0.08981364 0.21569483 0.06958249
0.0041921386 -0.14186224 0.01732288 -0.03813372 -0.079963 -0.24148133 0.013727968 -0.51358116
-0.34534144 -0.055482037 -0.23724656 -0.17401698 0.14857583 -0.32668057 -0.06299627 0.005116628
0.070435405 -0.08901246 -0.036416695 -0.0029582263 -0.009481944 0.059603237 0.0072944253 0.020439748
-0.06748001 -0.043956716 0.098932445 -0.020549892 0.01536132 0.06389007 -0.17402944 0.069168374
0.075744666 0.35439828 -0.21506225 0.08149134 0.18349053 0.043113973 0.10422619 -0.022965929
0.16684371 0.09854177 -0.017946983 -0.2467477 -0.024602508 0.19114357 -0.09986016 0.039950643
0.0007365982 -0.14092398 0.27206576 -0.11024635 0.14606248 0.27710506 -0.20479424 0.07547316
0.19538729 -0.19881691 0.2753951 0.16630206 -0.04003141 0.07920169 0.15898763 0.058207277
-0.024907887 0.12289635 -0.09047623 0.024387801 -0.10095869 0.079475075 -0.022129185 0.0749996
0.056471538 0.0022111963 -0.042575605 0.10164656 0.041910324 0.11538819 -0.27980337 -0.10483958
0.11526222 -0.25353742 0.19478354 0.32032767 -0.28778997 0.32701522 -0.0332014 -0.02523507
-0.15125836 -0.06472247 0.069484346 -0.10394057 0.01694212 -0.0017334315 0.0046864306 0.19997498
-0.47099203 0.3917326 0.26865986 -0.34660706 0.42058003 0.2888851 -0.2718009 0.28108016
0.001961085 -0.07718794 0.07230548 0.105440915 -0.16026421 0.1986268 0.015199651 -0.049033087
0.11769878 0.27888775 -0.11971973 0.3984538 -0.2041924 -0.07539317 0.1442913 0.056585368
-0.13765867 0.14749931 0.08085576 -0.17185768 0.16872686 0.27545187 -0.078202195 0.33714005
0.02068999 -0.16321316 -0.026114248 0.0736095 -0.08126982 -0.04184457 -0.06430462 0.048806798
0.023021525 0.01741757 -0.039471984 0.108170114 0.13517334 -0.18603916 0.004409594 0.14582679
-0.104737215 0.07964985 -0.048498455 -0.098363295 -0.091260985 0.20196366 0.07764316 0.081074156
0.060217623 0.092024766 -0.17156981 -0.008826375 0.19272956 -0.06359719 0.03983662 0.026864702
0.09461066 0.04971007 -0.02361917 0.05328255 -0.032066118 0.041916005 -0.01964092 0.16231161
-0.13308723 0.15580288 0.21956803 0.00811642 -0.0017771928 0.14535989 -0.066097476 -0.0019474408
-0.018281782 0.20035212 -0.058235724 -0.0049204472 0.0844377 -0.14340591 0.08806953 0.034142233
-0.08803106 0.054637346 0.1592787 0.07402015 -0.018201338 0.09160422 0.11337869 0.026470765
0.08507971 -0.11991637 0.082997225 -0.0051050577 0.06917685 0.051417068 0.062652156 0.063094296
0.029320331 -0.005400294 0.25202444 0.16325252 -0.045011036 0.26634425 0.111025654 -0.008194046
0.098713376 0.067568 -0.059379756 0.10128743 0.05674716 0.12485666 -0.09488778 -0.062495597

conv2.bias f4 [32]
00000000: d6d8 b13e e0ba 0f3e 21f3 b63c 3ef7 dbbd
00000010: 69b6 ea3d 35f9 d93d 09df ee3c 8f08 693d
00000020: f5a6 75bd f7a2 1e3e a11f 213d 03df eb3c
00000030: d53c 603d 2d78 053e 20fe 18bd 5f79 3ebd
00000040: e0a3 4c3d c436 2ebd 7a7e ca3d 00a9 24be
00000050: 662c a7bd fd8a b73d 908b 0fbe f477 1bbe
00000060: 3825 cebd e4f4 9b3d b19b 6dbd 58ec 07bd
00000070: c265 e3bd 49a1 dfbd c4c5 eabd 88e4 abbd
0.34735745 0.14036131 0.02233273 -0.10740517 0.11460573 0.106432356 0.029159086 0.056892928
-0.059973676 0.15491854 0.039336804 0.028792864 0.054745514 0.13034125 -0.037351727 -0.046502467
0.04996097 -0.042532697 0.09887405 -0.16080093 -0.08162765 0.08962057 -0.14018083 -0.15182477
-0.10065693 0.076150686 -0.058009807 -0.03318438 -0.11103393 -0.109194346 -0.11463502 -0.08393198

fc1.weight f4 [256, 32]
00000000: 1e68 163d 70ce a63d 96d3 f4bd e73f 513b
00000010: 73c9 d93c 8a6f 0b3d 130c 823d ae3c b4bd
00000020: 3a1f 363d b7a0 37be bce0 01bd 789c 153e
00000030: 12a9 c53d b76e 1ebe b66c adbd cb43 bb3d
00000040: bff8 95bd 3c9e 113e 5e14 923d 5d04 a6bd
00000050: 5693 28bd 3051 f7bc 9736 8a3d 1f38 55bd
00000060: b86e d2bd 928b a0bc 41fe a73d 2ba2 adbd
00000070: f7ad 2bbe 8336 1c3c 709f f2bd b777 083d
00000080: 8e94 d73d 394e 35be b689 f0bd 2574 6bbd
00000090: 657f 9a3d 3473 ea3d 99dc dbbd 034e eabd
000000a0: 24b9 29bd fe14 0d3e 17a3 0cbe d736 063e
000000b0: 5c1e ddbd 4801 cc3d c63d e63d 8392 183e
000000c0: 912c 4d3b 696b e03d 4cc0 eebd 30c2 5ebd
000000d0: 89a8 a6bd 8551 913d 264b d5bd e25e 98bd
000000e0: 85c4 88bd c277 ad3d cc8f d13d 91d8 633d
000000f0: b1f1 053e 9bcb e13d 2d28 523d 4eb2 99bd
00000100: fa7e 99bd 9930 ccbd 425e 84be 4e17 2a3d
00000110: 9a38 ea3d 2260 2d3c c1dd 3b3d f7f1 113e
00000120: 890e 783b 8796 313e 4be5 4b3e 9454 833d
00000130: d94b 0abd 67d9 1fbe 38bd 27be 6ac6 c9bc
00000140: f1d4 07be e013 053d f729 383e 1884 9f3d
00000150: 41b5 d43d 3c71 f4bd 39ba ecbc 17f7 d53d
00000160: 9406 f53d 0573 c1bc 7566 54bc 1c94 643e
00000170: 7faa 0cbd a722 64be 0cc4 b13c 5a5e 6b3c
00000180: 28b2 10be 2b9b 0dbe 19d3 dc3c b087 23be
00000190: 7022 283e ab07 fcbd 81db 3b3d 7607 2dbe
000001a0: b829 12be 850a b73d 8c82 b03d b1e9 c3bd
000001b0: d349 d33d 2baf 0dbe c01d 12be 6107 ebbd
000001c0: df71 16bd ff1e f13d e56b 433c f7d1 033e
000001d0: d4ea bc3d b392 2cbd 4758 0abd ecc0 9ebd
000001e0: a375 e0bc 49fa 31be 7142 1abe 4307 5fbc
000001f0: 4065 71bd ba55 d93d 1606 c6bd b081 423d
00000200: acb1 6f3b d004 50bd 5082 0c3e 3442 f8bd
00000210: 3b4d ffbd 18fd 3fbe b940 09be 95e2 cc3d
00000220: 33bb 353d 0945 d63d 7ef8 8d3d a8b1 053e
00000230: 4f54 a93d 46a8 183d 3182 20be fa26 3e3d
00000240: 5d8f 29be 87ff a83c b846 2ebe 8f26 3b3d
00000250: bbf2 10be 91fc 0f3d 6b80 1cbe a491 0bbc
00000260: 37ec d8bd 2c77 edbd cd8b ef3d d2a2 003e
00000270: 36e1 023e 20e7 b4bd 6402 2abe f182 293c
00000280: f137 09be 8fed e53d 6cac d5bd 6000 f13c
00000290: 07f0 2e3c 43c3 febc d4f7 fa3d ab67 cc3c
000002a0: 5428 32bd 26e8 0dbd 4780 193e eb48 2abe
000002b0: b101 16be de1e 283e c55d b63d 1ae9 bdbb
000002c0: 6d53 d5bd af2e cdbc 31e1 103d bf64 273d
000002d0: 9aad a43d a43e 3cbe b0f7 873d e690 17ba
000002e0: 0f6d b73d 1d1c d73c 68f6 8f3c b849 13be
000002f0: 3889 5abd e01a 98bc 6992 1b3c 77a1 91bd
00000300: eb9d fbbb ff37 d0bd 6e28 b5bd 827e 133e
00000310: 5c5e cbbd 6658 57bc fb33 763d 4e6d a23b
00000320: 9058 30ba ed48 e43c 059f c03d 870c 29be
00000330: 8fd6 fbbb 97f3 e83d 8411 17be d8d7 783d
00000340: 4155 593d 11cc e93d 95f8 82bd 6be9 adbd
00000350: a0a5 653d fdf3 bcbd 10f2 f93d fa49 46bd
00000360: d96e 31be 0f1b 543d 1766 093e ea20 153e
00000370: c469 aa3d 7ef4 99bc 6cc3 91bd b01f 34be
00000380: 2683 c13d 129d 9f3d 3530 48bd bc81 42be
00000390: 033b ef3d ab66 fe3c bf62 e33d bdae 393e
000003a0: aebd 0dbe 507b 00bd 4e8b b4bd bc5a b8bd
000003b0: 09a1 babc 51c9 3e3e 20c3 95bd 1e0b 9c3d
000003c0: 65af 99bd 0e59 79bd ec89 223d 21ea 96bd
000003d0: 96ca 783d fd2c 30be 726f f2ba 33ac dfbd
000003e0: 4084 ef3d abed 44bd 8443 1bbe 08f3 1b3d
000003f0: 0004 ccbd 23cf 95bd b400 f73d 61dc ac3d
0.036720388 0.081448436 -0.11954419 0.0031928958 0.026585316 0.03404192 0.06349959 -0.08800636
0.044463374 -0.17932402 -0.031708464 0.1461047 0.09651388 -0.15471922 -0.084680006 0.0914379
-0.07322835 0.14220518 0.07132791 -0.08106301 -0.041156135 -0.03019008 0.067486934 -0.052055474
-0.10275024 -0.019597802 0.08202792 -0.08478197 -0.16765581 0.009534481 -0.118468165 0.033317294
0.105263814 -0.17705621 -0.11745016 -0.05748381 0.0754383 0.114477545 -0.10735435 -0.11440661
-0.04143633 0.13777539 -0.13734089 0.13106857 -0.10796806 0.09961182 0.11242251 0.1489964
0.0031307081 0.10957987 -0.116577715 -0.05438441 -0.08137614 0.07095627 -0.10414724 -0.074399725
-0.06678108 0.084701076 0.10232505 0.055626456 0.13080479 0.11025163 0.051307846 -0.07504712
-0.07494922 -0.09970207 -0.25853163 0.04152613 0.11436577 0.010582002 0.045865778 0.14252459
0.003785046 0.17342578 0.19911687 0.06412616 -0.03376374 -0.15610276 -0.16380775 -0.024630744
-0.13264824 0.032489657 0.17984758 0.07788867 0.10386134 -0.1193566 -0.028897392 0.10447519
0.11964145 -0.023614416 -0.012963881 0.22322124 -0.034342285 -0.22278844 0.021699928 0.014365757
-0.14130461 -0.13828723 0.026956128 -0.1596973 0.16419387 -0.1230615 0.045863632 -0.16897377
-0.14273727 0.08937553 0.0861865 -0.095660575 0.10316815 -0.13836353 -0.14269161 -0.11476017
-0.03672969 0.1177349 0.0119275795 0.12873064 0.092244774 -0.04213209 -0.033775594 -0.07751641
-0.027399844 -0.17380632 -0.15064408 -0.013612571 -0.05893445 0.10612054 -0.096691296 0.04748696
0.0036574407 -0.05078584 0.13721585 -0.12122002 -0.124659024 -0.18748891 -0.13403596 0.100041546
0.04436798 0.10462386 0.06932162 0.13056052 0.08268034 0.037269853 -0.15674664 0.04642389
-0.16558595 0.020629657 -0.17019165 0.04569107 -0.14155094 0.035152975 -0.15283363 -0.00851861
-0.105919294 -0.11594996 0.11696587 0.12562111 0.12781224 -0.08833146 -0.16602474 0.01034616
-0.13400246 0.11226951 -0.104332775 0.029419124 0.010677344 -0.031098967 0.12254301 0.024951776
-0.04349549 -0.034645222 0.1499034 -0.16629378 -0.14649083 0.16418025 0.08904604 -0.00579561
-0.10416303 -0.025046675 0.03537101 0.040867563 0.08040924 -0.1838327 0.066390395 -0.00057817844
0.08956348 0.026258523 0.01757355 -0.1438359 -0.05335352 -0.018567502 0.009495356 -0.07110875
-0.0076787374 -0.101669304 -0.08845602 0.14403728 -0.09930107 -0.013143634 0.060108166 0.004956878
-0.0006727064 0.027866805 0.094053306 -0.16508685 -0.0076854895 0.11374586 -0.14752775 0.06075272
0.05305982 0.11415876 -0.063950695 -0.084917866 0.056066155 -0.092262246 0.12204373 -0.048410393
-0.17327441 0.051783618 0.1341785 0.14563337 0.083209544 -0.01879334 -0.07117352 -0.17590213
0.09448843 0.07793631 -0.0488741 -0.18994802 0.116811775 0.031054815 0.11102819 0.18133064
-0.13841888 -0.0313676 -0.08815633 -0.09001681 -0.022781866 0.18631484 -0.07312608 0.07619308
-0.07504157 -0.060875945 0.039682314 -0.07368875 0.060740076 -0.17204662 -0.0018496348 -0.10921516
0.116951466 -0.04807822 -0.15162474 0.03807357 -0.099617004 -0.07314899 0.12060681 0.084404714

fc1.bias f4 [256]
00000000: 0600 13be 339d ebbd 40de abbd 828e 593d
00000010: ce6f c6bd d11a d5bd 07f6 abbd a63c aebd
00000020: e688 2fbe ffd1 f9bd e05a d73c a345 16be
00000030: 84cf c6bd ec00 6c3c 6950 1abd 29d3 ebbd
00000040: 0854 dcbd 233e 0ebe db5a d4bd 8171 dcbd
00000050: 90eb 16be cbca babd 03ed 3dbe b1b4 86bb
00000060: 71f2 b6bd ac87 35be 93e8 dbbd 90d7 1bbd
00000070: 0fdc 1d3d 2c63 2fbd 1ac0 23be 248c a7bb
00000080: 4db8 39be 296f 8abb fd18 a7bd 9acc efbd
00000090: af4e 7539 808a a9bd 4145 dabd 1b49 0dbe
000000a0: a3b0 f6bd a09e 06be d826 06be dc3b 53bd
000000b0: 4a78 df3b 2b8c e6bd cc64 573d 70eb 9dbd
000000c0: 1cb2 87bd 79ef 41be 28c8 85bd 46ca eabd
000000d0: ca43 473d e891 c6bd 5524 a5bd 54a0 dabd
000000e0: e658 8a3b 3ac9 e1bc bbcb 9ebc 432a 74bd
000000f0: 264e a3bd ca91 1ebe fd65 29be 8894 76bd
00000100: 90e9 ddbd 9844 cebd affb 16bc d87e ebbd
00000110: acb0 6abc b0ed 74bd 1311 2fbc 75e4 25bd
00000120: 2cbd 18bd e623 66bd 01b0 a4bd 023f b23b
00000130: 370c 18bd 5bfc 8cbd 388c 16bd f9ea 9abe
00000140: 29c7 64bc ff5b 3cbe 6d9f e23c 8633 1bbe
00000150: e00c 69be 9997 f8bd e427 80be 5d7f 8ebc
00000160: d1d7 33be c794 913d fd5b 02bc 6f8a 21be
00000170: 2ad6 a6bc 7a73 28be 1a1b f1bd 29be 4ebd
00000180: e716 47bd e89f 18be a562 c3bd 7a79 1dbd
00000190: b465 cdbd 6355 6ebd beb5 64bd 8ab4 b0bc
000001a0: 8c7b 3ebe 472a 15be 8a69 e4bd 0b40 013e
000001b0: e885 18be 9624 28be 31fb 3ebd a4ff a2bd
000001c0: d0a7 12bd b1a8 d2bb ece3 30be 2388 58bc
000001d0: 42f2 d9bc f5c3 41bd c068 03be f60f e7bd
000001e0: 8e00 e8bb 2582 2e3b 9e46 be3b b80f ddbb
000001f0: 3f0e 39bd efb9 20bc 54a3 aabc 5abb a8bd
00000200: 0863 f7bd 549e 9ebd 9900 bdbd 8e44 f6bd
00000210: ba2a f9bd 0c39 f6bd 4b1a 0ebe 5f62 85bd
00000220: 0654 adbd 9ea8 f7bd 94a6 50be 7aa8 20be
00000230: 6818 24be c9a1 813d 439c cebd aa4b acbd
00000240: e3e0 11be 2c3e 1dbd dc28 4abe 0729 66be
00000250: e7c4 44bd 7115 1abd cf84 1cbe a001 cc3c
00000260: 4ccb 5bbe 8cbb 22be 0280 80bd b574 1fbe
00000270: 29e1 fdbd b2ae 82bd 4b4a eebd d578 1fbe
00000280: 43cd 54bd 54a7 1cbd 0d86 a3bc c3c5 29bd
00000290: 5b83 f0bb 5e22 02be 4f5e ecbc 368a 10be
000002a0: 955c 14be ad53 47bd 50c1 0abd c3b6 f6bd
000002b0: c8fb acbb c5a6 1dbe 5c5a 09bd 6dde f8bd
000002c0: 48e3 c3bd fd72 37be 7917 c3bd 5dfb d0bc
000002d0: 9fab 0bbe 5bf5 01bc ed0b 3abd 28f8 34be
000002e0: 7caa cbbd 0f81 95bd 3828 13be 957c 2abe
000002f0: 7825 16bd 2a4c 3fbe 790d 8bbe fce5 6abd
00000300: a552 9b3d 57ea cebd 408a 3cbe 4cba e93c
00000310: cb09 01bc eaab fbbd 1796 52bd ecdf 0cbe
00000320: ab6e f0bd 735b f6bd 34ac c1bd 2bae 00be
00000330: 9ac5 2cbd 0346 42bd 704b 21be 7483 f039
00000340: 5455 dfbd 3ec7 b1bc 23dd 80bd c6f3 cfbd
00000350: e6e0 8ebd 1d86 12be 0ee5 fabd a2b5 05be
00000360: 07d1 56bd 480d b4bd 8c27 19be 9be6 5fbd
00000370: a4c4 8cbc b529 c1bc bfbb 91bd 1366 96bd
00000380: de3a e1bd 0375 26be 5894 b6bd 2ea7 85bd
00000390: b070 ecbd 5f38 8ebd c324 1dbe 19d5 88bd
000003a0: 785a c1bd 6d75 10be 3eba 87bd 02a4 f2bd
000003b0: e792 54bc 2519 b9bd 83a5 f33c 21f6 e4bd
000003c0: 8952 83bd 2523 c7bd 0fb0 29be 9e74 04be
000003d0: 4878 abbd 90ee edbd a64c dabd 0126 6cbd
000003e0: 2602 1dbe 0538 c9bc e7a1 5bbd a0bc 40be
000003f0: a082 75bd 2fe0 25be 1aef c1bd bf79 94bd
-0.14355478 -0.11504593 -0.08392 0.05311442 -0.09689294 -0.104055054 -0.08396535 -0.085076615
-0.17142066 -0.12198257 0.02628845 -0.14675002 -0.09707549 0.014404517 -0.03767434 -0.11514885
-0.10758215 -0.13890891 -0.10368892 -0.10763837 -0.14738297 -0.09120711 -0.18547444 -0.0041108956
-0.08932961 -0.17727536 -0.107377194 -0.038047373 0.038539942 -0.042819187 -0.1599125 -0.0051131416
-0.18136711 -0.004224677 -0.08159063 -0.117089465 0.00023394333 -0.0827837 -0.106577404 -0.13797419
-0.120454095 -0.13146448 -0.13100755 -0.05157076 0.0068197595 -0.11257204 0.05258636 -0.07710922
-0.066257685 -0.18939008 -0.065323174 -0.11464362 0.048648633 -0.09695798 -0.080635704 -0.106751114
0.0042220233 -0.027561773 -0.019384256 -0.059610616 -0.0797389 -0.15485302 -0.16542812 -0.060200244
-0.10835564 -0.10071677 -0.0092152795 -0.11498803 -0.014324348 -0.05979699 -0.010685223 -0.040501077
-0.037289783 -0.05618658 -0.080413826 0.00543964 -0.037121024 -0.068840705 -0.036754817 -0.30257395
-0.013963499 -0.18394469 0.02766391 -0.15156373 -0.22758818 -0.1213829 -0.25030434 -0.017394716
-0.17562796 0.07108455 -0.007956502 -0.15775464 -0.020365793 -0.16450301 -0.11772747 -0.05047432
-0.048605826 -0.1490475 -0.09540299 -0.038445927 -0.10029164 -0.0581869 -0.055837385 -0.021570463
-0.18601817 -0.14566909 -0.111529425 0.12622087 -0.14894831 -0.16420206 -0.046626274 -0.07958916
-0.03580457 -0.006428801 -0.17274445 -0.013216051 -0.026604775 -0.04730602 -0.12832928 -0.11282341
-0.0070801442 0.0026627865 0.005806758 -0.0067462586 -0.0451796 -0.009809955 -0.020829834 -0.082388595
-0.120794356 -0.077450424 -0.092286296 -0.120247945 -0.121663526 -0.120225996 -0.13877217 -0.065129034
-0.08463292 -0.12092708 -0.20376045 -0.15689269 -0.16024935 0.06329686 -0.10088398 -0.08412869
-0.14245944 -0.03838937 -0.19742149 -0.22476588 -0.048039343 -0.037618104 -0.15285037 0.024903119
-0.2146427 -0.15891856 -0.062744156 -0.15571864 -0.123964615 -0.06380977 -0.11635264 -0.15573438
-0.051953565 -0.038245514 -0.019961381 -0.041448366 -0.0073398775 -0.12708423 -0.028853564 -0.14115223
-0.14488442 -0.048663784 -0.033875763 -0.12046578 -0.005279038 -0.15395649 -0.03353344 -0.12151799
-0.09564835 -0.17914958 -0.095259614 -0.025510484 -0.13639687 -0.007932032 -0.04542153 -0.17672789
-0.09944627 -0.073000066 -0.14370811 -0.16649087 -0.036656827 -0.18681398 -0.27158716 -0.057348236
0.075841226 -0.101032905 -0.18412113 0.028531216 -0.00787587 -0.122886494 -0.051412668 -0.13757294
-0.11739858 -0.12029161 -0.09456673 -0.1256644 -0.042180635 -0.04743005 -0.15751433 0.00045874307
-0.10904947 -0.021701451 -0.062921785 -0.10153918 -0.0697649 -0.14308973 -0.1225072 -0.13057569
-0.052445438 -0.08791596 -0.14956492 -0.054663282 -0.01718361 -0.023579458 -0.07115888 -0.07343688
-0.10997556 -0.16255574 -0.08915013 -0.065260276 -0.11544931 -0.06944346 -0.15346055 -0.0668127
-0.09441084 -0.14107294 -0.0662732 -0.11847688 -0.012974477 -0.09037999 0.029742008 -0.11179758
-0.06412227 -0.097235 -0.16571067 -0.12935111 -0.08372551 -0.11617768 -0.10659151 -0.05765343
-0.15332851 -0.024562845 -0.0536212 -0.18821955 -0.059939027 -0.161988 -0.09469433 -0.07249784

fc2.weight f4 [5, 256]
00000000: e689 2c3d ca52 64bd 6c4f 693d 0020 b63a
00000010: ca1d 1ebd 8032 0f3d 0c05 4b3d 64ce da3c
00000020: 808b 343c d81b 203d 503b 15bc f0d7 cf3b
00000030: f4b3 ff3c 0050 413c 643a 2dbd e049 f73b
00000040: 305d 813b 484b 563c 4245 7ebd 0c67 613d
00000050: e0c8 3abd d6c4 3d3d ec45 63bd 42d4 50bd
00000060: b4f0 cbbc f0cf a7bb f465 903c c494 babc
00000070: 0e13 493d 1ca4 21bd f8c6 febc b496 4a3d
00000080: 06d8 0fbd 0c60 063d 3032 cbbc ec5e 563d
00000090: c601 65bd d843 d8bc ca6d 7d3d 6a7e 0cbd
000000a0: 6891 1d3c b036 663c b073 2c3d a428 55bd
000000b0: 00d8 56bb f0de c93b 7cbc 503d 1e2c 3bbd
000000c0: 4e98 4e3d 8638 38bd b82f 07bd 00c6 e8ba
000000d0: 50be d3bb a443 903c 247b 7bbd 5896 5cbc
000000e0: 2cda 55bd 46c3 5bbd 08d3 abbc bee4 57bd
000000f0: 240c acbc 7857 0d3c c018 0b3d d28e 373d
00000100: 1091 fe3c 3499 24bd 38c4 3f3d 0433 393d
00000110: 000e 45b9 f071 523c c45e eb3c 8066 6abc
00000120: c416 f1bc f089 433c 9613 6ebd 4a50 26bd
00000130: d6bc 7c3d b245 713d 8017 ffba a490 0f3d
00000140: 68aa 5bbd d0ab af3c 86ac 58bd 846c 473d
00000150: c283 12bd f206 10bd ac38 db3c 2ee3 76bd
00000160: 10b7 3fbc 6297 543d 68b1 8f3c e8e7 55bc
00000170: 344b a83c 3098 df3c a8ed 68bc 70e4 a6bc
00000180: 6890 353d 2016 813c 202d 613d 785f 67bc
00000190: 20e1 073d b064 20bc 6a5c 183d 486e 0bbd
000001a0: 8c91 1e3d fe93 5dbd 18b4 1b3c 8061 ff3a
000001b0: 7c65 223d 6886 943c b898 783c 7057 1fbc
000001c0: fe64 53bd 5680 46bd a0c6 71bd e0bc 46bb
000001d0: 68d9 acbc 4432 e6bc 589d 77bc a0eb 813c
000001e0: 28a5 64bc 903f 7abc bc71 dabc e292 263d
000001f0: 8039 073a 38dc e03c be8c 603d d476 b6bc
00000200: 6026 38bb e06d 41bd 18d4 2e3d 2865 2b3c
00000210: 5a23 6ebd e42b 143d b097 da3b d4bb 26bd
00000220: b8a3 5bbc 9437 153d e842 f73c f8ca 7d3c
00000230: f474 ea3c 6890 c63c 8832 72bc 2c53 a9bc
00000240: ec32 41bd e4eb 2cbd 00c2 e1bb e0d1 d3bc
00000250: c6de 73bd d65e 5bbd b44f c3bc 7c83 4cbd
00000260: 129d 64bd 10a0 3c3d a49a b43c c02e 913b
00000270: 709b dc3b 8003 9a3c c64a 2f3d a04c 973b
00000280: 144a af3c 28a4 7a3d 9a99 0a3d c0de e93c
00000290: 542a 183d 5890 44bd 7ebd 37bd 8455 efbc
000002a0: a036 4abd 08dd 93bc 24f4 4e3d 8081 4dba
000002b0: 728f 30bd 0a48 49bd 44b0 02bd 4084 733d
000002c0: 80bb 793c 50a9 0fbd 6899 313c d614 4cbd
000002d0: 4485 4a3d 9618 48bd 348c 7b3d 886a dcbc
000002e0: 720e 663d cc5b 29bd 90eb 92bb c62f 25bd
000002f0: a00f cfbb 7cc8 eebc fe24 10bd d4c8 32bd
00000300: a6c7 433d 5a9e 143d 6808 6bbd 80d6 4f3d
00000310: 9212 033d 40c9 acbc c83d 223c aeb6 73bd
00000320: b8e7 293d d800 dfbc b439 a23c cc0f 1d3d
00000330: 4c23 6bbd bccb 233d c64f 1ebd 8040 0b3b
00000340: 5eff 203d 98af 183d 50ee 833b dc18 4a3d
00000350: 9e7c 38bd 74d6 ecbc 68b9 6f3c 8237 0a3d
00000360: 94df 2a3d 56e5 6cbd f689 403d 262f 6d3d
00000370: f0cd 5bbd c8ea 493d ac74 673d 5873 51bc
00000380: 20c0 f63b ec3f 60bd 7442 59bd e221 43bd
00000390: 5041 85bb 04a6 26bd 103c 6ebd 7048 5b3d
000003a0: d854 f13c 3cb3 823c f2ee 1bbd c46d 513d
000003b0: d02e e93c a2fd 1cbd 20df 70bd 8051 f7bc
000003c0: 78bc 62bc d051 793d 74b6 e33c 2018 693b
000003d0: ee24 63bd a022 553d 701c 17bc 14e4 85bc
000003e0: a40c c73c 00b5 93bc 8a94 763d 48b2 77bd
000003f0: 4091 b2bb 3ab9 6a3d 44d2 ebbc 8cf0 13bd
0.042123698 -0.055743016 0.05696051 0.0013895035 -0.038602628 0.03496027 0.04956536 0.026709743
0.0110195875 0.039089054 -0.0091083795 0.0063428804 0.031213738 0.011798859 -0.042292014 0.0075466484
0.0039478764 0.013079472 -0.06207777 0.055029914 -0.045601726 0.046330296 -0.055486605 -0.050983675
-0.02489505 -0.0051212236 0.01762674 -0.022776015 0.049090438 -0.039463148 -0.031100735 0.049460128
-0.035118125 0.03280644 -0.024804205 0.05233662 -0.055909894 -0.026399538 0.06187228 -0.034300245
0.009617187 0.014051124 0.042102516 -0.05204071 -0.0032782555 0.0061606094 0.050961003 -0.04569637
0.050438218 -0.04497578 -0.033004493 -0.0017759204 -0.006461896 0.017610379 -0.061396733 -0.013463579
-0.052210018 -0.053653024 -0.020974651 -0.05270838 -0.021001883 0.008626811 0.03395915 0.04481394
0.03107503 -0.04018517 0.04681799 0.045214668 -0.000187926 0.012844548 0.028731711 -0.0143066645
-0.0294298 0.011934742 -0.058124147 -0.040603913 0.061703525 0.058904357 -0.001946196 0.03505005
-0.05362931 0.021444231 -0.052898906 0.048687473 -0.035770185 -0.035162874 0.026760422 -0.06027525
-0.01170136 0.051902182 0.017540649 -0.013055779 0.020543672 0.027294248 -0.014216818 -0.0203726
0.04432717 0.01575762 0.054974675 -0.014121883 0.03317368 -0.009789631 0.037197508 -0.03404072
0.038713023 -0.054096214 0.009503387 0.0019484013 0.039647564 0.018130496 0.01517313 -0.009725437
-0.051609986 -0.048462234 -0.059027314 -0.003032498 -0.021099761 -0.02810014 -0.015113197 0.015859425
-0.013955392 -0.015273944 -0.02666556 0.040667422 0.00051584095 0.027448758 0.054821722 -0.022273459
-0.0028099045 -0.047223926 0.042682737 0.010461129 -0.058139183 0.03617467 0.0066709146 -0.04070647
-0.013405733 0.036429957 0.03018327 0.015490286 0.02862022 0.02423878 -0.014782555 -0.020669542
-0.047167704 -0.04221715 -0.0068895817 -0.025856912 -0.059538625 -0.05355724 -0.023841716 -0.04993008
-0.055813856 0.046051085 0.022046395 0.004430622 0.006732397 0.018800497 0.04279592 0.0046172887
0.021397628 0.061191708 0.033837892 0.028548598 0.037149742 -0.04798922 -0.04485845 -0.029215582
-0.0493685 -0.018049732 0.0505258 -0.00078394264 -0.04310555 -0.049140967 -0.03190638 0.059452295
0.015242457 -0.03507358 0.010839798 -0.04982456 0.0494435 -0.048851572 0.061413005 -0.026906267
0.05616612 -0.04134731 -0.0044836476 -0.040328763 -0.0063190013 -0.029148333 -0.03519153 -0.043648556
0.04779782 0.03628383 -0.057381064 0.050741673 0.032000132 -0.021092057 0.009902425 -0.05950039
0.04148075 -0.027222082 0.019802906 0.038345143 -0.05740671 0.039989218 -0.038650297 0.0021248162
0.039306037 0.037276834 0.004026212 0.049340114 -0.04504072 -0.028910853 0.014631607 0.033744343
0.041717127 -0.0578359 0.04700657 0.057906292 -0.053663194 0.04929617 0.05650775 -0.012783848
0.0075302273 -0.05474846 -0.05304189 -0.047639735 -0.0040666237 -0.04068567 -0.05816275 0.05353588
0.029459402 0.015954606 -0.038069673 0.05113007 0.028464705 -0.03832782 -0.05880654 -0.03019023
-0.01383888 0.060869038 0.027796961 0.0035567358 -0.05545514 0.052034974 -0.009223089 -0.016344108
0.02429802 -0.018030643 0.06020025 -0.060472757 -0.005449444 0.057305552 -0.028786786 -0.036118075

fc2.bias f4 [5]
00000000: 0c71 a8bc 6048 483d d4f7 01bd 0afc 52bd
00000010: 08a5 483d
-0.020561717 0.048897147 -0.031730488 -0.051509894 0.04898551
