Models/Torch2/my_model50700.pth (torch_old, 60054 bytes, 8 tensors)

conv1.weight f4 [16, 2, 3, 3]
0	0x3e7fbebd	0.24975105
1	0xbef4d257	-0.47816727
2	0xbe6d4104	-0.23169333
3	0x3ebc2132	0.36744076
4	0xbd9ae4a7	-0.07563143
5	0xbecefc75	-0.40426984
6	0xbe52ac5a	-0.2057356
7	0xbea3934a	-0.3194831
8	0xbe1232ca	-0.14277187
9	0xbe2bd9a6	-0.16782245
10	0x3f3fb263	0.7488157
11	0x3f82bc3b	1.0213693
12	0xbd9c0be2	-0.07619454
13	0xbe6b5293	-0.22980718
14	0x3c8a1102	0.016853813
15	0x3d8ee3ee	0.06977068
16	0xbcd4a5ee	-0.025958028
17	0x3c189c88	0.009314664
18	0xbecc090d	-0.39850655
19	0xbec754ce	-0.38931888
20	0xbe0693d5	-0.13142331
21	0x3f4ad504	0.79231286
22	0x3ea0e4cb	0.31424555
23	0x3f2618b8	0.6488147
24	0x3f398457	0.7246756
25	0x3f5a6e62	0.8532468
26	0x3ca07d43	0.01959098
27	0x3e3fb43b	0.18721096
28	0xbf401adf	-0.75041
29	0x3e97bbdf	0.29635522
30	0x3da2d971	0.0795163
31	0x3e90566e	0.2819094
32	0xbf6259cf	-0.8841829
33	0x3c2f3913	0.01069476
34	0x3e98aa6d	0.29817525
35	0xbf3ec53a	-0.74519694
36	0x3f149e8b	0.5805442
37	0x3f4b32b2	0.7937423
38	0x3efaa5d1	0.48954633
39	0xbed167ab	-0.40899405
40	0xbedaa898	-0.42706752
41	0xbe402409	-0.18763746
42	0x3f02ebc8	0.51141024
43	0x3f093bc2	0.5360681
44	0xbe264c22	-0.1623998
45	0x3e30b698	0.17257154
46	0x3e9228b9	0.28546694
47	0xbf291589	-0.66048485
48	0x3deee010	0.1166383
49	0xbee2069e	-0.44145674
50	0x3e3ca85a	0.18423596
51	0x3c897d45	0.016783366
52	0x3ea1f844	0.31634724
53	0xbef6bb29	-0.48189667
54	0x3e8a5607	0.2701876
55	0xbe5b824b	-0.21436422
56	0xbdbfa923	-0.09358432
57	0x3f33ef49	0.70286995
58	0x3e857427	0.2606518
59	0xbddcb4bb	-0.10776659
60	0xbd332765	-0.04373874
61	0x3f058056	0.5214895
62	0x3f0365c3	0.5132715
63	0xbdbca117	-0.09210413
64	0xbe07a2b6	-0.13245663
65	0x3f2217c2	0.633175
66	0xbdd6b421	-0.104835756
67	0x3cfbac4f	0.030721812
68	0x3f163f43	0.5869028
69	0xbe1396b2	-0.14412954
70	0x3e21cd56	0.15800986
71	0xbe252112	-0.16125897
72	0xbe2d7cd5	-0.16942151
73	0xbe289cfa	-0.16466132
74	0x3f1ed08b	0.6203696
75	0xbe350e2d	-0.17681189
76	0x3e34e521	0.1766553
77	0xbd63680f	-0.05551916
78	0xbe27b381	-0.16377069
79	0x3eba861f	0.3643045
80	0xbd3fed1d	-0.04685699
81	0x3c29641e	0.010338811
82	0xbeb505c0	-0.3535595
83	0x3e9a7848	0.30169892
84	0x3d211985	0.039330978
85	0x3dc93442	0.098244205
86	0xbe4b38f8	-0.1984595
87	0x3deb3f66	0.11486702
88	0x3cd1bed7	0.025603695
89	0xbe9456af	-0.28972384
90	0x3f131f9b	0.574701
91	0xbe05ab3c	-0.13053602
92	0xbdf40fcf	-0.11917078
93	0x3f727d12	0.9472209
94	0x3e8a656f	0.27030513
95	0x3f0683be	0.5254477
96	0xbe5bb4f5	-0.21455748
97	0x3f071ccb	0.5277831
98	0xbe6b8a82	-0.23002055
99	0xbf11b413	-0.56915396
100	0xbec193a1	-0.37807944
101	0xbedefd55	-0.43552652
102	0xbddd8cab	-0.10817846
103	0xbf61f38f	-0.88262266
104	0x3e05d19e	0.13068244
105	0xbde75a9c	-0.11296579
106	0x3c7ae645	0.01531369
107	0xbd29ff86	-0.04150345
108	0x3de41cc3	0.11138298
109	0xbdab38e6	-0.08360462
110	0xbd1245fd	-0.035711277
111	0xbdb91f54	-0.090391785
112	0x3dabfb96	0.083975956
113	0xbe2aa890	-0.16665864
114	0x3e22cd5e	0.15898654
115	0x3e8adfaf	0.27123782
116	0x3dad8ad7	0.08473747
117	0x3d258509	0.040410075
118	0xbddb9b16	-0.1072294
119	0x3dcec737	0.10096591
120	0x3e288944	0.16458613
121	0x3e8e8f3b	0.2784365
122	0xbe57a846	-0.21060285
123	0xbdbda659	-0.09260244
124	0xbe401b3a	-0.18760386
125	0xbe1a20ef	-0.15051626
126	0xbdad2e8a	-0.08456142
127	0x3dfd5d56	0.12371318
128	0xbdc027dd	-0.09382603
129	0xbe26db61	-0.16294624
130	0x3ed67b28	0.41890836
131	0xbdba4ae0	-0.090963125
132	0xbd1ca789	-0.03824571
133	0xbde73fed	-0.1129149
134	0x3f112142	0.5669137
135	0xbcbb49fe	-0.02286243
136	0xbe91a09f	-0.28442857
137	0xbe4df2f1	-0.20112206
138	0xbd34e745	-0.04416587
139	0xbe4e6129	-0.20154251
140	0xbeee7e12	-0.4658056
141	0xbde3402d	-0.11096225
142	0xbe46f28d	-0.19428463
143	0xbe025d97	-0.12731014
144	0xbcd52d3a	-0.026022542
145	0xbd5b574f	-0.05355006
146	0xbdb3b034	-0.087738425
147	0xbeff117e	-0.49818033
148	0xbdd0a747	-0.101881556
149	0xbddf4e52	-0.1090361
150	0x3e41650b	0.18886201
151	0xbedbdb5c	-0.42940795
152	0xbe8cb6e2	-0.2748328
153	0xbda5de8f	-0.0809909
154	0xbe18cf78	-0.14922893
155	0x3f40c43b	0.75299424
156	0x3dfd3398	0.12363356
157	0x3f19fbd2	0.6014987
158	0x3eff2059	0.49829367
159	0x3d89aeed	0.067228176
160	0x3f0ab421	0.54181105
161	0xbd3067d3	-0.043067764
162	0xbf1cc4f8	-0.6123805
163	0x3df09905	0.11747936
164	0x3cccb965	0.024990747
165	0x3f261ced	0.6488789
166	0xbea38e6e	-0.31944603
167	0x3ddf3f6d	0.109007694
168	0xbedfb62a	-0.43693668
169	0x3ec51fe8	0.38500905
170	0x3b708de7	0.0036705674
171	0xbd9966fc	-0.07490346
172	0xbecaec28	-0.39633298
173	0x3f3f4246	0.747105
174	0x3deeaf36	0.116545126
175	0x3dc03942	0.09385921
176	0xbed1f4a0	-0.41006947
177	0x3d3d9dfa	0.046293236
178	0xbdbafe90	-0.09130585
179	0x3f1b3683	0.60630053
180	0xbda5f7e4	-0.08103922
181	0x3dd6e240	0.104923725
182	0xbd57f1d7	-0.05272087
183	0x3f2452cf	0.64188856
184	0x3a417103	0.0007379206
185	0xbe6fc4d7	-0.23414932
186	0x3f4e9a99	0.8070465
187	0xbe0089b0	-0.12552524
188	0xbe103927	-0.14084302
189	0x3f11e4ad	0.56989557
190	0xbdfd2ec8	-0.123624384
191	0xbddbdb41	-0.10735179
192	0x3e17770a	0.14791504
193	0x3f340c9d	0.70331746
194	0x3ee231a7	0.44178507
195	0x3d9dcff4	0.077056795
196	0x3f3089dc	0.68960357
197	0x3f369f52	0.71336854
198	0x3e1a431c	0.15064663
199	0x3ce847ca	0.028354544
200	0x3df984a2	0.12183501
201	0x3ee02c14	0.4378363
202	0xbeb4205c	-0.35180938
203	0x3ea0c1cc	0.31397855
204	0xbe812795	-0.2522551
205	0x3ea0ba62	0.313922
206	0xbcb3c3a4	-0.021943875
207	0x3e68d7e3	0.22738604
208	0x3f152ab6	0.58268297
209	0xbd812420	-0.063057184
210	0xbd7a632c	-0.061129734
211	0x3e64185e	0.2227492
212	0x3f4e3a1e	0.8055743
213	0x3dc9a2da	0.098455146
214	0xbe037681	-0.12838174
215	0x3d855fb2	0.06512393
216	0xbe83b01b	-0.25720295
217	0xbe330729	-0.174832
218	0xbc655e33	-0.01399951
219	0x3ee6cc2a	0.4507764
220	0x3df4d82c	0.11955294
221	0xbe34054b	-0.17580144
222	0x3f14d9b7	0.58144706
223	0x3eaa2388	0.33230233
224	0x3db5f2ef	0.088842265
225	0xbdcb2a91	-0.09920228
226	0xbd970b27	-0.07375174
227	0xbe04a635	-0.12954028
228	0xbe0c260d	-0.1368639
229	0xbe126af9	-0.1429862
230	0x3f115cad	0.56782037
231	0xbe53b1ce	-0.20673296
232	0xbdb74dd1	-0.08950389
233	0x3ee16e7c	0.44029605
234	0xbde01931	-0.10942305
235	0xbe338ac7	-0.17533408
236	0xbe0f8cab	-0.14018504
237	0xbeae0bc3	-0.33993348
238	0x3f6566f7	0.89610237
239	0x3ef4261b	0.47685322
240	0x3f543d58	0.82906103
241	0xbf1eb317	-0.6199202
242	0x3f07716d	0.5290745
243	0xbd9c1ae1	-0.07622314
244	0xbd8e5e84	-0.06951621
245	0xbf14150d	-0.5784462
246	0xbd4dce57	-0.05024561
247	0xbd325452	-0.043537445
248	0xbf65f010	-0.8981943
249	0x3d0e77dc	0.034782276
250	0x3ea635af	0.32462832
251	0x3f4b74d2	0.7947513
252	0xbd5106da	-0.051031925
253	0xbe64557c	-0.22298235
254	0x3d8b9a42	0.06816532
255	0xbd994eca	-0.07485731

conv1.bias f4 [16]
0	0xbe7d01a1	-0.24707653
1	0xbe566f94	-0.20941001
2	0xbe83b1dd	-0.25721636
3	0xbf15dd6b	-0.5854098
4	0xbe584d6e	-0.21123287
5	0xbe3a77f5	-0.18209822
6	0xbe9b00c7	-0.3027403
7	0xbdaa96dc	-0.083295554
8	0xbe483fde	-0.19555613
9	0xbecc3cee	-0.39890236
10	0xbf524996	-0.82143533
11	0xbef2964a	-0.47380286
12	0xbf11b63c	-0.5691869
13	0xbe48ee99	-0.19622268
14	0xbea83eac	-0.32860315
15	0xbf68baed	-0.90910226

conv2.weight f4 [32, 16, 3, 3]
0	0x3ec50f81	0.3848839
1	0xbe3e1475	-0.18562491
2	0x3ead8812	0.33892876
3	0x3eece241	0.46266368
4	0xbde61fdb	-0.11236545
5	0x3eb391cb	0.3507217
6	0xbd357b0e	-0.044306807
7	0xbb9e7a06	-0.0048363237
8	0x3e0f8291	0.14014651
9	0x3e309705	0.1724511
10	0xbf150133	-0.58204955
11	0xbd586f25	-0.05284037
12	0xbe2164c9	-0.15761103
13	0x3d72aca6	0.05924668
14	0xbe90be63	-0.28270254
15	0x3f128d0b	0.57246464
16	0xbddb40ab	-0.10705694
17	0x3f2b500a	0.66919005
18	0x3f13037a	0.5742718
19	0xbde0b299	-0.10971565
20	0x3e592a9d	0.21207662
21	0x3e71d0f2	0.23614863
22	0xbe6bfdef	-0.23046087
23	0xbdb5e865	-0.08882216
24	0x3e3cc7c9	0.18435587
25	0xbefdf8be	-0.49603838
26	0x3e58102c	0.21099919
27	0xbd91326e	-0.07089697
28	0x3e2b7d25	0.16746958
29	0x3d1477a0	0.036246896
30	0x3d976585	0.0739241
31	0xbca9f7af	-0.020747988
32	0x3d74e942	0.059792764
33	0x3de0d756	0.10978572
34	0x3d40d9ab	0.047082584
35	0x3dcada27	0.099048905
36	0x3ddd4dc0	0.10805845
37	0xbe79b4b0	-0.24385333
38	0x3e94cd6e	0.2906298
39	0x3df08733	0.11744537
40	0xbe09d47d	-0.13459964
41	0xbe36dd0d	-0.17857762
42	0xbe0901c5	-0.13379581
43	0xbd476f84	-0.048690334
44	0x3d2d368f	0.04228836
45	0xbebd5bdb	-0.36984143
46	0x3e2dcca2	0.16972592
47	0xbf35f64b	-0.7107894
48	0xbf3d8bbc	-0.7404134
49	0xbe3e854f	-0.1860554
50	0xbe36fdc1	-0.17870237
51	0xbd447926	-0.0479671
52	0x3dbd0fdb	0.0923154
53	0xbf02df7f	-0.5112228
54	0xbd559e10	-0.052152693
55	0x38af37d0	8.355046e-05
56	0x3dc92d7a	0.09823127
57	0xbdb9e2dc	-0.09076473
58	0xbc137778	-0.009000652
59	0xbd115363	-0.035479914
60	0xbd248158	-0.040162414
61	0x3d8e5470	0.06949699
62	0x3b32cd57	0.0027283037
63	0x3c1ee658	0.009698473
64	0xbda105ec	-0.07862458
65	0xbd6f4a83	-0.05842067
66	0x3de8a146	0.113588855
67	0xbd1aaac1	-0.0377605
68	0xbd404f04	-0.046950355
69	0x3e28f2a2	0.16498807
70	0xbe888c17	-0.2666938
71	0x3dff32b4	0.12460843
72	0x3bb42636	0.005497719
73	0x3e0e626d	0.13904734
74	0xbea990b9	-0.33118227
75	0x3c8a7aa7	0.016904188
76	0xb9843937	-0.0002521963
77	0x3e5ab431	0.213578
78	0x3e05afe8	0.13055384
79	0xbd87522a	-0.066074684
80	0x3e848a7e	0.2588691
81	0x3e082e01	0.13298799
82	0xbe10682e	-0.14102241
83	0xbe124c1c	-0.14286846
84	0xbdd2a583	-0.10285475
85	0x3e963b8f	0.29342315
86	0xbeb05077	-0.3443639
87	0x3d0c94c4	0.03432156
88	0x3d14cc87	0.036327865
89	0xbdaf6ac3	-0.08565285
90	0x3edf3227	0.4359295
91	0xbe3f560d	-0.1868517
92	0x3d8b8884	0.06813148
93	0x3e9877fa	0.29779035
94	0xbe01dcfb	-0.12681954
95	0x3d03268c	0.032019183
96	0x3f086af8	0.5328822
97	0xbdeb4def	-0.11489474
98	0x3f156d29	0.5836969
99	0x3e64ab72	0.22331026
100	0xbd21c718	-0.03949651
101	0x3d440e50	0.047865212
102	0x3e0dc63f	0.13845156
103	0x3dc3bdd3	0.095576905
104	0xbd4fa837	-0.05069753
105	0x3e1a9b3e	0.15098283
106	0xbe2ab414	-0.16670257
107	0x3d7d096f	0.061776575
108	0xbe25fe69	-0.16210331
109	0x3e07c29b	0.1325783
110	0xbdea5995	-0.11442868
111	0x3c8bf093	0.017082488
112	0x3d227fb8	0.039672583
113	0x3c1dc866	0.009630298
114	0xbd0c4130	-0.034241855
115	0x3e32003f	0.17382906
116	0xbe09cc8c	-0.13456935
117	0xbd7ea048	-0.062164575
118	0xbe754347	-0.23951446
119	0xbeff9676	-0.4991948
120	0x3d00b2d8	0.03142056
121	0xbce2665b	-0.027636698
122	0x3e95bbea	0.2924493
123	0x3f10144b	0.56280965
124	0xbdd5eee3	-0.10445955
125	0x3eeeed66	0.46665496
126	0xbdf18f78	-0.117949426
127	0xbdc7c793	-0.09754863
128	0xbe042e97	-0.12908398
129	0xbe2eecbb	-0.17082493
130	0x3e1751bd	0.14777274
131	0xbe862617	-0.26200935
132	0xbe004b03	-0.12528615
133	0x3e5d02dc	0.21583122
134	0xbe6c1573	-0.23055057
135	0x3ed427b1	0.41436532
136	0xbf0ed77f	-0.5579757
137	0x3e940d09	0.28916195
138	0x3f0719d2	0.52773774
139	0xbe45f345	-0.19331081
140	0x3ed4af92	0.415402
141	0x3e7fa1a0	0.24963999
142	0xbd9d6d9c	-0.07686922
143	0x3dc890c7	0.09793239
144	0x3e874b0f	0.26424453
145	0xbdc6b9b9	-0.097033925
146	0x3e15a099	0.14612044
147	0x3e5e573e	0.21712968
148	0xbe637877	-0.22213922
149	0x3e3af120	0.18256044
150	0x3c82ce42	0.015967492
151	0x3c27b964	0.010237072
152	0x3d51ab51	0.05118877
153	0x3e9ebb73	0.31002387
154	0xbd27bf1f	-0.04095375
155	0x3e46a04d	0.19397087
156	0xbe4639bd	-0.19357963
157	0xbd81bf89	-0.063353606
158	0x3dc686f1	0.09693707
159	0x3e1f12cb	0.15534513
160	0xbe0cc5f9	-0.13747396
161	0x3e96301e	0.29333586
162	0x3e1ea06b	0.15490882
163	0xbddc190f	-0.10746967
164	0x3dca3df3	0.09875097
165	0x3eb76587	0.35819647
166	0x3b67c4d6	0.0035365126
167	0x3ed546b5	0.41655508
168	0x3d95de41	0.07317782
169	0xbe08d58d	-0.13362713
170	0x3e1981a7	0.14990865
171	0xbc991237	-0.018685443
172	0x3d3b8c74	0.045788243
173	0xbe2ee6ff	-0.17080306
174	0xbd6eda55	-0.058313686
175	0xbca4bd9d	-0.020109946
176	0x3dcdb45c	0.100441664
177	0x3cf27f1c	0.029601626
178	0x3d2d68a3	0.042336117
179	0x3d6d14d9	0.05788121
180	0x3e4568d5	0.19278271
181	0xbe44af4f	-0.192075
182	0x3c3dfb97	0.011595628
183	0x3de2bb89	0.11070926
184	0xbd380f42	-0.044936426
185	0x3e6d3c03	0.23167424
186	0xbd946563	-0.072459005
187	0xbda583ce	-0.080817804
188	0x3d1c87f0	0.038215578
189	0x3e5c4f1f	0.21514557
190	0x3e48bc27	0.19603024
191	0x3d6c4748	0.057685167
192	0x3dddb537	0.108255796
193	0x3dcc8aef	0.09987437
194	0x3be25123	0.006906645
195	0x3dfbee9e	0.12301372
196	0x3e2bea5e	0.16788623
197	0x3c3d96aa	0.011571566
198	0x3c933ea0	0.017974198
199	0xbc02f606	-0.007993227
200	0x3de55847	0.11198478
201	0x3c121a8b	0.008917461
202	0xbc976d62	-0.018484775
203	0x3ce2ec1f	0.027700482
204	0xbd87aab0	-0.06624353
205	0x3d2c4c97	0.04206523
206	0xbd2c100a	-0.042007484
207	0x3e61f5b2	0.22066382
208	0xbe68e047	-0.22741805
209	0x3ea95ede	0.3308019
210	0x3e6e2464	0.2325607
211	0x3d50b4cf	0.050953683
212	0x3c42078a	0.011842618
213	0x3e7d7921	0.24753238
214	0xbd900a64	-0.07033232
215	0x3d894090	0.067017674
216	0xbdc5e73c	-0.09663245
217	0x3deae06a	0.11468585
218	0xbd889fdf	-0.06671118
219	0xbce5e07c	-0.028061144
220	0x3d21f7db	0.039543014
221	0xbd4ca8b1	-0.049965564
222	0x3e1f480b	0.15554826
223	0x3dca4be1	0.09877754
224	0xbbd77756	-0.0065755052
225	0x3e073902	0.1320534
226	0x3e10afdb	0.14129584
227	0x3d5d281e	0.053993337
228	0xbdd6fab5	-0.10497037
229	0x3dbd547c	0.0924463
230	0xbdbd6cfd	-0.092493035
231	0xbc8d2dad	-0.017233694
232	0x3e0df3cf	0.13862537
233	0xbdb19474	-0.08670893
234	0x3e6e599e	0.23276374
235	0xbd75a250	-0.059969246
236	0xbd7131e6	-0.058885477
237	0x3e1a48ea	0.15066877
238	0xbd47f6f2	-0.04881949
239	0xbd817e21	-0.06322885
240	0x3e8190c0	0.25305748
241	0xbd5a56a3	-0.05330528
242	0x3ed97988	0.42475533
243	0x3e41d3ac	0.18928403
244	0x3d577811	0.05260474
245	0x3e73e626	0.23818263
246	0x3c38370d	0.011243594
247	0x3d485243	0.048906576
248	0x3cf5d8d7	0.030010624
249	0x3e2ffbd7	0.17185913
250	0xbdf47134	-0.11935654
251	0x3e0a066d	0.13479014
252	0x3c86ba42	0.016446237
253	0x3e08b1e4	0.1334911
254	0xbe2bfc04	-0.16795355
255	0xbddb404e	-0.107056245

conv2.bias f4 [32]
0	0x3eb055ec	0.34440553
1	0x3d430efe	0.04762172
2	0xbd5d6ee8	-0.054060847
3	0xbe5c4eb9	-0.21514405
4	0x3e4d4124	0.2004438
5	0xbd87141c	-0.065956324
6	0xbd3f6a5b	-0.046732288
7	0x3cc04ad3	0.023473179
8	0xbe7e7ca5	-0.24852236
9	0x3d1e3fc2	0.038635023
10	0x3e60e5c9	0.21962656
11	0xbdf1508f	-0.117829435
12	0x3baaa6a2	0.0052078525
13	0x3e40d86e	0.18832561
14	0xbd98c795	-0.07459942
15	0xbe01bdd7	-0.12670074
16	0xbd696c76	-0.056988202
17	0x3e8f7e78	0.28026175
18	0x3ddfea86	0.10933404
19	0xbe24d208	-0.16095746
20	0xbd18e5a0	-0.037328362
21	0x3d2eea27	0.042703774
22	0xbde1d9df	-0.11027884
23	0xbe344aa8	-0.17606604
24	0x3e14617f	0.14490317
25	0xbe61e82e	-0.22061226
26	0xbe0ebc35	-0.13938983
27	0xbb4f9efa	-0.003168045
28	0xbddfbcce	-0.109246835
29	0xbe018132	-0.1264694
30	0xb9017203	-0.00012344871
31	0xbe0489c1	-0.12943174

fc1.weight f4 [256, 32]
0	0x3cb1ced8	0.021705076
1	0x3d89fe56	0.06737964
2	0xbe22dd09	-0.1590463
3	0xbc276fe4	-0.010219548
4	0x3d0540e8	0.032532603
5	0x3d1532dc	0.036425456
6	0x3d8a789c	0.06761286
7	0xbd9c559b	-0.076335154
8	0x3d693817	0.056938257
9	0xbe44e486	-0.192278
10	0xbd19fd46	-0.037595056
11	0x3df097ac	0.11747679
12	0x3daa0061	0.083008535
13	0xbe1501f8	-0.14551532
14	0xbdafadb3	-0.08578052
15	0x3dc5bd78	0.09655279
16	0xbd9a4fbd	-0.0753474
17	0x3e18a08f	0.14904998
18	0x3d565ee1	0.052336577
19	0xbd9baaf0	-0.07600963
20	0xbd570a6a	-0.052500166
21	0xbd00f6e5	-0.031485457
22	0x3dee28ba	0.11628862
23	0xbd45473a	-0.04816363
24	0xbde8359d	-0.11338351
25	0xbc9d0bce	-0.019170668
26	0x3da091ab	0.07840284
27	0xbd9062f7	-0.07050126
28	0xbe26ad7c	-0.16277117
29	0xbbdf28d9	-0.0068102893
30	0xbe0005f4	-0.12502271
31	0x3cc543d6	0.024080198
32	0x3db16337	0.08661502
33	0xbe4a36f9	-0.19747533
34	0xbe233aea	-0.15940443
35	0xbda0b935	-0.078478254
36	0x3d47eef0	0.048811853
37	0x3d98c0f2	0.074586764
38	0xbdf57545	-0.11985258
39	0xbdf5b8a6	-0.119981095
40	0xbdac3a71	-0.08409584
41	0x3df64c83	0.12026312
42	0xbe21faaa	-0.15818277
43	0x3d80893f	0.062761776
44	0xbdfe2b16	-0.12410562
45	0x3d9cda0b	0.07658776
46	0x3d9ba06f	0.0759896
47	0x3de1ecb0	0.11031473
48	0xbcd696b3	-0.026194906
49	0x3da6fa5c	0.08153221
50	0xbe00ad26	-0.12566051
51	0xbd77ee83	-0.060530197
52	0xbdd15cdb	-0.10222789
53	0x3d80706c	0.06271443
54	0xbde136ea	-0.10996802
55	0xbdc5c0ef	-0.0965594
56	0xbd957c16	-0.07299058
57	0x3d8f5e6c	0.070004314
58	0x3d907dd8	0.07055253
59	0x3d62e8db	0.05539785
60	0x3dd6adb2	0.104823485
61	0x3d98ad23	0.07454898
62	0x3ccfbd08	0.025358692
63	0xbda72037	-0.08160441
64	0xbe37b75e	-0.17941043
65	0xbdc58454	-0.0964438
66	0xbe884fb0	-0.26623297
67	0x3d812612	0.063060895
68	0x3df4372a	0.11924584
69	0xbd014424	-0.031559125
70	0xbdf8c162	-0.1214626
71	0x3e24c6d5	0.16091473
72	0x3dfb7b42	0.12279369
73	0x3e5accd2	0.21367195
74	0x3e83409a	0.25635225
75	0x3ce912c9	0.02845134
76	0xbdfd90e4	-0.12381151
77	0xbe9abde1	-0.3022299
78	0xbe47c2f5	-0.19507964
79	0xbd695e5d	-0.056974757
80	0xbe3c5386	-0.18391237
81	0x3d3e9ca3	0.0465361
82	0x3e188632	0.14894941
83	0x3e3a9299	0.18219985
84	0x3e2c9a24	0.16855675
85	0x3cfae347	0.030625952
86	0xba05168e	-0.0005076908
87	0x3dc34eec	0.095365375
88	0xbd180a83	-0.0371194
89	0x3d65469b	0.055975538
90	0x3bd3f1af	0.00646802
91	0x3e656a9b	0.22403948
92	0x3ce64266	0.028107833
93	0xbe85ccd5	-0.26132837
94	0xbe0b30bc	-0.1359281
95	0x3d3acc80	0.045605183
96	0xbe12be31	-0.14330365
97	0xbe16568c	-0.14681453
98	0xbb8f32bb	-0.004370061
99	0xbe2b1441	-0.16706945
100	0x3e182fc8	0.14861977
101	0xbe13718f	-0.14398788
102	0x3d023de7	0.031797316
103	0xbe2e80d2	-0.17041329
104	0xbe1a3a5a	-0.15061322
105	0x3d8bf532	0.06833877
106	0x3d7a6e86	0.06114056
107	0xbdbbba17	-0.09166353
108	0x3dc9e102	0.0985737
109	0xbe173b89	-0.14768805
110	0xbe170c7f	-0.1475086
111	0xbdfb3ddb	-0.12267657
112	0xbd320ec9	-0.04347113
113	0x3d701738	0.058615893
114	0xbb8ba9a4	-0.004262166
115	0x3dcb1591	0.09916223
116	0x3da5efaa	0.08102353
117	0xbd85c43e	-0.06531571
118	0xbd4d7200	-0.050157547
119	0xbdcd258c	-0.10016927
120	0xbd32a805	-0.043617267
121	0xbe3cbc12	-0.18431118
122	0xbe20c4e1	-0.15700103
123	0xbc2527cf	-0.010080292
124	0xbd845b71	-0.064627536
125	0x3dc2025a	0.09473105
126	0xbdd12967	-0.10212975
127	0x3cd54be4	0.026037164
128	0x3c9e5f70	0.019332618
129	0xbd539dd0	-0.051664174
130	0x3e2325c8	0.15932381
131	0xbddfbe5a	-0.109249786
132	0xbe154cf1	-0.14580132
133	0xbe57ab3a	-0.21061411
134	0xbe21553b	-0.15755169
135	0x3db7d194	0.08975521
136	0x3ba512fb	0.005037663
137	0xbc3ea20d	-0.011635316
138	0x3dfafcf2	0.12255277
139	0x3d68b612	0.05681426
140	0x3dff1fca	0.12457235
141	0xbb04926d	-0.0020228878
142	0xbe3261b3	-0.17420082
143	0x3c1464e5	0.009057258
144	0xbe49a980	-0.19693565
145	0x3c85fa0a	0.01635458
146	0xbe334950	-0.17508435
147	0x3d91e8dd	0.07124493
148	0xbe1d7397	-0.15376125
149	0x3de9a405	0.11408237
150	0xbe2e955f	-0.17049168
151	0xbca285f5	-0.019839266
152	0xbde6b3de	-0.11264776
153	0xbdc0d3ad	-0.09415374
154	0x3db4f3a3	0.088355325
155	0x3dfe916a	0.12430079
156	0x3e02a129	0.1275679
157	0x3bc45eeb	0.0059927604
158	0xbe43e1f3	-0.19129162
159	0xbbc39bb1	-0.0059694876
160	0xbe31fce6	-0.1738163
161	0x3dc089d7	0.09401291
162	0xbde8b15c	-0.113619536
163	0xbd0605d1	-0.03272039
164	0xbd4593de	-0.04823672
165	0xbd303ab2	-0.043024726
166	0x3da4745a	0.08030005
167	0xbbf539ed	-0.007483712
168	0xbd7306e9	-0.059332762
169	0xbc15c401	-0.009140969
170	0x3e447303	0.19184498
171	0xbe18a4f4	-0.14906675
172	0xbdfd87e9	-0.123794384
173	0x3e01dead	0.126826
174	0x3dceecb0	0.10103738
175	0xbcc4e08c	-0.024032854
176	0xbe0ab55b	-0.13545744
177	0xbd659f18	-0.056059927
178	0x3beaec90	0.0071693137
179	0x3d9fb32a	0.07797845
180	0x3db98287	0.09058099
181	0xbe4af608	-0.19820416
182	0x3dbd78e9	0.092515774
183	0xbc460a7c	-0.012087461
184	0x3d2ca900	0.04215336
185	0xbc271041	-0.010196746
186	0x3d8356de	0.06413053
187	0xbe201807	-0.15634166
188	0x3ba7a581	0.005116165
189	0xbd343b27	-0.044001725
190	0x3cb2261f	0.021746693
191	0xbde80546	-0.11329131
192	0xbc476cc0	-0.012171924
193	0xbe0efab6	-0.13962826
194	0xbe05fc86	-0.13084611
195	0x3db5601d	0.08856223
196	0xbe0e1acf	-0.13877414
197	0x3d76ffc0	0.060302496
198	0x3dd4ff5f	0.10400271
199	0xbd1865c7	-0.037206437
200	0xbc7c95a4	-0.0154165365
201	0x3da99c57	0.082817726
202	0x3ceafaca	0.028684039
203	0xbe4fbb92	-0.20286396
204	0x394b2c47	0.00019376083
205	0x3ccfa1ff	0.0253458
206	0xbde97d72	-0.1140088
207	0x3d1b055d	0.03784691
208	0xbca3ed9d	-0.020010764
209	0x3d951d97	0.072810344
210	0xbd9f7367	-0.07785683
211	0xbe071c48	-0.13194382
212	0x3caf4c0a	0.021398563
213	0xbdd6ab38	-0.10481876
214	0x3e151d80	0.14562035
215	0xbcc924ed	-0.02455374
216	0xbe30bef0	-0.17260337
217	0x3d95a1a1	0.07306219
218	0x3e173974	0.1476801
219	0x3e218d2a	0.15776506
220	0x3da6c0c6	0.08142237
221	0xbda02941	-0.078203686
222	0xbd96fc16	-0.073723
223	0xbe417771	-0.1889322
224	0x3d842f23	0.06454303
225	0x3d080b7f	0.03321409
226	0xbdd8b805	-0.10581974
227	0xbe88ea24	-0.26741135
228	0x3e058957	0.13040672
229	0xbd310921	-0.043221597
230	0x3de304f9	0.11084933
231	0x3e055791	0.13021685
232	0xbe281831	-0.16415478
233	0xbce8210c	-0.02833607
234	0xbd9bf22a	-0.076145485
235	0xbd7f4af1	-0.06232733
236	0xbd88324b	-0.066502176
237	0x3e60ed0e	0.21965429
238	0xbdddbf9b	-0.108275615
239	0x3d5f14ae	0.05446308
240	0xbdb928fb	-0.090410195
241	0xbde49db2	-0.111628905
242	0x3cc916fa	0.024547089
243	0xbd7d4284	-0.061831012
244	0x3dac134c	0.08402118
245	0xbe34f8bc	-0.1767301
246	0x3cba4e65	0.02274246
247	0xbe039021	-0.1284795
248	0x3de5dba6	0.11223535
249	0xbd868acd	-0.06569443
250	0xbe464905	-0.19363792
251	0x3d79e24f	0.06100684
252	0xbdbdd820	-0.09269738
253	0xbdc2ec4a	-0.09517725
254	0x3df750b3	0.12075939
255	0x3d9e9123	0.077425264

fc1.bias f4 [256]
0	0xbdf50328	-0.11963493
1	0xbe2daad6	-0.169597
2	0xbd08769f	-0.03331625
3	0xbd1ccba0	-0.03828013
4	0xbe06d641	-0.13167669
5	0xbe2670ef	-0.16254018
6	0xbde88292	-0.11353029
7	0xbc8a6637	-0.016894443
8	0xbe2c3ac3	-0.16819291
9	0xbc0e91b0	-0.008701727
10	0xbd21ad0d	-0.039471675
11	0xbe66143f	-0.22468661
12	0xbe80d59d	-0.25162974
13	0xbd731262	-0.059343703
14	0xbe4b9ec2	-0.1988478
15	0xbe0c476e	-0.13699123
16	0xbe187faa	-0.1489245
17	0xbddab944	-0.10679868
18	0xbe168292	-0.14698246
19	0xbe1b5443	-0.15168862
20	0xbe1354ea	-0.14387861
21	0xbe1415ca	-0.14461437
22	0xbe4825ab	-0.19545619
23	0xbc0bfbf3	-0.008543956
24	0xbe8594a1	-0.26089957
25	0xbe4f891e	-0.2026715
26	0xbe32aa28	-0.17447722
27	0xbd973010	-0.07382214
28	0x3d095cd5	0.033535797
29	0xbdba788f	-0.09105026
30	0xbe899bf1	-0.26876786
31	0xbd672323	-0.056429993
32	0xbe292b2c	-0.16520375
33	0xbe0d12e1	-0.13776733
34	0xbe211f3a	-0.15734568
35	0xbe156477	-0.14589106
36	0x3be62ff9	0.0070247618
37	0xbe70fd37	-0.23534094
38	0xbca476d5	-0.020076195
39	0xbe23d814	-0.16000396
40	0xbe683e08	-0.22679913
41	0xbe2270d7	-0.15863357
42	0xbddb06de	-0.10694669
43	0xbd8b38e9	-0.06797964
44	0xbde8a561	-0.113596685
45	0xbdd6bbbc	-0.10485026
46	0xbe05b9e6	-0.13059196
47	0xbe31cc68	-0.17363131
48	0xbd8f93c5	-0.07010607
49	0xbe821587	-0.2540705
50	0xbd115d08	-0.035489112
51	0xbdcdfd01	-0.10058022
52	0xbe0401c5	-0.128913
53	0xbe0ce54e	-0.13759348
54	0xbe260ec0	-0.16216564
55	0xbe1c741e	-0.1527867
56	0xbdcc1d8c	-0.09966573
57	0xbdd1ec1c	-0.102501124
58	0xbcaee0bf	-0.021347402
59	0xbe097a53	-0.13425569
60	0xbe10792f	-0.14108728
61	0xbe0f13fa	-0.13972464
62	0xbe740952	-0.2383168
63	0xbe16fe0e	-0.14745352
64	0xbe0be756	-0.13662466
65	0xbd4e76ec	-0.05040638
66	0xbe6c02b6	-0.23047909
67	0xbe953bcf	-0.29147193
68	0xbe3c7c6a	-0.18406835
69	0xbde83564	-0.113383085
70	0xbd84cf22	-0.0648482
71	0x38a8c423	8.0473976e-05
72	0x3cbc4c48	0.022985592
73	0xbd4e3d0c	-0.050351188
74	0xbc5bb354	-0.013409454
75	0xbd3af4ca	-0.045643605
76	0xbe0f7e9b	-0.1401314
77	0xbd999f46	-0.07501082
78	0xbdb5e393	-0.08881297
79	0xbe744433	-0.23854141
80	0xbd9ce1d4	-0.07660261
81	0xbe8665a2	-0.26249415
82	0xbe415502	-0.18880084
83	0xbe01e7f1	-0.12686135
84	0xbe3e7226	-0.18598232
85	0xbe2ef07e	-0.17083928
86	0xbe988958	-0.29792285
87	0xbdc48716	-0.09596078
88	0xbe57c406	-0.21070871
89	0xbb001e6d	-0.0019549385
90	0xbbd30f6f	-0.006441049
91	0xbe7049a3	-0.2346559
92	0xbdae9a78	-0.08525556
93	0xbe8b3f73	-0.27196845
94	0xbe6ff1ba	-0.23432055
95	0xbe1b2752	-0.15151718
96	0xbe388af2	-0.18021753
97	0xbe2cd0de	-0.16876552
98	0xbe14ad79	-0.145193
99	0xbde1de67	-0.11028748
100	0xbdf09597	-0.11747282
101	0xbd399351	-0.045306507
102	0xbe0986f1	-0.13430382
103	0xbdc565c5	-0.096385516
104	0xbe551b4a	-0.20811191
105	0xbe263a2c	-0.16233128
106	0xbe871def	-0.26390025
107	0x3e078e84	0.13237959
108	0xbe30b3be	-0.17256066
109	0xbdf6421f	-0.1202433
110	0xbde892c3	-0.113561176
111	0xbdb9a016	-0.09063737
112	0xbe1bbd45	-0.1520892
113	0x3dbcb2d1	0.09213794
114	0xbdf809b3	-0.12111225
115	0xbd904da3	-0.07046058
116	0xbd9fa477	-0.07795041
117	0xbe0441a2	-0.12915662
118	0xbdef1ea4	-0.11675766
119	0xbdf765d2	-0.120799676
120	0xbe343580	-0.17598534
121	0xbdcb7877	-0.09935086
122	0xbddc31b9	-0.10751671
123	0xbd78e067	-0.06076088
124	0xbd911bd4	-0.07085386
125	0xbe6138f3	-0.2199438
126	0xbdfae39f	-0.122504465
127	0xbd8f7e31	-0.07006491
128	0xbe1c93c2	-0.1529074
129	0xbe437af6	-0.19089875
130	0xbe1257c3	-0.14291291
131	0xbe45a350	-0.1930058
132	0xbe2c09bd	-0.1680059
133	0xbe2fa62e	-0.17153236
134	0xbe01c658	-0.12673318
135	0xbdfbd9d4	-0.12297407
136	0xbdc3d8d0	-0.09562838
137	0xbe41bc83	-0.18919568
138	0xbe69f2f0	-0.2284658
139	0xbe6342e6	-0.22193488
140	0xbe27a9e5	-0.16373403
141	0x3df9884b	0.12184199
142	0xbda14f21	-0.07876421
143	0xbe138dd6	-0.14409575
144	0xbe2b7063	-0.16742091
145	0xbdea5a57	-0.11443012
146	0xbe55fef6	-0.20898041
147	0xbeab8138	-0.33497024
148	0xbd8d5560	-0.069010496
149	0xbe0a952b	-0.13533466
150	0xbe4136f1	-0.18868615
151	0x3cfb93e0	0.03071016
152	0xbe68ea0f	-0.22745536
153	0xbe4bffdf	-0.19921826
154	0xbdf8f85e	-0.12156747
155	0xbe565882	-0.209322
156	0xbe7a71de	-0.244575
157	0xbd9a8a32	-0.0754589
158	0xbe2ed674	-0.17073995
159	0xbe1172c8	-0.14203942
160	0xbe3d2a5e	-0.18473193
161	0xbdc44ccb	-0.095849596
162	0xbd9cc18c	-0.07654104
163	0xbddf4770	-0.109022975
164	0xbd171b82	-0.036891468
165	0xbe482b5a	-0.19547787
166	0xbd0fcad2	-0.035105534
167	0xbe022ef4	-0.12713224
168	0xbe34e026	-0.17663631
169	0xbe1af4a4	-0.15132385
170	0xbe2b8dfd	-0.16753383
171	0xbdfdfb55	-0.124014534
172	0xbbeefca4	-0.0072933007
173	0xbe35deff	-0.17760848
174	0xbe4aec1f	-0.19816636
175	0xbe628f5e	-0.22125003
176	0xbe0ce015	-0.13757356
177	0xbdd14772	-0.10218705
178	0xbe4292c9	-0.19001307
179	0xbdb17702	-0.08665277
180	0xbe1b5acf	-0.1517136
181	0xbc3f129c	-0.011662152
182	0xbe17a846	-0.14810285
183	0xbe55332a	-0.20820299
184	0xbe404f59	-0.18780269
185	0xbdb76cd7	-0.089563064
186	0xbe03e4a3	-0.12880187
187	0xbe458d2a	-0.19292131
188	0xbd9bb7b1	-0.07603396
189	0xbe8282e2	-0.2549048
190	0xbe800297	-0.25001976
191	0xbcd96755	-0.02653853
192	0xbc378671	-0.011201487
193	0xbe0ce6bc	-0.13759893
194	0xbe73d7b1	-0.23812748
195	0xbd631c9b	-0.055447202
196	0x3aeb2a0a	0.0017941606
197	0xbe255b4c	-0.16148108
198	0xbdb52789	-0.08845431
199	0xbe543b8d	-0.20725842
200	0xbe03dcf5	-0.12877257
201	0xbe183022	-0.14862111
202	0xbdf598fa	-0.119920686
203	0xbe35c8d0	-0.17752385
204	0xbd3a3a0d	-0.045465518
205	0xbd88faa8	-0.06688434
206	0xbe351cc2	-0.17686751
207	0xbd9972dc	-0.07492611
208	0xbdf6d328	-0.120519936
209	0x3e3986c1	0.18117811
210	0xbe119b48	-0.14219391
211	0xbe19ef52	-0.150327
212	0xbe0f499d	-0.13992925
213	0xbeb00f86	-0.34386843
214	0xbdcadd7a	-0.099055246
215	0xbe1ffa7d	-0.15622897
216	0xbe0cc0cb	-0.1374542
217	0xbe1ea521	-0.15492679
218	0xbe487975	-0.19577582
219	0xbdd8de6e	-0.105893
220	0x3b7a4e87	0.0038193779
221	0xbd5ebfd9	-0.05438218
222	0xbdb5e106	-0.088808104
223	0xbdc805c2	-0.09766723
224	0xbe31cb89	-0.17362799
225	0xbe26ebec	-0.16300935
226	0x3c91764c	0.017756604
227	0xbde235c3	-0.110454105
228	0xbe022e55	-0.12712987
229	0xbdf7550d	-0.12076769
230	0xbe4a808f	-0.19775604
231	0xbc8f9a5e	-0.017529663
232	0xbe424ec1	-0.18975355
233	0xbe62e3e2	-0.22157243
234	0xbe41b34c	-0.18916053
235	0xbdbc0598	-0.091807544
236	0xbe0ad62e	-0.13558266
237	0xbdb45fd6	-0.08807342
238	0xbd778be8	-0.06043616
239	0xbe1f2e35	-0.1554497
240	0xbe13c167	-0.14429246
241	0xbdf35ee1	-0.11883331
242	0xbe295dad	-0.1653964
243	0xbe314b19	-0.17313804
244	0xbdc37e9c	-0.09545633
245	0xbe1f8481	-0.1557789
246	0xbe145342	-0.14484885
247	0xbe115edf	-0.14196347
248	0xbe470ff8	-0.19439685
249	0xbe115072	-0.14190844
250	0xbe22ffde	-0.15917918
251	0xbe72bcc6	-0.23704824
252	0xbe0dafc1	-0.13836576
253	0xbe517bc8	-0.20457375
254	0xbe302931	-0.17203213
255	0xbe1e337a	-0.15449324

fc2.weight f4 [5, 256]
0	0x3d2c89e6	0.042123698
1	0xbd6452ca	-0.055743016
2	0x3d694f6c	0.05696051
3	0x3ab62000	0.0013895035
4	0xbd1e1dca	-0.038602628
5	0x3d0f3280	0.03496027
6	0x3d4b050c	0.04956536
7	0x3cdace64	0.026709743
8	0x3c348b80	0.0110195875
9	0x3d201bd8	0.039089054
10	0xbc153b50	-0.0091083795
11	0x3bcfd7f0	0.0063428804
12	0x3cffb3f4	0.031213738
13	0x3c415000	0.011798859
14	0xbd2d3a64	-0.042292014
15	0x3bf749e0	0.0075466484
16	0x3b815d30	0.0039478764
17	0x3c564b48	0.013079472
18	0xbd7e4542	-0.06207777
19	0x3d61670c	0.055029914
20	0xbd3ac8e0	-0.045601726
21	0x3d3dc4d6	0.046330296
22	0xbd6345ec	-0.055486605
23	0xbd50d442	-0.050983675
24	0xbccbf0b4	-0.02489505
25	0xbba7cff0	-0.0051212236
26	0x3c9065f4	0.01762674
27	0xbcba94c4	-0.022776015
28	0x3d49130e	0.049090438
29	0xbd21a41c	-0.039463148
30	0xbcfec6f8	-0.031100735
31	0x3d4a96b4	0.049460128
32	0xbd0fd806	-0.035118125
33	0x3d06600c	0.03280644
34	0xbccb3230	-0.024804205
35	0x3d565eec	0.05233662
36	0xbd6501c6	-0.055909894
37	0xbcd843d8	-0.026399538
38	0x3d7d6dca	0.06187228
39	0xbd0c7e6a	-0.034300245
40	0x3c1d9168	0.009617187
41	0x3c6636b0	0.014051124
42	0x3d2c73b0	0.042102516
43	0xbd5528a4	-0.05204071
44	0xbb56d800	-0.0032782555
45	0x3bc9def0	0.0061606094
46	0x3d50bc7c	0.050961003
47	0xbd3b2c1e	-0.04569637
48	0x3d4e984e	0.050438218
49	0xbd383886	-0.04497578
50	0xbd072fb8	-0.033004493
51	0xbae8c600	-0.0017759204
52	0xbbd3be50	-0.006461896
53	0x3c9043a4	0.017610379
54	0xbd7b7b24	-0.061396733
55	0xbc5c9658	-0.013463579
56	0xbd55da2c	-0.052210018
57	0xbd5bc346	-0.053653024
58	0xbcabd308	-0.020974651
59	0xbd57e4be	-0.05270838
60	0xbcac0c24	-0.021001883
61	0x3c0d5778	0.008626811
62	0x3d0b18c0	0.03395915
63	0x3d378ed2	0.04481394
64	0x3cfe9110	0.03107503
65	0xbd249934	-0.04018517
66	0x3d3fc438	0.04681799
67	0x3d393304	0.045214668
68	0xb9450e00	-0.000187926
69	0x3c5271f0	0.012844548
70	0x3ceb5ec4	0.028731711
71	0xbc6a6680	-0.0143066645
72	0xbcf116c4	-0.0294298
73	0x3c4389f0	0.011934742
74	0xbd6e1396	-0.058124147
75	0xbd26504a	-0.040603913
76	0x3d7cbcd6	0.061703525
77	0x3d7145b2	0.058904357
78	0xbaff1780	-0.001946196
79	0x3d0f90a4	0.03505005
80	0xbd5baa68	-0.05362931
81	0x3cafabd0	0.021444231
82	0xbd58ac86	-0.052898906
83	0x3d476c84	0.048687473
84	0xbd1283c2	-0.035770185
85	0xbd1006f2	-0.035162874
86	0x3cdb38ac	0.026760422
87	0xbd76e32e	-0.06027525
88	0xbc3fb710	-0.01170136
89	0x3d549762	0.051902182
90	0x3c8fb168	0.017540649
91	0xbc55e7e8	-0.013055779
92	0x3ca84b34	0.020543672
93	0x3cdf9830	0.027294248
94	0xbc68eda8	-0.014216818
95	0xbca6e470	-0.0203726
96	0x3d359068	0.04432717
97	0x3c811620	0.01575762
98	0x3d612d20	0.054974675
99	0xbc675f78	-0.014121883
100	0x3d07e120	0.03317368
101	0xbc2064b0	-0.009789631
102	0x3d185c6a	0.037197508
103	0xbd0b6e48	-0.03404072
104	0x3d1e918c	0.038713023
105	0xbd5d93fe	-0.054096214
106	0x3c1bb418	0.009503387
107	0x3aff6180	0.0019484013
108	0x3d22657c	0.039647564
109	0x3c948668	0.018130496
110	0x3c7898b8	0.01517313
111	0xbc1f5770	-0.009725437
112	0xbd5364fe	-0.051609986
113	0xbd468056	-0.048462234
114	0xbd71c6a0	-0.059027314
115	0xbb46bce0	-0.003032498
116	0xbcacd968	-0.021099761
117	0xbce63244	-0.02810014
118	0xbc779d58	-0.015113197
119	0x3c81eba0	0.015859425
120	0xbc64a528	-0.013955392
121	0xbc7a3f90	-0.015273944
122	0xbcda71bc	-0.02666556
123	0x3d2692e2	0.040667422
124	0x3a073980	0.00051584095
125	0x3ce0dc38	0.027448758
126	0x3d608cbe	0.054821722
127	0xbcb676d4	-0.022273459
128	0xbb382660	-0.0028099045
129	0xbd416de0	-0.047223926
130	0x3d2ed418	0.042682737
131	0x3c2b6528	0.010461129
132	0xbd6e235a	-0.058139183
133	0x3d142be4	0.03617467
134	0x3bda97b0	0.0066709146
135	0xbd26bbd4	-0.04070647
136	0xbc5ba3b8	-0.013405733
137	0x3d153794	0.036429957
138	0x3cf742e8	0.03018327
139	0x3c7dcaf8	0.015490286
140	0x3cea74f4	0.02862022
141	0x3cc69068	0.02423878
142	0xbc723288	-0.014782555
143	0xbca9532c	-0.020669542
144	0xbd4132ec	-0.047167704
145	0xbd2cebe4	-0.04221715
146	0xbbe1c200	-0.0068895817
147	0xbcd3d1e0	-0.025856912
148	0xbd73dec6	-0.059538625
149	0xbd5b5ed6	-0.05355724
150	0xbcc34fb4	-0.023841716
151	0xbd4c837c	-0.04993008
152	0xbd649d12	-0.055813856
153	0x3d3ca010	0.046051085
154	0x3cb49aa4	0.022046395
155	0x3b912ec0	0.004430622
156	0x3bdc9b70	0.006732397
157	0x3c9a0380	0.018800497
158	0x3d2f4ac6	0.04279592
159	0x3b974ca0	0.0046172887
160	0x3caf4a14	0.021397628
161	0x3d7aa428	0.061191708
162	0x3d0a999a	0.033837892
163	0x3ce9dec0	0.028548598
164	0x3d182a54	0.037149742
165	0xbd449058	-0.04798922
166	0xbd37bd7e	-0.04485845
167	0xbcef5584	-0.029215582
168	0xbd4a36a0	-0.0493685
169	0xbc93dd08	-0.018049732
170	0x3d4ef424	0.0505258
171	0xba4d8180	-0.00078394264
172	0xbd308f72	-0.04310555
173	0xbd49480a	-0.049140967
174	0xbd02b044	-0.03190638
175	0x3d738440	0.059452295
176	0x3c79bb80	0.015242457
177	0xbd0fa950	-0.03507358
178	0x3c319968	0.010839798
179	0xbd4c14d6	-0.04982456
180	0x3d4a8544	0.0494435
181	0xbd481896	-0.048851572
182	0x3d7b8c34	0.061413005
183	0xbcdc6a88	-0.026906267
184	0x3d660e72	0.05616612
185	0xbd295bcc	-0.04134731
186	0xbb92eb90	-0.0044836476
187	0xbd252fc6	-0.040328763
188	0xbbcf0fa0	-0.0063190013
189	0xbceec87c	-0.029148333
190	0xbd1024fe	-0.03519153
191	0xbd32c8d4	-0.043648556
192	0x3d43c7a6	0.04779782
193	0x3d149e5a	0.03628383
194	0xbd6b0868	-0.057381064
195	0x3d4fd680	0.050741673
196	0x3d031292	0.032000132
197	0xbcacc940	-0.021092057
198	0x3c223dc8	0.009902425
199	0xbd73b6ae	-0.05950039
200	0x3d29e7b8	0.04148075
201	0xbcdf00d8	-0.027222082
202	0x3ca239b4	0.019802906
203	0x3d1d0fcc	0.038345143
204	0xbd6b234c	-0.05740671
205	0x3d23cbbc	0.039989218
206	0xbd1e4fc6	-0.038650297
207	0x3b0b4080	0.0021248162
208	0x3d20ff5e	0.039306037
209	0x3d18af98	0.037276834
210	0x3b83ee50	0.004026212
211	0x3d4a18dc	0.049340114
212	0xbd387c9e	-0.04504072
213	0xbcecd674	-0.028910853
214	0x3c6fb968	0.014631607
215	0x3d0a3782	0.033744343
216	0x3d2adf94	0.041717127
217	0xbd6ce556	-0.0578359
218	0x3d4089f6	0.04700657
219	0x3d6d2f26	0.057906292
220	0xbd5bcdf0	-0.053663194
221	0x3d49eac8	0.04929617
222	0x3d6774ac	0.05650775
223	0xbc517358	-0.012783848
224	0x3bf6c020	0.0075302273
225	0xbd603fec	-0.05474846
226	0xbd594274	-0.05304189
227	0xbd4321e2	-0.047639735
228	0xbb854150	-0.0040666237
229	0xbd26a604	-0.04068567
230	0xbd6e3c10	-0.05816275
231	0x3d5b4870	0.05353588
232	0x3cf154d8	0.029459402
233	0x3c82b33c	0.015954606
234	0xbd1beef2	-0.038069673
235	0x3d516dc4	0.05113007
236	0x3ce92ed0	0.028464705
237	0xbd1cfda2	-0.03832782
238	0xbd70df20	-0.05880654
239	0xbcf75180	-0.03019023
240	0xbc62bc78	-0.01383888
241	0x3d7951d0	0.060869038
242	0x3ce3b674	0.027796961
243	0x3b691820	0.0035567358
244	0xbd6324ee	-0.05545514
245	0x3d5522a0	0.052034974
246	0xbc171c70	-0.009223089
247	0xbc85e414	-0.016344108
248	0x3cc70ca4	0.02429802
249	0xbc93b500	-0.018030643
250	0x3d76948a	0.06020025
251	0xbd77b248	-0.060472757
252	0xbbb29140	-0.005449444
253	0x3d6ab93a	0.057305552
254	0xbcebd244	-0.028786786
255	0xbd13f08c	-0.036118075

fc2.bias f4 [5]
0	0xbca8710c	-0.020561717
1	0x3d484860	0.048897147
2	0xbd01f7d4	-0.031730488
3	0xbd52fc0a	-0.051509894
4	0x3cb1564f	0.0216476
