Models/Torch2/my_model36200.pth (torch_old, 60054 bytes, 8 tensors)

conv1.weight f4 [16, 2, 3, 3]
0	0x3e8f1e7c	0.27952945
1	0xbeee559e	-0.46549696
2	0xbe161f7f	-0.14660452
3	0x3e5ecc11	0.21757533
4	0x3d0fda2c	0.035120174
5	0xbe85b376	-0.2611348
6	0xbe3e6c7e	-0.18596074
7	0xbe9d86a7	-0.30766794
8	0xbe21829e	-0.15772483
9	0xbe2bd9a6	-0.16782245
10	0x3f3e17cb	0.74255055
11	0x3f27bb01	0.6551972
12	0xbd7c0f16	-0.061537825
13	0xbe6b5293	-0.22980718
14	0x3d0f3314	0.03496082
15	0x3d890ec9	0.06692273
16	0x3a4dde23	0.00078532303
17	0x3c3b65fa	0.011437887
18	0xbec4931a	-0.3839348
19	0xbec56cf7	-0.38559696
20	0xbdeba9c6	-0.11506991
21	0x3f3e50bb	0.74341935
22	0x3ea6f04f	0.32605216
23	0x3f0f03e4	0.5586531
24	0x3f143e1b	0.57907265
25	0x3f6035cd	0.87582093
26	0x3e0305c1	0.12795164
27	0x3e9dbb0b	0.30806765
28	0xbf1587f9	-0.584106
29	0x3ebbfc2b	0.36715826
30	0x3d4c7472	0.04991574
31	0x3e750e13	0.2393115
32	0xbf55d54a	-0.8352858
33	0x3d766bb8	0.060161322
34	0x3e9e569e	0.3092546
35	0xbf25a9aa	-0.6471201
36	0x3f3b8b9b	0.73259896
37	0x3f4417d8	0.7659888
38	0x3eec881b	0.4619759
39	0xbebe366c	-0.37150896
40	0xbed63c35	-0.4184281
41	0xbe31e469	-0.17372288
42	0x3ef756b7	0.48308346
43	0x3ef29d00	0.47385406
44	0xbd55a14c	-0.052155778
45	0xbd6a187c	-0.057152256
46	0x3eb13bfd	0.3461608
47	0xbf198275	-0.59964687
48	0x3e422d9b	0.1896271
49	0xbf04b0dd	-0.5183237
50	0x3e2834c6	0.16426381
51	0x3d2ecfff	0.04267883
52	0x3e6fed63	0.234304
53	0xbee4dadc	-0.44698226
54	0x3e6805dc	0.22658485
55	0xbe5b824b	-0.21436422
56	0xbdba86da	-0.09107752
57	0x3edeb5ee	0.43498176
58	0x3ea97e2e	0.3310408
59	0xbdba9544	-0.091105014
60	0xbca35646	-0.0199386
61	0x3ef80b2a	0.48446018
62	0x3f15650a	0.583573
63	0xbdbc9619	-0.09208316
64	0xbdd4a49b	-0.103829585
65	0x3efe2eab	0.4964498
66	0xbdd705c4	-0.104991466
67	0x3dba1cee	0.09087549
68	0x3ed7ee26	0.4217388
69	0xbe16daa8	-0.14731848
70	0x3e4d7df6	0.20067582
71	0xbe22230a	-0.15833679
72	0xbe2eb65e	-0.17061755
73	0xbe2ee153	-0.17078142
74	0x3f1da598	0.615808
75	0xbe2a81f3	-0.16651134
76	0x3e18e5f4	0.1493147
77	0xbd283ea4	-0.041075364
78	0xbe2634e4	-0.16231114
79	0x3ebe4ad6	0.3716647
80	0xbd683187	-0.056687858
81	0x3bbc9636	0.005755211
82	0xbea0acde	-0.31381887
83	0x3e8290f5	0.25501218
84	0x3d137915	0.036004145
85	0x3dcb0155	0.099123634
86	0xbe386418	-0.18006933
87	0x3dd0fa7a	0.102040246
88	0x3c77d88e	0.015127314
89	0xbe8c382a	-0.273866
90	0x3eefceee	0.46837562
91	0xbe06a97d	-0.13150592
92	0xbdf55180	-0.119784355
93	0x3f47da35	0.7806733
94	0x3ea4b98a	0.32172805
95	0x3f08ceb1	0.53440386
96	0xbe5bb4f5	-0.21455748
97	0x3effde6c	0.49974382
98	0xbe6b8a82	-0.23002055
99	0xbee9ff3d	-0.45702544
100	0xbecbcac6	-0.3980314
101	0xbed6a2da	-0.4192112
102	0xbd104bb9	-0.035228465
103	0xbf399400	-0.72491455
104	0x3e2f36a7	0.17110692
105	0xbddaaeb7	-0.106778555
106	0x3d3d6c6a	0.04624597
107	0xbcb7d066	-0.02243824
108	0x3e0864bc	0.13319677
109	0xbdab38e6	-0.08360462
110	0xbd0265d0	-0.031835377
111	0xbdb91f54	-0.090391785
112	0x3da8e97c	0.082476586
113	0xbe2aa890	-0.16665864
114	0x3e13db81	0.14439203
115	0x3e9ab5e4	0.30216897
116	0x3de7f50f	0.11326038
117	0x3d198e20	0.037489057
118	0xbddb9b16	-0.1072294
119	0x3dde3703	0.108503364
120	0x3e34b08c	0.17645472
121	0x3e83fadb	0.25777325
122	0xbe57a846	-0.21060285
123	0xbdbcde86	-0.092221305
124	0xbe401b3a	-0.18760386
125	0xbe1a20ef	-0.15051626
126	0xbdab79e4	-0.08372858
127	0x3dd20f33	0.10256805
128	0xbdbfdc01	-0.09368134
129	0xbe26db61	-0.16294624
130	0x3ec9ac54	0.39389288
131	0xbd9069e0	-0.07051444
132	0xbd19854c	-0.037480637
133	0xbde73fed	-0.1129149
134	0x3ee5461a	0.44780046
135	0xbd7e4f5a	-0.062087394
136	0xbe997894	-0.29974806
137	0xbe34a85f	-0.17642353
138	0x3cce42c3	0.025178319
139	0xbe53526f	-0.20636915
140	0xbed12839	-0.40851
141	0xbd9d549d	-0.07682154
142	0xbe32057b	-0.17384903
143	0xbdfe7ff1	-0.12426747
144	0xbc06f2c3	-0.00823659
145	0x3b09be43	0.0021017946
146	0xbdd8142a	-0.10550721
147	0xbe6f6b58	-0.23380792
148	0x3cb0612b	0.021530708
149	0xbde39b10	-0.1111356
150	0x3ddbd121	0.107332475
151	0xbe98b593	-0.2982603
152	0xbe19cf69	-0.15020527
153	0xbcc2905e	-0.02375048
154	0xbe13bd44	-0.14427668
155	0x3f364587	0.7119984
156	0x3e12e2e5	0.14344366
157	0x3f02973e	0.5101203
158	0x3ef62077	0.48071644
159	0x3d0b5540	0.034016848
160	0x3edd02bb	0.43166146
161	0xbd00c381	-0.031436447
162	0xbf0724e2	-0.52790654
163	0x3dd8ff63	0.10595586
164	0x3d7d7827	0.061882164
165	0x3ef6c839	0.48199633
166	0xbe858ca5	-0.26083866
167	0x3e5b4009	0.21411146
168	0xbed46f14	-0.41490996
169	0x3ee401a3	0.445325
170	0x3e2e9d35	0.17052157
171	0xbdf70338	-0.12061161
172	0xbea5d660	-0.32390118
173	0x3f19121e	0.5979327
174	0x3e1f4089	0.15551962
175	0x3dd8a1ec	0.10577759
176	0xbec9e66c	-0.3943361
177	0x3d93b302	0.072118774
178	0xbdb44f98	-0.08804244
179	0x3efcd2d7	0.49379608
180	0xbd5f227a	-0.05447624
181	0x3db232fe	0.08701132
182	0xbd6f9dcd	-0.0585001
183	0x3f242597	0.6411986
184	0xbc23dcc6	-0.010001367
185	0xbe6fc4d7	-0.23414932
186	0x3f2abc38	0.6669345
187	0xbdfdc6f3	-0.12391462
188	0xbe115287	-0.14191638
189	0x3f1b76c9	0.60728127
190	0xbe03f91f	-0.12888001
191	0xbda91ab3	-0.082570456
192	0x3e4e634a	0.20155063
193	0x3f3916cd	0.72300416
194	0x3ed57733	0.41692504
195	0x3dac0af6	0.08400528
196	0x3f2f00b4	0.6836045
197	0x3e99ab6a	0.3001359
198	0x3e6c56d0	0.23079991
199	0x3d811e2e	0.063045844
200	0x3e2a868d	0.1665289
201	0x3eb86761	0.36016372
202	0xbeb227da	-0.3479603
203	0x3ef58312	0.4795156
204	0xbe80092e	-0.25007004
205	0x3e84290c	0.25812566
206	0x3c568166	0.013092374
207	0x3e9ebdb4	0.31004107
208	0x3f062966	0.5240692
209	0xbd42b6bd	-0.047537554
210	0xbd3c0aa9	-0.045908604
211	0x3e69e570	0.2284143
212	0x3f1650d4	0.58717084
213	0x3dd80ecf	0.105496995
214	0xbdef877f	-0.11695766
215	0x3d96ec05	0.07369236
216	0xbe79c200	-0.24390411
217	0xbe0da3a4	-0.13831955
218	0x3c3b8edc	0.011447635
219	0x3ea8dc84	0.3298074
220	0x3dd2a169	0.10284693
221	0xbe34054b	-0.17580144
222	0x3ecd21f0	0.40064955
223	0x3ebb14a7	0.36539194
224	0x3de14886	0.11000161
225	0xbdcba8c0	-0.09944296
226	0xbd9487c6	-0.07252459
227	0xbe0523b8	-0.13001907
228	0xbe1179be	-0.14206597
229	0xbe134506	-0.14381799
230	0x3f2b5831	0.66931444
231	0xbe53b1ce	-0.20673296
232	0xbd83cd89	-0.06435687
233	0x3e859dde	0.26097006
234	0xbdaf6c9b	-0.08565637
235	0xbe02b5ed	-0.12764712
236	0xbe27d52f	-0.16389917
237	0xbeb4fd83	-0.35349664
238	0x3f46cbf6	0.7765497
239	0x3eeced8e	0.4627499
240	0x3f59c16e	0.85060775
241	0xbf13cf74	-0.57738423
242	0x3ed1348f	0.40860412
243	0xbdc0fcfe	-0.094232544
244	0xbe16a6d0	-0.14712071
245	0xbe8e2867	-0.277652
246	0x3d98b64d	0.07456646
247	0xbade1b1d	-0.0016945336
248	0xbf455a68	-0.77091074
249	0x3d1396cf	0.036032494
250	0x3eac3571	0.33634523
251	0x3f072751	0.5279437
252	0xbd6c6898	-0.057716936
253	0xbe64557c	-0.22298235
254	0x3dba7ef5	0.091062464
255	0xbd92b7a3	-0.07163932

conv1.bias f4 [16]
0	0xbe902a9c	-0.28157508
1	0xbe1c2574	-0.15248662
2	0xbe5112f0	-0.2041738
3	0xbf0a4503	-0.54011554
4	0xbe641f74	-0.22277623
5	0xbe202069	-0.15637363
6	0xbe7e1c03	-0.24815373
7	0xbd8b3c2f	-0.067985885
8	0xbd8665ef	-0.06562411
9	0xbde816f7	-0.11332505
10	0xbf3f8f84	-0.7482836
11	0xbeb53b4e	-0.35396808
12	0xbece7b57	-0.40328476
13	0xbd8ec55b	-0.06971236
14	0xbe8c3a20	-0.27388096
15	0xbf3cf0a3	-0.7380468

conv2.weight f4 [32, 16, 3, 3]
0	0x3ed02304	0.40651715
1	0xbe29f137	-0.16595922
2	0x3e85db71	0.26143983
3	0x3ec5e8de	0.38654226
4	0xbd78587c	-0.06063126
5	0x3eb57f05	0.3544847
6	0xbd131c54	-0.035915688
7	0x3d1d3c8e	0.038387828
8	0x3e0eb436	0.13935933
9	0x3e5689a7	0.20950948
10	0xbf03e580	-0.51522064
11	0xbd0ac317	-0.03387746
12	0xbd8c2a64	-0.06844023
13	0x3dc5d733	0.096601866
14	0xbe5d0fe6	-0.21588096
15	0x3f26a1e4	0.65090775
16	0xbdebda86	-0.115162894
17	0x3f0fd604	0.56185937
18	0x3f1500f6	0.5820459
19	0xbe0cd6a9	-0.13753761
20	0x3e9aaefd	0.3021163
21	0x3eba382e	0.36370987
22	0xbe4ec725	-0.20193155
23	0xbdb9ae21	-0.090664156
24	0x3dc76787	0.09736543
25	0xbf05d66b	-0.522803
26	0x3e388491	0.1801932
27	0xbd96685d	-0.073441245
28	0x3e1bf8da	0.15231648
29	0x3ddab2b1	0.10678614
30	0x3dba00a0	0.090821505
31	0x3bdcf0ee	0.0067425882
32	0x3d208aad	0.03919475
33	0x3e0fc98e	0.14041731
34	0x3b90be9d	0.004417254
35	0x3d94a8ba	0.072587445
36	0x3d9b0995	0.07570187
37	0xbe18e048	-0.14929307
38	0x3e97b567	0.29630587
39	0x3ddd49a4	0.108050615
40	0xbd727ffc	-0.059204087
41	0xbe02b660	-0.12764883
42	0xbdaacb0b	-0.083395086
43	0xbc9fda4f	-0.019513277
44	0x3d92224d	0.071354486
45	0xbec2e21d	-0.38063136
46	0x3de4cb8c	0.11171636
47	0xbf1f145c	-0.6214044
48	0xbf25e491	-0.6480189
49	0xbe4fd72e	-0.20296928
50	0xbe4d9cc0	-0.20079327
51	0xbdd98ffe	-0.106231675
52	0x3d8d998f	0.069140546
53	0xbee5ecac	-0.4490713
54	0xbd87f626	-0.06638746
55	0x3a921629	0.001114552
56	0x3dcc9cc9	0.09990842
57	0xbdd1d2d7	-0.10245293
58	0xbc0ce134	-0.0085986145
59	0xbcdd8fda	-0.027046133
60	0xbc7335ce	-0.014844371
61	0x3dae10e7	0.084993176
62	0x3be38cf5	0.0069442936
63	0xbc0be747	-0.008539028
64	0xbd7d61e8	-0.06186095
65	0xbc4ef097	-0.012630603
66	0x3db85df6	0.090022966
67	0xbcef755b	-0.029230764
68	0xbccc34d7	-0.02492754
69	0x3e0244e2	0.12721589
70	0xbe614889	-0.22000326
71	0x3df8cbf7	0.12148278
72	0x3c53cc95	0.012927194
73	0x3e430c61	0.19047691
74	0xbe659e42	-0.22423652
75	0x3db7e643	0.08979466
76	0x3d863256	0.065525696
77	0x3e5ff697	0.2187141
78	0x3e47b665	0.19503172
79	0x3bd7a536	0.006580974
80	0x3e3d80bf	0.18506144
81	0x3dd27e02	0.1027794
82	0xbdb60991	-0.088885434
83	0xbe0c90db	-0.13727133
84	0xbd8e057d	-0.069346406
85	0x3e8f1865	0.279483
86	0xbe98d9d6	-0.29853696
87	0x3d95c5b1	0.07313097
88	0x3c6015d5	0.01367708
89	0xbe3158cb	-0.17319028
90	0x3ef88093	0.48535594
91	0xbe509879	-0.20370664
92	0x3d81ddbb	0.0634112
93	0x3ed4bdae	0.41550964
94	0xbe53f8ec	-0.20700425
95	0xbc62a34e	-0.01383288
96	0x3f027d11	0.50972086
97	0xbe3e1b27	-0.18565045
98	0x3eea4e3b	0.4576281
99	0x3e82f83e	0.2558002
100	0xbca3bab0	-0.01998648
101	0x3dc0a0ec	0.094056934
102	0x3e3ce1e9	0.18445553
103	0x3da96ee5	0.082731046
104	0xbdadd9da	-0.084888175
105	0x3e316d23	0.17326789
106	0xbe1b98d9	-0.15195026
107	0x3d749cb1	0.059719745
108	0xbe23e346	-0.16004667
109	0x3e0a90b3	0.13531761
110	0xbd639bc5	-0.055568475
111	0x3cfae071	0.0306246
112	0x3d29dd82	0.041471012
113	0xbcfb9018	-0.030708358
114	0xbd1fd233	-0.03901882
115	0x3e24423c	0.16040891
116	0xbdde212a	-0.10846169
117	0x3c5a74e6	0.013333535
118	0xbe4d935a	-0.20075741
119	0xbed6461a	-0.41850358
120	0x3de014fb	0.10941502
121	0xbd20a130	-0.03921622
122	0x3e96bfbc	0.29443157
123	0x3f07d9d4	0.53066754
124	0xbd9d89d2	-0.07692303
125	0x3eca3db5	0.39500204
126	0xbe0011ed	-0.12506838
127	0xbda56028	-0.08074981
128	0xbdfed9d0	-0.12443888
129	0xbe2a1a3c	-0.1661157
130	0x3de49b8d	0.111624815
131	0xbe3abad1	-0.18235327
132	0xbdbb8af0	-0.091573596
133	0x3e08f109	0.13373198
134	0xbe174eee	-0.14776203
135	0x3ec1f314	0.37880766
136	0xbf0b7a52	-0.5448352
137	0x3eac5c67	0.33664247
138	0x3ecbc533	0.3979889
139	0xbe66f35b	-0.2255377
140	0x3f09e8cd	0.5387085
141	0x3e7a4c2e	0.24443123
142	0xbda8883b	-0.08229109
143	0x3dc8b6f0	0.098005176
144	0x3df8cc04	0.12148288
145	0xbd80be3c	-0.06286284
146	0x3e02dfaf	0.12780641
147	0x3e4de322	0.20106176
148	0xbe42463c	-0.18972105
149	0x3e672370	0.22572112
150	0x3b9724ca	0.00461254
151	0xbc8fadec	-0.017538987
152	0x3db2cbe9	0.08730299
153	0x3ec2157b	0.37907013
154	0xbe183959	-0.14865626
155	0x3e9e60cf	0.30933234
156	0xbe1a7c70	-0.15086532
157	0xbccf696b	-0.025318822
158	0x3d323f8a	0.043517627
159	0x3e4d30f2	0.20038202
160	0xbe149335	-0.1450928
161	0x3e5ef280	0.21772194
162	0x3e2dbec2	0.169673
163	0xbe33848c	-0.17531031
164	0x3dee2c72	0.11629571
165	0x3ef08dd6	0.46983212
166	0xbd7c42d1	-0.06158716
167	0x3ed7c753	0.4214426
168	0x3da0dc73	0.07854547
169	0xbe84d801	-0.25946048
170	0x3db5e4c2	0.08881523
171	0xbc09f89a	-0.008421088
172	0x3bbe9026	0.0058155237
173	0xbde2ab16	-0.11067788
174	0xbd76a67f	-0.060217377
175	0xbc16c3cf	-0.009201958
176	0x3d8f5f6f	0.070006244
177	0x3d05e959	0.03269324
178	0x3bd37fa3	0.0064544245
179	0x3d65e6e8	0.056128412
180	0x3e32fabd	0.17478462
181	0xbe47143f	-0.19441317
182	0x3c822a85	0.015889416
183	0x3e096247	0.13416396
184	0xbdcd8112	-0.10034384
185	0x3e4e3074	0.20135671
186	0xbd62ac2b	-0.055339973
187	0xbdbc4a5d	-0.09193871
188	0xbcbab86f	-0.022793023
189	0x3e2e5e05	0.17028053
190	0x3e15b426	0.14619502
191	0x3c9b626a	0.018967826
192	0x3dd134ed	0.10215173
193	0x3db19b6a	0.08672221
194	0xbd91c15a	-0.07116957
195	0x3dcb4801	0.09925843
196	0x3e13b06b	0.14422767
197	0xbb22ddd1	-0.002485145
198	0x3be6cc4e	0.007043398
199	0xbc889283	-0.016671425
200	0x3dd68d7f	0.10476207
201	0x3c3f8cd3	0.01169129
202	0xbc59b3de	-0.013287513
203	0x3cffc4f1	0.031221839
204	0xbd81d0dd	-0.06338666
205	0x3d397a46	0.045282625
206	0xbd230ecd	-0.039809037
207	0x3e5add92	0.21373585
208	0xbe4d6307	-0.20057307
209	0x3e79deaf	0.24401353
210	0x3e5ed5d3	0.21761255
211	0x3d8ae3cf	0.06781732
212	0xba4e3911	-0.000786678
213	0x3e500a7f	0.20316504
214	0xbd8321ab	-0.06402906
215	0x3d68ebe2	0.05686558
216	0xbd546de9	-0.05186263
217	0x3e1873e6	0.14887962
218	0xbd409db7	-0.04702541
219	0xbcce510a	-0.025185127
220	0x3dbd8c88	0.0925532
221	0xbd97f448	-0.0741964
222	0x3e2f041b	0.1709141
223	0x3e1857ae	0.14877197
224	0x3d635ef5	0.05551048
225	0x3dc42548	0.09577423
226	0x3e027d4f	0.12743114
227	0x3dd5d802	0.10441591
228	0xbd9b8d1d	-0.075952746
229	0x3e07a892	0.13247898
230	0xbcc6083b	-0.024173846
231	0x3bb4c170	0.0055162236
232	0x3dce19a4	0.10063484
233	0xbdea4114	-0.11438194
234	0x3e7d7b76	0.24754128
235	0xbdc2676c	-0.094923824
236	0xba62985e	-0.00086439203
237	0x3e354288	0.17701161
238	0xbda74473	-0.081673525
239	0xbd285809	-0.041099582
240	0x3e6b0bea	0.22953764
241	0xbd709048	-0.058731347
242	0x3eb65bd2	0.35616928
243	0x3e449b01	0.19199754
244	0x3ceec6af	0.029147474
245	0x3e8e9c36	0.27853554
246	0x3da3032b	0.079595886
247	0x3b66e611	0.0035232345
248	0x3d236a07	0.039896037
249	0x3e4d55b8	0.2005223
250	0xbdb66db0	-0.0890764
251	0x3e1e3789	0.15450872
252	0x3bf2b124	0.0074063707
253	0x3dfe1b0a	0.12407501
254	0xbe19cc1e	-0.15019271
255	0xbdb191d2	-0.08670391

conv2.bias f4 [32]
0	0x3ef5f006	0.48034686
1	0x3e3aa4ae	0.18226883
2	0xbd829e57	-0.06377857
3	0xbe81dc19	-0.25363234
4	0xbdca5f0e	-0.098814115
5	0x3e85f06b	0.26159987
6	0xbdd7e941	-0.105425365
7	0x3e36b931	0.17844082
8	0xbdfa495f	-0.12221026
9	0xbd11ef47	-0.035628583
10	0x3dbaea02	0.09126665
11	0xbd9d7bef	-0.07689654
12	0x3cd55e0b	0.02604582
13	0x3de80a5c	0.11330101
14	0xbd6410cf	-0.055680092
15	0xbdd5c350	-0.104376435
16	0xbd38b9d2	-0.045099087
17	0x3e076db8	0.13225448
18	0x3d3b4129	0.04571644
19	0xbe1a3996	-0.1506103
20	0x3d1dc861	0.038521174
21	0x3da90783	0.08253386
22	0xbe167fc9	-0.14697184
23	0xbe344281	-0.17603494
24	0x3e0b61a2	0.13611463
25	0xbe9014d1	-0.28140882
26	0xbb881f7b	-0.0041541434
27	0x3d2b9ffb	0.041900616
28	0xbdac3b4d	-0.08409748
29	0xbdb61607	-0.0889092
30	0x3d05e123	0.03268541
31	0xbdd8ec55	-0.10591952

fc1.weight f4 [256, 32]
0	0x3cede6a4	0.029040642
1	0x3d8c016f	0.06836211
2	0xbe20fe67	-0.15722047
3	0xbb91f12d	-0.004453799
4	0x3c70bbf6	0.014693251
5	0x3cc55f4b	0.02409329
6	0x3d7d53e8	0.061847597
7	0xbdb13585	-0.08652786
8	0x3d2f521f	0.042802926
9	0xbe4303fb	-0.19044487
10	0xbd007fd4	-0.031371906
11	0x3dd489f0	0.10377872
12	0x3dc90111	0.098146565
13	0xbe1ea66e	-0.15493175
14	0xbdccd1b3	-0.100009345
15	0x3db00f81	0.08596707
16	0xbda06b6b	-0.07832988
17	0x3e04bb93	0.12962179
18	0x3d8c3083	0.068451904
19	0xbd9db967	-0.07701378
20	0xbd43bf5c	-0.047789916
21	0xbd0644ed	-0.032780576
22	0x3dc632bb	0.09677645
23	0xbd66064f	-0.05615836
24	0xbdd61523	-0.1045325
25	0xbccc78ba	-0.02495991
26	0x3da3ba81	0.07994557
27	0xbda52e1a	-0.08065434
28	0xbe29bdbb	-0.16576283
29	0xbb05ba44	-0.0020405212
30	0xbdfd9f0e	-0.12383853
31	0x3cd57824	0.026058264
32	0x3dd27291	0.10275758
33	0xbe479a74	-0.19492513
34	0xbe102f78	-0.14080608
35	0xbd98b097	-0.07455557
36	0x3d511d53	0.051053356
37	0x3db3ce2e	0.0877956
38	0xbdf0234d	-0.11725483
39	0xbdf59a09	-0.119922705
40	0xbd8ed069	-0.06973345
41	0x3e04b338	0.12958992
42	0xbe1e5c9e	-0.15465018
43	0x3d9ca35e	0.07648347
44	0xbde35462	-0.11100079
45	0x3da1accc	0.078942865
46	0x3db589e7	0.088641934
47	0x3dff15a1	0.12455297
48	0xbcade79c	-0.021228604
49	0x3dcad084	0.099030524
50	0xbe008f5e	-0.1255469
51	0xbd74eec1	-0.059798006
52	0xbdcd376d	-0.10020337
53	0x3d8de77d	0.069289185
54	0xbddfe05b	-0.10931464
55	0xbdbd8ddc	-0.09255573
56	0xbd8e77fb	-0.06956478
57	0x3d8e9a7a	0.06963058
58	0x3da626c6	0.08112864
59	0x3d675fbd	0.056487788
60	0x3ddcfdfb	0.107906304
61	0x3db1e196	0.08685605
62	0x3ceac2e8	0.028657392
63	0xbda577d7	-0.08079498
64	0xbda4c474	-0.08045283
65	0xbdd3488b	-0.10316571
66	0xbe4ebc9c	-0.20189136
67	0x3d6660a2	0.0562445
68	0x3e7b67d3	0.24551325
69	0x3d31515d	0.043290485
70	0xbb322224	-0.0027180994
71	0x3e26bf9f	0.16284035
72	0x3e1b9917	0.15195118
73	0x3e510cba	0.20415011
74	0x3e8ab413	0.2709051
75	0x3de181fb	0.1101112
76	0xbdc7be94	-0.09753147
77	0xbe1a1b82	-0.15049556
78	0xbe40ddfc	-0.1883468
79	0xbc88fcc5	-0.016722092
80	0xbe180010	-0.14843774
81	0x3d15aa12	0.036539145
82	0x3df96524	0.12177494
83	0x3e2b6885	0.1673909
84	0x3e3dbd4c	0.18529242
85	0xbce777c9	-0.02825536
86	0xbc44d26a	-0.012013057
87	0x3d12dab2	0.035853095
88	0x3c9210d3	0.017830288
89	0x3ccd7ae6	0.025083017
90	0xbce93974	-0.028469779
91	0x3e7efb65	0.24900587
92	0xbd41afbb	-0.04728673
93	0xbe8c6f9e	-0.27428907
94	0xbdd6949c	-0.10477564
95	0xbd046dc5	-0.032331247
96	0xbe12e0b1	-0.14343525
97	0xbe14b9cb	-0.14524
98	0xbad39cf3	-0.0016144797
99	0xbe297373	-0.16547947
100	0x3e21aff1	0.15789773
101	0xbe0ff23d	-0.1405725
102	0x3d06c0be	0.032898657
103	0xbe2dd85f	-0.1697707
104	0xbe192968	-0.14957201
105	0x3d8c5483	0.06852057
106	0x3d80413e	0.06262444
107	0xbdbf9c11	-0.09355939
108	0x3dc42599	0.09577484
109	0xbe149021	-0.14508106
110	0xbe16bcc0	-0.1472044
111	0xbdfa629e	-0.12225841
112	0xbd311596	-0.043233477
113	0x3d8b497d	0.06801126
114	0xbb3797de	-0.0028014104
115	0x3dd99b3f	0.10625314
116	0x3da6b474	0.081398875
117	0xbd88dba3	-0.066825174
118	0xbd49b451	-0.04924423
119	0xbdcb7534	-0.09934464
120	0xbd2c054d	-0.041997243
121	0xbe3caf87	-0.18426333
122	0xbe208bee	-0.15678379
123	0xbbfef00f	-0.007780082
124	0xbd83a823	-0.06428554
125	0x3dc4afe6	0.096038625
126	0xbdd0f4b2	-0.10202922
127	0x3cdc8a91	0.026921542
128	0x3c5a2544	0.013314549
129	0xbd352b83	-0.04423095
130	0x3e1ad2c0	0.15119457
131	0xbdde5e3d	-0.10857818
132	0xbe03bcef	-0.12865041
133	0xbe54075c	-0.20705932
134	0xbe198a6c	-0.1499421
135	0x3daa97b3	0.083297156
136	0xbbf74b28	-0.007546801
137	0x3d42a7a5	0.04752316
138	0x3da34637	0.07972377
139	0x3d702a06	0.058633827
140	0x3dc4a2ef	0.096013896
141	0x3c46dcf2	0.012137638
142	0xbe2bd454	-0.16780216
143	0x3cec5558	0.028849289
144	0xbe3d19ba	-0.18466845
145	0x3cfc3a65	0.030789563
146	0xbe2889cf	-0.1645882
147	0x3da90c6a	0.08254321
148	0xbe141946	-0.14462766
149	0x3d9e67c4	0.077346355
150	0xbe245caa	-0.16050974
151	0xbc31c5c0	-0.01085037
152	0xbdf5cf55	-0.12002436
153	0xbddb5473	-0.10709467
154	0x3dcc18cc	0.09965667
155	0x3e02aea7	0.12761937
156	0x3df37bbc	0.11888835
157	0xbdb40a14	-0.08790985
158	0xbe3c5838	-0.18393028
159	0x3ba2e920	0.0049716383
160	0xbe310dbe	-0.17290398
161	0x3da5615c	0.080752105
162	0xbddc4991	-0.10756219
163	0x3b9ed88d	0.004847592
164	0xbcddfda1	-0.027098479
165	0xbd58e1ff	-0.0529499
166	0x3db06665	0.0861328
167	0xbb82a103	-0.0039864792
168	0xbd870909	-0.0659352
169	0xbbc28b35	-0.005937005
170	0x3e606663	0.21914057
171	0xbe1ed66c	-0.15511483
172	0xbe03a1b6	-0.12854657
173	0x3e0f6d08	0.14006436
174	0x3dbf6b3f	0.093466274
175	0xbca4ef71	-0.020133706
176	0xbdfd3dc7	-0.12365299
177	0xbd235540	-0.039876223
178	0x3d1bc1f6	0.038026772
179	0x3d75d488	0.06001714
180	0x3d9f90c1	0.077912815
181	0xbe49c45b	-0.1970381
182	0x3dea4218	0.11438388
183	0xbbf953c2	-0.0076088617
184	0x3d5a7470	0.0533337
185	0x3cbb4c64	0.022863574
186	0x3d5bf3fd	0.053699482
187	0xbe181151	-0.14850356
188	0xbc2a922f	-0.010410829
189	0xbd39e2cc	-0.045382306
190	0x3cbb8862	0.02289218
191	0xbdd2eaae	-0.10298668
192	0xbc366305	-0.0111320065
193	0xbdf9313a	-0.12167592
194	0xbddbb8c8	-0.107286036
195	0x3e042111	0.12903239
196	0xbe1085fb	-0.1411361
197	0x3d1bc596	0.03803023
198	0x3dac03e4	0.083991796
199	0xbd1ed4d6	-0.038777195
200	0xbc57a6d6	-0.013162335
201	0x3d8d4ffc	0.069000214
202	0x3d93a8c1	0.07209922
203	0xbe467b81	-0.1938305
204	0x3d157601	0.03648949
205	0x3d308210	0.043092787
206	0xbdfafa1c	-0.12254736
207	0x3d3e9014	0.046524122
208	0x3c74b36c	0.014935356
209	0x3dc3fec3	0.09570076
210	0xbd829452	-0.06375946
211	0xbdf4acf2	-0.11947049
212	0x3d097fc2	0.033569105
213	0xbdbb43b4	-0.09143773
214	0x3e1d0639	0.15334405
215	0xbcff56dd	-0.03116935
216	0xbe28a3e3	-0.16468768
217	0x3db9e61c	0.09077093
218	0x3e2d7666	0.16939697
219	0x3e1960d0	0.14978337
220	0x3dcf280a	0.10115059
221	0xbce928ae	-0.02846178
222	0xbd8a1704	-0.06742671
223	0xbe3ff637	-0.18746267
224	0x3da5a6af	0.08088433
225	0x3d86e410	0.06586468
226	0xbd8fe582	-0.07026197
227	0xbe588b9f	-0.21147011
228	0x3df7bb23	0.1209624
229	0xbc72935e	-0.014805643
230	0x3da30487	0.07959848
231	0x3e33d105	0.17560203
232	0xbe1bb525	-0.1520582
233	0xbd00ec5c	-0.03147541
234	0xbd84f39b	-0.064917766
235	0xbd872acc	-0.0659996
236	0xbb96d282	-0.004602731
237	0x3e54f35f	0.20795964
238	0xbda6faab	-0.0815328
239	0x3d67cc51	0.056591336
240	0xbd8998a9	-0.06718571
241	0xbde16b7e	-0.11006831
242	0x3cc1dd27	0.023665024
243	0xbd9e24e6	-0.077218816
244	0x3d43fd17	0.047848787
245	0xbe456296	-0.19275889
246	0xbd1f8732	-0.03894729
247	0xbdf2f95a	-0.11863966
248	0x3dadfe22	0.084957376
249	0xbd943a45	-0.072376765
250	0xbe228ca3	-0.15873961
251	0x3d1f92c7	0.038958337
252	0xbda1816c	-0.078860134
253	0xbdaf388d	-0.08555708
254	0x3e1ca2bd	0.15296455
255	0x3da08617	0.078380756

fc1.bias f4 [256]
0	0xbe11a1d3	-0.14221887
1	0xbe2293cf	-0.15876697
2	0x3cf4c131	0.029877277
3	0xbccb80a3	-0.024841612
4	0xbe041a50	-0.12900662
5	0xbe1848e5	-0.14871557
6	0xbd17f9f5	-0.037103612
7	0xbd581d17	-0.052762117
8	0xbe2ec11b	-0.17065851
9	0xbe31981a	-0.17343178
10	0xbd98a52d	-0.0745338
11	0xbe437b4e	-0.19090006
12	0xbd644f8d	-0.055739928
13	0xbd17f7d8	-0.037101597
14	0xbe0cae18	-0.13738286
15	0xbdeee0cb	-0.116639696
16	0xbe193f6e	-0.14965603
17	0xbdcdf13a	-0.10055776
18	0xbe1e6e00	-0.15471649
19	0xbdba325f	-0.09091639
20	0xbe14da3b	-0.14536373
21	0xbdf6fcad	-0.12059913
22	0xbe3e34b1	-0.18574788
23	0xbb9cfeee	-0.004791132
24	0xbe118c63	-0.1421371
25	0xbe5726bd	-0.21010871
26	0xbe1eb4c9	-0.15498652
27	0xbd822caf	-0.06356179
28	0xbd2c864f	-0.042120274
29	0xbc60f1da	-0.013729537
30	0xbe83c91f	-0.2573938
31	0xbd1e8b22	-0.038706906
32	0xbdd8f46d	-0.105934955
33	0xbd79dc41	-0.061001066
34	0xbe2992e2	-0.16559938
35	0xbe082e4d	-0.13298912
36	0x3c057989	0.008146652
37	0xbe33d4a8	-0.1756159
38	0xbd9c24e3	-0.07624223
39	0xbe0c4cea	-0.13701215
40	0xbe231873	-0.15927295
41	0xbdee34f2	-0.11631192
42	0xbe14c2a2	-0.14527372
43	0xbd84434d	-0.06458149
44	0xbdb05e4c	-0.08611736
45	0xbe3cac7a	-0.1842517
46	0x3d8000a7	0.062501244
47	0xbe209cfd	-0.15684886
48	0xbdf5ccfd	-0.12001989
49	0xbe404d61	-0.18779518
50	0xbcbd77af	-0.023128359
51	0xbe04c305	-0.12965019
52	0xbd0060f8	-0.031342477
53	0xbdf0ecc9	-0.11763913
54	0xbdc88197	-0.09790342
55	0xbe0f5238	-0.13996208
56	0xbd3be872	-0.045875974
57	0xbd94a1ef	-0.07257449
58	0xbd897239	-0.06711239
59	0xbd2be5bb	-0.041967135
60	0xbe0bdfce	-0.13659593
61	0xbe0b7320	-0.13618135
62	0xbe673b6c	-0.22581261
63	0xbde14cc4	-0.1100097
64	0xbe0f3fbe	-0.1398916
65	0xbda459d3	-0.08024945
66	0xbe164a42	-0.14676765
67	0xbe5bac1f	-0.21452378
68	0xbdb6ead8	-0.08931512
69	0xbdf4adf4	-0.119472414
70	0xbd100d2d	-0.035168815
71	0xbdfb48c1	-0.12269736
72	0x3c4520bd	0.012031731
73	0xbd9db193	-0.07699885
74	0xbda5660a	-0.08076103
75	0xbd864c91	-0.06557573
76	0xbda42e67	-0.08016663
77	0xbd6e9edd	-0.058256973
78	0xbd84b52d	-0.06479869
79	0xbe7d53dc	-0.24739021
80	0xbd95ab6e	-0.07308088
81	0xbe50f110	-0.20404458
82	0xbd82a28a	-0.06378658
83	0xbe2267eb	-0.15859954
84	0xbe76d693	-0.24105291
85	0xbdd16e3b	-0.10226103
86	0xbe8f9374	-0.28042185
87	0xbd2fe1d0	-0.04293996
88	0xbe4872cb	-0.1957504
89	0xbc8f28e4	-0.017475553
90	0x3d83fd1e	0.06444763
91	0xbe499eb6	-0.1968945
92	0xbc2ce942	-0.01055366
93	0xbe84d1ac	-0.25941217
94	0xbe492aaa	-0.19645181
95	0xbde90275	-0.11377422
96	0xbe064b53	-0.13114671
97	0xbe2163ce	-0.15760729
98	0xbde266bd	-0.11054752
99	0xbda6033c	-0.08106086
100	0xbdf44679	-0.11927504
101	0xbd3b273e	-0.04569172
102	0xbd9a1c8f	-0.07524978
103	0xbd93704e	-0.07199155
104	0xbe1eaf35	-0.15496524
105	0xbe1c5160	-0.15265417
106	0xbe421a69	-0.18955387
107	0x3e1c2da8	0.15251791
108	0xbe1c4b9c	-0.15263218
109	0xbdd436ba	-0.10362001
110	0xbdaebc5d	-0.08532021
111	0xbc3cfd85	-0.011535053
112	0xbdaa4712	-0.08314337
113	0xbd0866a6	-0.03330102
114	0xbd3082d2	-0.04309351
115	0xbd3fcf0d	-0.04682832
116	0xbd2304a2	-0.03979934
117	0xbdf2bf5e	-0.11852907
118	0xbe09113f	-0.13385485
119	0xbde6252a	-0.11237557
120	0xbcf64585	-0.030062446
121	0xbdc3be23	-0.0955775
122	0xbbe76a32	-0.00706222
123	0xbc867621	-0.01641375
124	0xbd7f88e1	-0.062386397
125	0xbdaa3fe8	-0.083129704
126	0xbd517097	-0.051132765
127	0xbdeac6c5	-0.114636935
128	0xbe0daada	-0.13834706
129	0xbe0ef8c8	-0.1396209
130	0xbddfc24c	-0.10925731
131	0xbdfe56a8	-0.12418872
132	0xbe180306	-0.14844903
133	0xbe19689d	-0.14981313
134	0xbde6480e	-0.11244212
135	0xbe06f3b2	-0.131789
136	0xbdf3adcc	-0.118983835
137	0xbe18a993	-0.14908437
138	0xbe54ed0d	-0.20793553
139	0xbe32c67d	-0.1745853
140	0xbe24bffd	-0.16088863
141	0x3be27051	0.006910362
142	0xbd98f43b	-0.07468458
143	0xbdf94df6	-0.12173073
144	0xbe226f17	-0.1586269
145	0xbdd6172e	-0.1045364
146	0xbe47162a	-0.19442049
147	0xbecce831	-0.40020898
148	0xbd3c6d09	-0.04600242
149	0xbdd60ff8	-0.104522645
150	0xbe3f3e71	-0.18676163
151	0x3a9e760e	0.0012089626
152	0xbe70fa61	-0.23533012
153	0xbe3396e9	-0.17538036
154	0xbdc16a06	-0.094440505
155	0xbe4149bf	-0.18875788
156	0xbe5e6030	-0.2171638
157	0xbd8d0c4f	-0.06887113
158	0xbe1c1613	-0.15242796
159	0xbe2334f1	-0.15938164
160	0xbde0f6b7	-0.10984557
161	0xbd3317b1	-0.043723766
162	0xbd4e7a85	-0.050409812
163	0xbd8c34d7	-0.06846016
164	0xbc991809	-0.018688219
165	0xbe3d0cec	-0.1846196
166	0xbd2bfcfc	-0.04198931
167	0xbe0a67b2	-0.13516119
168	0xbe26f9a3	-0.16306166
169	0xbe0bb471	-0.13643052
170	0xbd9df6ca	-0.07713087
171	0xbdf2e483	-0.118599914
172	0x3cfd4b20	0.030919611
173	0xbe330b85	-0.17484863
174	0xbe169435	-0.14704974
175	0xbe4aea21	-0.19815876
176	0xbe134af2	-0.14384058
177	0xbe3930a9	-0.18084969
178	0xbe4caff0	-0.1998899
179	0xbda9f1b7	-0.082980566
180	0xbe1528b9	-0.14566316
181	0x3cf37936	0.029720884
182	0xbd8a5f46	-0.06756453
183	0xbe42a9fd	-0.19010158
184	0xbe3efcc0	-0.18651104
185	0xbe1e21bf	-0.1544256
186	0xbe07a54e	-0.13246652
187	0xbe48c65b	-0.19606917
188	0xbd1e9a29	-0.038721237
189	0xbe72cf48	-0.23711884
190	0xbe745461	-0.23860313
191	0xbd54f310	-0.051989615
192	0x3a6cc7da	0.0009032466
193	0xbdf16b41	-0.11788035
194	0xbe62b954	-0.2214101
195	0xbd067f14	-0.032836035
196	0x3d457efd	0.04821681
197	0xbe21ab18	-0.15787923
198	0xbda1ed71	-0.079066165
199	0xbe54b5d0	-0.20772481
200	0xbdc97b77	-0.09838002
201	0xbdc95354	-0.09830347
202	0xbe02cf24	-0.1277433
203	0xbe3ecf30	-0.18633723
204	0xbda88bd6	-0.082297966
205	0xbd8375d4	-0.06418958
206	0xbe224fa2	-0.1585069
207	0xbd6ad1a9	-0.057328854
208	0xbdf30c8b	-0.11867627
209	0xbcd40df0	-0.025885552
210	0xbda0cb2a	-0.078512505
211	0xbde821ff	-0.11334609
212	0xbdbeeccf	-0.093225114
213	0xbe8504fd	-0.25980368
214	0xbd9008ec	-0.07032952
215	0xbe0d1ce2	-0.13780549
216	0xbdd5b03a	-0.10434003
217	0xbe1aae1f	-0.15105484
218	0xbe2b5f56	-0.16735587
219	0xbda7b2f8	-0.081884325
220	0xbd653ef9	-0.05596826
221	0xbc49f7ac	-0.012327116
222	0xbd1d8c05	-0.03846361
223	0xbd870c3e	-0.06594132
224	0xbe13c1ce	-0.144294
225	0xbe39d4cb	-0.1814758
226	0x3db0e202	0.086368576
227	0xbdc8b6ed	-0.09800515
228	0xbdfc07c2	-0.12306167
229	0xbe0cae0a	-0.13738266
230	0xbe43614e	-0.19080088
231	0xbde10e75	-0.109890856
232	0xbe179ab3	-0.14805107
233	0xbe3d4866	-0.18484649
234	0xbe11be49	-0.14232744
235	0xbe0d4011	-0.1379397
236	0xbde73782	-0.11289884
237	0xbd8ccd04	-0.06875041
238	0x3d29f43d	0.04149269
239	0xbe15e630	-0.14638591
240	0xbe01cc08	-0.12675488
241	0xbe06a6dd	-0.13149591
242	0xbe29b7b1	-0.16573979
243	0xbe45ef30	-0.19329524
244	0xbda86c96	-0.08223836
245	0xbe17715f	-0.14789341
246	0xbe352de8	-0.17693293
247	0xbda78abc	-0.08180758
248	0xbe3edaa1	-0.18638088
249	0xbda6d0f1	-0.08145321
250	0xbdc77e9f	-0.09740948
251	0xbe620322	-0.22071508
252	0xbdebc810	-0.11512768
253	0xbe309d9b	-0.17247622
254	0xbe2aaca7	-0.16667424
255	0xbe042887	-0.12906085

fc2.weight f4 [5, 256]
0	0x3d2c89e6	0.042123698
1	0xbd6452ca	-0.055743016
2	0x3d694f6c	0.05696051
3	0x3ab62000	0.0013895035
4	0xbd1e1dca	-0.038602628
5	0x3d0f3280	0.03496027
6	0x3d4b050c	0.04956536
7	0x3cdace64	0.026709743
8	0x3c348b80	0.0110195875
9	0x3d201bd8	0.039089054
10	0xbc153b50	-0.0091083795
11	0x3bcfd7f0	0.0063428804
12	0x3cffb3f4	0.031213738
13	0x3c415000	0.011798859
14	0xbd2d3a64	-0.042292014
15	0x3bf749e0	0.0075466484
16	0x3b815d30	0.0039478764
17	0x3c564b48	0.013079472
18	0xbd7e4542	-0.06207777
19	0x3d61670c	0.055029914
20	0xbd3ac8e0	-0.045601726
21	0x3d3dc4d6	0.046330296
22	0xbd6345ec	-0.055486605
23	0xbd50d442	-0.050983675
24	0xbccbf0b4	-0.02489505
25	0xbba7cff0	-0.0051212236
26	0x3c9065f4	0.01762674
27	0xbcba94c4	-0.022776015
28	0x3d49130e	0.049090438
29	0xbd21a41c	-0.039463148
30	0xbcfec6f8	-0.031100735
31	0x3d4a96b4	0.049460128
32	0xbd0fd806	-0.035118125
33	0x3d06600c	0.03280644
34	0xbccb3230	-0.024804205
35	0x3d565eec	0.05233662
36	0xbd6501c6	-0.055909894
37	0xbcd843d8	-0.026399538
38	0x3d7d6dca	0.06187228
39	0xbd0c7e6a	-0.034300245
40	0x3c1d9168	0.009617187
41	0x3c6636b0	0.014051124
42	0x3d2c73b0	0.042102516
43	0xbd5528a4	-0.05204071
44	0xbb56d800	-0.0032782555
45	0x3bc9def0	0.0061606094
46	0x3d50bc7c	0.050961003
47	0xbd3b2c1e	-0.04569637
48	0x3d4e984e	0.050438218
49	0xbd383886	-0.04497578
50	0xbd072fb8	-0.033004493
51	0xbae8c600	-0.0017759204
52	0xbbd3be50	-0.006461896
53	0x3c9043a4	0.017610379
54	0xbd7b7b24	-0.061396733
55	0xbc5c9658	-0.013463579
56	0xbd55da2c	-0.052210018
57	0xbd5bc346	-0.053653024
58	0xbcabd308	-0.020974651
59	0xbd57e4be	-0.05270838
60	0xbcac0c24	-0.021001883
61	0x3c0d5778	0.008626811
62	0x3d0b18c0	0.03395915
63	0x3d378ed2	0.04481394
64	0x3cfe9110	0.03107503
65	0xbd249934	-0.04018517
66	0x3d3fc438	0.04681799
67	0x3d393304	0.045214668
68	0xb9450e00	-0.000187926
69	0x3c5271f0	0.012844548
70	0x3ceb5ec4	0.028731711
71	0xbc6a6680	-0.0143066645
72	0xbcf116c4	-0.0294298
73	0x3c4389f0	0.011934742
74	0xbd6e1396	-0.058124147
75	0xbd26504a	-0.040603913
76	0x3d7cbcd6	0.061703525
77	0x3d7145b2	0.058904357
78	0xbaff1780	-0.001946196
79	0x3d0f90a4	0.03505005
80	0xbd5baa68	-0.05362931
81	0x3cafabd0	0.021444231
82	0xbd58ac86	-0.052898906
83	0x3d476c84	0.048687473
84	0xbd1283c2	-0.035770185
85	0xbd1006f2	-0.035162874
86	0x3cdb38ac	0.026760422
87	0xbd76e32e	-0.06027525
88	0xbc3fb710	-0.01170136
89	0x3d549762	0.051902182
90	0x3c8fb168	0.017540649
91	0xbc55e7e8	-0.013055779
92	0x3ca84b34	0.020543672
93	0x3cdf9830	0.027294248
94	0xbc68eda8	-0.014216818
95	0xbca6e470	-0.0203726
96	0x3d359068	0.04432717
97	0x3c811620	0.01575762
98	0x3d612d20	0.054974675
99	0xbc675f78	-0.014121883
100	0x3d07e120	0.03317368
101	0xbc2064b0	-0.009789631
102	0x3d185c6a	0.037197508
103	0xbd0b6e48	-0.03404072
104	0x3d1e918c	0.038713023
105	0xbd5d93fe	-0.054096214
106	0x3c1bb418	0.009503387
107	0x3aff6180	0.0019484013
108	0x3d22657c	0.039647564
109	0x3c948668	0.018130496
110	0x3c7898b8	0.01517313
111	0xbc1f5770	-0.009725437
112	0xbd5364fe	-0.051609986
113	0xbd468056	-0.048462234
114	0xbd71c6a0	-0.059027314
115	0xbb46bce0	-0.003032498
116	0xbcacd968	-0.021099761
117	0xbce63244	-0.02810014
118	0xbc779d58	-0.015113197
119	0x3c81eba0	0.015859425
120	0xbc64a528	-0.013955392
121	0xbc7a3f90	-0.015273944
122	0xbcda71bc	-0.02666556
123	0x3d2692e2	0.040667422
124	0x3a073980	0.00051584095
125	0x3ce0dc38	0.027448758
126	0x3d608cbe	0.054821722
127	0xbcb676d4	-0.022273459
128	0xbb382660	-0.0028099045
129	0xbd416de0	-0.047223926
130	0x3d2ed418	0.042682737
131	0x3c2b6528	0.010461129
132	0xbd6e235a	-0.058139183
133	0x3d142be4	0.03617467
134	0x3bda97b0	0.0066709146
135	0xbd26bbd4	-0.04070647
136	0xbc5ba3b8	-0.013405733
137	0x3d153794	0.036429957
138	0x3cf742e8	0.03018327
139	0x3c7dcaf8	0.015490286
140	0x3cea74f4	0.02862022
141	0x3cc69068	0.02423878
142	0xbc723288	-0.014782555
143	0xbca9532c	-0.020669542
144	0xbd4132ec	-0.047167704
145	0xbd2cebe4	-0.04221715
146	0xbbe1c200	-0.0068895817
147	0xbcd3d1e0	-0.025856912
148	0xbd73dec6	-0.059538625
149	0xbd5b5ed6	-0.05355724
150	0xbcc34fb4	-0.023841716
151	0xbd4c837c	-0.04993008
152	0xbd649d12	-0.055813856
153	0x3d3ca010	0.046051085
154	0x3cb49aa4	0.022046395
155	0x3b912ec0	0.004430622
156	0x3bdc9b70	0.006732397
157	0x3c9a0380	0.018800497
158	0x3d2f4ac6	0.04279592
159	0x3b974ca0	0.0046172887
160	0x3caf4a14	0.021397628
161	0x3d7aa428	0.061191708
162	0x3d0a999a	0.033837892
163	0x3ce9dec0	0.028548598
164	0x3d182a54	0.037149742
165	0xbd449058	-0.04798922
166	0xbd37bd7e	-0.04485845
167	0xbcef5584	-0.029215582
168	0xbd4a36a0	-0.0493685
169	0xbc93dd08	-0.018049732
170	0x3d4ef424	0.0505258
171	0xba4d8180	-0.00078394264
172	0xbd308f72	-0.04310555
173	0xbd49480a	-0.049140967
174	0xbd02b044	-0.03190638
175	0x3d738440	0.059452295
176	0x3c79bb80	0.015242457
177	0xbd0fa950	-0.03507358
178	0x3c319968	0.010839798
179	0xbd4c14d6	-0.04982456
180	0x3d4a8544	0.0494435
181	0xbd481896	-0.048851572
182	0x3d7b8c34	0.061413005
183	0xbcdc6a88	-0.026906267
184	0x3d660e72	0.05616612
185	0xbd295bcc	-0.04134731
186	0xbb92eb90	-0.0044836476
187	0xbd252fc6	-0.040328763
188	0xbbcf0fa0	-0.0063190013
189	0xbceec87c	-0.029148333
190	0xbd1024fe	-0.03519153
191	0xbd32c8d4	-0.043648556
192	0x3d43c7a6	0.04779782
193	0x3d149e5a	0.03628383
194	0xbd6b0868	-0.057381064
195	0x3d4fd680	0.050741673
196	0x3d031292	0.032000132
197	0xbcacc940	-0.021092057
198	0x3c223dc8	0.009902425
199	0xbd73b6ae	-0.05950039
200	0x3d29e7b8	0.04148075
201	0xbcdf00d8	-0.027222082
202	0x3ca239b4	0.019802906
203	0x3d1d0fcc	0.038345143
204	0xbd6b234c	-0.05740671
205	0x3d23cbbc	0.039989218
206	0xbd1e4fc6	-0.038650297
207	0x3b0b4080	0.0021248162
208	0x3d20ff5e	0.039306037
209	0x3d18af98	0.037276834
210	0x3b83ee50	0.004026212
211	0x3d4a18dc	0.049340114
212	0xbd387c9e	-0.04504072
213	0xbcecd674	-0.028910853
214	0x3c6fb968	0.014631607
215	0x3d0a3782	0.033744343
216	0x3d2adf94	0.041717127
217	0xbd6ce556	-0.0578359
218	0x3d4089f6	0.04700657
219	0x3d6d2f26	0.057906292
220	0xbd5bcdf0	-0.053663194
221	0x3d49eac8	0.04929617
222	0x3d6774ac	0.05650775
223	0xbc517358	-0.012783848
224	0x3bf6c020	0.0075302273
225	0xbd603fec	-0.05474846
226	0xbd594274	-0.05304189
227	0xbd4321e2	-0.047639735
228	0xbb854150	-0.0040666237
229	0xbd26a604	-0.04068567
230	0xbd6e3c10	-0.05816275
231	0x3d5b4870	0.05353588
232	0x3cf154d8	0.029459402
233	0x3c82b33c	0.015954606
234	0xbd1beef2	-0.038069673
235	0x3d516dc4	0.05113007
236	0x3ce92ed0	0.028464705
237	0xbd1cfda2	-0.03832782
238	0xbd70df20	-0.05880654
239	0xbcf75180	-0.03019023
240	0xbc62bc78	-0.01383888
241	0x3d7951d0	0.060869038
242	0x3ce3b674	0.027796961
243	0x3b691820	0.0035567358
244	0xbd6324ee	-0.05545514
245	0x3d5522a0	0.052034974
246	0xbc171c70	-0.009223089
247	0xbc85e414	-0.016344108
248	0x3cc70ca4	0.02429802
249	0xbc93b500	-0.018030643
250	0x3d76948a	0.06020025
251	0xbd77b248	-0.060472757
252	0xbbb29140	-0.005449444
253	0x3d6ab93a	0.057305552
254	0xbcebd244	-0.028786786
255	0xbd13f08c	-0.036118075

fc2.bias f4 [5]
0	0xbca8710c	-0.020561717
1	0x3d484860	0.048897147
2	0xbd01f7d4	-0.031730488
3	0xbd52fc0a	-0.051509894
4	0x3ccd3a95	0.025052348
