Models/Torch2/my_model51400.pth (torch_old, 60054 bytes, 8 tensors)

conv1.weight f4 [16, 2, 3, 3]
0.3708208 -0.5555053 -0.22708243 0.29195052 -0.08447211 -0.40824592 -0.21553008 -0.29921278
-0.14444847 -0.16885689 0.78145266 0.94647044 -0.076193646 -0.22980718 -0.0012742201 0.06433837
-0.031042384 0.0055250907 -0.39850655 -0.38931888 -0.13066629 0.8765037 0.24681287 0.73024535
0.75112176 0.80434376 0.018007178 0.15996796 -0.75041 0.2952146 0.07060535 0.30551228
-0.8841829 0.018089665 0.326455 -0.74519694 0.6633546 0.7492544 0.6594743 -0.40899405
-0.42706752 -0.2037718 0.57882214 0.511198 -0.1623696 0.11511181 0.33752835 -0.69196266
0.1297886 -0.4451923 0.16678894 0.019115666 0.35114595 -0.47962746 0.24142241 -0.21436422
-0.0958096 0.66505384 0.28351533 -0.11309964 -0.045954116 0.56851995 0.5100761 -0.0937158
-0.14904243 0.6193148 -0.104835756 0.053500533 0.630285 -0.14421114 0.15326229 -0.1612162
-0.16891812 -0.16505373 0.7369635 -0.17681189 0.15183204 -0.04747381 -0.16418017 0.33683848
-0.048771128 0.0033904049 -0.35234156 0.31882095 0.052552864 0.097138785 -0.19931328 0.116623685
0.018981673 -0.28543922 0.5299646 -0.13053602 -0.11917078 0.9212569 0.38947648 0.5170868
-0.21455748 0.5196613 -0.23002055 -0.5662676 -0.41068822 -0.43837067 -0.11496994 -0.88262266
0.14406937 -0.10280302 0.017228283 -0.022936504 0.11020725 -0.08360462 -0.035711277 -0.090391785
0.083975956 -0.16665864 0.16053635 0.26899514 0.08295378 0.03887168 -0.1072294 0.09643115
0.16652204 0.27892148 -0.21060285 -0.09260244 -0.18760386 -0.15051626 -0.08456142 0.10782314
-0.09382603 -0.16294624 0.41047946 -0.090963125 -0.03824571 -0.1129149 0.55698043 -0.02748329
-0.27604344 -0.20222488 -0.050915267 -0.20569173 -0.4780603 -0.11968715 -0.1942998 -0.12727949
-0.015725618 0.020420605 -0.08083187 -0.4833858 -0.08688094 -0.110125706 0.1614618 -0.44925353
-0.27906367 -0.0809909 -0.14922893 0.81298035 0.12651429 0.5413704 0.5357196 0.067228176
0.6104426 -0.042790644 -0.6123805 0.18258034 0.02213133 0.6003727 -0.35067683 0.095988385
-0.43693668 0.4227912 -0.0086435145 -0.07592697 -0.39633298 0.7778179 0.11506183 0.11345675
-0.41006947 0.04177203 -0.09608381 0.5904731 -0.08103922 0.107469186 -0.05272087 0.7023467
0.00059654115 -0.23414932 0.83841515 -0.12552524 -0.14084302 0.58009756 -0.123624384 -0.10735179
0.15564145 0.7699741 0.39291635 0.07707042 0.7685276 0.6922489 0.18787916 0.033561707
0.12065282 0.45659393 -0.35782397 0.3164601 -0.24251391 0.3143732 -0.019329138 0.24090768
0.61660486 -0.063057184 -0.061129734 0.25627884 0.7829811 0.09930535 -0.12838174 0.06307461
-0.25720295 -0.174832 -0.016969008 0.41701773 0.16149499 -0.17580144 0.5275856 0.35131723
0.07924913 -0.09974825 -0.07619724 -0.1293604 -0.13800465 -0.1429862 0.57444626 -0.20673296
-0.08855115 0.42834857 -0.10888065 -0.17636451 -0.14262396 -0.33766448 1.0091813 0.44941622
0.8637544 -0.62021124 0.5188933 -0.05864817 -0.06698841 -0.57440037 -0.047603663 -0.061688866
-0.8981943 0.028462373 0.29559493 0.76125216 -0.050891705 -0.22298235 0.06680103 -0.07297568
00000000: 39dc bd3e 9835 0ebf 4c88 68be 8a7a 953e
00000010: b7ff acbd 9c05 d1be ebb3 5cbe 6b32 99be
00000020: 4dea 13be d2e8 2cbe 480d 483f e34b 723f
00000030: 6a0b 9cbd 9352 6bbe bb03 a7ba d6c3 833d
00000040: 994c febc d20b b53b 0d09 ccbe ce54 c7be
00000050: 62cd 05be 8c62 603f 83bc 7c3e 5cf1 3a3f
00000060: 8449 403f 79e9 4d3f ca83 933c a4ce 233e
00000070: df1a 40bf 5e26 973e 8a99 903d 1b6c 9c3e
00000080: cf59 62bf c730 943c 1c25 a73e 3ac5 3ebf
00000090: 9bd1 293f 23cf 3f3f 4fd3 283f ab67 d1be
000000a0: 98a8 dabe 8ea9 50be b02d 143f dfdd 023f
000000b0: 3744 26be bebf eb3d 84d0 ac3e 7724 31bf
000000c0: 4ee7 043e 3ff0 e3be b8ca 2a3e 7598 9c3c
000000d0: 67c9 b33e bb91 f5be 7037 773e 4b82 5bbe
000000e0: d337 c4bd f840 2a3f ec28 913e c9a0 e7bd
000000f0: 623a 3cbd 868a 113f 5994 023f 12ee bfbd
00000100: 949e 18be 6a8b 1e3f 21b4 d6bd 6023 5b3d
00000110: 5c5a 213f 16ac 13be caf0 1c3e dc15 25be
00000120: dff8 2cbe d803 29be a4a9 3c3f 2d0e 35be
00000130: dc79 1b3e e673 42bd d91e 28be 1876 ac3e
00000140: 3cc4 47bd 8e31 5e3b 1d66 b4be 803c a33e
00000150: ac41 573d b3f0 c63d c818 4cbe 66d8 ee3d
00000160: 747f 9b3c 1725 92be c3ab 073f 3cab 05be
00000170: cf0f f4bd 7ed7 6b3f 7669 c73e cd5f 043f
00000180: f5b4 5bbe 8608 053f 828a 6bbe eaf6 10bf
00000190: ba45 d2be 1f72 e0be 5c75 ebbd 8ff3 61bf
000001a0: ec86 133e 648a d2bd 5422 8d3c 56e5 bbbc
000001b0: 57b4 e13d e638 abbd fd45 12bd 541f b9bd
000001c0: 96fb ab3d 90a8 2abe a463 243e bbb9 893e
000001d0: ace3 a93d e937 1f3d 169b dbbd b27d c53d
000001e0: c184 2a3e ccce 8e3e 46a8 57be 59a6 bdbd
000001f0: 3a1b 40be ef20 1abe 8a2e adbd 61d2 dc3d
00000200: dd27 c0bd 61db 26be 5d2a d23e e04a babd
00000210: 89a7 1cbd ed3f e7bd 4596 0e3f a324 e1bc
00000220: 9155 8dbe 0a14 4fbe 878c 50bd daa0 52be
00000230: 52c4 f4be 891e f5bd 87f6 46be 8e55 02be
00000240: 03d3 80bc 1d49 a73c 2e8b a5bd 587e f7be
00000250: a2ee b1bd 9689 e1bd 3e56 253e 8f04 e6be
00000260: 6fe1 8ebe 8fde a5bd 78cf 18be 7b1f 503f
00000270: f68c 013e 4097 0a3f eb24 093f edae 893d
00000280: f745 1c3f 3e45 2fbd f8c4 1cbf 57f6 3a3e
00000290: c34c b53c 06b2 193f ea8b b3be 8f95 c43d
000002a0: 2ab6 dfbe 1778 d83e 879d 0dbc 997f 9bbd
000002b0: 28ec cabe 131f 473f 89a5 eb3d 035c e83d
000002c0: a0f4 d1be 2619 2b3d 97c7 c4bd 3f29 173f
000002d0: e4f7 a5bd ce18 dc3d d7f1 57bd fecc 333f
000002e0: 3361 1c3a d7c4 6fbe 60a2 563f b089 00be
000002f0: 2739 10be 4681 143f c82e fdbd 41db dbbd
00000300: 7960 1f3e 061d 453f 552c c93e 19d7 9d3d
00000310: 3abe 443f 3937 313f 6563 403e 0078 093d
00000320: d318 f73d aec6 e93e b434 b7be 0f07 a23e
00000330: 9155 78be 86f5 a03e 2458 9ebc 81b0 763e
00000340: d1d9 1d3f 2024 81bd 2c63 7abd fb36 833e
00000350: 7371 483f 9a60 cb3d 8176 03be 432d 813d
00000360: 1bb0 83be 2907 33be 9702 8bbc 5983 d53e
00000370: f15e 253e 4b05 34be da0f 073f dadf b33e
00000380: 5e4d a23d cf48 ccbd 4c0d 9cbd 0d77 04be
00000390: 1751 0dbe f96a 12be e90e 133f ceb1 53be
000003a0: 4e5a b5bd 8150 db3e d1fc debd e698 34be
000003b0: 040c 12be 5ce2 acbe da2c 813f e219 e63e
000003c0: 021f 5d3f 2ac6 1ebf 31d6 043f 1039 70bd
000003d0: 3831 89bd e70b 13bf 0ffc 42bd 77ad 7cbd
000003e0: 10f0 65bf ec29 e93c 3858 973e 6ce1 423f
000003f0: d273 50bd 7c55 64be face 883d 4674 95bd

conv1.bias f4 [16]
-0.32352534 -0.22542892 -0.09607859 -0.57778233 -0.14344393 -0.151328 -0.30639246 -0.11754815
-0.1153728 -0.40383226 -0.73100424 -0.4242351 -0.5825359 -0.16297323 -0.33765438 -0.91929287
00000000: 1da5 a5be d7d6 66be dac4 c4bd 8be9 13bf
00000010: f7e2 12be baf5 1abe 79df 9cbe 16bd f0bd
00000020: 9348 ecbd 1ac3 cebe 1823 3bbf 5835 d9be
00000030: 1321 15bf 74e2 26be 09e1 acbe c756 6bbf

conv2.weight f4 [32, 16, 3, 3]
0.34258813 -0.17458782 0.4068575 0.4759094 -0.09653296 0.46393484 -0.012675943 -0.004591926
0.14406882 0.25555712 -0.59496224 0.035787925 -0.07725057 0.043345675 -0.29960468 0.66394234
-0.12020505 0.638227 0.63308877 -0.13822801 0.2512131 0.3323006 -0.23228808 -0.0060504377
0.2557262 -0.506716 0.19119565 -0.075339496 0.20105512 0.07562214 0.07038468 -0.022037297
0.06551365 0.117332466 0.041807637 0.089073546 0.1540206 -0.2953985 0.28561258 0.18942718
-0.13758054 -0.18799509 -0.13662194 -0.054575186 0.033553034 -0.3393798 0.19450301 -0.6873541
-0.7455946 -0.2076148 -0.18709168 -0.046058692 0.080282256 -0.51633537 -0.051539935 0.0009003064
0.09666062 -0.09144484 -0.010129438 -0.03473244 -0.042296737 0.068726644 0.0022727728 0.004877233
-0.06997438 -0.06673784 0.10216225 -0.043824147 -0.040915325 0.15918852 -0.2721429 0.1163045
0.017923936 0.20935854 -0.3528397 0.05480733 0.06400504 0.22391073 0.16745159 -0.067444146
0.2542815 0.12689634 -0.10609942 -0.12921634 -0.098209366 0.34037635 -0.35037455 0.05711577
0.0358335 -0.08516075 0.4622783 -0.1923706 0.13837373 0.35471153 -0.13088837 0.022924375
0.6111301 -0.11848031 0.5748244 0.21697713 -0.048666876 0.1088278 0.14944385 0.09768174
-0.013096365 0.17338063 -0.17082919 0.05886716 -0.16377114 0.1485164 -0.10699987 0.016200649
0.03530901 0.007885431 -0.033566415 0.16863859 -0.13605951 -0.022807794 -0.21960683 -0.50531566
0.07956468 -0.035762925 0.2711895 0.60017586 -0.11351197 0.46008474 -0.116537854 -0.09935474
-0.13190281 -0.17005862 0.13827929 -0.26709524 -0.12790528 0.21193433 -0.23060788 0.3829119
-0.53993607 0.36983806 0.5371729 -0.19450787 0.53392196 0.2644709 -0.080983035 0.093879364
0.27698457 -0.08566134 0.19588004 0.21204062 -0.21165858 0.24393527 0.014889596 0.012352317
0.10007222 0.3552755 -0.02912733 0.2841577 -0.13828224 -0.06848374 0.1493596 0.19395828
-0.14911419 0.2905695 0.18803558 -0.09866381 0.17908554 0.40963417 0.0034546102 0.43929172
0.13312574 -0.12672041 0.20934327 -0.016055517 0.06237997 -0.14168637 -0.054221157 -0.003315917
0.118003614 0.032211494 0.03971539 0.057219256 0.2327973 -0.19554296 0.004288658 0.15219496
-0.06074313 0.22751458 -0.04212261 -0.08260422 0.04359098 0.24563318 0.2192101 0.0671692
0.12854022 0.11681749 0.015503972 0.12106153 0.16351493 0.012333745 0.019523595 -0.006424377
0.111154824 0.007739349 -0.018345904 0.028528785 -0.06866674 0.04128044 -0.041520137 0.25213626
-0.21799484 0.31899703 0.22876321 0.052346695 0.0097586345 0.24864136 -0.06505405 0.071559094
-0.09149672 0.15527064 -0.0316206 -0.019706288 0.0656 -0.03990985 0.15944533 0.12160353
0.003119095 0.13464223 0.20518272 0.080544926 -0.10314063 0.11513228 -0.06519999 -0.0125710685
0.16746795 -0.086552784 0.23934232 -0.055970483 0.011325528 0.17732528 -0.04778186 -0.04221994
0.28533888 -0.05768917 0.42103472 0.19017601 0.050231796 0.27973574 0.004826051 0.05528531
0.061461277 0.17722712 -0.12235006 0.15381463 0.01691525 0.15200938 -0.15720986 -0.10665485
00000000: b667 af3e 26c7 32be a04f d03e 66aa f33e
00000010: 13b3 c5bd de88 ed3e c2ae 4fbc de77 96bb
00000020: c786 133e 62d8 823e 724f 18bf 5c96 123d
00000030: 8c35 9ebd 3c8b 313d c965 99be 20f8 293f
00000040: 112e f6bd d862 233f 1b12 223f a58b 0dbe
00000050: 019f 803e 4e23 aa3e eddc 6dbe c042 c6bb
00000060: 8bee 823e 24b8 01bf cbc8 433e 984b 9abd
00000070: 65e1 4d3e c8df 9a3d d825 903d 9087 b4bc
00000080: 052c 863d 014c f03d 7c3e 2b3d 316c b63d
00000090: 93b7 1d3e 793e 97be d03b 923e 33f9 413e
000000a0: eae1 0cbe c981 40be 9fe6 0bbe 3b8a 5fbd
000000b0: e86e 093d 30c3 adbe cc2b 473e 70f6 2fbf
000000c0: 4adf 3ebf f998 54be f694 3fbe 0aa8 3cbd
000000d0: 066b a43d 8e2e 04bf 8a1b 53bd 8a02 6c3a
000000e0: 01f6 c53d 6f47 bbbd f1f5 25bc 9a43 0ebd
000000f0: 583f 2dbd 8ec0 8c3d cdf2 143b 32d1 9f3b
00000100: ba4e 8fbd d9ad 88bd 713a d13d f380 33bd
00000110: d496 27bd 5102 233e 5056 8bbe 0e31 ee3d
00000120: 38d5 923c 1662 563e 68a7 b4be a77d 603d
00000130: 1315 833d db48 653e 6e78 2b3e 2820 8abd
00000140: 2f31 823e 1df1 013e a74a d9bd 4a51 04be
00000150: fe21 c9bd cf45 ae3e 4b64 b3be 3af2 693d
00000160: 26c6 123d c268 aebd beaf ec3e ccfc 44be
00000170: d8b1 0d3e c09c b53e 9a07 06be e6cb bb3c
00000180: 0673 1c3f cea5 f2bd b127 133f 412f 5e3e
00000190: eb56 47bd 1ce1 de3d cf07 193e 5d0d c83d
000001a0: 2392 56bc b18a 313e d9ed 2ebe b11e 713d
000001b0: 9fb3 27be af14 183e bf22 dbbd 39b7 843c
000001c0: 2ea0 103d e531 013c f07c 09bd 98af 2c3e
000001d0: 2f53 0bbe 69d7 babc 9de0 60be 5e5c 01bf
000001e0: cff2 a23d 257c 12bd 5ad9 8a3e 20a5 193f
000001f0: f778 e8bd 3a90 eb3e 66ab eebd 7f7a cbbd
00000200: 8811 07be d923 2ebe 1699 0d3e b5c0 88be
00000210: 9af9 02be 5005 593e 7924 6cbe 070d c43e
00000220: 4039 0abf 6a5b bd3e 2a84 093f 122d 47be
00000230: 1caf 083f bb68 873e 6fda a5bd d343 c03d
00000240: ecd0 8d3e 366f afbd c794 483e 2d21 593e
00000250: 07bd 58be 2bca 793e 7ef3 733c 5f61 4a3c
00000260: aaf2 cc3d ace6 b53e 709c eebc 1e7d 913e
00000270: dc99 0dbe 3441 8cbd b9f1 183e 009d 463e
00000280: 64b1 18be 87c5 943e 668c 403e 4010 cabd
00000290: 3362 373e 92bb d13e be66 623b d8ea e03e
000002a0: 1d52 083e ffc2 01be 155e 563e dc86 83bc
000002b0: 2482 7f3d 3b16 11be 0117 5ebd db4f 59bb
000002c0: e1ab f13d 33f0 033d 9bac 223d bd5e 6a3d
000002d0: 6a62 6e3e 6a3c 48be df87 8c3b ffd8 1b3e
000002e0: cacd 78bd 95f9 683e c288 2cbd 672c a9bd
000002f0: 758c 323d 4487 7b3e 9d78 603e 0190 893d
00000300: 0ca0 033e 023e ef3d 5f04 7e3c 1cef f73d
00000310: 7570 273e 7a13 4a3c f2ef 9f3c 9583 d2bb
00000320: 24a5 e33d 5d9a fd3b 264a 96bc 33b5 e93c
00000330: 26a1 8cbd ae15 293d 0511 2abd 0118 813e
00000340: 0a3a 5fbe 9453 a33e e740 6a3e 7d69 563d
00000350: aee2 1f3c d79b 7e3e 0f3b 85bd 938d 923d
00000360: a262 bbbd 44ff 1e3e 9a84 01bd 156f a1bc
00000370: 4b59 863d 8378 23bd a345 233e 460b f93d
00000380: bb69 4c3b a7df 093e 6b1b 523e bdf4 a43d
00000390: 653b d3bd 79ca eb3d 9387 85bd e2f6 4dbc
000003a0: b87c 2b3e 9642 b1bd 2716 753e 4e41 65bd
000003b0: b58e 393c c294 353e e9b6 43bd d1ee 2cbd
000003c0: f017 923e 7b4b 6cbd dd91 d73e 80bd 423e
000003d0: dbbf 4d3d 8639 8f3e da23 9e3b d972 623d
000003e0: d2be 7b3d 077b 353e ab92 fabd 9581 1d3e
000003f0: da91 8a3c 59a8 1b3e 9ffb 20be dc6d dabd

conv2.bias f4 [32]
0.52302736 0.06822385 0.002117799 -0.25771827 0.13145274 0.029851831 -0.11080302 0.06345416
-0.3362149 0.07644561 0.23383276 -0.07520028 0.049727004 0.12232428 -0.07724728 -0.12536666
-0.055864885 0.23848458 0.14343747 -0.14571908 -0.037546374 0.03064727 -0.08244181 -0.17606604
0.15798275 -0.23188248 -0.14436005 0.0015096043 -0.094498076 -0.1354504 -0.03502524 -0.12947361
00000000: 1fe5 053f f2b8 8b3d c5ca 0a3b a6f3 83be
00000010: 8c9b 063e d48b f43c b2ec e2bd 41f4 813d
00000020: 5c24 acbe 848f 9c3d db71 6f3e 9b02 9abd
00000030: 8bae 4b3d 2785 fa3d d233 9ebd 1e60 00be
00000040: 94d2 64bd 4d35 743e 46e1 123e 6237 15be
00000050: 3aca 19bd fc0f fb3c 40d7 a8bd a84a 34be
00000060: 3bc6 213e 9a72 6dbe 1fd3 13be eadd c53a
00000070: 3588 c1bd 82b3 0abe a076 0fbd bb94 04be

fc1.weight f4 [256, 32]
0.021968734 0.06672302 -0.1590306 -0.0070641623 0.0327592 0.040125787 0.0677785 -0.076514095
0.060926996 -0.19230984 -0.038491543 0.11602933 0.08583359 -0.14573734 -0.08301453 0.097818494
-0.074803084 0.15120047 0.05437666 -0.07659912 -0.048897285 -0.030995687 0.117635116 -0.04626338
-0.11339645 -0.02003765 0.07813236 -0.070738144 -0.16197142 -0.00581707 -0.124802954 0.024058549
0.08721347 -0.1971911 -0.15920135 -0.078701854 0.04999629 0.07441289 -0.1197047 -0.119766794
-0.08387381 0.1212237 -0.15821059 0.06258365 -0.12438535 0.07752774 0.07569605 0.110429205
-0.025289977 0.08139933 -0.12569259 -0.060455516 -0.10192731 0.063551776 -0.109960675 -0.09661018
-0.07313555 0.07074507 0.07082212 0.056003023 0.10564292 0.0753127 0.025391798 -0.08121695
-0.17383821 -0.106040105 -0.27027056 0.047973458 0.1143112 -0.025008624 -0.120294265 0.1575238
0.14207979 0.22799413 0.25346693 0.02317263 -0.11414421 -0.30131093 -0.20066947 -0.057629973
-0.19048338 0.050393146 0.14668924 0.19173484 0.17380941 0.030515581 -0.0008298096 0.07886844
-0.034931134 0.058647394 0.011700732 0.21351685 0.018140709 -0.26785833 -0.13641173 0.03355592
-0.14321318 -0.14687105 -0.004350721 -0.16705279 0.14889619 -0.14396273 0.031896647 -0.17041598
-0.15060231 0.06844629 0.0613617 -0.091359235 0.0989529 -0.14769301 -0.14749151 -0.12266314
-0.043458186 0.05878785 -0.0041554235 0.0994568 0.08113595 -0.06503777 -0.0500058 -0.100097805
-0.043603107 -0.18426964 -0.15695831 -0.009975365 -0.06448255 0.094947405 -0.10211208 0.026117845
0.020620635 -0.053786293 0.15653436 -0.11083131 -0.14734046 -0.20958154 -0.15660577 0.090570904
0.010367318 -0.007822006 0.12130062 0.0444107 0.118028566 0.004384091 -0.1769149 0.007982246
-0.19500417 0.018154984 -0.1740819 0.06831893 -0.15114415 0.11429484 -0.17025664 -0.02132228
-0.112229586 -0.09809916 0.08641085 0.121339105 0.12603758 0.00724593 -0.19161306 -0.0065679965
-0.17361031 0.10569395 -0.11288391 -0.03388156 -0.041885227 -0.052276943 0.081785165 -0.008274983
-0.06004586 -0.01257823 0.19699566 -0.1499667 -0.12341221 0.132275 0.09379082 -0.024522893
-0.13049366 -0.05714578 0.006662526 0.07968731 0.09344399 -0.1992427 0.08653321 -0.013122145
0.041889936 -0.009153736 0.05498486 -0.15729338 0.009298743 -0.043350223 0.019948311 -0.11318358
-0.014467134 -0.14039099 -0.13024509 0.094216526 -0.14571553 0.054212112 0.09830368 -0.04272545
-0.017764263 0.07649985 0.023174722 -0.20438252 0.0043323655 0.0222617 -0.11829863 0.03573855
-0.02105775 0.06793658 -0.07163285 -0.13604039 0.01763697 -0.10645056 0.13327523 -0.03343753
-0.17433481 0.07832416 0.1352816 0.1530776 0.080961585 -0.07673048 -0.074513964 -0.18808755
0.08484495 0.08673233 -0.084875464 -0.26520005 0.16593903 -0.02845163 0.110343724 0.1445784
-0.15595472 -0.02157425 -0.0408037 -0.052890092 -0.035948455 0.26031968 -0.10311646 0.060104
-0.062318888 -0.10316413 0.021260088 -0.05454675 0.08993061 -0.17412071 0.025077393 -0.13083246
0.115539536 -0.04811971 -0.19577356 0.06787452 -0.08178762 -0.0986223 0.13128789 0.08774482
00000000: c6f7 b33c 14a6 883d ebd8 22be 7d7a e7bb
00000010: 832e 063d f05a 243d 74cf 8a3d 6cb3 9cbd
00000020: 968e 793d dfec 44be 4fa9 1dbd c9a0 ed3d
00000030: 85c9 af3d 2b3c 15be 8603 aabd 1055 c83d
00000040: 5c32 99bd 4cd4 1a3e 10ba 5e3d 00e0 9cbd
00000050: 8548 48bd abea fdbc aeea f03d ac7e 3dbd
00000060: 663c e8bd ff25 a4bc dc03 a03d 29df 90bd
00000070: d6db 25be 1f9d bebb b198 ffbd 6f16 c53c
00000080: fa9c b23d 77ec 49be ae05 23be 702e a1bd
00000090: e9c8 4c3d c965 983d bd27 f5bd 4b48 f5bd
000000a0: 08c6 abbd 2244 f83d f501 22be db2b 803d
000000b0: bfbd febd ddc6 9e3d 8806 9b3d b528 e23d
000000c0: ed2c cfbc b1b4 a63d 8fb5 00be 34a0 77bd
000000d0: 44bf d0bd 6f27 823d 1033 e1bd 8fdb c5bd
000000e0: 17c8 95bd cbe2 903d 300b 913d 6d63 653d
000000f0: 515b d83d 8b3d 9a3d 7602 d03c 1355 a6bd
00000100: a502 32be 8e2b d9bd e760 8abe d17f 443d
00000110: fe1b ea3d e3de ccbc d75c f6bd eb4d 213e
00000120: 5d7d 113e 4b77 693e 6bc6 813e 87d4 bd3c
00000130: 71c4 e9bd 6d45 9abe 4c7c 4dbe 680d 6cbd
00000140: 130e 43be 0b69 4e3d b435 163e 2356 443e
00000150: 18fb 313e d0fb f93c 9487 59ba c785 a13d
00000160: f313 0fbd 4038 703d 6db4 3f3c 29a4 5a3e
00000170: d39b 943c ba24 89be 84af 0bbe ef71 093d
00000180: 7aa6 12be 5d65 16be 7e90 8ebb e30f 2bbe
00000190: 3e78 183e f76a 13be 0fa6 023d 8781 2ebe
000001a0: 7e37 1abe 922d 8c3d 6856 7b3d 8d1a bbbd
000001b0: d1a7 ca3d d63c 17be 0408 17be d036 fbbd
000001c0: 3601 32bd 87cb 703d 382a 88bb 02b0 cb3d
000001d0: 9b2a a63d 8632 85bd e2d2 4cbd 1400 cdbd
000001e0: 2c99 32bd 2eb1 3cbe aeb9 20be b76f 23bc
000001f0: 6d0f 84bd c973 c23d 2320 d1bd 17f5 d53c
00000200: 9bec a83c 044f 5cbd 8b4a 203e 87fb e2bd
00000210: 6be0 16be 8b9c 56be 435d 20be 3d7d b93d
00000220: afdb 293c df27 00bc 766c f83d ffe7 353d
00000230: f6b8 f13d 6ca8 8f3b 2e29 35be f7c7 023c
00000240: 2caf 47be c3b9 943c 8742 32be ccea 8b3d
00000250: 88c5 1abe 6a13 ea3d c257 2ebe 10ac aebc
00000260: a0d8 e5bd 36e8 c8bd 2cf8 b03d a380 f83d
00000270: ff0f 013e 446f ed3b 3736 44be 5938 d7bb
00000280: e7c6 31be 1276 d83d ae2f e7bd 64c7 0abd
00000290: d88f 2bbd 5920 56bd fb7e a73d cb93 07bc
000002a0: a6f2 75bd ec14 4ebc 3bb9 493e df90 19be
000002b0: 8abf fcbd 1973 073e 6715 c03d 3ce4 c8bc
000002c0: 21a0 05be b211 6abd 5251 da3b 1a33 a33d
000002d0: 905f bf3d 4706 4cbe 5338 b13d 44fe 56bc
000002e0: c894 2b3d 8df9 15bc ce37 613d 8411 21be
000002f0: c159 183c 0190 31bd a46a a33c cbcc e7bd
00000300: 8f07 6dbc a8c2 0fbe f85e 05be 98f4 c03d
00000310: 7436 15be 850d 5e3d 7153 c93d e200 2fbd
00000320: 5c86 91bc f4ab 9c3d ead8 bd3c a749 51be
00000330: 84f6 8d3b 2b5e b63c 8d46 f2bd 9662 123d
00000340: 4d81 acbc 5522 8b3d 3eb4 92bd 2c4e 0bbe
00000350: 687b 903c c002 dabd 4d79 083e cbf5 08bd
00000360: d384 32be 6b68 a03d 4287 0a3e 60c0 1c3e
00000370: 30cf a53d df24 9dbd c79a 98bd 069a 40be
00000380: 30c3 ad3d b8a0 b13d 30d3 adbd 4dc8 87be
00000390: eceb 293e 6513 e9bc e4fb e13d 5c0c 143e
000003a0: 98b2 1fbe 7bbc b0bc c821 27bd 48a3 58bd
000003b0: b03e 13bd 9f48 853e b92e d3bd 9d2f 763d
000003c0: 1742 7fbd b747 d3bd a329 ae3c 6a6c 5fbd
000003d0: 8a2d b83d b34c 32be 1b6f cd3c f2f8 05be
000003e0: fe9f ec3d 2c19 45bd dd78 48be cc01 8b3d
000003f0: 4580 a7bd 7dfa c9bd 5570 063e 8eb3 b33d

fc1.bias f4 [256]
-0.11731309 -0.16797912 -0.054510783 -0.037395667 -0.14042419 -0.16190426 -0.12814763 0.013953423
-0.16838495 0.02420194 -0.05296355 -0.20356399 -0.24568966 -0.052572627 -0.17414746 -0.13811187
-0.15513851 -0.14778566 -0.1522292 -0.13221253 -0.118748024 -0.13930765 -0.20255871 -0.010010078
-0.2721938 -0.2015124 -0.17183009 -0.08189708 0.06689276 -0.09683104 -0.2694705 -0.05823732
-0.082019724 -0.14493738 -0.15673727 -0.14802955 0.0022561173 -0.22294804 -0.06387677 -0.13862178
-0.20222768 -0.14417966 -0.10769283 -0.065174356 -0.11442755 -0.10222702 -0.118972205 -0.17960313
-0.0971017 -0.26054358 -0.03701089 -0.09598411 -0.13976672 -0.14912753 -0.1654072 -0.15279293
-0.09052274 -0.10306507 -0.082575575 -0.14262976 -0.11398371 -0.14502986 -0.23611763 -0.14760175
-0.12463496 -0.04756431 -0.21922404 -0.30913517 -0.18805635 -0.11441229 -0.06641582 0.0018125128
0.015443238 -0.09929532 0.0024213232 -0.010495574 -0.15378755 -0.07773599 -0.09127644 -0.23720853
-0.07887104 -0.24553427 -0.20308411 -0.13538888 -0.21937662 -0.16080336 -0.29761863 -0.096230045
-0.21165669 0.018680738 -0.02613946 -0.18177493 -0.08669087 -0.25096714 -0.2415601 -0.14673422
-0.18583338 -0.13735636 -0.1510479 -0.11442028 -0.117378436 -0.005524296 -0.13402897 -0.09656614
-0.20878328 -0.16337673 -0.27468625 0.091758 -0.17236671 -0.08184754 -0.11279358 -0.09173504
-0.15485545 0.09572901 -0.045889236 -0.06975522 -0.07479142 -0.13658741 -0.117054865 -0.12082775
-0.1796224 -0.099847786 -0.10505661 -0.03277922 -0.078613006 -0.20613211 -0.122716255 -0.042668577
-0.15519293 -0.17691036 -0.1404824 -0.12148999 -0.18637322 -0.15902343 -0.11257598 -0.12060643
-0.07409141 -0.18709648 -0.2246147 -0.21853918 -0.1640557 0.055698566 -0.07887147 -0.15634924
-0.16833022 -0.06482835 -0.21390355 -0.2978247 -0.05798446 -0.13479337 -0.14225544 0.032082684
-0.24198605 -0.20146954 -0.12354906 -0.21741405 -0.24126905 -0.075798124 -0.1928369 -0.14346603
-0.15412082 -0.090629146 -0.06962113 -0.08976891 -0.033134725 -0.20122236 -0.038517527 -0.097715914
-0.17570585 -0.15239546 -0.1674448 -0.11810027 -0.011788224 -0.20097867 -0.20279779 -0.22325368
-0.13338518 -0.09095369 -0.1857381 -0.09159671 -0.15220661 -0.028973272 -0.14765424 -0.21175237
-0.18619983 -0.08443992 -0.13016805 -0.19248357 -0.07806006 -0.25130594 -0.2907765 -0.00033126576
-0.008660431 -0.13750756 -0.23821889 -0.054566436 -0.0021181458 -0.16210912 -0.0913134 -0.20895593
-0.13864228 -0.16881919 -0.106391825 -0.1805972 -0.033756044 -0.06583482 -0.17762713 -0.07018798
-0.11982083 0.070990026 -0.14393264 -0.15186262 -0.13268293 -0.28938177 -0.090472825 -0.15635274
-0.11369903 -0.15548554 -0.19613656 -0.10434667 -0.0064569283 -0.056202877 -0.08102089 -0.10074697
-0.13601717 -0.1540651 0.010538081 -0.12329779 -0.12665515 -0.12193346 -0.1978566 -0.04452738
-0.18536483 -0.21749602 -0.19390143 -0.14633949 -0.13646306 -0.077187814 -0.07258072 -0.15812795
-0.13729101 -0.1245157 -0.1653964 -0.20074692 -0.094097875 -0.15731116 -0.12251253 -0.14518343
-0.20333974 -0.15001991 -0.15713896 -0.2336334 -0.13953412 -0.20856448 -0.16909471 -0.14988443
00000000: d841 f0bd b802 2cbe b346 5fbd 332c 19bd
00000010: 5ccb 0fbe 3bca 25be 2239 03be e69c 643c
00000020: 1b6d 2cbe 2643 c63c 4ff0 58bd 1473 50be
00000030: 1296 7bbe 6556 57bd b653 32be 336d 0dbe
00000040: a1dc 1ebe 2055 17be f9e1 1bbe b962 07be
00000050: 2a32 f3bd aaa6 0ebe 8d6b 4fbe 4f01 24bc
00000060: fc5c 8bbe 4459 4ebe 3af4 2fbe a8b9 a7bd
00000070: 12ff 883d 5a4f c6bd 0af8 89be 428a 6ebd
00000080: f5f9 a7bd 776a 14be bc7f 20be 0f95 17be
00000090: 5edb 133b 7e4c 64be d3d1 82bd def2 0dbe
000000a0: c614 4fbe d5a3 13be 0f8e dcbd 227a 85bd
000000b0: fe58 eabd 665c d1bd b3a7 f3bd e2e9 37be
000000c0: 42dd c6bd f865 85be bb98 17bd 5193 c4bd
000000d0: 021f 0fbe e3b4 18be 8160 29be c075 1cbe
000000e0: fc63 b9bd c813 d3bd 621d a9bd 890d 12be
000000f0: 4b70 e9bd b582 14be d2c8 71be ea24 17be
00000100: 9d40 ffbd cbd2 42bd 447c 60be f746 9ebe
00000110: d891 40be fe50 eabd 0405 88bd d691 ed3a
00000120: a305 7d3c 585b cbbd 10af 1e3b a1f5 2bbc
00000130: 7c7a 1dbe 0c34 9fbd 24ef babd cbe6 72be
00000140: 2487 a1bd 566d 7bbe 48f5 4fbe 62a3 0abe
00000150: 44a4 60be a3a9 24be 7861 98be 4214 c5bd
00000160: 88bc 58be 5908 993c 6c22 d6bc 3523 3abe
00000170: fc8a b1bd c47e 80be 885b 77be 7f41 16be
00000180: 1b4b 3ebe 25a7 0cbe 4dac 1abe 2e55 eabd
00000190: 1b64 f0bd 2705 b5bb e43e 09be 78c4 c5bd
000001a0: 49cb 55be 3b4c 27be ada3 8cbe 9eeb bb3d
000001b0: e680 30be af9f a7bd 5200 e7bd 95df bbbd
000001c0: 6d92 1ebe 920d c43d 5af6 3bbd d3db 8ebd
000001d0: 3e2c 99bd 92dd 0bbe 76ba efbd 8a74 f7bd
000001e0: efee 37be ff7c ccbd ec27 d7bd 8143 06bd
000001f0: dbff a0bd 4c14 53be a952 fbbd 3fc5 2ebd
00000200: e5ea 1ebe fd27 35be 9eda 0fbe becf f8bd
00000210: 9fd8 3ebe 0ad7 22be 3c8e e6bd 8100 f7bd
00000220: 3dbd 97bd 3896 3fbe 6501 66be bcc8 5fbe
00000230: 38fe 27be 2e24 643d 5e87 a1bd 041a 20be
00000240: c25e 2cbe bac4 84bd 8809 5bbe 7b7c 98be
00000250: 1d81 6dbd 4607 0abe 69ab 11be 2269 033d
00000260: 31cb 77be 084e 4ebe 4a07 fdbd caa1 5ebe
00000270: 3c0f 77be 0c3c 9bbd 0977 45be c2e8 12be
00000280: d9d1 1dbe c69b b9bd 8695 8ebd c3d8 b7bd
00000290: 47b8 07bd 3c0d 4ebe 8ec4 1dbd 481f c8bd
000002a0: 3cec 33be 8e0d 1cbe a676 2bbe 8ede f1bd
000002b0: 6523 41bc 5acd 4dbe 39aa 4fbe 9d9c 64be
000002c0: 2096 08be ee45 babd 2132 3ebe 0e97 bbbd
000002d0: 0ddc 1bbe 5b59 edbc ac32 17be 9dd5 58be
000002e0: 2bab 3ebe d6ee acbd c64a 05be 6a1a 45be
000002f0: f4dd 9fbd 2cab 80be a8e0 94be bdad adb9
00000300: 7be4 0dbc c8ce 0cbe a7ef 73be 0e81 5fbd
00000310: 97d0 0abb efff 25be 8502 bbbd 8bf8 55be
00000320: 3ef8 0dbe f0de 2cbe f5e3 d9bd 79ee 38be
00000330: c743 0abd 68d4 86bd e3e3 35be b7be 8fbd
00000340: a064 f5bd 3863 913d 1463 13be e081 1bbe
00000350: 09de 07be d929 94be d149 b9bd ef1a 20be
00000360: 09db e8bd 9a37 1fbe 06d8 48be b5b3 d5bd
00000370: a494 d3bb fd34 66bd 48ee a5bd 6d54 cebd
00000380: 1648 0bbe 3ec3 1dbe eaa7 2c3c 8d83 fcbd
00000390: e3b1 01be 40b8 f9bd ec9a 4abe 5862 36bd
000003a0: 47d0 3dbe 47b7 5ebe 198e 46be 05da 15be
000003b0: f9bc 0bbe a514 9ebd 33a5 94bd 4bec 21be
000003c0: 0496 0cbe 1602 ffbd ad5d 29be 9a90 4dbe
000003d0: 63b6 c0bd 2d16 21be d9e7 fabd f7aa 14be
000003e0: 4b38 50be d29e 19be 09e9 20be 983d 6fbe
000003f0: 08e2 0ebe ed91 55be 2a27 2dbe 4e7b 19be

fc2.weight f4 [5, 256]
0.042123698 -0.055743016 0.05696051 0.0013895035 -0.038602628 0.03496027 0.04956536 0.026709743
0.0110195875 0.039089054 -0.0091083795 0.0063428804 0.031213738 0.011798859 -0.042292014 0.0075466484
0.0039478764 0.013079472 -0.06207777 0.055029914 -0.045601726 0.046330296 -0.055486605 -0.050983675
-0.02489505 -0.0051212236 0.01762674 -0.022776015 0.049090438 -0.039463148 -0.031100735 0.049460128
-0.035118125 0.03280644 -0.024804205 0.05233662 -0.055909894 -0.026399538 0.06187228 -0.034300245
0.009617187 0.014051124 0.042102516 -0.05204071 -0.0032782555 0.0061606094 0.050961003 -0.04569637
0.050438218 -0.04497578 -0.033004493 -0.0017759204 -0.006461896 0.017610379 -0.061396733 -0.013463579
-0.052210018 -0.053653024 -0.020974651 -0.05270838 -0.021001883 0.008626811 0.03395915 0.04481394
0.03107503 -0.04018517 0.04681799 0.045214668 -0.000187926 0.012844548 0.028731711 -0.0143066645
-0.0294298 0.011934742 -0.058124147 -0.040603913 0.061703525 0.058904357 -0.001946196 0.03505005
-0.05362931 0.021444231 -0.052898906 0.048687473 -0.035770185 -0.035162874 0.026760422 -0.06027525
-0.01170136 0.051902182 0.017540649 -0.013055779 0.020543672 0.027294248 -0.014216818 -0.0203726
0.04432717 0.01575762 0.054974675 -0.014121883 0.03317368 -0.009789631 0.037197508 -0.03404072
0.038713023 -0.054096214 0.009503387 0.0019484013 0.039647564 0.018130496 0.01517313 -0.009725437
-0.051609986 -0.048462234 -0.059027314 -0.003032498 -0.021099761 -0.02810014 -0.015113197 0.015859425
-0.013955392 -0.015273944 -0.02666556 0.040667422 0.00051584095 0.027448758 0.054821722 -0.022273459
-0.0028099045 -0.047223926 0.042682737 0.010461129 -0.058139183 0.03617467 0.0066709146 -0.04070647
-0.013405733 0.036429957 0.03018327 0.015490286 0.02862022 0.02423878 -0.014782555 -0.020669542
-0.047167704 -0.04221715 -0.0068895817 -0.025856912 -0.059538625 -0.05355724 -0.023841716 -0.04993008
-0.055813856 0.046051085 0.022046395 0.004430622 0.006732397 0.018800497 0.04279592 0.0046172887
0.021397628 0.061191708 0.033837892 0.028548598 0.037149742 -0.04798922 -0.04485845 -0.029215582
-0.0493685 -0.018049732 0.0505258 -0.00078394264 -0.04310555 -0.049140967 -0.03190638 0.059452295
0.015242457 -0.03507358 0.010839798 -0.04982456 0.0494435 -0.048851572 0.061413005 -0.026906267
0.05616612 -0.04134731 -0.0044836476 -0.040328763 -0.0063190013 -0.029148333 -0.03519153 -0.043648556
0.04779782 0.03628383 -0.057381064 0.050741673 0.032000132 -0.021092057 0.009902425 -0.05950039
0.04148075 -0.027222082 0.019802906 0.038345143 -0.05740671 0.039989218 -0.038650297 0.0021248162
0.039306037 0.037276834 0.004026212 0.049340114 -0.04504072 -0.028910853 0.014631607 0.033744343
0.041717127 -0.0578359 0.04700657 0.057906292 -0.053663194 0.04929617 0.05650775 -0.012783848
0.0075302273 -0.05474846 -0.05304189 -0.047639735 -0.0040666237 -0.04068567 -0.05816275 0.05353588
0.029459402 0.015954606 -0.038069673 0.05113007 0.028464705 -0.03832782 -0.05880654 -0.03019023
-0.01383888 0.060869038 0.027796961 0.0035567358 -0.05545514 0.052034974 -0.009223089 -0.016344108
0.02429802 -0.018030643 0.06020025 -0.060472757 -0.005449444 0.057305552 -0.028786786 -0.036118075
00000000: e689 2c3d ca52 64bd 6c4f 693d 0020 b63a
00000010: ca1d 1ebd 8032 0f3d 0c05 4b3d 64ce da3c
00000020: 808b 343c d81b 203d 503b 15bc f0d7 cf3b
00000030: f4b3 ff3c 0050 413c 643a 2dbd e049 f73b
00000040: 305d 813b 484b 563c 4245 7ebd 0c67 613d
00000050: e0c8 3abd d6c4 3d3d ec45 63bd 42d4 50bd
00000060: b4f0 cbbc f0cf a7bb f465 903c c494 babc
00000070: 0e13 493d 1ca4 21bd f8c6 febc b496 4a3d
00000080: 06d8 0fbd 0c60 063d 3032 cbbc ec5e 563d
00000090: c601 65bd d843 d8bc ca6d 7d3d 6a7e 0cbd
000000a0: 6891 1d3c b036 663c b073 2c3d a428 55bd
000000b0: 00d8 56bb f0de c93b 7cbc 503d 1e2c 3bbd
000000c0: 4e98 4e3d 8638 38bd b82f 07bd 00c6 e8ba
000000d0: 50be d3bb a443 903c 247b 7bbd 5896 5cbc
000000e0: 2cda 55bd 46c3 5bbd 08d3 abbc bee4 57bd
000000f0: 240c acbc 7857 0d3c c018 0b3d d28e 373d
00000100: 1091 fe3c 3499 24bd 38c4 3f3d 0433 393d
00000110: 000e 45b9 f071 523c c45e eb3c 8066 6abc
00000120: c416 f1bc f089 433c 9613 6ebd 4a50 26bd
00000130: d6bc 7c3d b245 713d 8017 ffba a490 0f3d
00000140: 68aa 5bbd d0ab af3c 86ac 58bd 846c 473d
00000150: c283 12bd f206 10bd ac38 db3c 2ee3 76bd
00000160: 10b7 3fbc 6297 543d 68b1 8f3c e8e7 55bc
00000170: 344b a83c 3098 df3c a8ed 68bc 70e4 a6bc
00000180: 6890 353d 2016 813c 202d 613d 785f 67bc
00000190: 20e1 073d b064 20bc 6a5c 183d 486e 0bbd
000001a0: 8c91 1e3d fe93 5dbd 18b4 1b3c 8061 ff3a
000001b0: 7c65 223d 6886 943c b898 783c 7057 1fbc
000001c0: fe64 53bd 5680 46bd a0c6 71bd e0bc 46bb
000001d0: 68d9 acbc 4432 e6bc 589d 77bc a0eb 813c
000001e0: 28a5 64bc 903f 7abc bc71 dabc e292 263d
000001f0: 8039 073a 38dc e03c be8c 603d d476 b6bc
00000200: 6026 38bb e06d 41bd 18d4 2e3d 2865 2b3c
00000210: 5a23 6ebd e42b 143d b097 da3b d4bb 26bd
00000220: b8a3 5bbc 9437 153d e842 f73c f8ca 7d3c
00000230: f474 ea3c 6890 c63c 8832 72bc 2c53 a9bc
00000240: ec32 41bd e4eb 2cbd 00c2 e1bb e0d1 d3bc
00000250: c6de 73bd d65e 5bbd b44f c3bc 7c83 4cbd
00000260: 129d 64bd 10a0 3c3d a49a b43c c02e 913b
00000270: 709b dc3b 8003 9a3c c64a 2f3d a04c 973b
00000280: 144a af3c 28a4 7a3d 9a99 0a3d c0de e93c
00000290: 542a 183d 5890 44bd 7ebd 37bd 8455 efbc
000002a0: a036 4abd 08dd 93bc 24f4 4e3d 8081 4dba
000002b0: 728f 30bd 0a48 49bd 44b0 02bd 4084 733d
000002c0: 80bb 793c 50a9 0fbd 6899 313c d614 4cbd
000002d0: 4485 4a3d 9618 48bd 348c 7b3d 886a dcbc
000002e0: 720e 663d cc5b 29bd 90eb 92bb c62f 25bd
000002f0: a00f cfbb 7cc8 eebc fe24 10bd d4c8 32bd
00000300: a6c7 433d 5a9e 143d 6808 6bbd 80d6 4f3d
00000310: 9212 033d 40c9 acbc c83d 223c aeb6 73bd
00000320: b8e7 293d d800 dfbc b439 a23c cc0f 1d3d
00000330: 4c23 6bbd bccb 233d c64f 1ebd 8040 0b3b
00000340: 5eff 203d 98af 183d 50ee 833b dc18 4a3d
00000350: 9e7c 38bd 74d6 ecbc 68b9 6f3c 8237 0a3d
00000360: 94df 2a3d 56e5 6cbd f689 403d 262f 6d3d
00000370: f0cd 5bbd c8ea 493d ac74 673d 5873 51bc
00000380: 20c0 f63b ec3f 60bd 7442 59bd e221 43bd
00000390: 5041 85bb 04a6 26bd 103c 6ebd 7048 5b3d
000003a0: d854 f13c 3cb3 823c f2ee 1bbd c46d 513d
000003b0: d02e e93c a2fd 1cbd 20df 70bd 8051 f7bc
000003c0: 78bc 62bc d051 793d 74b6 e33c 2018 693b
000003d0: ee24 63bd a022 553d 701c 17bc 14e4 85bc
000003e0: a40c c73c 00b5 93bc 8a94 763d 48b2 77bd
000003f0: 4091 b2bb 3ab9 6a3d 44d2 ebbc 8cf0 13bd

fc2.bias f4 [5]
-0.020561717 0.048897147 -0.031730488 -0.051509894 0.07004092
00000000: 0c71 a8bc 6048 483d d4f7 01bd 0afc 52bd
00000010: 9d71 8f3d
