Models/Torch2/my_model3500.pth (torch_old, 60054 bytes, 8 tensors)

conv1.weight f4 [16, 2, 3, 3]
000000 2c 5a 0e 3d 1a bd 5d be 47 f5 40 3c fd c2 be bd
       0.034753963 -0.21654168 0.011777229 -0.09314535
000010 a3 73 84 bd c8 13 57 be 4b fd 28 be 34 88 31 be
       -0.064673685 -0.2100364 -0.16502874 -0.17337114
000020 18 8e 44 be a6 d9 2b be a9 3c 65 3e d5 fb af 3d
       -0.1919483 -0.16782245 0.22386421 0.08592955
000030 88 21 8a bc 93 52 6b be ed 47 25 3e 06 c3 25 3e
       -0.016861692 -0.22980718 0.16140719 0.16187677
000040 f1 37 7c 3d 10 a4 30 bd 37 7b d6 bd c2 36 a4 bd
       0.061576787 -0.043125212 -0.1047272 -0.08018257
000050 d8 1e 82 3e c5 af fd 3d 01 26 e1 bd 2a 2a 95 3e
       0.25414157 0.12387041 -0.10993577 0.2913373
000060 6f 27 e1 3d 7d bd 8c 3d f2 88 62 3e 6f e8 e0 3d
       0.109938495 0.068720795 0.22122553 0.10981833
000070 b2 3c 08 3d ba 17 aa 3d 42 8f ca bd 2d 2f 37 3e
       0.03326101 0.08305307 -0.098906055 0.1788909
000080 c9 f2 2a be a3 73 10 be f2 7f 59 3e ac 9f 9f bd
       -0.16694178 -0.14106612 0.21240214 -0.07794127
000090 25 ff 6d 3e e4 82 34 be c8 ff 56 3e f4 57 59 be
       0.23241861 -0.17628056 0.2099601 -0.21224958
0000a0 04 c5 46 bd 67 70 dc bc f5 44 4a be 88 8b 80 bd
       -0.048527732 -0.026909066 -0.19752868 -0.062766135
0000b0 73 80 61 3e d3 30 95 bd 6e 70 4c be d9 d7 72 be
       0.22021656 -0.07284703 -0.19964764 -0.23715152
0000c0 ca d9 13 3c 74 59 56 bd cc 59 72 3c c1 0b 43 bb
       0.009024093 -0.052331403 0.014791917 -0.0029761645
0000d0 8b 9b c7 3d c6 46 44 be 0a 4e 38 bc 1b dd 0a be
       0.09746464 -0.19167623 -0.011249075 -0.13560908
0000e0 06 ce 91 3b b7 95 39 3e a6 81 38 3e 9b 41 0d 3d
       0.0044496087 0.18123518 0.18018207 0.034486394
0000f0 36 1a 13 be 4a 77 3e 3e 41 79 70 3e 0e ef ce bd
       -0.14365467 0.18600193 0.23483755 -0.1010419
000100 f7 ce 51 bc 4c f0 0b 3e 04 11 b3 3c ab b5 b3 3d
       -0.012805692 0.13665885 0.0218587 0.08774885
000110 dc 1b 37 3e 9f e6 02 be 8d f6 04 3e fb d4 1f 3d
       0.17881721 -0.12783287 0.12984677 0.039021473
000120 e6 e9 19 be 97 24 07 bd 9f bf 32 3e bf df 31 be
       -0.15030631 -0.03299388 0.1745591 -0.17370509
000130 84 c5 57 3e f6 e3 84 bd 60 0b 2b be 6b 90 86 3e
       0.2107144 -0.064887926 -0.16703558 0.26282057
000140 93 9d b0 bc 32 43 74 3d 8e 14 30 be 1f 9e 03 3e
       -0.021559512 0.059634395 -0.17195341 0.12853287
000150 b4 ba 3b 3d ce 61 14 3d ce fe 53 3c 01 e0 c5 3d
       0.04583235 0.036226086 0.012939168 0.09661866
000160 61 6a 42 3e 4e a6 29 be af 73 8e 3d 0c 81 65 3d
       0.18985893 -0.16567346 0.06955659 0.05603127
000170 f4 ec 11 bd af 7b 18 3e a7 ed eb 3d 0d 80 71 3e
       -0.035626367 0.14890932 0.11519938 0.23584004
000180 47 48 6a be 6d 8e 16 3e 06 4b 68 be fd 4f 36 be
       -0.22879134 0.14702769 -0.22684869 -0.1780395
000190 60 56 32 be 16 b2 71 be 16 97 bc bc 07 ef 28 be
       -0.17415762 -0.2360309 -0.023021262 -0.16497432
0001a0 08 d2 8a bd d1 66 0d be 73 de 1f be 81 ad 45 3e
       -0.067783415 -0.13808753 -0.15612201 0.19304468
0001b0 ad 3d 05 3e e6 38 ab bd 10 ee 00 bd 54 1f b9 bd
       0.13011809 -0.08360462 -0.031477034 -0.090391785
0001c0 24 14 aa 3d 90 a8 2a be b2 89 0a 3e 02 e7 5e 3e
       0.08304623 -0.16665864 0.13529089 0.2176781
0001d0 69 fb 02 3e 95 ec 32 3d 16 9b db bd a2 d1 8f 3d
       0.12791218 0.043682653 -0.1072294 0.07022406
0001e0 78 bb 4c 3e bc 13 50 3e 46 a8 57 be ea 5c bd bd
       0.19993389 0.20320028 -0.21060285 -0.092462376
0001f0 3a 1b 40 be ef 20 1a be 3c 0f 54 bc d7 ca 93 bd
       -0.18760386 -0.15051626 -0.012943085 -0.07216423
000200 4f 7f 3b bd 61 db 26 be cf 81 a5 3d 82 bb c2 3b
       -0.045775708 -0.16294624 0.080814 0.005942763
000210 fc 60 5f bd e7 16 d2 bd e4 be c1 3d c9 b1 25 bd
       -0.05453585 -0.102582745 0.094602376 -0.040452752
000220 6b ef 2a be 3c 64 4b be 06 bc 5a 3e 92 0b 49 be
       -0.16692893 -0.19862455 0.21360788 -0.1963332
000230 07 e6 17 be c6 b7 8f bc 2f 72 d9 bd a6 8d 25 be
       -0.14833842 -0.017543685 -0.10617482 -0.16167316
000240 5a 3a 99 bd dc 90 0f 3e 11 f2 ac bd 44 29 30 be
       -0.07481833 0.14020103 -0.08444608 -0.17203242
000250 ba 84 3a be a2 ae 03 be 05 2e b3 bc 75 31 6d be
       -0.18214694 -0.12859586 -0.02187253 -0.23163398
000260 eb 7f 96 3c f3 0d 00 bd f8 95 11 be d3 e1 52 3e
       0.018371543 -0.031263303 -0.14217365 0.20593958
000270 ef ec 14 3d 52 fe aa 3d 67 10 ce 3d 47 09 75 3e
       0.03635877 0.08349289 0.10061722 0.2392932
000280 02 cd 5b 3e 53 37 8c 3c 6c a7 57 be 8d 99 3d 3e
       0.21464923 0.017116224 -0.2105996 0.18515606
000290 55 6d 2e 3e 31 f3 c3 3d 52 91 5c 3d 96 1b 61 3e
       0.17033894 0.095678695 0.053849526 0.2198318
0002a0 54 4a 22 be 14 2b 9b 3d 31 be 50 3d d1 fe f8 bd
       -0.15848666 0.07576576 0.05096263 -0.12157977
0002b0 09 a0 aa bd 5c 77 e2 3d c5 1e ce 3d c7 cf 45 3e
       -0.083313055 0.11057922 0.100644626 0.19317542
0002c0 42 1c 7c bd e3 b9 99 3d b3 47 a5 bb e3 04 43 3e
       -0.061550386 0.07506158 -0.0050439476 0.19044833
0002d0 fe 1a 8b 3d c3 3e 66 3d 49 0f 9a 3d 08 1f 25 3e
       0.06792258 0.056212198 0.07522447 0.16125119
0002e0 34 3f 45 3d d7 c4 6f be 8f c2 3a 3e 56 26 8d bd
       0.04815598 -0.23414932 0.1823828 -0.068920776
0002f0 26 76 af bd 2d 9b 27 3e 44 cd 51 bd 95 8b 22 3b
       -0.08567457 0.16367789 -0.051221147 0.0024802436
000300 5e 31 14 bc 9d b0 bb 3d ac 21 64 3d c0 d7 12 3e
       -0.009044973 0.09164546 0.055696175 0.14340115
000310 9e 78 65 3d 86 12 b8 3d 12 9c ae bd 8a 08 24 be
       0.056023233 0.08987908 -0.08525862 -0.16018882
000320 65 ab 78 3e dd 3c 6d 3d 1d 4e c1 bd 34 b3 4e 3e
       0.24284132 0.057919372 -0.09438727 0.20185548
000330 26 41 27 be 1e 1f f7 3c 95 15 da 3d 7b 28 4b 3e
       -0.16333446 0.030166205 0.10648648 0.19839661
000340 8d c5 1f 3e 76 5f 8c bd be b5 98 3d c8 06 91 3d
       0.15602703 -0.06854145 0.074565396 0.070813715
000350 63 21 e5 3d 34 35 44 3e db 84 d3 3d 47 ed 00 3e
       0.11188009 0.1916092 0.103280745 0.12590514
000360 64 77 9c bd e3 f5 d2 bc 78 ba 4c 3d d4 9d 3f 3e
       -0.076399595 -0.025752014 0.049982518 0.1871255
000370 d5 db 57 bd 4b 05 34 be 5f 73 29 3e aa 61 48 be
       -0.052699883 -0.17580144 0.16547917 -0.19568506
000380 f7 69 92 3d 32 54 e1 bd 62 78 89 bd 90 93 68 bd
       0.071491174 -0.11002387 -0.06712414 -0.05678135
000390 0b e4 0f be 72 fb e3 3b ae dc 77 3e ce b1 53 be
       -0.14051835 0.006957465 0.24205276 -0.20673296
0003a0 d7 47 d8 3d 2c b4 13 3d af 08 10 be 1c ca 70 bc
       0.10560577 0.036060497 -0.14065813 -0.014696624
0003b0 f9 9b 65 be a3 a1 26 be 70 11 e6 3d 72 74 25 3e
       -0.2242278 -0.16272597 0.11233795 0.16157702
0003c0 d0 93 51 3e 94 26 8f bd 05 da 19 3e b3 f3 4f 3d
       0.20466542 -0.0698978 0.15024574 0.05076952
0003d0 1f 90 39 3e 6e 21 cf bd ef af 25 be fa bf 46 3e
       0.18121384 -0.10113798 -0.16180395 0.19409171
0003e0 05 4b 0f be 67 67 2b be 1b 80 43 3c ed d0 78 3d
       -0.13993461 -0.16738664 0.011932398 0.060746122
0003f0 17 2a 13 3e 32 0c 64 be bf 48 2d 3e 2b e3 a5 3d
       0.14371525 -0.22270277 0.16922282 0.080999695

conv1.bias f4 [16]
000000 b5 2d 82 bd a1 4c 83 3d 62 7e 2a 3e 3f 53 eb 3d
       -0.06356374 0.064111 0.16649774 0.11490487
000010 4d 7c 32 bd 74 b7 08 3e 26 ec 7c be 76 7b a0 3c
       -0.043575574 0.13351232 -0.24699458 0.01959012
000020 00 1b 4f bb 31 55 b1 bc 43 5e 30 be a2 a5 a6 3d
       -0.0031601787 -0.021647068 -0.17223458 0.08137061
000030 7b d8 33 be ac f6 ec 3c ee 50 2e be c0 7f 08 3c
       -0.1756305 0.028926216 -0.1702306 0.008331239

conv2.weight f4 [32, 16, 3, 3]
000000 d2 46 80 bb 09 81 89 bd 43 40 1c bd d6 ef 04 bc
       -0.0039146924 -0.06714065 -0.038147222 -0.008113822
000010 37 ce c6 3c e6 03 e9 3c 03 9c 0c bd 5f a1 7d bd
       0.024268253 0.028444242 -0.034328472 -0.061921474
000020 0d d4 81 3d aa 02 9a 3d ba 08 bd bd c0 1b 1c 3d
       0.063392736 0.075200394 -0.0923018 0.038112402
000030 78 5a 72 bc e5 1c 37 3d ba 75 d1 3d b1 b9 05 3d
       -0.014792077 0.04470529 0.10227533 0.032647792
000040 ef ef 32 3d 6e db 3b bc 32 73 ca 3d 7f 3e fc bc
       0.04368585 -0.01146589 0.09885253 -0.03079152
000050 4d 7b c3 3d 6c 31 06 bd cf 24 1b bd a5 a8 60 3c
       0.09545002 -0.032761976 -0.0378769 0.013712083
000060 ee 2f 14 bd 1f a4 4f 3d ce 46 b0 3c 7e 5a 9e 3b
       -0.03617852 0.050693627 0.021518137 0.004832565
000070 5a 35 4d 3a 41 ff 8a 3d 12 2d 5f bd 91 ac 68 3d
       0.00078280794 0.06786967 -0.05448634 0.056805197
000080 81 9f b0 3d 79 4e 8a 3d 64 0a 82 3d 8f a3 bd 3c
       0.08624173 0.06753249 0.06349638 0.02314928
000090 a8 08 93 3d 23 b0 cd 3c 85 a6 5a 3d 22 11 79 3d
       0.071793854 0.025108403 0.05338146 0.060807355
0000a0 98 cb 6f 3c 17 57 8d bd b0 e9 74 3d ab 63 53 3d
       0.014635943 -0.06901377 0.059793174 0.051608723
0000b0 4a 9b 9c 3c 4f 76 40 bd 95 60 12 bb 50 2b b9 bd
       0.019117016 -0.046987828 -0.00223354 -0.09041464
0000c0 dc cc c8 3c 49 39 1e 3c e3 41 29 3b ba 03 3f bc
       0.024511747 0.0096572125 0.0025826625 -0.011658603
0000d0 ca d9 0f bd d4 17 63 bd b2 8d 8c bd 0b dc 4f 3c
       -0.03511981 -0.055442646 -0.06862964 0.01268674
0000e0 2a 8e 99 3c 26 1b 98 bd 01 39 31 bd df 0b 00 bd
       0.018744547 -0.07427053 -0.043267254 -0.03126132
0000f0 3b 8d 9f bc 2b 4c 86 3d 46 29 26 bb 9d a9 41 bd
       -0.019476524 0.06557497 -0.002535419 -0.047280896
000100 41 81 86 3b ce 51 76 bd a7 ab 8e 3d be ce 07 bb
       0.0041047637 -0.06013661 0.06966334 -0.0020722593
000110 58 a7 82 bd 8a 31 e4 3c 24 ce 6e bd 95 a9 6c 3d
       -0.063795745 0.027855653 -0.05830206 0.057778914
000120 a3 36 3d 3d 31 74 42 3c 7c 13 6a bd 81 35 90 3d
       0.046194684 0.0118685225 -0.057147488 0.07041455
000130 a1 2a 37 3b 67 db 3d 3d 14 4d 2d 3d fe b8 f4 bc
       0.0027948993 0.046351817 0.042309836 -0.029873367
000140 3c 12 1f 3d c8 8d 5a 3d 45 7e 43 3c 6d 0e 2b bd
       0.03883575 0.05335787 0.0119319605 -0.041761804
000150 ab d0 55 3d 2f dc b1 ba 60 57 84 3d 60 be 4f 3b
       0.052200954 -0.0013569648 0.06461978 0.0031699166
000160 9d 56 79 bd 3a a1 cc bc 71 37 d0 bc 0c e1 c3 3c
       -0.060873616 -0.024979223 -0.025417062 0.023911022
000170 01 5d fc 3c 71 5a d4 3c 2c 35 98 bd 86 1d 68 bd
       0.030806066 0.025922032 -0.07432017 -0.05666878
000180 d0 aa dd ba ff b2 ff bc 84 1c bc bc e5 8d 38 bd
       -0.0016911868 -0.031213282 -0.022962816 -0.045057196
000190 d8 b1 5d bd fb c9 55 3c ab 8e 82 3d 8c fd 4b bd
       -0.054124683 0.013048644 0.06374868 -0.049802348
0001a0 69 ef 97 3d 74 d4 86 3d 28 a6 8f bd 27 e5 89 3d
       0.07418711 0.06583491 -0.07014114 0.067331605
0001b0 27 4a 74 bd da f7 1e bd 51 eb 85 3d 09 4d 69 3d
       -0.05964103 -0.03881059 0.06539024 0.056958232
0001c0 4b 8c 02 3d 3d 14 5c bc fb 73 4a bd 26 d3 f3 3c
       0.031872075 -0.01343256 -0.049427014 0.02976377
0001d0 d4 96 a4 3d 7b ac 9d bc d9 59 a9 bd 8c 7c 08 3c
       0.08036581 -0.019247284 -0.0826909 0.008330476
0001e0 01 34 b7 3d e4 dc ae bc 40 8f 51 bd 75 39 a6 3c
       0.08945466 -0.021345563 -0.051162004 0.02029107
0001f0 44 80 e6 bc df 6e 2e 3d 27 1d 4a 3d 3e 34 42 3c
       -0.028137334 0.042586204 0.049344208 0.011853276
000200 30 b7 88 bd aa bb 54 b9 01 ae 4b 3d ce fc 8d bd
       -0.06675565 -0.00020287806 0.04972649 -0.06932984
000210 54 d1 68 3d 5f 14 57 bd 8a f1 09 3d 91 5d 91 bc
       0.056840256 -0.05250966 0.033677615 -0.017744811
000220 e2 5d 77 bd 07 95 8d 3d 6e ac 30 3d 5a 1e 5d 3c
       -0.060392268 0.0691319 0.04313319 0.013496006
000230 f8 e0 81 3d 90 8e 05 3d 29 a8 73 3d 86 06 12 3d
       0.063417375 0.03260666 0.059486542 0.035650752
000240 76 90 5d bd f3 ea 7d 3d 44 d8 49 bd de d6 39 3a
       -0.054092847 0.061991643 -0.049278513 0.00070892076
000250 d0 6d a7 bd 03 40 19 3d ca ab c9 bc 9a 12 14 bd
       -0.08175242 0.037414562 -0.024618048 -0.036150552
000260 9d d3 9d 3d 6c 98 e8 3d a6 44 98 bd 01 60 5f 3e
       0.07706378 0.11357197 -0.07434969 0.21813966
000270 b5 1c 9d bd 48 dc 4d bd e9 da 20 3d 9d e5 03 3d
       -0.07671491 -0.050258905 0.03927127 0.0322014
000280 22 52 98 bd f8 ab 42 3c b1 b4 3a bd e8 42 9a bd
       -0.074375406 0.011881821 -0.045582477 -0.075322926
000290 f1 9d 92 3d 84 88 96 3d db 2e 25 bd 17 6d 01 3e
       0.07159031 0.07350257 -0.040327888 0.1263927
0002a0 85 24 c3 3c f1 c1 4a 3d 9f f6 3b 3c f6 53 6e 3d
       0.023821125 0.049501363 0.011472373 0.05818554
0002b0 02 c9 52 bd 37 3e 05 3d 87 8b 38 bd 30 90 19 3c
       -0.051461227 0.032530036 -0.04505494 0.009372756
0002c0 7b be 46 3d 0f b5 3e 3c 30 86 13 3b 3d 53 8c 3d
       0.0485215 0.011639847 0.0022510402 0.06851814
0002d0 b7 18 f2 3c b5 ee 5e bd f0 d0 58 bd 38 79 72 3d
       0.0295528 -0.054426868 -0.052933633 0.059197634
0002e0 26 91 e2 b8 ee 1d 0a bb 8d c9 bf bc 39 0f 63 bc
       -0.00010803556 -0.0021074968 -0.023411537 -0.01385861
0002f0 32 cc e5 3c 0f 27 82 3d 44 d3 a0 bd 78 12 c8 3d
       0.02805147 0.06355106 -0.07852796 0.09769148
000300 95 92 af 3d 9a 22 33 bd 04 01 07 3d 27 4f 13 3d
       0.0857288 -0.04373417 0.032959953 0.035964157
000310 57 1a 48 bc 91 25 73 bd 7a e0 38 3d e1 87 7b 3d
       -0.012213311 -0.059361998 0.045135953 0.06140888
000320 01 cb 68 3d 49 71 81 3d 6f 21 05 bb d2 04 da 3c
       0.056834225 0.063204356 -0.0020314117 0.026613627
000330 de 54 2d bc 64 4b 7e 3d 7d b2 0a bc d8 93 7a 3d
       -0.010579316 0.062083617 -0.0084654065 0.06117615
000340 4d 4a 1d bb a8 e5 88 3d 18 8d b6 3d 53 a3 c0 3c
       -0.0024000586 0.066844285 0.0891363 0.023515379
000350 ea 4a 58 bd de 95 de 3c 71 ef 79 3a df 1f 36 bd
       -0.05280582 0.027171072 0.0009534276 -0.04446399
000360 3f 05 04 3d 22 4a 20 3d bd bc f6 3c 1e 9f b0 bd
       0.032231566 0.0391332 0.030119294 -0.08624099
000370 13 13 ba 3c 58 b0 a0 bd 9e d5 03 3d 31 69 40 3d
       0.022714173 -0.07846135 0.032186143 0.04697532
000380 b4 30 90 bd 35 3a 64 bd e9 08 4b 3d f8 50 b0 3d
       -0.070405394 -0.055719573 0.049569044 0.086091936
000390 42 11 67 bd 13 fb 70 bd d6 d5 f9 3d ae 3e 3f 3d
       -0.056412943 -0.058833193 0.12198989 0.046690635
0003a0 e2 a6 95 bd 13 f7 28 bc 28 de a2 bd ab 85 6e 3c
       -0.07307221 -0.010312813 -0.07952529 0.014558236
0003b0 3c 0a 99 bc cc c0 1b 3a 1f 73 a3 3d 96 b2 1f bd
       -0.018681638 0.000594151 0.07980942 -0.038988672
0003c0 2c 4b 55 bd 5e f6 6d 3d 5e 51 4d 3d f2 47 6b 3d
       -0.052073643 0.058096282 0.050126426 0.05744166
0003d0 0a ff f8 bc c0 aa 19 3e b3 39 98 3d 02 2e f2 3b
       -0.03039505 0.15006542 0.0743288 0.0073907385
0003e0 0e ff d8 3d 75 5e 86 3d 33 8f b5 bd 4b 2d e2 3d
       0.10595523 0.06560985 -0.08865204 0.11043795
0003f0 62 eb 9b 3d da 10 38 3b 91 14 70 bd 4c d9 69 bd
       0.07613255 0.0028086216 -0.058613364 -0.057091996

conv2.bias f4 [32]
000000 39 81 42 3c be 7e 14 bc a7 28 b3 bc e3 bf 66 3d
       0.011871629 -0.009063421 -0.02186997 0.05633534
000010 36 12 c5 3d 0d 86 d3 3d b1 5d ad bc ec a5 ba bc
       0.09622614 0.103283025 -0.02116284 -0.022784196
000020 c2 37 41 3d 82 cd 9a 3d 36 57 2f 3d 5b cf 05 bd
       0.047172315 0.07558729 0.04280778 -0.032668453
000030 09 20 c0 bc ef b0 0f 3a 5f 46 80 3d fc 17 e1 3c
       -0.023452776 0.0005481382 0.06263422 0.027477257
000040 40 d9 79 3d 0a 4c c9 bc cc d9 7b 3c df c5 17 3d
       0.0609982 -0.024572391 0.015371751 0.03705394
000050 65 49 ad 3c e2 07 ae bd bd 37 b1 bd 8f 48 b8 bd
       0.021153161 -0.08497597 -0.08653209 -0.089982145
000060 a3 cb 1c bd a2 f3 59 bc d3 fd 20 3d 04 c6 5f 3d
       -0.03828014 -0.0133027155 0.039304566 0.0546322
000070 e1 31 16 bc 05 4d f1 bc 95 5b 88 bd f5 c8 33 bd
       -0.0091671655 -0.029455671 -0.06658093 -0.04389282

fc1.weight f4 [256, 32]
000000 d0 8e 68 3d 9a f8 ba 3d cd 7f c5 bd 80 e8 13 3c
       0.05677682 0.09129448 -0.09643517 0.0090276
000010 60 03 25 3d 78 03 4e 3d 98 72 78 3d 30 a8 8c bd
       0.04028642 0.050296277 0.06065616 -0.06868017
000020 78 04 31 3d 4b 8b 1f be 28 bc dd bc c9 0d 2a 3e
       0.043217152 -0.1558048 -0.027067259 0.16606821
000030 a6 5b f3 3d ab 76 18 be 12 42 63 bd e2 99 c0 3d
       0.11882715 -0.14889018 -0.05548293 0.09404351
000040 a8 f1 78 bd 9b 60 1b 3e 02 de 9a 3d cb a4 aa bd
       -0.060777336 0.15173571 0.07561876 -0.08332213
000050 a4 7f 0f bd 80 81 d8 bc ac 58 89 3d 20 00 47 bd
       -0.035033837 -0.026428938 0.06706366 -0.048584104
000060 0d 8b cf bd 10 9e 94 bc ca eb 9d 3d bf 5f b7 bd
       -0.10133944 -0.018141776 0.07710989 -0.08953809
000070 a6 7e 2c be 20 3f 01 3c 30 50 f5 bd 40 1d f9 3c
       -0.16845188 0.007888585 -0.11978185 0.030409455
000080 f6 f8 11 3e b3 b2 1d be 90 e4 04 be b7 3f d1 bc
       0.14255127 -0.154002 -0.12977815 -0.025543077
000090 2f ae e1 3d 79 88 e4 3d d0 e0 c2 bd c3 a6 6b bd
       0.11019551 0.111588426 -0.09515536 -0.057532083
0000a0 ec fb 14 bd 21 48 2b 3e 6a e5 a8 bd 82 9f 1c 3e
       -0.036373064 0.16726734 -0.08246882 0.15295222
0000b0 79 24 bf bd 3c 97 f5 3d fb 02 05 3e c5 e1 1b 3e
       -0.093331285 0.11991736 0.12989418 0.15222843
0000c0 d4 03 0f 3d be f7 01 3e fd 0b fa bd c2 5b 32 bd
       0.03491576 0.12692162 -0.12209318 -0.04354454
0000d0 be 53 bd bd 35 b0 93 3d 97 33 db bd 30 48 85 bd
       -0.09244488 0.07211343 -0.10703199 -0.06507909
0000e0 8a 69 1a bd a2 eb b3 3d df ec e8 3d 74 16 91 3d
       -0.037698306 0.08785178 0.113733046 0.07084361
0000f0 21 96 17 3e 17 95 f8 3d 6f 52 78 3d 61 44 79 bd
       0.14803363 0.12137812 0.06062549 -0.060856227
000100 a3 0b 09 bd 8e a1 22 bd 53 5c 2e be 8d fc 3f 3d
       -0.033458363 -0.03970485 -0.17027406 0.04687171
000110 fa a0 cb 3d 13 ed ec 3d 08 f3 c0 3d 22 df dc 3d
       0.09942813 0.11568656 0.094213545 0.10784747
000120 5f b9 8f 3b 60 e2 1a 3e 8e 5a 1f 3e 79 1e ba 3c
       0.0043861116 0.15125418 0.15561888 0.022719609
000130 24 a0 38 3b f8 58 30 be 18 be 1a be 1d b2 7a bc
       0.0028171623 -0.17221439 -0.15111578 -0.015301255
000140 62 e3 03 be b2 5f bd 3c 77 ee 2a 3e 59 54 8b 3d
       -0.12879708 0.02311692 0.1669253 0.068031974
000150 5f e0 dd 3d f8 64 09 be 4a 7a 8c bc 3c f0 09 3e
       0.10833811 -0.13417423 -0.017148156 0.13470548
000160 d6 71 ef 3d 45 f9 86 bc 4c b9 1f bd c5 7f 1d 3e
       0.11691634 -0.016476283 -0.038995072 0.15380771
000170 0e 1e a1 bc bd 4b 36 be 81 fe 58 3d 0f b1 f7 3c
       -0.019667652 -0.1780233 0.05297709 0.030235795
000180 7a 47 18 be ec b6 ef bd 33 d9 15 3d 0d 18 20 be
       -0.14871016 -0.117048115 0.03658409 -0.15634175
000190 fe c6 ee 3d 05 a4 ec bd f4 e5 2e 3d 68 a0 24 be
       0.116590485 -0.11554722 0.04269977 -0.16076815
0001a0 92 93 19 be da a5 cd 3d ff 46 dc 3d 12 1e bb bd
       -0.149977 0.10041399 0.10755729 -0.09136595
0001b0 85 02 de 3d d3 d3 0e be 35 1a 0f be 7f 4b ec bd
       0.10840324 -0.13947992 -0.13974841 -0.11537837
0001c0 34 10 27 bd 66 f8 05 3e 81 50 8d 3c e1 1d 0a 3e
       -0.040786937 0.13083038 0.017250301 0.1348796
0001d0 e3 ad c9 3d a3 4f 3e bd a3 dd 0f bd 7f 7d 9f bd
       0.098476194 -0.046462666 -0.03512348 -0.07787608
0001e0 ec a1 b4 bc 0d bd 2a be a0 be 15 be 26 66 14 bd
       -0.022049867 -0.1667368 -0.14623499 -0.03623023
0001f0 6b 19 42 bd 7e 32 c7 3d 49 e6 d2 bd 96 17 3b 3d
       -0.04738752 0.097264275 -0.1029783 0.04567679
000200 3f c9 25 3c bc 0d 49 bd f4 69 0a 3e 72 e6 d7 bd
       0.010118782 -0.049085364 0.1351698 -0.10542001
000210 4c 65 d9 bd 46 2d 31 be 54 90 01 be ca 0f 12 3e
       -0.10615024 -0.17302427 -0.12652713 0.14263836
000220 e0 f6 6c 3d ed fc 04 3e 1b 2e ac 3d a8 ac 06 3e
       0.057852626 0.12987109 0.084072314 0.131518
000230 6e c8 b9 3d 4b 71 6b 3d e9 11 1a be 7c d6 51 3d
       0.09071432 0.05748109 -0.15045895 0.05122994
000240 6f d7 19 be b5 19 be 3c bc 4e 2e be 93 68 19 3d
       -0.15023588 0.023205617 -0.17022222 0.037453245
000250 10 53 08 be 23 b9 0f 3d 0b 46 1b be c1 c6 30 bc
       -0.13312936 0.03508867 -0.15163438 -0.010789574
000260 25 9a b5 bd 8e 88 fa bd 4a ee f6 3d 7b e5 0d 3e
       -0.08867291 -0.12233077 0.12057169 0.13857071
000270 67 64 f3 3d aa dd c1 bd 99 72 23 be 41 4e 8a 3c
       0.118843846 -0.09466107 -0.15961684 0.016883017
000280 9f 41 ed bd 81 fe d0 3d 0a 83 ca bd ef c4 93 3d
       -0.11584782 0.10204793 -0.09888275 0.072152965
000290 a5 c6 b3 bc 83 5c 0a bd 65 95 f8 3d 12 64 d3 3c
       -0.021945307 -0.033779632 0.1213787 0.025804553
0002a0 8f 40 50 bd d8 8a d2 bc 62 41 04 3e 45 85 26 be
       -0.050842818 -0.025700971 0.12915567 -0.16261776
0002b0 d6 66 13 be dd 43 10 3e ef cc a9 3d 7b 1b 01 bc
       -0.14394698 0.14088388 0.08291041 -0.007880087
0002c0 98 1b e8 bd 3a 95 4c bc a2 2f 88 3d 50 99 39 3d
       -0.11333388 -0.01248675 0.0664971 0.045312226
0002d0 0a 96 cf 3d cd bc 33 be f0 1d 72 3d c8 90 82 bb
       0.101360396 -0.1755249 0.059110582 -0.0039845444
0002e0 ea 14 d5 3d 40 86 06 3d 43 73 a6 3c 44 ec 18 be
       0.1040438 0.032842875 0.020318633 -0.14933878
0002f0 b0 30 4b bd e0 ad a4 bc 00 4e 28 3c ac 25 98 bd
       -0.04960698 -0.020102441 0.010272503 -0.0742906
000300 76 14 89 3b b8 4d b7 bd e7 ed 83 bd 34 c1 2d 3e
       0.0041833473 -0.089503706 -0.06441861 0.16968232
000310 14 fb c6 bd cd f6 af 3c 9b 1e ab 3d 9f 6f fa 3c
       -0.09715858 0.021479988 0.08355447 0.030570803
000320 49 a6 c1 3b 65 7d 3a 3d 1d fd be 3d e4 f0 15 be
       0.0059097153 0.04552974 0.09325621 -0.14642674
000330 4f 41 eb ba bc e0 08 3e 03 76 14 be 90 c7 9a 3d
       -0.0017948541 0.1336698 -0.14498143 0.07557595
000340 63 41 82 3d f2 a9 fc 3d f0 49 42 bd c8 a1 9b bd
       0.06360128 0.12337102 -0.047433794 -0.07599217
000350 d3 d7 a3 3d f0 38 b0 bd 30 23 01 3e 67 d9 10 bd
       0.080001496 -0.0860461 0.12611079 -0.03536358
000360 1b c1 29 be 5a cb 82 3d 39 94 14 3e b8 7a 0b 3e
       -0.1657757 0.063864425 0.14509667 0.13621032
000370 e9 1c c7 3d 5d 22 c1 ba 7b 4f 6c bd 11 08 2c be
       0.09722311 -0.0014734973 -0.057692986 -0.16799952
000380 34 13 f1 3d 49 01 00 3d b4 12 de bc 7e ae 0f be
       0.11771241 0.031251226 -0.027108528 -0.14031407
000390 56 13 51 3a b3 2e 02 3d 5f a5 08 3e fc e5 fe 3d
       0.00079755986 0.031782817 0.13344334 0.1244621
0003a0 38 a0 ed bd 57 d9 4d bb 5e 20 da bd 7e 5f 92 bd
       -0.11602825 -0.0031410062 -0.10650705 -0.0714712
0003b0 7a 3b 1f 3c 40 aa 01 3e e8 c7 12 bd 2a a2 b1 3d
       0.00971877 0.12662601 -0.035835177 0.086735085
0003c0 f4 66 fa bd b4 a8 f8 bc f5 22 8f 3d b2 ad 50 bd
       -0.12226668 -0.030353881 0.069890894 -0.0509469
0003d0 43 d8 b7 3d bd 9c 13 be 7c 3c ae bc 42 fc c6 bd
       0.089767955 -0.1441526 -0.021269076 -0.09716083
0003e0 c7 e7 f1 3d 39 28 14 bd b2 fa 03 be 7a 8c 14 3d
       0.11811786 -0.03617117 -0.12888601 0.03626678
0003f0 bc 71 b1 bd b3 e9 8f bd 45 19 fa 3d 0a 59 95 3d
       -0.08664271 -0.070269965 0.12211851 0.072923735

fc1.bias f4 [256]
000000 6f e4 0e be c1 65 8d bd 23 11 0a 3d 3c 25 84 3d
       -0.13954328 -0.06904174 0.03370775 0.064524144
000010 89 fc df bc 63 ce 90 bd 14 e0 2d 3d 58 2e 55 3d
       -0.027342098 -0.07070615 0.042450026 0.05204615
000020 14 eb 2e be 28 2b 0d 3b 84 8e ec 3c 94 ec d5 bd
       -0.17081863 0.0021540616 0.02887655 -0.10445514
000030 04 68 b2 3c 04 8b 4a 3d a3 69 e2 3a 62 a2 7a bd
       0.021778114 0.049448982 0.0017273914 -0.061190017
000040 ed 5b aa 3c 70 29 f5 bd 68 6b 05 bd 6b 65 de bd
       0.020795787 -0.11970794 -0.032573134 -0.10859188
000050 45 ab c6 3b d3 80 ab 3b 52 c5 ab bd aa b9 9c 3d
       0.0060628974 0.005233863 -0.08387245 0.076526
000060 f1 4d 08 3d 4f ff de bd 6c 6a e3 bd f9 ba cb bc
       0.033277456 -0.1088854 -0.11104283 -0.024869429
000070 7a c8 79 3d e6 bb de 3c 49 ef 05 be 8f 33 4e 3d
       0.060982205 0.027189206 -0.13079561 0.05034214
000080 11 58 00 be d6 ea 5c 3d d1 39 7b ba ce 67 00 be
       -0.12533595 0.053934895 -0.00095835055 -0.12539598
000090 bf bc 06 3d 2d 46 d9 bd 84 41 eb 3c 48 cd 41 3d
       0.032894846 -0.10609088 0.028717764 0.047314912
0000a0 25 2d 56 bd 04 85 5e bc af cc 03 be d4 10 18 bd
       -0.052289147 -0.013581518 -0.1287105 -0.037125424
0000b0 4d 33 3a bc 10 58 fe ba 6a 34 17 3d f7 61 f9 bc
       -0.01136477 -0.0019404907 0.03691522 -0.030442221
0000c0 2f 49 15 bd a6 29 2c be c8 79 59 bc 47 a0 d7 bd
       -0.036446746 -0.16812763 -0.013273664 -0.10528617
0000d0 32 a2 dd 3c 54 4a 9b 3c 57 42 29 3c fa 02 da bd
       0.02705488 0.01895634 0.010330758 -0.10645099
0000e0 96 4c 69 3d 35 d1 f1 bb 09 87 fc 3c 84 c8 26 bd
       0.056957804 -0.0073796757 0.030826109 -0.04071857
0000f0 7c 07 09 bd 75 57 19 be 22 7b c9 bd a5 a1 3d bd
       -0.033454403 -0.14974768 -0.09837939 -0.046296734
000100 74 92 24 3d 74 38 a5 bd a2 0d 32 3d ca 25 83 bd
       0.04017873 -0.08067408 0.043470033 -0.06403692
000110 20 be 93 3c c7 dc 49 bb 81 e9 bf 3c 7c 9d 2c 3d
       0.018034995 -0.003080176 0.023426773 0.042142376
000120 d4 8b cd 3c ac fe 1c 3d 2a 43 35 3c a5 76 8a 3d
       0.02509109 0.03832881 0.011063376 0.06760911
000130 f8 e1 33 3d bb bc 53 3d 91 18 07 bd 9e 89 36 be
       0.043916672 0.05169366 -0.032982413 -0.17825934
000140 10 a0 1d 3b e3 ef f5 bd 2b 7e 33 3d 43 bf 7d 3d
       0.0024051704 -0.120086454 0.043821495 0.06194998
000150 1d 01 22 be 8b a6 05 be 25 a3 32 be bd aa 83 3c
       -0.15820737 -0.13051812 -0.17445047 0.016072625
000160 88 6f b2 bd 44 62 4b 3d e2 0f 68 3b 19 6a 17 be
       -0.08712679 0.04965426 0.0035409858 -0.14786567
000170 b5 fc 44 3d ce 7d 1f be da 25 a4 bd aa 45 c9 bc
       0.048092563 -0.15575334 -0.08015032 -0.024569351
000180 b8 f9 62 ba ea 5e 05 be 32 a8 ec 3c 97 61 9d 3c
       -0.0008658427 -0.13024488 0.028888796 0.019211574
000190 89 5a dc bd c0 d1 0a bd 9a 63 0d bd d1 da 9a 3c
       -0.10759456 -0.03389144 -0.034518816 0.018903168
0001a0 ae df 06 be 5a 6b 15 be eb d9 96 3c 83 19 54 3d
       -0.13171265 -0.14591733 0.018414458 0.051782142
0001b0 e8 85 18 be 8e f7 ee bd 4c 74 fc 3c 81 2d 68 bd
       -0.14894831 -0.11668311 0.030817173 -0.05668402
0001c0 00 95 f9 3c cf 0a 77 3c 94 80 24 bd f8 7e 38 3d
       0.030466557 0.015078261 -0.040161684 0.04504296
0001d0 23 78 44 3d 0d ed a5 bb 72 ef ee bd 69 00 e7 bd
       0.047966134 -0.005063659 -0.11666764 -0.11279375
0001e0 6e 46 4f 3d 6a 05 a5 3d d6 18 2a 3d bf 8b 7d 3d
       0.050604276 0.08057673 0.04152759 0.06190085
0001f0 d9 11 1e bd 0a 55 51 3d cf d3 65 3d 90 74 cf 3c
       -0.03859124 0.05110649 0.0561102 0.025324136
000200 31 51 ad 3c ae 32 e1 bc de 8f 2c 3d 01 62 a1 3c
       0.02115688 -0.027489986 0.04212939 0.019700052
000210 1b f2 ac 3c 3d 02 b2 bd 96 3a 30 3d af 06 ac 3c
       0.021111539 -0.08691833 0.043024622 0.02099928
000220 1f 3d ae 3c 43 64 df 3b ee 6e 2d be ef b4 11 bd
       0.02126938 0.006817372 -0.16936848 -0.035572942
000230 d8 7f 25 be 9d 1c ce 3c 8f 3d bc bd b9 a3 b1 3b
       -0.1616205 0.025160128 -0.09191429 0.0054211286
000240 63 5a 18 be b5 57 41 3d 84 44 01 bb 68 10 db 3c
       -0.1487823 0.047202785 -0.0019724676 0.026741222
000250 88 0d f6 3c 82 f3 63 bb 4b d0 9f bc 50 1c 83 3d
       0.03003575 -0.0034782593 -0.019508502 0.064018846
000260 68 3a ac bd c2 84 fd bd 9e ce ad 3c 5a ac a7 3c
       -0.084095776 -0.12378837 0.021216687 0.020467926
000270 3c a0 86 bc e1 84 81 bd 14 61 bc bd e6 f2 29 be
       -0.016433828 -0.06324173 -0.09198204 -0.16596565
000280 fb ad f5 3c 63 22 5f bc ac e2 f4 3c 57 3d f0 bc
       0.029990187 -0.013619038 0.029893242 -0.029326124
000290 1e 58 f2 3c d8 26 9d 3c 40 0d 37 3d 84 19 12 be
       0.029583033 0.019183561 0.04469037 -0.14267546
0002a0 c6 e9 16 be ab cd 34 3d df c3 2e 3d 01 5a bc bd
       -0.14737615 0.044141453 0.042667266 -0.091968544
0002b0 53 ce 0d 3d b2 e8 1a be cd 00 cb 3c e2 e8 10 be
       0.034620594 -0.15127829 0.024780655 -0.14151338
0002c0 cc e7 17 3d ce 9d 1f be dd 40 80 3c fc 0d 75 3b
       0.037086293 -0.15587541 0.01565593 0.0037392369
0002d0 38 4b 0d be ec 34 08 3d d1 4f 07 bd 34 f4 1b be
       -0.13798225 0.033253595 -0.033035103 -0.15229875
0002e0 8e 6c 58 3d a5 5d 0d 3b e2 80 11 be d8 f4 24 be
       0.0528379 0.002157071 -0.14209321 -0.16109025
0002f0 5a e4 76 3d 4a 44 0d be 6a 47 f0 3b 19 47 07 3d
       0.060276367 -0.13795581 0.007332732 0.03302679
000300 30 f3 51 3d 37 5b bb bd 6e d8 06 be 51 b7 b3 3d
       0.051257312 -0.09148257 -0.13168499 0.08775199
000310 d6 08 99 3d 2c 94 df bd 9e db a1 3c af b5 00 bd
       0.074723884 -0.109169334 0.019758042 -0.031423267
000320 3b fd ec bd 07 c8 91 3c a8 7f 8b bd 3c 5e d6 3c
       -0.115717374 0.017795576 -0.06811458 0.026167981
000330 a7 dd 3e 3d 60 8d 8d bc 4b 8e 1c be 80 e4 7d 3d
       0.046598103 -0.017279327 -0.15288655 0.061985493
000340 94 41 c5 bd e9 ae 74 b9 a1 c1 06 3d 6c d4 0a 3d
       -0.09631649 -0.00023334812 0.032899503 0.033893988
000350 82 df 13 3b 4f 22 78 bd 44 c9 92 bd 4c de dd bd
       0.002256364 -0.060579594 -0.071672946 -0.108334154
000360 25 2f 5b 3c c5 f1 14 bd b0 24 01 be 7e 2a 95 bc
       0.013377939 -0.036363382 -0.12611651 -0.018208738
000370 c0 e0 7f 3a b0 89 4a 3d 05 85 e8 3c 85 e4 96 bd
       0.00097609684 0.049447715 0.028383741 -0.073678054
000380 21 1a 0c be eb be 32 be 2a 41 64 bd 8d d9 41 3c
       -0.13681842 -0.17455642 -0.055726208 0.011831653
000390 a6 52 8c 3c db a9 8f 3c 58 fa af bc bb cc 3b 3c
       0.017129254 0.017537048 -0.021481678 0.011462386
0003a0 00 e6 95 bd 25 49 a4 3c 86 35 d4 3c 77 27 82 3d
       -0.0731926 0.02005441 0.025904428 0.063551836
0003b0 a6 15 60 39 88 c2 b4 3c 25 d1 c1 3c 68 7c d8 bd
       0.0002137037 0.022065416 0.023659298 -0.105706036
0003c0 9d 01 5a bd 6e 9c cc 3b 0f b0 29 be 63 81 a3 bd
       -0.053224195 0.006244234 -0.16571067 -0.07983663
0003d0 4e 75 25 3c 64 d8 fe bd 90 fd 0f bd 31 78 b7 bc
       0.010098768 -0.12443617 -0.035153925 -0.022396179
0003e0 3e 7e 94 bc 62 11 1e 3d c3 ae 0b bc d2 0b c6 3c
       -0.018126603 0.038590796 -0.008525553 0.024175558
0003f0 49 2c fa 3c da 1b 24 be 9f d4 d2 3c 1c c9 d8 3c
       0.030538695 -0.1602625 0.025736151 0.026463084

fc2.weight f4 [5, 256]
000000 e6 89 2c 3d ca 52 64 bd 6c 4f 69 3d 00 20 b6 3a
       0.042123698 -0.055743016 0.05696051 0.0013895035
000010 ca 1d 1e bd 80 32 0f 3d 0c 05 4b 3d 64 ce da 3c
       -0.038602628 0.03496027 0.04956536 0.026709743
000020 80 8b 34 3c d8 1b 20 3d 50 3b 15 bc f0 d7 cf 3b
       0.0110195875 0.039089054 -0.0091083795 0.0063428804
000030 f4 b3 ff 3c 00 50 41 3c 64 3a 2d bd e0 49 f7 3b
       0.031213738 0.011798859 -0.042292014 0.0075466484
000040 30 5d 81 3b 48 4b 56 3c 42 45 7e bd 0c 67 61 3d
       0.0039478764 0.013079472 -0.06207777 0.055029914
000050 e0 c8 3a bd d6 c4 3d 3d ec 45 63 bd 42 d4 50 bd
       -0.045601726 0.046330296 -0.055486605 -0.050983675
000060 b4 f0 cb bc f0 cf a7 bb f4 65 90 3c c4 94 ba bc
       -0.02489505 -0.0051212236 0.01762674 -0.022776015
000070 0e 13 49 3d 1c a4 21 bd f8 c6 fe bc b4 96 4a 3d
       0.049090438 -0.039463148 -0.031100735 0.049460128
000080 06 d8 0f bd 0c 60 06 3d 30 32 cb bc ec 5e 56 3d
       -0.035118125 0.03280644 -0.024804205 0.05233662
000090 c6 01 65 bd d8 43 d8 bc ca 6d 7d 3d 6a 7e 0c bd
       -0.055909894 -0.026399538 0.06187228 -0.034300245
0000a0 68 91 1d 3c b0 36 66 3c b0 73 2c 3d a4 28 55 bd
       0.009617187 0.014051124 0.042102516 -0.05204071
0000b0 00 d8 56 bb f0 de c9 3b 7c bc 50 3d 1e 2c 3b bd
       -0.0032782555 0.0061606094 0.050961003 -0.04569637
0000c0 4e 98 4e 3d 86 38 38 bd b8 2f 07 bd 00 c6 e8 ba
       0.050438218 -0.04497578 -0.033004493 -0.0017759204
0000d0 50 be d3 bb a4 43 90 3c 24 7b 7b bd 58 96 5c bc
       -0.006461896 0.017610379 -0.061396733 -0.013463579
0000e0 2c da 55 bd 46 c3 5b bd 08 d3 ab bc be e4 57 bd
       -0.052210018 -0.053653024 -0.020974651 -0.05270838
0000f0 24 0c ac bc 78 57 0d 3c c0 18 0b 3d d2 8e 37 3d
       -0.021001883 0.008626811 0.03395915 0.04481394
000100 10 91 fe 3c 34 99 24 bd 38 c4 3f 3d 04 33 39 3d
       0.03107503 -0.04018517 0.04681799 0.045214668
000110 00 0e 45 b9 f0 71 52 3c c4 5e eb 3c 80 66 6a bc
       -0.000187926 0.012844548 0.028731711 -0.0143066645
000120 c4 16 f1 bc f0 89 43 3c 96 13 6e bd 4a 50 26 bd
       -0.0294298 0.011934742 -0.058124147 -0.040603913
000130 d6 bc 7c 3d b2 45 71 3d 80 17 ff ba a4 90 0f 3d
       0.061703525 0.058904357 -0.001946196 0.03505005
000140 68 aa 5b bd d0 ab af 3c 86 ac 58 bd 84 6c 47 3d
       -0.05362931 0.021444231 -0.052898906 0.048687473
000150 c2 83 12 bd f2 06 10 bd ac 38 db 3c 2e e3 76 bd
       -0.035770185 -0.035162874 0.026760422 -0.06027525
000160 10 b7 3f bc 62 97 54 3d 68 b1 8f 3c e8 e7 55 bc
       -0.01170136 0.051902182 0.017540649 -0.013055779
000170 34 4b a8 3c 30 98 df 3c a8 ed 68 bc 70 e4 a6 bc
       0.020543672 0.027294248 -0.014216818 -0.0203726
000180 68 90 35 3d 20 16 81 3c 20 2d 61 3d 78 5f 67 bc
       0.04432717 0.01575762 0.054974675 -0.014121883
000190 20 e1 07 3d b0 64 20 bc 6a 5c 18 3d 48 6e 0b bd
       0.03317368 -0.009789631 0.037197508 -0.03404072
0001a0 8c 91 1e 3d fe 93 5d bd 18 b4 1b 3c 80 61 ff 3a
       0.038713023 -0.054096214 0.009503387 0.0019484013
0001b0 7c 65 22 3d 68 86 94 3c b8 98 78 3c 70 57 1f bc
       0.039647564 0.018130496 0.01517313 -0.009725437
0001c0 fe 64 53 bd 56 80 46 bd a0 c6 71 bd e0 bc 46 bb
       -0.051609986 -0.048462234 -0.059027314 -0.003032498
0001d0 68 d9 ac bc 44 32 e6 bc 58 9d 77 bc a0 eb 81 3c
       -0.021099761 -0.02810014 -0.015113197 0.015859425
0001e0 28 a5 64 bc 90 3f 7a bc bc 71 da bc e2 92 26 3d
       -0.013955392 -0.015273944 -0.02666556 0.040667422
0001f0 80 39 07 3a 38 dc e0 3c be 8c 60 3d d4 76 b6 bc
       0.00051584095 0.027448758 0.054821722 -0.022273459
000200 60 26 38 bb e0 6d 41 bd 18 d4 2e 3d 28 65 2b 3c
       -0.0028099045 -0.047223926 0.042682737 0.010461129
000210 5a 23 6e bd e4 2b 14 3d b0 97 da 3b d4 bb 26 bd
       -0.058139183 0.03617467 0.0066709146 -0.04070647
000220 b8 a3 5b bc 94 37 15 3d e8 42 f7 3c f8 ca 7d 3c
       -0.013405733 0.036429957 0.03018327 0.015490286
000230 f4 74 ea 3c 68 90 c6 3c 88 32 72 bc 2c 53 a9 bc
       0.02862022 0.02423878 -0.014782555 -0.020669542
000240 ec 32 41 bd e4 eb 2c bd 00 c2 e1 bb e0 d1 d3 bc
       -0.047167704 -0.04221715 -0.0068895817 -0.025856912
000250 c6 de 73 bd d6 5e 5b bd b4 4f c3 bc 7c 83 4c bd
       -0.059538625 -0.05355724 -0.023841716 -0.04993008
000260 12 9d 64 bd 10 a0 3c 3d a4 9a b4 3c c0 2e 91 3b
       -0.055813856 0.046051085 0.022046395 0.004430622
000270 70 9b dc 3b 80 03 9a 3c c6 4a 2f 3d a0 4c 97 3b
       0.006732397 0.018800497 0.04279592 0.0046172887
000280 14 4a af 3c 28 a4 7a 3d 9a 99 0a 3d c0 de e9 3c
       0.021397628 0.061191708 0.033837892 0.028548598
000290 54 2a 18 3d 58 90 44 bd 7e bd 37 bd 84 55 ef bc
       0.037149742 -0.04798922 -0.04485845 -0.029215582
0002a0 a0 36 4a bd 08 dd 93 bc 24 f4 4e 3d 80 81 4d ba
       -0.0493685 -0.018049732 0.0505258 -0.00078394264
0002b0 72 8f 30 bd 0a 48 49 bd 44 b0 02 bd 40 84 73 3d
       -0.04310555 -0.049140967 -0.03190638 0.059452295
0002c0 80 bb 79 3c 50 a9 0f bd 68 99 31 3c d6 14 4c bd
       0.015242457 -0.03507358 0.010839798 -0.04982456
0002d0 44 85 4a 3d 96 18 48 bd 34 8c 7b 3d 88 6a dc bc
       0.0494435 -0.048851572 0.061413005 -0.026906267
0002e0 72 0e 66 3d cc 5b 29 bd 90 eb 92 bb c6 2f 25 bd
       0.05616612 -0.04134731 -0.0044836476 -0.040328763
0002f0 a0 0f cf bb 7c c8 ee bc fe 24 10 bd d4 c8 32 bd
       -0.0063190013 -0.029148333 -0.03519153 -0.043648556
000300 a6 c7 43 3d 5a 9e 14 3d 68 08 6b bd 80 d6 4f 3d
       0.04779782 0.03628383 -0.057381064 0.050741673
000310 92 12 03 3d 40 c9 ac bc c8 3d 22 3c ae b6 73 bd
       0.032000132 -0.021092057 0.009902425 -0.05950039
000320 b8 e7 29 3d d8 00 df bc b4 39 a2 3c cc 0f 1d 3d
       0.04148075 -0.027222082 0.019802906 0.038345143
000330 4c 23 6b bd bc cb 23 3d c6 4f 1e bd 80 40 0b 3b
       -0.05740671 0.039989218 -0.038650297 0.0021248162
000340 5e ff 20 3d 98 af 18 3d 50 ee 83 3b dc 18 4a 3d
       0.039306037 0.037276834 0.004026212 0.049340114
000350 9e 7c 38 bd 74 d6 ec bc 68 b9 6f 3c 82 37 0a 3d
       -0.04504072 -0.028910853 0.014631607 0.033744343
000360 94 df 2a 3d 56 e5 6c bd f6 89 40 3d 26 2f 6d 3d
       0.041717127 -0.0578359 0.04700657 0.057906292
000370 f0 cd 5b bd c8 ea 49 3d ac 74 67 3d 58 73 51 bc
       -0.053663194 0.04929617 0.05650775 -0.012783848
000380 20 c0 f6 3b ec 3f 60 bd 74 42 59 bd e2 21 43 bd
       0.0075302273 -0.05474846 -0.05304189 -0.047639735
000390 50 41 85 bb 04 a6 26 bd 10 3c 6e bd 70 48 5b 3d
       -0.0040666237 -0.04068567 -0.05816275 0.05353588
0003a0 d8 54 f1 3c 3c b3 82 3c f2 ee 1b bd c4 6d 51 3d
       0.029459402 0.015954606 -0.038069673 0.05113007
0003b0 d0 2e e9 3c a2 fd 1c bd 20 df 70 bd 80 51 f7 bc
       0.028464705 -0.03832782 -0.05880654 -0.03019023
0003c0 78 bc 62 bc d0 51 79 3d 74 b6 e3 3c 20 18 69 3b
       -0.01383888 0.060869038 0.027796961 0.0035567358
0003d0 ee 24 63 bd a0 22 55 3d 70 1c 17 bc 14 e4 85 bc
       -0.05545514 0.052034974 -0.009223089 -0.016344108
0003e0 a4 0c c7 3c 00 b5 93 bc 8a 94 76 3d 48 b2 77 bd
       0.02429802 -0.018030643 0.06020025 -0.060472757
0003f0 40 91 b2 bb 3a b9 6a 3d 44 d2 eb bc 8c f0 13 bd
       -0.005449444 0.057305552 -0.028786786 -0.036118075

fc2.bias f4 [5]
000000 0c 71 a8 bc 60 48 48 3d d4 f7 01 bd 0a fc 52 bd
       -0.020561717 0.048897147 -0.031730488 -0.051509894
000010 84 da e7 3d
       0.113209754
