Models/Torch2/my_model54400.pth (torch_old, 60054 bytes, 8 tensors)

conv1.weight f4 [16, 2, 3, 3]
0	0x3e942517	0.28934547
1	0xbf10de32	-0.56589043
2	0xbe2bb7cf	-0.16769336
3	0x3e9e6a6e	0.30940574
4	0xbe48c90b	-0.19607942
5	0xbecc7864	-0.399356
6	0xbe6a95f2	-0.22908762
7	0xbe98beb1	-0.29832986
8	0xbe0cb85f	-0.13742207
9	0xbe2ce8d2	-0.16885689
10	0x3f667af6	0.90031374
11	0x3f353a9a	0.70792544
12	0xbd9c1b6f	-0.0762242
13	0xbe6b5293	-0.22980718
14	0x3b955678	0.004557427
15	0x3da28b55	0.07936732
16	0xbd021f5e	-0.031768195
17	0x3b57c1a8	0.0032921825
18	0xbecc090d	-0.39850655
19	0xbec754ce	-0.38931888
20	0xbe05cd62	-0.13066629
21	0x3f8456b1	1.0338956
22	0x3e871ab2	0.26387554
23	0x3f323b84	0.69622064
24	0x3f13823a	0.57620585
25	0x3f68b6c9	0.9090391
26	0x3c51d069	0.0128060365
27	0x3e0791d2	0.1323922
28	0xbf43148f	-0.76203245
29	0x3ea0799f	0.3134279
30	0x3cf1ce77	0.029517395
31	0x3e8ce87b	0.2752112
32	0xbf6259cf	-0.8841829
33	0x3d2decee	0.042462282
34	0x3e80a79a	0.2512787
35	0xbf3ec3b4	-0.7451737
36	0x3f2aaf86	0.6667408
37	0x3f332e14	0.69992185
38	0x3f192c4c	0.59833217
39	0xbed167ab	-0.40899405
40	0xbedaa898	-0.42706752
41	0xbe47f187	-0.19525729
42	0x3f0be601	0.54647833
43	0x3f15cde4	0.5851729
44	0xbe2a200f	-0.16613792
45	0x3d898642	0.06715061
46	0x3ed0874d	0.40728226
47	0xbf312477	-0.69196266
48	0x3e1d1be6	0.15342674
49	0xbef597c0	-0.4796734
50	0x3e019f80	0.126585
51	0x3ce17d7c	0.027525656
52	0x3e9530e8	0.29138875
53	0xbf041701	-0.515976
54	0x3e79e576	0.24403939
55	0xbe5b824b	-0.21436422
56	0xbdb80810	-0.08985913
57	0x3f134676	0.5752939
58	0x3ea5e8ce	0.32404178
59	0xbde7acc1	-0.11312247
60	0xbd89047e	-0.0669031
61	0x3f1cedd2	0.61300385
62	0x3f0181b9	0.50588566
63	0xbdcb1fb0	-0.09918153
64	0xbe123730	-0.14278865
65	0x3f28e79d	0.65978414
66	0xbdd6b421	-0.104835756
67	0x3c87019c	0.01648026
68	0x3f23ea03	0.6402895
69	0xbe10c276	-0.14136681
70	0x3e120d2b	0.14262836
71	0xbe281581	-0.16414453
72	0xbe281334	-0.16413575
73	0xbe345184	-0.1760922
74	0x3f30430a	0.68852293
75	0xbe37170d	-0.17879887
76	0x3e0e1945	0.13876827
77	0xbd3c198e	-0.04592281
78	0xbe297d09	-0.16551603
79	0x3ec608e6	0.38678664
80	0xbd55734a	-0.0521119
81	0x3b4ae756	0.003096064
82	0xbe8b37da	-0.2719105
83	0x3e570fb9	0.21002091
84	0x3c9bbaa9	0.019009905
85	0x3db648e3	0.08900621
86	0xbe2e0eeb	-0.16997878
87	0x3defb6e5	0.11704806
88	0x3cc9afbb	0.024619928
89	0xbe952d5c	-0.2913617
90	0x3ef4662b	0.47734198
91	0xbe05ab3c	-0.13053602
92	0xbdf40fcf	-0.11917078
93	0x3f6b8cb6	0.9201158
94	0x3ece4c43	0.40292558
95	0x3f2449f7	0.6417536
96	0xbe5bb4f5	-0.21455748
97	0x3f03156d	0.5120457
98	0xbe6b8a82	-0.23002055
99	0xbf1367ee	-0.5758046
100	0xbecff489	-0.40616253
101	0xbee9b27f	-0.45643994
102	0xbdb885bc	-0.09009883
103	0xbf6fdb7d	-0.9369429
104	0x3dc8f127	0.09811621
105	0xbe1d482a	-0.1535956
106	0xbc5b5257	-0.013386331
107	0x3d87a58c	0.066233724
108	0x3df2618e	0.11835013
109	0xbdab38e6	-0.08360462
110	0xbd1245fd	-0.035711277
111	0xbdb91f54	-0.090391785
112	0x3dabfb96	0.083975956
113	0xbe2aa890	-0.16665864
114	0x3e33dbb5	0.1756428
115	0x3e84f583	0.2596856
116	0x3da07dbb	0.07836481
117	0x3d1e48f6	0.0386438
118	0xbddb9b16	-0.1072294
119	0x3db3ff93	0.08788981
120	0x3e283823	0.16427664
121	0x3e96db10	0.29464006
122	0xbe57a846	-0.21060285
123	0xbdbda659	-0.09260244
124	0xbe401b3a	-0.18760386
125	0xbe1a20ef	-0.15051626
126	0xbdb70599	-0.089366145
127	0x3df87b8a	0.12132938
128	0xbdccb8df	-0.09996199
129	0xbe26db61	-0.16294624
130	0x3ec7dd7d	0.3903617
131	0xbdb82896	-0.08992116
132	0xbd449c24	-0.04800047
133	0xbde73fed	-0.1129149
134	0x3f215c6d	0.63031656
135	0xbcc3d5b9	-0.023905622
136	0xbe91e23e	-0.28492922
137	0xbe48a2d3	-0.19593363
138	0xbd4d9a34	-0.050195888
139	0xbe3d70ff	-0.18500136
140	0xbefcf736	-0.49407357
141	0xbde2de5f	-0.1107757
142	0xbe5c5492	-0.21516636
143	0xbe0251fc	-0.12726587
144	0x3cb0b23a	0.02156936
145	0xbcc953d2	-0.024576101
146	0xbe03da31	-0.12876202
147	0xbefa8324	-0.48928177
148	0xbe2458d4	-0.1604951
149	0xbe28c14a	-0.16479984
150	0x3d928bbc	0.071555585
151	0xbef647b5	-0.48101583
152	0xbe9550bb	-0.29163155
153	0xbda26f19	-0.079313464
154	0xbe18cf78	-0.14922893
155	0x3f49f064	0.7888243
156	0x3e99f521	0.3006983
157	0x3f1573b1	0.58379656
158	0x3eedcd49	0.46445683
159	0x3d5ae340	0.05343938
160	0x3f270c22	0.6525289
161	0xbccdc925	-0.025120327
162	0xbf1cc4f8	-0.6123805
163	0x3dff12ef	0.12454783
164	0x3c897841	0.016780974
165	0x3f152a4d	0.5826767
166	0xbed681c9	-0.41895893
167	0x3d8a4c49	0.067528315
168	0xbedfc13e	-0.4370212
169	0x3eed8d54	0.46396887
170	0xbc4a1797	-0.012334726
171	0xbd84aef2	-0.06478681
172	0xbecaec28	-0.39633298
173	0x3f5105e0	0.8164959
174	0x3df73300	0.12070274
175	0x3dbc539d	0.091956355
176	0xbed1f4a0	-0.41006947
177	0x3d3738fa	0.04473207
178	0xbdc5f41e	-0.09665702
179	0x3f303c54	0.68842053
180	0xbd9eb535	-0.07749406
181	0x3dbeb81b	0.09312459
182	0xbd549a2f	-0.051904853
183	0x3f23e137	0.64015526
184	0x3ab15b5c	0.0013531256
185	0xbe6fc4d7	-0.23414932
186	0x3f3b94f3	0.73274153
187	0xbe0089b0	-0.12552524
188	0xbe103927	-0.14084302
189	0x3f10d746	0.5657848
190	0xbdff7d85	-0.12475113
191	0xbdd3f37e	-0.10349177
192	0x3e191dd5	0.14952786
193	0x3f3c7f7a	0.73632014
194	0x3eb51ae3	0.35372075
195	0x3dc6764d	0.09690533
196	0x3f4784e2	0.7793714
197	0x3f2caa73	0.67447585
198	0x3e0d3797	0.13790737
199	0x3d1d782c	0.038444683
200	0x3e024927	0.12723218
201	0x3eeda92b	0.46418127
202	0xbeb78a7e	-0.3584785
203	0x3e95e96e	0.29279655
204	0xbe799afc	-0.24375528
205	0x3e89e33e	0.26931185
206	0x3b9ddf02	0.0048178444
207	0x3e85c641	0.26127818
208	0x3f2e4455	0.68073016
209	0xbd8a9003	-0.06765749
210	0xbd7a632c	-0.061129734
211	0x3e477621	0.19478656
212	0x3f3a84f3	0.72859114
213	0x3de03228	0.109470665
214	0xbe0384d4	-0.12843639
215	0x3cf641d0	0.030060679
216	0xbe83b01b	-0.25720295
217	0xbe330729	-0.174832
218	0x3bb0c965	0.005395102
219	0x3ede8ff8	0.43469214
220	0x3e4392ea	0.19099012
221	0xbe34054b	-0.17580144
222	0x3ef600d2	0.480475
223	0x3ed51cbe	0.4162349
224	0x3d12c5fa	0.035833336
225	0xbdcc48cf	-0.09974825
226	0xbd9c3afc	-0.07628438
227	0xbe04770d	-0.1293604
228	0xbe0d5117	-0.13800465
229	0xbe126af9	-0.1429862
230	0x3f269d02	0.65083325
231	0xbe53b1ce	-0.20673296
232	0xbdb7d37a	-0.08975883
233	0x3ee27951	0.44233182
234	0xbde7a645	-0.1131101
235	0xbe272dd9	-0.16326083
236	0xbe227550	-0.15865064
237	0xbebc1a21	-0.36738685
238	0x3f68a9b6	0.9088396
239	0x3f187380	0.5955124
240	0x3f6804db	0.9063241
241	0xbf21fd57	-0.6327719
242	0x3f1045cc	0.563565
243	0xbdd08d1e	-0.10183166
244	0xbe2fc87d	-0.17166324
245	0xbf2a72ea	-0.66581595
246	0xbdb834b3	-0.089944266
247	0x3d0f1d7f	0.03494024
248	0xbf65f010	-0.8981943
249	0xbcdee0f4	-0.027206875
250	0x3e91301b	0.28357014
251	0x3f472e93	0.7780544
252	0xbd63e91d	-0.055642236
253	0xbe64557c	-0.22298235
254	0x3d8648ac	0.0655683
255	0xbd9cfc61	-0.07665325

conv1.bias f4 [16]
0	0xbedfe678	-0.4373052
1	0xbe843e5e	-0.25828832
2	0xbe4e72a4	-0.2016092
3	0xbf228a4b	-0.6349227
4	0xbe78e725	-0.24306925
5	0xbdeb4afc	-0.114889115
6	0xbe9a76d2	-0.30168778
7	0xbd08355c	-0.033254012
8	0xbd35a3d8	-0.044345707
9	0xbebeb4e8	-0.37247396
10	0xbf732fdf	-0.9499492
11	0xbf000525	-0.5000785
12	0xbf08b46d	-0.5340031
13	0xbdf82799	-0.12116928
14	0xbe974416	-0.29544133
15	0xbf5ef6af	-0.8709516

conv2.weight f4 [32, 16, 3, 3]
0	0x3ea731a0	0.32655048
1	0xbe24e78f	-0.16103958
2	0x3eca81fa	0.3955229
3	0x3ecfdbc5	0.40597358
4	0xbdbdc733	-0.0926651
5	0x3ed579d3	0.41694507
6	0xbdd0cabc	-0.101949185
7	0x3c4e86d9	0.012605392
8	0x3e16b27c	0.14716524
9	0x3e2d875b	0.16946165
10	0xbf1c58ba	-0.61072886
11	0x3d3e127b	0.046404343
12	0xbe17c2de	-0.1482043
13	0x3dbcd4db	0.092202865
14	0xbe98869f	-0.29790208
15	0x3f248e1c	0.6427934
16	0xbda5a29d	-0.08087657
17	0x3f33a751	0.7017718
18	0x3f11ec4b	0.5700118
19	0xbe2f5085	-0.1712056
20	0x3e8254c5	0.254553
21	0x3e5994a5	0.2124811
22	0xbe8e990c	-0.2785114
23	0x3c995aa8	0.018719986
24	0x3e56ad29	0.20964493
25	0xbefce00e	-0.4938969
26	0x3e77f164	0.24213177
27	0xbdbad9a6	-0.091235444
28	0x3e5f3f38	0.2180146
29	0x3cfec9ef	0.031102149
30	0x3d848d53	0.06472268
31	0xbc6fd390	-0.014637843
32	0x3d9ad108	0.07559401
33	0x3e00a102	0.1256142
34	0x3dae36df	0.085065596
35	0x3dd4d968	0.103930295
36	0x3df09480	0.11747074
37	0xbe821fd1	-0.254149
38	0x3e9fac3c	0.31186092
39	0x3e24e17a	0.16101637
40	0xbdeefaa1	-0.116688974
41	0xbe47eb12	-0.19523266
42	0xbe0ed031	-0.13946606
43	0xbd1d7ccb	-0.03844909
44	0x3a8a2ab7	0.0010541294
45	0xbea3c5c1	-0.31986812
46	0x3e0d2db7	0.1378697
47	0xbf342279	-0.703651
48	0xbf3c3903	-0.7352449
49	0xbe297103	-0.16547017
50	0xbe564f03	-0.20928578
51	0x3b8f5f33	0.0043753623
52	0x3de890ac	0.11355719
53	0xbf06a016	-0.5258802
54	0xbd574b5e	-0.05256211
55	0x38bf2ccc	9.115934e-05
56	0x3dd4111c	0.10354826
57	0xbdbbec3d	-0.09175918
58	0xbbbdde99	-0.005794358
59	0xbd11f627	-0.03563514
60	0xbd376b36	-0.04477998
61	0x3d902794	0.07038799
62	0xb983457d	-0.0002503804
63	0xbc9ba7e0	-0.019000947
64	0xbd91dd43	-0.071222804
65	0xbdb5bc58	-0.08873814
66	0x3e29888a	0.16555992
67	0xbd2b032a	-0.041751064
68	0xbc9aa8bb	-0.018879285
69	0x3e2d920a	0.1695024
70	0xbe925931	-0.28583673
71	0x3df8e484	0.12152961
72	0xbdf04144	-0.117311984
73	0x3e3306b5	0.17483027
74	0xbeaeb6dc	-0.34123886
75	0xbcb44ae9	-0.022008376
76	0x3d5652b1	0.052324954
77	0x3e764e9c	0.24053425
78	0x3e098729	0.13430466
79	0xbc5adcdd	-0.013358322
80	0x3e99bc92	0.3002668
81	0x3db6b3a8	0.089209855
82	0xbdcddaa8	-0.10051471
83	0xbe0598dc	-0.13046592
84	0xbe0a11e4	-0.13483387
85	0x3ec921bd	0.39283553
86	0xbec6a212	-0.38795525
87	0x3d6c20aa	0.05764834
88	0x3dcdad99	0.10042877
89	0xbdcac3a1	-0.099005945
90	0x3ec21008	0.37902856
91	0xbe36575e	-0.17806765
92	0x3dd0a48a	0.10187633
93	0x3e9fdd62	0.3122359
94	0xbe1421ae	-0.14465973
95	0x3d5c4b8c	0.053782985
96	0x3f211eec	0.6293781
97	0xbde43b4c	-0.111441225
98	0x3f1b5a35	0.6068452
99	0x3e42c751	0.19021346
100	0xbd5d8790	-0.05408436
101	0x3d5b4181	0.053529266
102	0x3de4b7a0	0.11167836
103	0x3ded17fe	0.11576842
104	0xbcb544a7	-0.022127463
105	0x3e14594a	0.14487186
106	0xbe3ab553	-0.18233232
107	0x3dc1c21b	0.09460851
108	0xbe262cd9	-0.16228046
109	0x3e1b7bc1	0.15183927
110	0xbe03f46c	-0.12886208
111	0x3cd855aa	0.026408035
112	0x3d6b15dd	0.057393897
113	0x3c0b4a86	0.0085016545
114	0xbcc6071c	-0.024173312
115	0x3e5137fe	0.20431516
116	0xbe1566fe	-0.1459007
117	0xbdde2f28	-0.10848838
118	0xbe2a7e47	-0.16649733
119	0xbf02136e	-0.508109
120	0x3dbf4113	0.09338584
121	0xbd0603de	-0.03271853
122	0x3eb7ee61	0.35924056
123	0x3f2035c9	0.6258207
124	0xbd72bf5b	-0.059264522
125	0x3f0243cd	0.50884706
126	0xbdd84e12	-0.10561766
127	0xbdbfaa80	-0.09358692
128	0xbe096518	-0.1341747
129	0xbe32a5ef	-0.17446111
130	0x3e2bad99	0.16765441
131	0xbe8eb766	-0.27874297
132	0xbe031bf5	-0.12803634
133	0x3e728ee3	0.2368732
134	0xbe89b175	-0.268932
135	0x3ec4be8f	0.38426635
136	0xbf06dfcb	-0.5268523
137	0x3ebd3605	0.36955276
138	0x3eed4279	0.46339777
139	0xbe551c5a	-0.20811597
140	0x3f0316f3	0.5120689
141	0x3e51c779	0.20486249
142	0xbd9850be	-0.07437275
143	0x3de418c4	0.11137536
144	0x3e862043	0.2619649
145	0xbd8b6bde	-0.068076834
146	0x3e2f17bc	0.17098898
147	0x3e4c9731	0.1997955
148	0xbe281178	-0.16412914
149	0x3e7b0064	0.24511868
150	0xbc8090d7	-0.015694065
151	0x3c6ae9ca	0.014337966
152	0x3d8481c4	0.06470063
153	0x3eb6a1d9	0.35670355
154	0xbd469a7a	-0.048487164
155	0x3e92344d	0.28555527
156	0xbe4789a1	-0.19486095
157	0xbce4c8a7	-0.02792771
158	0x3db0c942	0.08632137
159	0x3e2a07ec	0.16604584
160	0xbe1193d4	-0.14216548
161	0x3eac9211	0.3370519
162	0x3dee7d8e	0.116450414
163	0xbe00dc1e	-0.12583968
164	0x3dbdcc52	0.09267487
165	0x3ec7a19e	0.38990492
166	0x3c01d5c6	0.007924503
167	0x3f002918	0.50062704
168	0x3d81088e	0.0630046
169	0xbde4f39c	-0.11179277
170	0x3e770b5c	0.24125427
171	0xbc8122fa	-0.015763748
172	0x3d84e2b6	0.06488554
173	0xbe214b1f	-0.15751313
174	0xbd7a3402	-0.061084755
175	0xbd2fbb9c	-0.042903528
176	0x3dfbebdc	0.12300846
177	0x3cc0ff1e	0.02355915
178	0x3d599cbb	0.053127985
179	0x3d690b51	0.056895558
180	0x3e56bf89	0.20971502
181	0xbe48d161	-0.19611122
182	0xbc734ce4	-0.014849875
183	0x3e191f30	0.14953303
184	0xbd14aa21	-0.03629506
185	0x3e6389bd	0.22220512
186	0xbd85fec1	-0.06542731
187	0xbd9d07f2	-0.07667531
188	0x3d78a1ad	0.06070106
189	0x3e8cf8a0	0.27533436
190	0x3e482761	0.19546272
191	0x3da390c1	0.07986594
192	0x3debd52a	0.11515267
193	0x3e19ae21	0.15007831
194	0x3c7869e3	0.015161964
195	0x3e069fbe	0.13146874
196	0x3e68bf4c	0.22729224
197	0x3c4272cd	0.011868191
198	0x3cca35ad	0.024683798
199	0xbba3d943	-0.005000265
200	0x3ddb1e9d	0.106991984
201	0x3c37a4cd	0.011208725
202	0xbc8b5d7f	-0.017012356
203	0x3c2780ce	0.0102235805
204	0xbd866137	-0.06561511
205	0x3d2596eb	0.04042713
206	0xbd456767	-0.048194315
207	0x3e664c3e	0.22490022
208	0xbe49003a	-0.19628993
209	0x3eaeb6f3	0.34123954
210	0x3e82fcef	0.25583598
211	0x3d43068a	0.047613658
212	0x3bb06702	0.0053833732
213	0x3e89f4c2	0.26944548
214	0xbd439bf9	-0.04775617
215	0x3da21390	0.079138875
216	0xbe053717	-0.13009296
217	0x3e3488d9	0.17630328
218	0xbdac586c	-0.08415303
219	0xbd7189bf	-0.058969256
220	0x3db9190d	0.09037981
221	0xbd9de43b	-0.07709547
222	0x3e03b853	0.12863283
223	0x3d8cf774	0.068831354
224	0x3d323b60	0.043513656
225	0x3e1aa4b1	0.15101887
226	0x3e365f8b	0.17809884
227	0x3d585192	0.052812167
228	0xbe02c472	-0.1277025
229	0x3e24d723	0.16097693
230	0xbe010cf8	-0.12602603
231	0xbcfbdcf5	-0.030745009
232	0x3e278cd0	0.1636231
233	0xbd839353	-0.06424584
234	0x3e5dc791	0.2165816
235	0xbd6f5beb	-0.05843727
236	0xbd29cb4c	-0.041453645
237	0x3e21c5da	0.1579813
238	0xbd276e87	-0.04087689
239	0xbd72da8d	-0.059290458
240	0x3e8cb529	0.27481964
241	0xbd050c70	-0.032482564
242	0x3ee1715b	0.44031796
243	0x3e2e61f6	0.17029557
244	0x3d946457	0.07245701
245	0x3e8356ea	0.25652248
246	0xbb444ddb	-0.0029953632
247	0x3cbd032e	0.023072805
248	0x3d76aa00	0.06022072
249	0x3e310dae	0.17290375
250	0xbe00170f	-0.12508796
251	0x3e210774	0.157255
252	0x3c755c64	0.014975641
253	0x3e1bdb1e	0.15220305
254	0xbe36e855	-0.17862065
255	0xbdda78c6	-0.10667567

conv2.bias f4 [32]
0	0x3f12a3c6	0.5728115
1	0xbc7434f7	-0.014905206
2	0xbcf56689	-0.02995612
3	0xbe582ecf	-0.21111606
4	0xbbfe08ff	-0.0077525373
5	0xbabd806c	-0.0014457828
6	0xbd9bf1f1	-0.07614506
7	0xbdde71b4	-0.10861531
8	0xbec1f0bc	-0.37878978
9	0x3e4283b4	0.18995553
10	0x3e859031	0.26086572
11	0xbd831a56	-0.064015076
12	0xbc63dce2	-0.013907643
13	0x3e47c325	0.19508035
14	0xbda5c34c	-0.080938905
15	0xbdfc03af	-0.1230539
16	0xbd536b83	-0.051616203
17	0x3e83093e	0.2559299
18	0x3e4fc48d	0.20289822
19	0xbdb303e4	-0.087409765
20	0xbd580a24	-0.052744046
21	0xbd0f854f	-0.035039242
22	0xbdbb83c5	-0.091559924
23	0xbe344aa8	-0.17606604
24	0x3e5661b2	0.20935705
25	0xbe6b2b93	-0.22965841
26	0xbe0f2d2c	-0.13982075
27	0x3d72b027	0.059250023
28	0xbd9d17fd	-0.07670591
29	0xbdeafc58	-0.11473912
30	0xbdfcc474	-0.12342158
31	0xbe0494bb	-0.12947361

fc1.weight f4 [256, 32]
0	0x3c5db543	0.013531986
1	0x3d900daa	0.07033856
2	0xbe2806a9	-0.1640879
3	0xbc8ed5d9	-0.017435955
4	0x3ce2df82	0.027694467
5	0x3cfcec7a	0.03087448
6	0x3d812737	0.06306308
7	0xbdac2d13	-0.08407035
8	0x3d4eb3a6	0.050464295
9	0xbe491377	-0.19636331
10	0xbd273282	-0.040819652
11	0x3de4a8d4	0.11165014
12	0x3db41060	0.08792186
13	0xbe18cb5e	-0.14921328
14	0xbdbb5bf2	-0.091483966
15	0x3dcfef36	0.10153048
16	0xbda8152d	-0.08207164
17	0x3e1aefa7	0.15130483
18	0x3d42cc36	0.047558032
19	0xbd8c6d46	-0.0685678
20	0xbd6b9540	-0.057515383
21	0xbcc9d408	-0.024637237
22	0x3ddf4c6e	0.1090325
23	0xbd4ce733	-0.050025176
24	0xbdf2e657	-0.1186034
25	0xbb9085fc	-0.0044105034
26	0x3d928483	0.07154181
27	0xbd837e45	-0.064205684
28	0xbe218059	-0.15771617
29	0xbcb429e0	-0.021992624
30	0xbe021790	-0.12704301
31	0x3c9e62a9	0.019334154
32	0x3db7ae2f	0.0896877
33	0xbe48f228	-0.19623625
34	0xbe227367	-0.15864335
35	0xbda1c073	-0.07898035
36	0x3d4f03e7	0.05054083
37	0x3d986fa8	0.07443172
38	0xbdf5c2d6	-0.12000053
39	0xbdf46e10	-0.11935055
40	0xbdaac0d4	-0.0833756
41	0x3df4bc3e	0.11949967
42	0xbe221407	-0.15827952
43	0x3d7efe6d	0.062254358
44	0xbdff456e	-0.124644145
45	0x3da0624f	0.07831251
46	0x3d9a35f3	0.07529821
47	0x3de32bb1	0.11092318
48	0xbcc6619a	-0.024216462
49	0x3da540f4	0.080690295
50	0xbe00b71d	-0.12569852
51	0xbd772d61	-0.06034601
52	0xbdd128e1	-0.10212875
53	0x3d7fa3c0	0.062412024
54	0xbde108fc	-0.10988042
55	0xbdc5c4a7	-0.09656649
56	0xbd953a68	-0.07286531
57	0x3d9146be	0.07093571
58	0x3d930808	0.07179266
59	0x3d6ac6ca	0.057318486
60	0x3ddaa1ba	0.10675378
61	0x3d9f3d16	0.07775323
62	0x3cd0eb9a	0.025502969
63	0xbda66b8d	-0.081259824
64	0xbe16341e	-0.14668319
65	0xbdf7ceef	-0.12100016
66	0xbe8ecc9e	-0.27890486
67	0x3d9803a7	0.07422572
68	0x3dd1a857	0.102371864
69	0xbd8ab063	-0.06771924
70	0xbe192fb6	-0.14959607
71	0x3dbea910	0.0930959
72	0x3dbf9f22	0.09356524
73	0x3e517a4a	0.20456806
74	0x3e66131d	0.22468229
75	0xbbfb5f67	-0.007671285
76	0xbe0a822a	-0.13526216
77	0xbea744ae	-0.32669586
78	0xbe849083	-0.25891504
79	0xbd92d19e	-0.071688876
80	0xbe6a9d8d	-0.22911663
81	0x3c955f03	0.018233782
82	0x3e04e904	0.12979513
83	0x3e3013c2	0.17195037
84	0x3e3e246d	0.18568583
85	0x3d387b2a	0.045039333
86	0xbda00cfc	-0.078149766
87	0x3cc73133	0.024315452
88	0xbd83263c	-0.06403777
89	0x3cf04184	0.029328115
90	0x3c1285c7	0.008943028
91	0x3e3d3dc7	0.18480597
92	0x3c9cd2ae	0.019143429
93	0xbe9337f6	-0.28753632
94	0xbe43f7b3	-0.19137459
95	0x3b1d96a0	0.0024046078
96	0xbe122898	-0.14273298
97	0xbe169a6a	-0.14707342
98	0xbba3a7f7	-0.004994388
99	0xbe2afd93	-0.16698293
100	0x3e1a481a	0.15066567
101	0xbe137879	-0.14401425
102	0x3d079adb	0.033106666
103	0xbe2e8488	-0.17042744
104	0xbe19e2ef	-0.15027975
105	0x3d8a4d97	0.0675308
106	0x3d7b4675	0.06134649
107	0xbdb908d9	-0.09034891
108	0x3dcd8d99	0.10036773
109	0xbe173afc	-0.14768595
110	0xbe171a97	-0.14756237
111	0xbdfb00a0	-0.122559786
112	0xbd314832	-0.04328174
113	0x3d6f538a	0.05842928
114	0xbb5bf677	-0.0033563653
115	0x3dc96f4e	0.09835683
116	0x3da75276	0.08170025
117	0xbd843d92	-0.06457056
118	0xbd4a7cb3	-0.04943533
119	0xbdccc8c1	-0.09999228
120	0xbd31b7fa	-0.043388344
121	0xbe3cd9a9	-0.18442406
122	0xbe20d16b	-0.15704887
123	0xbc183183	-0.009289148
124	0xbd824044	-0.06359914
125	0x3dc4b4a6	0.096047685
126	0xbdd1569b	-0.10221597
127	0x3cd77560	0.026301086
128	0x3c7d3ac5	0.015455906
129	0xbd7f6fa6	-0.062362336
130	0x3e094228	0.13404143
131	0xbde815e1	-0.11332298
132	0xbe19651c	-0.14979976
133	0xbe57e64d	-0.21083947
134	0xbe228310	-0.15870309
135	0x3db5c637	0.08875697
136	0xbcb3cec3	-0.021949178
137	0xbc781056	-0.015140614
138	0x3dc1fa6a	0.09471591
139	0x3cb304ef	0.021852938
140	0x3dd7dab6	0.10539763
141	0xbc3fa403	-0.011696818
142	0xbe38e90f	-0.18057655
143	0x3973eeed	0.00023263293
144	0xbe485be1	-0.19566299
145	0xbbbb160b	-0.005709415
146	0xbe34916c	-0.17633599
147	0x3d99439f	0.07483601
148	0xbe1b74b2	-0.15181234
149	0x3dd92029	0.10601837
150	0xbe30ca1f	-0.17264603
151	0xbcfac101	-0.03060961
152	0xbdef20db	-0.116761886
153	0xbdc2f8d9	-0.0952012
154	0x3d9c09f7	0.07619088
155	0x3df45b17	0.119314365
156	0x3df6f45c	0.120583266
157	0xbca3e71c	-0.020007662
158	0xbe46deb9	-0.194209
159	0xbc3877ce	-0.011259032
160	0xbe35de68	-0.17760623
161	0x3dd6e1f9	0.104923196
162	0xbde6d3d4	-0.11270872
163	0xbd127c6c	-0.03576319
164	0xbd332031	-0.043731872
165	0xbd649099	-0.05580196
166	0x3d982e0b	0.07430657
167	0xbb81c42d	-0.0039601536
168	0xbd8618ec	-0.06547722
169	0xbc0fce8d	-0.008777273
170	0x3e44f44b	0.19233815
171	0xbe194f7f	-0.14971732
172	0xbdfb5ab1	-0.122731574
173	0x3e0889e4	0.13333851
174	0x3dbf936e	0.09354292
175	0xbcc9bc66	-0.024625968
176	0xbdf5b0b7	-0.11996596
177	0xbd727461	-0.05919302
178	0xb9365fb7	-0.00017392529
179	0x3d9ca3cc	0.07648429
180	0x3dce0b36	0.10060732
181	0xbe4dc6b2	-0.20095327
182	0x3db77d22	0.08959414
183	0xbc97df77	-0.018539174
184	0x3d216558	0.03940329
185	0xbb99101b	-0.0046711094
186	0x3d692fe8	0.056930453
187	0xbe1f99f5	-0.15586074
188	0x3c887b23	0.016660279
189	0xbd3686f9	-0.044562314
190	0x3cbc0614	0.022952117
191	0xbde70fe8	-0.11282331
192	0xbc8ea36e	-0.017411914
193	0xbe115a54	-0.14194614
194	0xbe07b726	-0.1325346
195	0x3dd484b7	0.10376876
196	0xbe278c74	-0.16362172
197	0x3d441de2	0.04788006
198	0x3db1d368	0.08682901
199	0xbd6496eb	-0.05580799
200	0xbcc25b7f	-0.02372527
201	0x3d7b97b0	0.061423957
202	0x3c9aa147	0.018875731
203	0xbe55ecd4	-0.20891124
204	0x3c57816b	0.013153414
205	0x3c6fe2c6	0.014641469
206	0xbdf3f5dc	-0.11912128
207	0x3cfb183d	0.030651206
208	0xbcace774	-0.02110646
209	0x3d91f09e	0.07125972
210	0xbd8b6a15	-0.06807343
211	0xbe0c0797	-0.1367477
212	0x3c677426	0.014126813
213	0xbdd7d6ea	-0.105390385
214	0x3deb3177	0.11484044
215	0xbd394af8	-0.04523751
216	0xbe324a72	-0.17411211
217	0x3da1cc36	0.07900278
218	0x3df9b0e6	0.12191944
219	0x3e0b47e4	0.13601643
220	0x3d9308f5	0.07179443
221	0xbd9b9d89	-0.07598407
222	0xbd9cfea5	-0.07665757
223	0xbe405ad2	-0.18784645
224	0x3dbad1c2	0.091220394
225	0x3d3a39da	0.045465328
226	0xbda5b4cf	-0.08091127
227	0xbe8f90d6	-0.2804019
228	0x3e3f9923	0.18710761
229	0xbc67007f	-0.014099239
230	0x3de4057c	0.111338586
231	0x3e15698e	0.14591047
232	0xbe37da86	-0.17954454
233	0x3c162a62	0.009165378
234	0xbcda3699	-0.026637362
235	0xbd87d17b	-0.06631752
236	0xbd5bbb54	-0.053645447
237	0x3e908f91	0.28234532
238	0xbdd94ad8	-0.106099784
239	0x3d21829f	0.03943121
240	0xbd191c5f	-0.037380572
241	0xbded92b0	-0.11600244
242	0x3c634190	0.013870612
243	0xbd883dae	-0.066523895
244	0x3d4b7f6f	0.049682077
245	0xbe4888b5	-0.195834
246	0x3c5401f0	0.012939915
247	0xbde1ee31	-0.110317595
248	0x3dd32648	0.10310036
249	0xbd405174	-0.04695268
250	0xbe54bd72	-0.20775393
251	0x3da1ab69	0.07894022
252	0xbde86c6f	-0.11348807
253	0xbdf792ce	-0.12088548
254	0x3dc5f689	0.096661635
255	0x3d9bac69	0.07601244

fc1.bias f4 [256]
0	0xbdf4e687	-0.11958032
1	0xbe2ae274	-0.16687948
2	0xbdafa67e	-0.08576678
3	0xbd0f2dd2	-0.034955807
4	0xbe2b89c1	-0.16751768
5	0xbe270bae	-0.16313049
6	0xbe1f5125	-0.15558298
7	0xbcda121c	-0.026619963
8	0xbe2f2e53	-0.17107515
9	0x3c722eef	0.014781698
10	0x3cf02522	0.029314581
11	0xbe44ab55	-0.19205983
12	0xbe7c2afc	-0.24625772
13	0xbd75418a	-0.059876956
14	0xbe23fd16	-0.16014513
15	0xbe138075	-0.14404471
16	0xbe2c293e	-0.16812608
17	0xbe3e6069	-0.18591465
18	0xbe1d6f69	-0.15374531
19	0xbdc1a53b	-0.09455343
20	0xbe1c1f72	-0.1524637
21	0xbe07bfe0	-0.13256788
22	0xbe585650	-0.21126676
23	0xbc121f89	-0.008918651
24	0xbe92637d	-0.2859153
25	0xbe5673b4	-0.20942575
26	0xbe10d73f	-0.1414461
27	0xbde7df84	-0.11321929
28	0x3d02d388	0.031940013
29	0xbde9ccd8	-0.11416024
30	0xbe85b36e	-0.26113456
31	0xbd91e8d0	-0.071244836
32	0xbe1121c6	-0.1417304
33	0xbe19d62d	-0.15023108
34	0xbe2b9268	-0.16755068
35	0xbe1aec49	-0.15129198
36	0x3a5a41d0	0.0008325847
37	0xbe60e8c6	-0.21963796
38	0x3d212950	0.03934604
39	0xbe593580	-0.21211815
40	0xbe5cecf5	-0.21574767
41	0xbe17e938	-0.1483506
42	0xbdf07390	-0.11740792
43	0xbd3041ee	-0.043031625
44	0xbe1afb27	-0.1513487
45	0xbd44f388	-0.048083812
46	0x3dde6778	0.10859579
47	0xbe357154	-0.17719012
48	0x3cea9aa0	0.028638184
49	0xbe9a7ad6	-0.3017184
50	0xbd5a8442	-0.053348787
51	0xbda437a3	-0.08018424
52	0xbe15378c	-0.1457197
53	0xbe1b7560	-0.15181494
54	0xbe276943	-0.16348748
55	0xbe1ed5de	-0.15511271
56	0xbdb262a1	-0.08710218
57	0xbe00f270	-0.12592483
58	0xbd3a26bd	-0.0454471
59	0xbe1d42bd	-0.1535749
60	0xbe2187fd	-0.15774532
61	0xbdfe0f79	-0.12405295
62	0xbe742c46	-0.23845014
63	0xbe012e17	-0.12615238
64	0xbe0397f0	-0.12850928
65	0xbd5b4761	-0.05353487
66	0xbe60287d	-0.21890445
67	0xbe99fa30	-0.3007369
68	0xbe15199f	-0.14560555
69	0xbde68068	-0.1125496
70	0xbd8e139f	-0.06937336
71	0xbc06c964	-0.008226726
72	0xbc8cf052	-0.017204437
73	0xbd809e01	-0.06280137
74	0x3d5c0541	0.053715948
75	0xbcae23c0	-0.021257281
76	0xbdfc268a	-0.12312038
77	0xbd83531e	-0.06412338
78	0xbdb9498d	-0.09047232
79	0xbe4d0172	-0.20020083
80	0xbd80d69a	-0.06290932
81	0xbe5a002a	-0.21289125
82	0xbe55479a	-0.20828095
83	0xbdf23fdf	-0.11828589
84	0xbe34367f	-0.17598914
85	0xbe120f45	-0.14263637
86	0xbe995b4e	-0.29952472
87	0xbdca51a5	-0.09878854
88	0xbe59aef5	-0.21258147
89	0x3d17da06	0.037073158
90	0xbd0a9d46	-0.033841394
91	0xbe817814	-0.25286925
92	0xbdb9087b	-0.09034821
93	0xbe88c5c0	-0.2671337
94	0xbe7ab6b1	-0.24483754
95	0xbe1d5eca	-0.1536819
96	0xbe4198fb	-0.18906014
97	0xbe1bf187	-0.15228854
98	0xbe00509d	-0.12530752
99	0xbde464f9	-0.111520715
100	0xbdcb2c59	-0.09920568
101	0xbd61d2a9	-0.05513254
102	0xbe079931	-0.13242032
103	0xbdc4bdb0	-0.096064925
104	0xbe5760d9	-0.21033038
105	0xbe25c3de	-0.16187999
106	0xbe933be1	-0.2875662
107	0x3e3f3b48	0.18674958
108	0xbe3795aa	-0.17928186
109	0xbe2029d8	-0.15640962
110	0xbddd9b2f	-0.108206145
111	0xbe1939df	-0.14963482
112	0xbe19b7a0	-0.15011454
113	0x3d632b4f	0.055461224
114	0xbd982aa7	-0.0743001
115	0xbd9af8b5	-0.07566968
116	0xbd650f88	-0.055923015
117	0xbe229226	-0.15876064
118	0xbdee0fc4	-0.11624101
119	0xbe009fb6	-0.12560925
120	0xbe3ac110	-0.1823771
121	0xbdcab656	-0.09898059
122	0xbdbacd7d	-0.09121225
123	0xbe023adc	-0.12717766
124	0xbdca34a8	-0.09873325
125	0xbe325f6e	-0.17419216
126	0xbe0e0c4a	-0.13871875
127	0xbdf18116	-0.11792199
128	0xbde8674d	-0.11347828
129	0xbe60bb58	-0.21946466
130	0xbdff5616	-0.124675915
131	0xbdca6282	-0.0988207
132	0xbe47fa42	-0.1952906
133	0xbe15ce23	-0.14629416
134	0xbdc2ea31	-0.09517325
135	0xbdf2d1da	-0.11856432
136	0xbe0092aa	-0.12555948
137	0xbe44a84c	-0.19204825
138	0xbe828df2	-0.2549892
139	0xbe3f53dc	-0.18684334
140	0xbe28e69a	-0.16494218
141	0x3dac6c13	0.08419051
142	0xbdd95e5b	-0.106137
143	0xbe474792	-0.19460896
144	0xbe3082d2	-0.17237404
145	0xbdc10bad	-0.09426055
146	0xbe57d710	-0.21078134
147	0xbe8611e0	-0.26185513
148	0xbd0a9254	-0.033830956
149	0xbe11a8be	-0.14224526
150	0xbe012564	-0.1261192
151	0x3b82ff69	0.0039977324
152	0xbe4ca1ca	-0.19983593
153	0xbe45ee55	-0.19329198
154	0xbdf5a0c0	-0.11993551
155	0xbe3ff391	-0.18745257
156	0xbe805156	-0.25062054
157	0xbd955ff4	-0.07293692
158	0xbe25b5b3	-0.16182594
159	0xbe2a0a44	-0.16605479
160	0xbe0206d7	-0.12697922
161	0xbda6012e	-0.08105694
162	0xbd8fd066	-0.07022171
163	0xbdcdaaf1	-0.1004237
164	0xbd3c65f0	-0.045995653
165	0xbe51e5e0	-0.20497847
166	0xbd155545	-0.036458272
167	0xbe004f51	-0.12530257
168	0xbe2ea48e	-0.1705496
169	0xbe1c479d	-0.15261693
170	0xbe224fcc	-0.15850753
171	0xbe0d6517	-0.13808094
172	0x3c479f33	0.012183952
173	0xbe5046e1	-0.20339538
174	0xbe555512	-0.20833233
175	0xbe645d49	-0.2230121
176	0xbd7a2a3f	-0.061075445
177	0xbdff308d	-0.12460432
178	0xbe227048	-0.15863144
179	0xbddf1011	-0.10891736
180	0xbe212800	-0.15737915
181	0x3d1375cd	0.036001015
182	0xbe2d3edd	-0.16918512
183	0xbe4f6279	-0.20252408
184	0xbe42aad3	-0.19010477
185	0xbdb4cfd3	-0.08828702
186	0xbe0b2d18	-0.1359142
187	0xbe36cc40	-0.17851353
188	0xbd37f532	-0.04491157
189	0xbe5ed488	-0.21760762
190	0xbe7cab48	-0.24674714
191	0xbbafdc8b	-0.005366867
192	0xbc3b1200	-0.011417866
193	0xbe0e6711	-0.13906504
194	0xbe747294	-0.23871833
195	0xbd469404	-0.048481002
196	0xbd1cd3fa	-0.038288094
197	0xbe26315e	-0.1622977
198	0xbdb72104	-0.08941844
199	0xbe64bae5	-0.2233692
200	0xbe06b2f8	-0.13154209
201	0xbe2b0178	-0.16699779
202	0xbd8833c7	-0.06650501
203	0xbe3449f3	-0.17606334
204	0xbd644576	-0.055730306
205	0xbd911773	-0.07084551
206	0xbe42a3ac	-0.19007748
207	0xbd64223f	-0.055696722
208	0xbdfd8846	-0.12379508
209	0x3e48a61c	0.19594616
210	0xbe133df0	-0.14379096
211	0xbe111536	-0.14168248
212	0xbe0349e7	-0.1282116
213	0xbeb9f1f9	-0.36317423
214	0xbdc209e7	-0.09474545
215	0xbe20763a	-0.156701
216	0xbe08bc9c	-0.13353199
217	0xbe20c45c	-0.15699905
218	0xbe4b0296	-0.19825205
219	0xbdcc01e8	-0.09961301
220	0x3ac8395f	0.0015275887
221	0xbd4562a5	-0.048189778
222	0xbdff6f4d	-0.12472401
223	0xbd7b760c	-0.061391875
224	0xbe0273df	-0.12739514
225	0xbe1d452c	-0.15358418
226	0x3c02accb	0.007975767
227	0xbe0ef407	-0.13960277
228	0xbe010d70	-0.12602782
229	0xbe051d78	-0.12999523
230	0xbe4a3cbf	-0.19749735
231	0xbd8dc728	-0.06922752
232	0xbe3f6cd9	-0.18693866
233	0xbe53d576	-0.20686898
234	0xbe4ec410	-0.2019198
235	0xbe17b10a	-0.14813629
236	0xbe118c3d	-0.14213653
237	0xbdd4104c	-0.10354671
238	0xbdb76ae3	-0.08955934
239	0xbe25199c	-0.1612305
240	0xbe247ca2	-0.16063169
241	0xbdee9f0d	-0.1165143
242	0xbe28f16f	-0.1649835
243	0xbe3e55a2	-0.18587354
244	0xbdca7fdd	-0.09887669
245	0xbe2677db	-0.16256659
246	0xbdfc7b10	-0.1232816
247	0xbe2afcd0	-0.16698003
248	0xbe31f2f6	-0.17377838
249	0xbe25425f	-0.161386
250	0xbe30fd06	-0.17284021
251	0xbe3e7cf2	-0.1860235
252	0xbe26621a	-0.1624836
253	0xbe622679	-0.22084989
254	0xbe1f2c75	-0.15544303
255	0xbe0a6b87	-0.13517581

fc2.weight f4 [5, 256]
0	0x3d2c89e6	0.042123698
1	0xbd6452ca	-0.055743016
2	0x3d694f6c	0.05696051
3	0x3ab62000	0.0013895035
4	0xbd1e1dca	-0.038602628
5	0x3d0f3280	0.03496027
6	0x3d4b050c	0.04956536
7	0x3cdace64	0.026709743
8	0x3c348b80	0.0110195875
9	0x3d201bd8	0.039089054
10	0xbc153b50	-0.0091083795
11	0x3bcfd7f0	0.0063428804
12	0x3cffb3f4	0.031213738
13	0x3c415000	0.011798859
14	0xbd2d3a64	-0.042292014
15	0x3bf749e0	0.0075466484
16	0x3b815d30	0.0039478764
17	0x3c564b48	0.013079472
18	0xbd7e4542	-0.06207777
19	0x3d61670c	0.055029914
20	0xbd3ac8e0	-0.045601726
21	0x3d3dc4d6	0.046330296
22	0xbd6345ec	-0.055486605
23	0xbd50d442	-0.050983675
24	0xbccbf0b4	-0.02489505
25	0xbba7cff0	-0.0051212236
26	0x3c9065f4	0.01762674
27	0xbcba94c4	-0.022776015
28	0x3d49130e	0.049090438
29	0xbd21a41c	-0.039463148
30	0xbcfec6f8	-0.031100735
31	0x3d4a96b4	0.049460128
32	0xbd0fd806	-0.035118125
33	0x3d06600c	0.03280644
34	0xbccb3230	-0.024804205
35	0x3d565eec	0.05233662
36	0xbd6501c6	-0.055909894
37	0xbcd843d8	-0.026399538
38	0x3d7d6dca	0.06187228
39	0xbd0c7e6a	-0.034300245
40	0x3c1d9168	0.009617187
41	0x3c6636b0	0.014051124
42	0x3d2c73b0	0.042102516
43	0xbd5528a4	-0.05204071
44	0xbb56d800	-0.0032782555
45	0x3bc9def0	0.0061606094
46	0x3d50bc7c	0.050961003
47	0xbd3b2c1e	-0.04569637
48	0x3d4e984e	0.050438218
49	0xbd383886	-0.04497578
50	0xbd072fb8	-0.033004493
51	0xbae8c600	-0.0017759204
52	0xbbd3be50	-0.006461896
53	0x3c9043a4	0.017610379
54	0xbd7b7b24	-0.061396733
55	0xbc5c9658	-0.013463579
56	0xbd55da2c	-0.052210018
57	0xbd5bc346	-0.053653024
58	0xbcabd308	-0.020974651
59	0xbd57e4be	-0.05270838
60	0xbcac0c24	-0.021001883
61	0x3c0d5778	0.008626811
62	0x3d0b18c0	0.03395915
63	0x3d378ed2	0.04481394
64	0x3cfe9110	0.03107503
65	0xbd249934	-0.04018517
66	0x3d3fc438	0.04681799
67	0x3d393304	0.045214668
68	0xb9450e00	-0.000187926
69	0x3c5271f0	0.012844548
70	0x3ceb5ec4	0.028731711
71	0xbc6a6680	-0.0143066645
72	0xbcf116c4	-0.0294298
73	0x3c4389f0	0.011934742
74	0xbd6e1396	-0.058124147
75	0xbd26504a	-0.040603913
76	0x3d7cbcd6	0.061703525
77	0x3d7145b2	0.058904357
78	0xbaff1780	-0.001946196
79	0x3d0f90a4	0.03505005
80	0xbd5baa68	-0.05362931
81	0x3cafabd0	0.021444231
82	0xbd58ac86	-0.052898906
83	0x3d476c84	0.048687473
84	0xbd1283c2	-0.035770185
85	0xbd1006f2	-0.035162874
86	0x3cdb38ac	0.026760422
87	0xbd76e32e	-0.06027525
88	0xbc3fb710	-0.01170136
89	0x3d549762	0.051902182
90	0x3c8fb168	0.017540649
91	0xbc55e7e8	-0.013055779
92	0x3ca84b34	0.020543672
93	0x3cdf9830	0.027294248
94	0xbc68eda8	-0.014216818
95	0xbca6e470	-0.0203726
96	0x3d359068	0.04432717
97	0x3c811620	0.01575762
98	0x3d612d20	0.054974675
99	0xbc675f78	-0.014121883
100	0x3d07e120	0.03317368
101	0xbc2064b0	-0.009789631
102	0x3d185c6a	0.037197508
103	0xbd0b6e48	-0.03404072
104	0x3d1e918c	0.038713023
105	0xbd5d93fe	-0.054096214
106	0x3c1bb418	0.009503387
107	0x3aff6180	0.0019484013
108	0x3d22657c	0.039647564
109	0x3c948668	0.018130496
110	0x3c7898b8	0.01517313
111	0xbc1f5770	-0.009725437
112	0xbd5364fe	-0.051609986
113	0xbd468056	-0.048462234
114	0xbd71c6a0	-0.059027314
115	0xbb46bce0	-0.003032498
116	0xbcacd968	-0.021099761
117	0xbce63244	-0.02810014
118	0xbc779d58	-0.015113197
119	0x3c81eba0	0.015859425
120	0xbc64a528	-0.013955392
121	0xbc7a3f90	-0.015273944
122	0xbcda71bc	-0.02666556
123	0x3d2692e2	0.040667422
124	0x3a073980	0.00051584095
125	0x3ce0dc38	0.027448758
126	0x3d608cbe	0.054821722
127	0xbcb676d4	-0.022273459
128	0xbb382660	-0.0028099045
129	0xbd416de0	-0.047223926
130	0x3d2ed418	0.042682737
131	0x3c2b6528	0.010461129
132	0xbd6e235a	-0.058139183
133	0x3d142be4	0.03617467
134	0x3bda97b0	0.0066709146
135	0xbd26bbd4	-0.04070647
136	0xbc5ba3b8	-0.013405733
137	0x3d153794	0.036429957
138	0x3cf742e8	0.03018327
139	0x3c7dcaf8	0.015490286
140	0x3cea74f4	0.02862022
141	0x3cc69068	0.02423878
142	0xbc723288	-0.014782555
143	0xbca9532c	-0.020669542
144	0xbd4132ec	-0.047167704
145	0xbd2cebe4	-0.04221715
146	0xbbe1c200	-0.0068895817
147	0xbcd3d1e0	-0.025856912
148	0xbd73dec6	-0.059538625
149	0xbd5b5ed6	-0.05355724
150	0xbcc34fb4	-0.023841716
151	0xbd4c837c	-0.04993008
152	0xbd649d12	-0.055813856
153	0x3d3ca010	0.046051085
154	0x3cb49aa4	0.022046395
155	0x3b912ec0	0.004430622
156	0x3bdc9b70	0.006732397
157	0x3c9a0380	0.018800497
158	0x3d2f4ac6	0.04279592
159	0x3b974ca0	0.0046172887
160	0x3caf4a14	0.021397628
161	0x3d7aa428	0.061191708
162	0x3d0a999a	0.033837892
163	0x3ce9dec0	0.028548598
164	0x3d182a54	0.037149742
165	0xbd449058	-0.04798922
166	0xbd37bd7e	-0.04485845
167	0xbcef5584	-0.029215582
168	0xbd4a36a0	-0.0493685
169	0xbc93dd08	-0.018049732
170	0x3d4ef424	0.0505258
171	0xba4d8180	-0.00078394264
172	0xbd308f72	-0.04310555
173	0xbd49480a	-0.049140967
174	0xbd02b044	-0.03190638
175	0x3d738440	0.059452295
176	0x3c79bb80	0.015242457
177	0xbd0fa950	-0.03507358
178	0x3c319968	0.010839798
179	0xbd4c14d6	-0.04982456
180	0x3d4a8544	0.0494435
181	0xbd481896	-0.048851572
182	0x3d7b8c34	0.061413005
183	0xbcdc6a88	-0.026906267
184	0x3d660e72	0.05616612
185	0xbd295bcc	-0.04134731
186	0xbb92eb90	-0.0044836476
187	0xbd252fc6	-0.040328763
188	0xbbcf0fa0	-0.0063190013
189	0xbceec87c	-0.029148333
190	0xbd1024fe	-0.03519153
191	0xbd32c8d4	-0.043648556
192	0x3d43c7a6	0.04779782
193	0x3d149e5a	0.03628383
194	0xbd6b0868	-0.057381064
195	0x3d4fd680	0.050741673
196	0x3d031292	0.032000132
197	0xbcacc940	-0.021092057
198	0x3c223dc8	0.009902425
199	0xbd73b6ae	-0.05950039
200	0x3d29e7b8	0.04148075
201	0xbcdf00d8	-0.027222082
202	0x3ca239b4	0.019802906
203	0x3d1d0fcc	0.038345143
204	0xbd6b234c	-0.05740671
205	0x3d23cbbc	0.039989218
206	0xbd1e4fc6	-0.038650297
207	0x3b0b4080	0.0021248162
208	0x3d20ff5e	0.039306037
209	0x3d18af98	0.037276834
210	0x3b83ee50	0.004026212
211	0x3d4a18dc	0.049340114
212	0xbd387c9e	-0.04504072
213	0xbcecd674	-0.028910853
214	0x3c6fb968	0.014631607
215	0x3d0a3782	0.033744343
216	0x3d2adf94	0.041717127
217	0xbd6ce556	-0.0578359
218	0x3d4089f6	0.04700657
219	0x3d6d2f26	0.057906292
220	0xbd5bcdf0	-0.053663194
221	0x3d49eac8	0.04929617
222	0x3d6774ac	0.05650775
223	0xbc517358	-0.012783848
224	0x3bf6c020	0.0075302273
225	0xbd603fec	-0.05474846
226	0xbd594274	-0.05304189
227	0xbd4321e2	-0.047639735
228	0xbb854150	-0.0040666237
229	0xbd26a604	-0.04068567
230	0xbd6e3c10	-0.05816275
231	0x3d5b4870	0.05353588
232	0x3cf154d8	0.029459402
233	0x3c82b33c	0.015954606
234	0xbd1beef2	-0.038069673
235	0x3d516dc4	0.05113007
236	0x3ce92ed0	0.028464705
237	0xbd1cfda2	-0.03832782
238	0xbd70df20	-0.05880654
239	0xbcf75180	-0.03019023
240	0xbc62bc78	-0.01383888
241	0x3d7951d0	0.060869038
242	0x3ce3b674	0.027796961
243	0x3b691820	0.0035567358
244	0xbd6324ee	-0.05545514
245	0x3d5522a0	0.052034974
246	0xbc171c70	-0.009223089
247	0xbc85e414	-0.016344108
248	0x3cc70ca4	0.02429802
249	0xbc93b500	-0.018030643
250	0x3d76948a	0.06020025
251	0xbd77b248	-0.060472757
252	0xbbb29140	-0.005449444
253	0x3d6ab93a	0.057305552
254	0xbcebd244	-0.028786786
255	0xbd13f08c	-0.036118075

fc2.bias f4 [5]
0	0xbca8710c	-0.020561717
1	0x3d484860	0.048897147
2	0xbd01f7d4	-0.031730488
3	0xbd52fc0a	-0.051509894
4	0x3d9eb43f	0.07749223
