Models/Torch2/my_model54800.pth (torch_old, 60054 bytes, 8 tensors)

conv1.weight f4 [16, 2, 3, 3]
0.3475796 -0.56589043 -0.16319053 0.25775596 -0.21882077 -0.4054229 -0.22868314 -0.30851862
-0.13509333 -0.16885689 0.8309883 0.8036725 -0.0762242 -0.22980718 0.004557427 0.07968161
-0.031768195 0.0032949192 -0.39850655 -0.38931888 -0.13066629 1.0106245 0.25470993 0.6182221
0.6014485 0.8484542 0.016400699 0.13106772 -0.7680832 0.37192875 0.041421443 0.23407762
-0.8841829 0.06536988 0.24424587 -0.74489635 0.6953899 0.6730038 0.614311 -0.40899405
-0.42706752 -0.19974084 0.64575595 0.5817881 -0.16977775 0.072066344 0.41510707 -0.69196266
0.13865119 -0.4735073 0.12299034 0.023235757 0.34671012 -0.5231739 0.28709963 -0.21436422
-0.08985913 0.5880111 0.28335372 -0.11312247 -0.066864 0.5407858 0.5172781 -0.09918153
-0.14278865 0.6739139 -0.104835756 0.018353812 0.6054532 -0.14136681 0.14486061 -0.16414453
-0.16413575 -0.1760922 0.6991289 -0.17879887 0.13431668 -0.04592281 -0.16551603 0.38801923
-0.0521119 0.003080455 -0.27091587 0.18933778 0.014605589 0.08758735 -0.18278873 0.12574558
0.029657291 -0.29270485 0.50139934 -0.13053602 -0.11917078 0.93839335 0.3300278 0.6319347
-0.21455748 0.49085107 -0.23002055 -0.5694677 -0.41691467 -0.4692592 -0.08172934 -0.9369429
0.04952614 -0.15201904 -0.0065592723 0.040515214 0.11810377 -0.08360462 -0.035711277 -0.090391785
0.083975956 -0.16665864 0.1651382 0.26266888 0.07664386 0.03832764 -0.1072294 0.09044934
0.16271271 0.2844719 -0.21060285 -0.09260244 -0.18760386 -0.15051626 -0.089366145 0.10143412
-0.09996199 -0.16294624 0.3886119 -0.08992116 -0.04800047 -0.1129149 0.5819231 -0.02504413
-0.28230685 -0.20077957 -0.049580112 -0.18621749 -0.49624127 -0.11133368 -0.22030748 -0.12691177
0.04010108 0.0009245988 -0.1189766 -0.51508117 -0.20235765 -0.16299042 -0.020893382 -0.47022015
-0.3157209 -0.079313464 -0.14922893 0.83028346 0.33809957 0.54284286 0.46765175 0.06881826
0.60068756 -0.029507661 -0.6123805 0.12363919 0.016911473 0.5843999 -0.39139697 0.05488051
-0.43791628 0.343783 -0.008481184 -0.065842815 -0.39633298 0.8677881 0.12390996 0.10377923
-0.41006947 0.054105885 -0.09858575 0.6335862 -0.07749406 0.09321413 -0.051904853 0.6677756
0.0013531256 -0.23414932 0.7888303 -0.12552524 -0.14084302 0.56539965 -0.12475113 -0.10349177
0.16593064 0.71150243 0.3683477 0.09690533 0.8348855 0.69693303 0.15369748 0.045703195
0.1279647 0.43683282 -0.36412418 0.29031897 -0.24366724 0.2566263 0.0068589184 0.26676556
0.6726584 -0.06765749 -0.061129734 0.19831315 0.7608459 0.11365218 -0.12843639 0.03048646
-0.25720295 -0.17452823 0.013611926 0.46304893 0.17761557 -0.17580144 0.50799614 0.37234595
0.027776277 -0.09974825 -0.07628438 -0.1293604 -0.13800465 -0.1429862 0.6475318 -0.20673296
-0.08975883 0.4350792 -0.11166234 -0.16296007 -0.16072229 -0.36477864 0.89322704 0.55061525
0.91809267 -0.61040485 0.53043497 -0.104800984 -0.15369727 -0.6579062 -0.0820875 0.0016888296
-0.8981943 -0.03279853 0.17749521 0.8090169 -0.054791864 -0.22298235 0.057141382 -0.07698045
00000000: f4f5 b13e 32de 10bf 6b1b 27be 97f8 833e
00000010: 8d12 60be 9793 cfbe ea2b 6abe 27f6 9dbe
00000020: e855 0abe d2e8 2cbe a6bb 543f 7bbd 4d3f
00000030: 6f1b 9cbd 9352 6bbe 7856 953b 1d30 a33d
00000040: 5e1f 02bd 92ef 573b 0d09 ccbe ce54 c7be
00000050: 62cd 05be 255c 813f 5769 823e ce43 1e3f
00000060: 87f8 193f 4b34 593f c25a 863c 9e36 063e
00000070: 1aa1 44bf 726d be3e 88a9 293d 0bb2 6f3e
00000080: cf59 62bf a5e0 853d 971b 7a3e 87b1 3ebf
00000090: 1305 323f fa49 2c3f 7c43 1d3f ab67 d1be
000000a0: 98a8 dabe dd88 4cbe 4350 253f 11f0 143f
000000b0: 38da 2dbe 8597 933d ea88 d43e 7724 31bf
000000c0: 94fa 0d3e 8c6f f2be 5ce2 fb3d ea58 be3c
000000d0: fd83 b13e baee 05bf b9fe 923e 4b82 5bbe
000000e0: 1008 b8bd e587 163f bd13 913e c1ac e7bd
000000f0: feef 88bd f070 0a3f 566c 043f b01f cbbd
00000100: 3037 12be 9f85 2c3f 21b4 d6bd bc5a 963c
00000110: fbfe 1a3f 76c2 10be 5756 143e 8115 28be
00000120: 3413 28be 8451 34be 1dfa 323f 0d17 37be
00000130: 508a 093e 8e19 3cbd 097d 29be 75aa c63e
00000140: 4a73 55bd 75e1 493b 7cb5 8abe c3e1 413e
00000150: 484c 6f3c ff60 b33d f82c 3bbe 73c3 003e
00000160: d9f3 f23c 69dd 95be b55b 003f 3cab 05be
00000170: cf0f f4bd 8c3a 703f 67f9 a83e 79c6 213f
00000180: f5b4 5bbe d550 fb3e 828a 6bbe a3c8 11bf
00000190: d775 d5be be42 f0be b661 a7bd 7ddb 6fbf
000001a0: ecdb 4a3d e1aa 1bbe 2aef d6bb 48f3 253d
000001b0: 64e0 f13d e638 abbd fd45 12bd 541f b9bd
000001c0: 96fb ab3d 90a8 2abe fd19 293e 897c 863e
000001d0: 75f7 9c3d 72fd 1c3d 169b dbbd 813d b93d
000001e0: 299e 263e 4da6 913e 46a8 57be 59a6 bdbd
000001f0: 3a1b 40be ef20 1abe 9905 b7bd b1bc cf3d
00000200: dfb8 ccbd 61db 26be 24f8 c63e 9628 b8bd
00000210: 249c 44bd ed3f e7bd eaf8 143f 5929 cdbc
00000220: 868a 90be 2999 4dbe 8414 4bbd ccaf 3ebe
00000230: 5613 febe ea02 e4bd 4998 61be 29f5 01be
00000240: 0841 243d c660 723a 01aa f3bd 5cdc 03bf
00000250: d836 4fbe f6e6 26be 9928 abbc b2c0 f0be
00000260: 2ba6 a1be 196f a2bd 78cf 18be 758d 543f
00000270: 631b ad3e c0f7 0a3f 0d70 ef3e 97f0 8c3d
00000280: a9c6 193f 0dba f1bc f8c4 1cbf 8b36 fd3d
00000290: ee89 8a3c 3b9b 153f 2f65 c8be 63ca 603d
000002a0: 9036 e0be 5304 b03e aaf4 0abc 99d8 86bd
000002b0: 28ec cabe 5c27 5e3f 81c4 fd3d 348a d43d
000002c0: a0f4 d1be 229e 5d3d 53e7 c9bd b532 223f
000002d0: 35b5 9ebd 0de7 be3d 2f9a 54bd 57f3 2a3f
000002e0: 5c5b b13a d7c4 6fbe c8f0 493f b089 00be
000002f0: 2739 10be 08be 103f 857d ffbd 7ef3 d3bd
00000300: b9e9 293e 0625 363f 1298 bc3e 4d76 c63d
00000310: 0ebb 553f 346a 323f df62 1d3e 4633 3b3d
00000320: 2e09 033e 8da8 df3e 7c6e babe b0a4 943e
00000330: e883 79be 8664 833e c7c0 e03b 7f95 883e
00000340: 5733 2c3f 0390 8abd 2c63 7abd 9a12 4b3e
00000350: ccc6 423f 79c2 e83d d484 03be bebe f93c
00000360: 1bb0 83be 87b7 32be 8e04 5f3c c014 ed3e
00000370: dbe0 353e 4b05 34be 090c 023f 21a4 be3e
00000380: 138b e33c cf48 ccbd fc3a 9cbd 0d77 04be
00000390: 1751 0dbe f96a 12be a5c4 253f ceb1 53be
000003a0: 7ad3 b7bd b3c2 de3e 3aaf e4bd 01df 26be
000003b0: 6294 24be 44c4 babe 87aa 643f 1ff5 0c3f
000003c0: 1f08 6b3f 7e43 1cbf 96ca 073f e6a1 d6bd
000003d0: d162 1dbe 8a6c 28bf 7e1d a8bd b85b dd3a
000003e0: 10f0 65bf c057 06bd 4ec1 353e bb1b 4f3f
000003f0: 6f6d 60bd 7c55 64be 150d 6a3d eda7 9dbd

conv1.bias f4 [16]
-0.41154453 -0.33704567 -0.1082811 -0.6515231 -0.2356821 -0.18437089 -0.31117654 -0.10329355
-0.11180365 -0.40904507 -0.8661505 -0.46845955 -0.5389263 -0.25355595 -0.3498007 -0.8678613
00000000: f7b5 d2be 4091 acbe 7bc2 ddbd 38ca 26bf
00000010: a656 71be b9cb 3cbe 8852 9fbe 928b d3bd
00000020: 50f9 e4bd 5b6e d1be 0abc 5dbf eed9 efbe
00000030: 13f7 09bf 16d2 81be 1419 b3be 282c 5ebf

conv2.weight f4 [32, 16, 3, 3]
0.3254343 -0.15794598 0.42803115 0.4199892 -0.09691477 0.41148978 -0.064118765 0.010870291
0.1367007 0.20093909 -0.60458344 0.044878505 -0.079429075 0.058765594 -0.3582212 0.6832888
-0.10548897 0.5771134 0.59712636 -0.18058029 0.28645498 0.29402408 -0.27916592 -0.04761308
0.2858167 -0.52640957 0.19906658 -0.09136832 0.21344773 0.035200592 0.058376715 -0.014602442
0.077438556 0.12141842 0.065063424 0.10749767 0.12952258 -0.25321868 0.30888492 0.16329974
-0.11944106 -0.1946 -0.15125121 -0.0426525 0.005108122 -0.31516996 0.14463776 -0.71198916
-0.7414514 -0.2114203 -0.21104088 -0.05546609 0.0596028 -0.5386091 -0.05339925 -9.208223e-05
0.100267455 -0.0935536 -0.009133862 -0.033626385 -0.04961367 0.06770319 0.0020185537 -0.020423908
-0.072897665 -0.08722514 0.10951131 -0.046146084 -0.023231195 0.1525688 -0.28843665 0.13708468
-0.08195847 0.20052223 -0.35271966 0.020165969 0.055076413 0.18144041 0.15271334 -0.045923423
0.27626938 0.0969545 -0.08485674 -0.12641506 -0.1231137 0.31342664 -0.38085157 0.062111698
0.06799867 -0.11966119 0.40716782 -0.1790431 0.10361352 0.37187943 -0.14613816 -0.012071252
0.6919219 -0.12179832 0.5370231 0.19027314 -0.058484875 0.06832116 0.123675846 0.11610313
-0.02162172 0.17717771 -0.18307376 0.073901884 -0.1615422 0.14735636 -0.12847763 0.024566684
0.024491888 0.010147789 -0.030521102 0.16320734 -0.1424333 -0.05956794 -0.17571162 -0.5119643
0.10928562 -0.05194928 0.25517306 0.6166464 -0.10429098 0.4829277 -0.108874336 -0.10101732
-0.13664833 -0.17850414 0.11028602 -0.27313367 -0.14481866 0.21561348 -0.26295596 0.38559276
-0.52548915 0.41071945 0.47261336 -0.20941755 0.5102518 0.23641141 -0.089907736 0.11201916
0.26292998 -0.06724937 0.18878427 0.20527272 -0.15840018 0.25000253 -0.0055982894 0.011432082
0.034317054 0.3650496 -0.05511671 0.24878268 -0.16813883 -0.044902697 0.0466068 0.19499795
-0.13827084 0.26901957 0.1433652 -0.12558389 0.090509444 0.41415384 0.0031011668 0.47092345
0.07881001 -0.124354176 0.17393382 -0.01304448 0.06034947 -0.15485322 -0.063349895 -0.048742093
0.12643674 0.02295205 0.044211492 0.056204874 0.22443542 -0.19558224 -0.02161303 0.14573641
-0.032529302 0.22214411 -0.08345106 -0.083199255 0.07291513 0.26240674 0.17329147 0.07415839
0.093738355 0.10764232 0.022181652 0.11976294 0.198696 0.017407442 0.024560805 -0.003266038
0.105308466 0.011404758 -0.018771006 0.012109036 -0.0659957 0.03962681 -0.04743507 0.19981538
-0.20179796 0.35599223 0.23165102 0.050121944 0.0065773875 0.24250002 -0.048736162 0.07254952
-0.11982136 0.18884902 -0.086971775 -0.040479776 0.08317081 -0.0936671 0.14067468 0.03988941
0.0028290818 0.15406933 0.16209094 0.05284169 -0.1175235 0.12776181 -0.12441282 -0.026520366
0.10919979 -0.07683526 0.23019055 -0.059558127 -0.06111149 0.18234454 -0.042826395 -0.10033143
0.3043448 -0.032401115 0.38942784 0.17298526 0.075129904 0.26919 -0.0007316475 0.024445496
0.054977592 0.18443675 -0.12524283 0.13007683 0.016339941 0.13956045 -0.17481224 -0.10751567
00000000: 539f a63e 97bc 21be e626 db3e d308 d73e
00000010: 407b c6bd caae d23e b350 83bd 4e19 323c
00000020: 45fb 0b3e fac2 4d3e fbc5 1abf 86d2 373d
00000030: b6ab a2bd 31b4 703d c568 b7be 04ec 2e3f
00000040: 9a0a d8bd b4bd 133f 46dd 183f 0aea 38be
00000050: 3aaa 923e 538a 963e d6ee 8ebe ef05 43bd
00000060: 9156 923e c7c2 06bf 1cd8 4b3e 501f bbbd
00000070: 0b92 5a3e 7f2e 103d 6c1c 6f3d 153f 6fbc
00000080: 1b98 9e3d 38aa f83d f93f 853d bd27 dc3d
00000090: 91a1 043e e1a5 81be 2a26 9e3e 0c38 273e
000000a0: 849d f4bd 3945 47be 99e1 1abe 63b4 2ebd
000000b0: 0862 a73b f55d a1be ec1b 143e ec44 36bf
000000c0: c2cf 3dbf 907e 58be 1a1b 58be 6930 63bd
000000d0: 1122 743d 49e2 09bf 2cb9 5abd 451c c1b8
000000e0: 0659 cd3d 0899 bfbd 32a6 15bc d2bb 09bd
000000f0: b437 4bbd f8a7 8a3d b649 043b 0a50 a7bc
00000100: 5f4b 95bd 18a3 b2bd 7747 e03d ad03 3dbd
00000110: 594f bebc ff3a 1c3e f8ad 93be ed5f 0c3e
00000120: d8d9 a7bd b355 4d3e ac97 b4be 1a33 a53c
00000130: ce97 613d 84cb 393e e360 1c3e 331a 3cbd
00000140: 2e73 8d3e 1590 c63d 5fc9 adbd f372 01be
00000150: 0923 fcbd 7579 a03e fafe c2be d668 7e3d
00000160: e342 8b3d ed10 f5bd 4d78 d03e 1357 37be
00000170: 5333 d43d fb66 be3e 3ea5 15be 80c6 45bc
00000180: cb21 313f 6671 f9bd 597a 093f f6d6 423e
00000190: d68d 6fbd f7eb 8b3d c349 fd3d 7ac7 ed3d
000001a0: 0920 b1bc 136e 353e b077 3bbe df59 973d
000001b0: 526b 25be 96e4 163e a48f 03be 1240 c93c
000001c0: 36a3 c83c e942 263c 6407 fabc d31f 273e
000001d0: 09da 11be 83fd 73bd bfed 33be 1810 03bf
000001e0: 24d1 df3d c5c8 54bd 0ba6 823e 8adc 1d3f
000001f0: 8296 d5bd 4d42 f73e 82f9 debd 2be2 cebd
00000200: 8aed 0bbe cac9 36be a3dd e13d 2dd8 8bbe
00000210: 584b 14be c8c9 5c3e 2aa2 86be 6a6c c53e
00000220: 7586 06bf d249 d23e 61fa f13e 8e71 56be
00000230: dd9f 023f d515 723e 8c21 b8bd 4d6a e53d
00000240: c29e 863e 0aba 89bd aa50 413e 0333 523e
00000250: a833 22be 5500 803e db71 b7bb a14d 3b3c
00000260: 0a90 0c3d c8e7 ba3e 0fc2 61bd e3c0 7e3e
00000270: 962c 2cbe e4eb 37bd c6e6 3e3d 8bad 473e
00000280: df96 0dbe efbc 893e 54ce 123e 1099 00be
00000290: 045d b93d f90b d43e f23c 4b3b e11c f13e
000002a0: 2467 a13d 67ad febd b51b 323e 84b8 55bc
000002b0: 0131 773d d891 1ebe 97bd 81bd caa5 47bd
000002c0: a278 013e f005 bc3c 1c17 353d 1537 663d
000002d0: 66d2 653e b646 48be cf0d b1bc ed3b 153e
000002e0: 723d 05bd bf79 633e 64e8 aabd 5f64 aabd
000002f0: 8754 953d 2d5a 863e 5273 313e 5be0 973d
00000300: e5f9 bf3d 9473 dc3d 4cb6 b53c 4646 f53d
00000310: f776 4b3e 0d9a 8e3c be33 c93c 060b 56bb
00000320: f7ab d73d 06db 3a3c a7c5 99bc fa64 463c
00000330: c128 87bd b94f 223d 474b 42bd 679c 4c3e
00000340: 20a4 4ebe 9d44 b63e ed35 6d3e ab4c 4d3d
00000350: 2087 d73b ed51 783e 929f 47bd d894 943d
00000360: e764 f5bd a361 413e 421e b2bd 1fce 25bd
00000370: 7555 aa3d 89d4 bfbd 060d 103e 1463 233d
00000380: 1e68 393b 5ac4 1d3e 2bfb 253e 8770 583d
00000390: 29b0 f0bd fed3 023e 26cc febd 3d41 d9bc
000003a0: 24a4 df3d ce5b 9dbd 12b7 6b3e 39f3 73bd
000003b0: 0b50 7abd 87b8 3a3e bb6a 2fbd 917a cdbd
000003c0: 15d3 9b3e 08b7 04bd 1663 c73e 0c23 313e
000003d0: b5dd 993d 46d3 893e 08cc 3fba ec41 c83c
000003e0: 2f30 613d fddc 3c3e a83f 00be dc32 053e
000003f0: 57db 853c efe8 0e3e fb01 33be 2d31 dcbd

conv2.bias f4 [32]
0.5251993 -0.04033166 -0.04984603 -0.2623934 -0.11285735 0.16073577 -0.10950461 0.07704121
-0.37192842 0.1810335 0.3052104 -0.060050927 -0.000530978 0.24860026 -0.0892469 -0.12087835
-0.04982306 0.2600803 0.15774433 -0.10075231 -0.06811184 -0.025090829 -0.0760605 -0.17606604
0.22978838 -0.22539178 -0.13855171 0.03154545 -0.07214133 -0.1069938 -0.12403889 -0.12947361
00000000: 7673 063f d032 25bd 5a2b 4cbd 6d58 86be
00000010: c121 e7bd eb97 243e f443 e0bd c8c7 9d3d
00000020: 676d bebe d960 393e 8a44 9c3e f6f7 75bd
00000030: 5531 0bba 1191 7e3e 14c7 b6bd 128f f7bd
00000040: 4413 4cbd 3f29 853e bb87 213e 3a57 cebd
00000050: 387e 8bbd 488b cdbc 9cc5 9bbd a84a 34be
00000060: a54d 6b3e 1acd 66be 80e0 0dbe cd35 013d
00000070: d5be 93bd 911f dbbd 1a08 febd bb94 04be

fc1.weight f4 [256, 32]
0.01910637 0.074316464 -0.16078174 -0.012398589 0.031509552 0.0450117 0.07368485 -0.08406618
0.06316805 -0.19455387 -0.040087827 0.12227508 0.097626366 -0.1461472 -0.081450894 0.10756255
-0.07922515 0.16426325 0.049638554 -0.06692551 -0.054437403 -0.02451379 0.1066397 -0.042213745
-0.11799236 -0.0028743432 0.07453863 -0.063593484 -0.15956658 -0.017346816 -0.12714073 0.019979468
0.09010971 -0.19552146 -0.1573164 -0.077572405 0.050987314 0.07437061 -0.1191407 -0.119276784
-0.08382559 0.12093953 -0.15841722 0.06198414 -0.12470516 0.07953092 0.075286284 0.11387053
-0.024111737 0.083038166 -0.12534688 -0.059146747 -0.101360075 0.06447428 -0.10986439 -0.09518635
-0.07315234 0.07103626 0.0736752 0.059846688 0.107148044 0.08055367 0.02569911 -0.0809578
-0.13234314 -0.11546685 -0.27437493 0.09567632 0.108449556 -0.06482356 -0.13575499 0.0927644
0.08205122 0.20820619 0.2306842 -0.005272863 -0.15175062 -0.33232906 -0.26055664 -0.07222258
-0.22842953 0.01892589 0.16083114 0.1775607 0.19729751 0.04677151 -0.05968345 0.018529573
-0.051035896 0.025921512 0.02480399 0.19154176 0.028132612 -0.28142202 -0.19022085 0.0017916367
-0.14277136 -0.14724503 -0.0050513344 -0.16696844 0.15044339 -0.14421427 0.032799788 -0.17042175
-0.15034853 0.066955775 0.060843285 -0.09036753 0.099914834 -0.14787175 -0.14758736 -0.122566104
-0.04326696 0.05750209 -0.0036198895 0.09787638 0.081543595 -0.06462441 -0.049447138 -0.100456804
-0.043519143 -0.1845426 -0.15707883 -0.0092913 -0.06359866 0.09596278 -0.10222559 0.026210753
0.016282776 -0.05075365 0.1351915 -0.11263938 -0.14680971 -0.21060035 -0.1589259 0.08843936
-0.02575281 -0.017689873 0.11022479 0.019411862 0.12702855 0.0013437879 -0.18184902 0.0038320043
-0.19589773 0.011738139 -0.17293772 0.090643026 -0.14909798 0.12076212 -0.17283337 -0.030726418
-0.116561614 -0.08527615 0.080070585 0.12404075 0.12992167 -0.02243583 -0.19440167 -0.011221321
-0.17820142 0.08220986 -0.114149466 -0.03551758 -0.057565622 -0.055416986 0.07238584 -0.0017217114
-0.06661894 -0.005735391 0.18138857 -0.14706117 -0.12339424 0.12148134 0.097017385 -0.024916615
-0.12738696 -0.059926186 -0.0013202849 0.07609171 0.09682143 -0.20128833 0.09288044 -0.019176196
0.038565744 -0.005611322 0.058655623 -0.15642011 0.013685244 -0.044766106 0.023911469 -0.11481204
-0.01915588 -0.14042892 -0.13234957 0.104345344 -0.16392604 0.049613398 0.086986616 -0.057308372
-0.020705448 0.058265552 0.017938843 -0.20876195 0.014781989 0.015476781 -0.118734255 0.032178152
-0.021825893 0.070993274 -0.0746146 -0.13826542 0.011772249 -0.10703993 0.109655514 -0.044533104
-0.17400385 0.08269439 0.121498324 0.13160981 0.066150784 -0.07018339 -0.077038236 -0.18845081
0.09928548 0.050786193 -0.07041945 -0.27428836 0.17581233 -0.007970907 0.09215584 0.1383862
-0.17836843 -0.0035910485 -0.04274471 -0.07881972 -0.048678674 0.26294193 -0.110563725 0.043870788
-0.04272875 -0.1081553 0.011958791 -0.06987257 0.04815523 -0.19687948 0.005059877 -0.10702957
0.101530544 -0.059301358 -0.20429201 0.07564341 -0.12217835 -0.12333181 0.093811154 0.08685037
00000000: f684 9c3c 3b33 983d f8a3 24be 7423 4bbc
00000010: 2910 013d 305e 383d 15e8 963d e42a acbd
00000020: 405e 813d 2139 47be 2233 24bd 5b6b fa3d
00000030: 55f0 c73d 9da7 15be bacf a6bd c149 dc3d
00000040: cc40 a2bd a034 283e cc51 4b3d 3e10 89bd
00000050: c1f9 5ebd 25d1 c8bc ea65 da3d 52e8 2cbd
00000060: faa5 f1bd 7a5f 3cbb b6a7 983d 4d3d 82bd
00000070: 6c65 23be e91a 8ebc 2e31 02be fbab a33c
00000080: 718b b83d c736 48be 8d17 21be 48de 9ebd
00000090: 13d8 503d 9e4f 983d 0a00 f4bd 6347 f4bd
000000a0: c0ac abbd 25af f73d 2038 22be 15e3 7d3d
000000b0: 6b65 ffbd 1be1 a23d b22f 9a3d f434 e93d
000000c0: fa85 c5bc ea0f aa3d ef5a 00be dc43 72bd
000000d0: df95 cfbd 170b 843d 9500 e1bd 10f1 c2bd
000000e0: e5d0 95bd 757b 913d 06e3 963d cd21 753d
000000f0: 6f70 db3d 53f9 a43d f186 d23c 34cd a5bd
00000100: f684 07be e279 ecbd df7a 8cbe f2f1 c33d
00000110: cd1a de3d 37c2 84bd 5b03 0bbe 43fb bd3d
00000120: 780a a83d 0134 553e 7b38 6c3e fbc7 acbb
00000130: 8464 1bbe 0927 aabe ae67 85be 6fe9 93bd
00000140: 6ee9 69be 780a 9b3c ebb0 243e 79d2 353e
00000150: 5c08 4a3e 7c93 3f3d a276 74bd 55cb 973c
00000160: 040b 51bd 5a59 d43c bd31 cb3c 8623 443e
00000170: 5d76 e63c 8c16 90be 41c9 42be 5ad5 ea3a
00000180: a832 12be 67c7 16be aa85 a5bb c6f9 2abe
00000190: d50d 1a3e e8ac 13be 1259 063d 0a83 2ebe
000001a0: f7f4 19be 1c20 893d cf36 793d 9d12 b9bd
000001b0: 26a0 cc3d b16b 17be 2421 17be f003 fbbd
000001c0: b238 31bd 5087 6b3d ab3b 6dbb 6973 c83d
000001d0: 5400 a73d cd59 84bd 1589 4abd 4cbc cdbd
000001e0: 2141 32bd bcf8 3cbe 46d9 20be 893a 18bc
000001f0: 0440 82bd 2288 c43d a65b d1bd efb7 d63c
00000200: 7563 853c 0fe3 4fbd a46f 0a3e 7aaf e6bd
00000210: 4955 16be 9ea7 57be 79bd 22be b21f b53d
00000220: 8ff7 d2bc 5aea 90bc 89bd e13d a005 9f3c
00000230: c613 023e 0a22 b03a a136 3abe 5d22 7b3b
00000240: 6a99 48be 5351 403c 9616 31be 0da3 b93d
00000250: 24ad 18be 2152 f73d 3bfb 30be f8b5 fbbc
00000260: dbb7 eebd 43a5 aebd 0cfc a33d 1409 fe3d
00000270: 300a 053e 59cb b7bc 3b11 47be a2d9 37bc
00000280: 6f7a 36be a55d a83d 32c7 e9bd e27a 11bd
00000290: eec9 6bbd ecfc 62bd 073f 943d 0cab e1ba
000002a0: 836f 88bd f2ef bbbb edbd 393e 3497 16be
000002b0: 1fb6 fcbd 35cb f83d 0db1 c63d ee1d ccbc
000002c0: ba71 02be 2975 75bd 690d adba f8d5 9b3d
000002d0: 504a c63d 871e 4ebe 1a38 be3d 6617 9dbc
000002e0: 1df7 1d3d 2edf b7bb e140 703d 982c 20be
000002f0: 1338 603c aa5c 37bd fce1 c33c 9322 ebbd
00000300: cbec 9cbc 99cc 0fbe a586 07be 03b3 d53d
00000310: 3adc 27be 6b37 4b3d 0a26 b23d 2fbc 6abd
00000320: 799e a9bc dca7 6e3d 7bf4 923c b1c5 55be
00000330: 2830 723c 5392 7d3c f22a f3bd 3dcd 033d
00000340: 37cc b2bc ec64 913d 8acf 98bd 7395 0dbe
00000350: 64e0 403c c037 dbbd 1293 e03d 5868 36bd
00000360: 112e 32be ad5b a93d 1dd4 f83d b9c4 063e
00000370: 107a 873d 4fbc 8fbd 39c6 9dbd 40f9 40be
00000380: 3056 cb3d 2f05 503d 1338 90bd 866f 8cbe
00000390: 2608 343e 6898 02bc 33bc bc3d 1db5 0d3e
000003a0: 37a6 36be cc57 6bbb 1415 2fbd 3c6c a1bd
000003b0: 4a63 47bd 53a0 863e 3c6f e2bd dbb1 333d
000003c0: 5704 2fbd 8780 ddbd ceee 433c 5a19 8fbd
000003d0: 6b3e 453d c69a 49be 53cd a53b 5232 dbbd
000003e0: 3fef cf3d fbe5 72bd ed31 51be efea 9a3d
000003f0: a538 fabd 6395 fcbd 1020 c03d 9bde b13d

fc1.bias f4 [256]
-0.10446861 -0.16398254 -0.058194485 -0.036201153 -0.1551713 -0.17149703 -0.15885459 -0.010564976
-0.17214859 -0.06671646 0.0031590096 -0.19767714 -0.2482761 -0.05975873 -0.14731742 -0.14250691
-0.16933273 -0.16058561 -0.15432326 -0.0878694 -0.13722226 -0.12973103 -0.20173605 -0.004304496
-0.2868997 -0.21040364 -0.13995628 -0.11573117 0.007921314 -0.11707344 -0.25561035 -0.0724644
-0.13115959 -0.13273925 -0.17055944 -0.15241666 -0.00046520776 -0.22765417 0.045617335 -0.2207611
-0.21476926 -0.14508156 -0.12175156 -0.04652089 -0.1501631 -0.03284095 -0.02024155 -0.17662527
-0.019097999 -0.30392358 -0.056358535 -0.06537817 -0.15207842 -0.15316857 -0.15864517 -0.15176702
-0.06811698 -0.11770144 -0.067164145 -0.15846695 -0.11683949 -0.14023887 -0.24351875 -0.13849603
-0.12498466 -0.04330781 -0.23128675 -0.3248316 -0.15159369 -0.11418034 -0.070538476 -0.0084278835
-0.01511609 -0.0702931 0.008451361 -0.07138008 -0.121206395 -0.0680467 -0.0951814 -0.19322996
-0.07087888 -0.22457086 -0.18878959 -0.08816996 -0.17983444 -0.13851383 -0.29923975 -0.09919005
-0.21279967 0.0028074444 -0.032446347 -0.25517663 -0.09551383 -0.26954636 -0.2517195 -0.14359972
-0.19305506 -0.13462445 -0.14488678 -0.11113517 -0.12142912 -0.053624913 -0.13242924 -0.093405224
-0.21273534 -0.16197357 -0.28990293 0.10053475 -0.18062082 -0.15322372 -0.10828757 -0.13910861
-0.14800449 0.07062492 -0.087110355 -0.079472885 -0.04657016 -0.15996562 -0.11829185 -0.1263133
-0.1843505 -0.09633697 -0.08053051 -0.12690887 -0.10602897 -0.17817816 -0.13855094 -0.10005219
-0.11394071 -0.20924793 -0.103936225 -0.0938001 -0.19225973 -0.1627282 -0.0706297 -0.11346487
-0.10972027 -0.19471355 -0.25156578 -0.19190621 -0.16558343 0.039916117 -0.11064342 -0.1960067
-0.1762359 -0.12014094 -0.20606501 -0.30375493 -0.015371044 -0.143796 -0.1449007 0.005313357
-0.22170243 -0.19918856 -0.0978437 -0.19405507 -0.25190172 -0.0736522 -0.121541545 -0.1758273
-0.14534834 -0.07233305 -0.0717312 -0.08142123 -0.07024305 -0.20499566 -0.03449166 -0.13386269
-0.16282311 -0.15323961 -0.15706113 -0.13414226 -0.017086409 -0.19684878 -0.21145222 -0.22316784
-0.074217826 -0.05981919 -0.17952944 -0.104982994 -0.16016659 0.01726642 -0.17343196 -0.20471057
-0.18794018 -0.083071515 -0.1376171 -0.18825871 -0.041832477 -0.22495316 -0.28371224 0.018538259
-0.012190871 -0.13638203 -0.23467416 -0.048464175 -0.05903855 -0.16439983 -0.090939745 -0.22221062
-0.089551985 -0.15472242 -0.017997159 -0.18275309 -0.060794927 -0.06313202 -0.19128034 -0.0621245
-0.124456786 0.17071287 -0.14396198 -0.13625166 -0.11616998 -0.35623375 -0.090806 -0.15687272
-0.12975642 -0.15792197 -0.19857904 -0.09568972 0.021327121 -0.053422686 -0.10991617 -0.096273735
-0.1388158 -0.14978458 0.0044491533 -0.13390529 -0.12631702 -0.1284402 -0.19727445 -0.051699236
-0.185632 -0.21086936 -0.19647512 -0.16408788 -0.14157349 -0.10047722 -0.10122604 -0.16279732
-0.17351821 -0.12293189 -0.16496491 -0.18542436 -0.096549064 -0.15747221 -0.108819835 -0.16740884
-0.19188559 -0.16133729 -0.18664254 -0.18588153 -0.15774924 -0.21329518 -0.15028353 -0.12108958
00000000: a3f3 d5bd 0aeb 27be 575d 6ebd a947 14bd
00000010: 3ae5 1ebe eb9c 2fbe c7aa 22be b918 2dbc
00000020: b847 30be a4a2 88bd 6307 4f3b e06b 4abe
00000030: 173c 7ebe 92c5 74bd 61da 16be 55ed 11be
00000040: 8f65 2dbe 8e70 24be eb06 1ebe dff4 b3bd
00000050: fe83 0cbe 36d8 04be e593 4ebe bb0c 8dbb
00000060: 84e4 92be 0d74 57be b350 0fbe 7704 edbd
00000070: 66c8 013c 33c4 efbd 5cdf 82be 3768 94bd
00000080: b34e 06be ccec 07be 22a7 2ebe 1d13 1cbe
00000090: 21e7 f3b9 2d1e 69be 3ed9 3a3d 330f 62be
000000a0: 79ec 5bbe 4390 14be e258 f9bd b08c 3ebd
000000b0: 5bc4 19be 3b84 06bd 9bd1 a5bc 41dd 34be
000000c0: 6873 9cbc df9b 9bbe 35d8 66bd fde4 85bd
000000d0: 72ba 1bbe 39d8 1cbe e173 22be d068 1bbe
000000e0: ea80 8bbd 740d f1bd 5b8d 89bd 2945 22be
000000f0: 8b49 efbd c79a 0fbe fb5c 79be e7d1 0dbe
00000100: f5f7 ffbd 8863 31bd 6fd6 6cbe 5450 a6be
00000110: 603b 1bbe 62d7 e9bd 7a76 90bd 1b15 0abc
00000120: 7aa9 77bc d4f5 8fbd 9477 0a3c b82f 92bd
00000130: 0f3b f8bd 115c 8bbd 77ee c2bd 13de 45be
00000140: f228 91bd e7f5 65be 0f52 41be 7492 b4bd
00000150: 8526 38be 92d6 0dbe f435 99be 2724 cbbd
00000160: 28e8 59be 1afd 373b 76e6 04bd 83a6 82be
00000170: c19c c3bd fb01 8abe 61e1 80be ce0b 13be
00000180: 3ab0 45be feda 09be 335d 14be d69a e3bd
00000190: d5af f8bd cca5 5bbd 889b 07be 3d4b bfbd
000001a0: 4bd7 59be 66dc 25be 286e 94be 2ae5 cd3d
000001b0: aaf4 38be aee6 1cbe e0c5 ddbd 7d72 0ebe
000001c0: 7d8e 17be cca3 903d ea66 b2bd aec2 a2bd
000001d0: 5ac0 3ebd 07ce 23be ff42 f2bd 4658 01be
000001e0: 61c6 3cbe 514c c5bd 2eed a4bd 66f4 01be
000001f0: b725 d9bd 5674 36be 4ce0 0dbe 2ae8 ccbd
00000200: bf59 e9bd 1745 56be 84dc d4bd 441a c0bd
00000210: bcdf 44be 39a2 26be 4ea6 90bd 4560 e8bd
00000220: 05b5 e0bd fd62 47be 3bcd 80be 1083 44be
00000230: b48e 29be 157f 233d 0499 e2bd fbb5 48be
00000240: 2f77 34be 740c f6bd b502 53be c485 9bbe
00000250: d5d6 7bbc 423f 13be d960 14be ab1b ae3b
00000260: f605 63be 16f8 4bbe 4762 c8bd 5fb6 46be
00000270: 43f9 80be f7d6 96bd c6ea f8bd 120c 34be
00000280: 32d6 14be 5a23 94bd cfe7 92bd 2dc0 a6bd
00000290: 97db 8fbd 62ea 51be 2047 0dbd 4d13 09be
000002a0: 1abb 26be d8ea 1cbe a2d4 20be 975c 09be
000002b0: ccf8 8bbc ba92 49be ee86 58be 1c86 64be
000002c0: 84ff 97bd f804 75bd 91d6 37be 5301 d7bd
000002d0: b602 24be 4f72 8d3c 2698 31be a69f 51be
000002e0: 6473 40be 6621 aabd 7feb 0cbe e4c6 40be
000002f0: 8858 2bbd 1f5a 66be bb42 91be 8cdd 973c
00000300: 38bc 47bc bba7 0bbe 6c4e 70be 5f82 46bd
00000310: 68d2 71bd 6e58 28be 9e3e babd 2e8b 63be
00000320: 0867 b7bd 8e6f 1ebe c76e 93bc a023 3bbe
00000330: 1a04 79bd 5c4b 81bd fede 43be 4276 7ebd
00000340: 33e3 febd 5bcf 2e3e c56a 13be 8e85 0bbe
00000350: 87ea edbd 4564 b6be 7ff8 b9bd 3ea3 20be
00000360: dede 04be 4cb6 21be 4e58 4bbe f9f8 c3bd
00000370: 37b6 ae3c bfd1 5abd bb1b e1bd 2a2b c5bd
00000380: bb25 0ebe 2161 19be 34ca 913b 781e 09be
00000390: 4059 01be d485 03be 5002 4abe 94c2 53bd
000003a0: 5116 3ebe 23ee 57be c630 49be a706 28be
000003b0: a4f8 10be 00c7 cdbd 994f cfbd 57b4 26be
000003c0: c2ae 31be b7c3 fbbd 90ec 28be e2df 3dbe
000003d0: 84bb c5bd 6540 21be efdc debd 396d 2bbe
000003e0: a87d 44be 9a35 25be 391f 3fbe ba57 3ebe
000003f0: 0489 21be 0d6a 5abe ede3 19be d0fd f7bd

fc2.weight f4 [5, 256]
0.042123698 -0.055743016 0.05696051 0.0013895035 -0.038602628 0.03496027 0.04956536 0.026709743
0.0110195875 0.039089054 -0.0091083795 0.0063428804 0.031213738 0.011798859 -0.042292014 0.0075466484
0.0039478764 0.013079472 -0.06207777 0.055029914 -0.045601726 0.046330296 -0.055486605 -0.050983675
-0.02489505 -0.0051212236 0.01762674 -0.022776015 0.049090438 -0.039463148 -0.031100735 0.049460128
-0.035118125 0.03280644 -0.024804205 0.05233662 -0.055909894 -0.026399538 0.06187228 -0.034300245
0.009617187 0.014051124 0.042102516 -0.05204071 -0.0032782555 0.0061606094 0.050961003 -0.04569637
0.050438218 -0.04497578 -0.033004493 -0.0017759204 -0.006461896 0.017610379 -0.061396733 -0.013463579
-0.052210018 -0.053653024 -0.020974651 -0.05270838 -0.021001883 0.008626811 0.03395915 0.04481394
0.03107503 -0.04018517 0.04681799 0.045214668 -0.000187926 0.012844548 0.028731711 -0.0143066645
-0.0294298 0.011934742 -0.058124147 -0.040603913 0.061703525 0.058904357 -0.001946196 0.03505005
-0.05362931 0.021444231 -0.052898906 0.048687473 -0.035770185 -0.035162874 0.026760422 -0.06027525
-0.01170136 0.051902182 0.017540649 -0.013055779 0.020543672 0.027294248 -0.014216818 -0.0203726
0.04432717 0.01575762 0.054974675 -0.014121883 0.03317368 -0.009789631 0.037197508 -0.03404072
0.038713023 -0.054096214 0.009503387 0.0019484013 0.039647564 0.018130496 0.01517313 -0.009725437
-0.051609986 -0.048462234 -0.059027314 -0.003032498 -0.021099761 -0.02810014 -0.015113197 0.015859425
-0.013955392 -0.015273944 -0.02666556 0.040667422 0.00051584095 0.027448758 0.054821722 -0.022273459
-0.0028099045 -0.047223926 0.042682737 0.010461129 -0.058139183 0.03617467 0.0066709146 -0.04070647
-0.013405733 0.036429957 0.03018327 0.015490286 0.02862022 0.02423878 -0.014782555 -0.020669542
-0.047167704 -0.04221715 -0.0068895817 -0.025856912 -0.059538625 -0.05355724 -0.023841716 -0.04993008
-0.055813856 0.046051085 0.022046395 0.004430622 0.006732397 0.018800497 0.04279592 0.0046172887
0.021397628 0.061191708 0.033837892 0.028548598 0.037149742 -0.04798922 -0.04485845 -0.029215582
-0.0493685 -0.018049732 0.0505258 -0.00078394264 -0.04310555 -0.049140967 -0.03190638 0.059452295
0.015242457 -0.03507358 0.010839798 -0.04982456 0.0494435 -0.048851572 0.061413005 -0.026906267
0.05616612 -0.04134731 -0.0044836476 -0.040328763 -0.0063190013 -0.029148333 -0.03519153 -0.043648556
0.04779782 0.03628383 -0.057381064 0.050741673 0.032000132 -0.021092057 0.009902425 -0.05950039
0.04148075 -0.027222082 0.019802906 0.038345143 -0.05740671 0.039989218 -0.038650297 0.0021248162
0.039306037 0.037276834 0.004026212 0.049340114 -0.04504072 -0.028910853 0.014631607 0.033744343
0.041717127 -0.0578359 0.04700657 0.057906292 -0.053663194 0.04929617 0.05650775 -0.012783848
0.0075302273 -0.05474846 -0.05304189 -0.047639735 -0.0040666237 -0.04068567 -0.05816275 0.05353588
0.029459402 0.015954606 -0.038069673 0.05113007 0.028464705 -0.03832782 -0.05880654 -0.03019023
-0.01383888 0.060869038 0.027796961 0.0035567358 -0.05545514 0.052034974 -0.009223089 -0.016344108
0.02429802 -0.018030643 0.06020025 -0.060472757 -0.005449444 0.057305552 -0.028786786 -0.036118075
00000000: e689 2c3d ca52 64bd 6c4f 693d 0020 b63a
00000010: ca1d 1ebd 8032 0f3d 0c05 4b3d 64ce da3c
00000020: 808b 343c d81b 203d 503b 15bc f0d7 cf3b
00000030: f4b3 ff3c 0050 413c 643a 2dbd e049 f73b
00000040: 305d 813b 484b 563c 4245 7ebd 0c67 613d
00000050: e0c8 3abd d6c4 3d3d ec45 63bd 42d4 50bd
00000060: b4f0 cbbc f0cf a7bb f465 903c c494 babc
00000070: 0e13 493d 1ca4 21bd f8c6 febc b496 4a3d
00000080: 06d8 0fbd 0c60 063d 3032 cbbc ec5e 563d
00000090: c601 65bd d843 d8bc ca6d 7d3d 6a7e 0cbd
000000a0: 6891 1d3c b036 663c b073 2c3d a428 55bd
000000b0: 00d8 56bb f0de c93b 7cbc 503d 1e2c 3bbd
000000c0: 4e98 4e3d 8638 38bd b82f 07bd 00c6 e8ba
000000d0: 50be d3bb a443 903c 247b 7bbd 5896 5cbc
000000e0: 2cda 55bd 46c3 5bbd 08d3 abbc bee4 57bd
000000f0: 240c acbc 7857 0d3c c018 0b3d d28e 373d
00000100: 1091 fe3c 3499 24bd 38c4 3f3d 0433 393d
00000110: 000e 45b9 f071 523c c45e eb3c 8066 6abc
00000120: c416 f1bc f089 433c 9613 6ebd 4a50 26bd
00000130: d6bc 7c3d b245 713d 8017 ffba a490 0f3d
00000140: 68aa 5bbd d0ab af3c 86ac 58bd 846c 473d
00000150: c283 12bd f206 10bd ac38 db3c 2ee3 76bd
00000160: 10b7 3fbc 6297 543d 68b1 8f3c e8e7 55bc
00000170: 344b a83c 3098 df3c a8ed 68bc 70e4 a6bc
00000180: 6890 353d 2016 813c 202d 613d 785f 67bc
00000190: 20e1 073d b064 20bc 6a5c 183d 486e 0bbd
000001a0: 8c91 1e3d fe93 5dbd 18b4 1b3c 8061 ff3a
000001b0: 7c65 223d 6886 943c b898 783c 7057 1fbc
000001c0: fe64 53bd 5680 46bd a0c6 71bd e0bc 46bb
000001d0: 68d9 acbc 4432 e6bc 589d 77bc a0eb 813c
000001e0: 28a5 64bc 903f 7abc bc71 dabc e292 263d
000001f0: 8039 073a 38dc e03c be8c 603d d476 b6bc
00000200: 6026 38bb e06d 41bd 18d4 2e3d 2865 2b3c
00000210: 5a23 6ebd e42b 143d b097 da3b d4bb 26bd
00000220: b8a3 5bbc 9437 153d e842 f73c f8ca 7d3c
00000230: f474 ea3c 6890 c63c 8832 72bc 2c53 a9bc
00000240: ec32 41bd e4eb 2cbd 00c2 e1bb e0d1 d3bc
00000250: c6de 73bd d65e 5bbd b44f c3bc 7c83 4cbd
00000260: 129d 64bd 10a0 3c3d a49a b43c c02e 913b
00000270: 709b dc3b 8003 9a3c c64a 2f3d a04c 973b
00000280: 144a af3c 28a4 7a3d 9a99 0a3d c0de e93c
00000290: 542a 183d 5890 44bd 7ebd 37bd 8455 efbc
000002a0: a036 4abd 08dd 93bc 24f4 4e3d 8081 4dba
000002b0: 728f 30bd 0a48 49bd 44b0 02bd 4084 733d
000002c0: 80bb 793c 50a9 0fbd 6899 313c d614 4cbd
000002d0: 4485 4a3d 9618 48bd 348c 7b3d 886a dcbc
000002e0: 720e 663d cc5b 29bd 90eb 92bb c62f 25bd
000002f0: a00f cfbb 7cc8 eebc fe24 10bd d4c8 32bd
00000300: a6c7 433d 5a9e 143d 6808 6bbd 80d6 4f3d
00000310: 9212 033d 40c9 acbc c83d 223c aeb6 73bd
00000320: b8e7 293d d800 dfbc b439 a23c cc0f 1d3d
00000330: 4c23 6bbd bccb 233d c64f 1ebd 8040 0b3b
00000340: 5eff 203d 98af 183d 50ee 833b dc18 4a3d
00000350: 9e7c 38bd 74d6 ecbc 68b9 6f3c 8237 0a3d
00000360: 94df 2a3d 56e5 6cbd f689 403d 262f 6d3d
00000370: f0cd 5bbd c8ea 493d ac74 673d 5873 51bc
00000380: 20c0 f63b ec3f 60bd 7442 59bd e221 43bd
00000390: 5041 85bb 04a6 26bd 103c 6ebd 7048 5b3d
000003a0: d854 f13c 3cb3 823c f2ee 1bbd c46d 513d
000003b0: d02e e93c a2fd 1cbd 20df 70bd 8051 f7bc
000003c0: 78bc 62bc d051 793d 74b6 e33c 2018 693b
000003d0: ee24 63bd a022 553d 701c 17bc 14e4 85bc
000003e0: a40c c73c 00b5 93bc 8a94 763d 48b2 77bd
000003f0: 4091 b2bb 3ab9 6a3d 44d2 ebbc 8cf0 13bd

fc2.bias f4 [5]
-0.020561717 0.048897147 -0.031730488 -0.051509894 0.07721981
00000000: 0c71 a8bc 6048 483d d4f7 01bd 0afc 52bd
00000010: 6b25 9e3d
