Models/Torch2/my_model3600.pth (torch_old, 60054 bytes, 8 tensors)

conv1.weight f4 [16, 2, 3, 3]
000000 a0 06 0c 3d 1a bd 5d be c7 c3 10 3c dc 0b c0 bd
       0.034186006 -0.21654168 0.008835739 -0.09377262
000010 53 e1 80 bd c8 13 57 be 4b fd 28 be 34 88 31 be
       -0.06292977 -0.2100364 -0.16502874 -0.17337114
000020 18 8e 44 be a6 d9 2b be d6 31 62 3e a2 bc b8 3d
       -0.1919483 -0.16782245 0.22089323 0.09020354
000030 88 21 8a bc 93 52 6b be 11 55 21 3e b1 31 25 3e
       -0.016861692 -0.22980718 0.15755107 0.16132237
000040 ee b3 7b 3d 10 a4 30 bd c7 b9 d0 bd e7 d1 a5 bd
       0.06145089 -0.043125212 -0.10191684 -0.08096676
000050 22 68 84 3e 93 44 02 3e e5 64 df bd e6 2b 94 3e
       0.25860697 0.12721471 -0.10907916 0.28939742
000060 97 89 eb 3d 72 7b 95 3d 18 17 5e 3e a3 b9 ed 3d
       0.115008526 0.07298936 0.21688497 0.11607673
000070 8a 8e ad 3c fa 77 b2 3d 09 0f c8 bd 15 f5 2d 3e
       0.021186132 0.0871429 -0.09768493 0.16988023
000080 e0 ad 2a be de 09 10 be 12 f7 55 3e 6a 64 92 bd
       -0.1666789 -0.14066264 0.20895031 -0.07148059
000090 7c 56 69 3e 9f 1f 34 be 6f 7b 5b 3e e4 a2 58 be
       0.22786897 -0.17590187 0.21433805 -0.21155888
0000a0 d9 a2 45 bd ed 31 d4 bc 6c ea 4d be 37 a6 7c bd
       -0.048251007 -0.025902713 -0.20108956 -0.061681952
0000b0 7b 35 5f 3e a0 24 75 bd 0c 2b 4f be 1f 6f 73 be
       0.21797745 -0.05984938 -0.20231265 -0.23772858
0000c0 de 9c 88 3c 7a 34 7c bd ae b4 32 3c ea a9 ea ba
       0.016676363 -0.061573483 0.010907335 -0.0017903422
0000d0 10 ed b2 3d 90 66 43 be cc 38 5d bc 12 7c 0c be
       0.08736622 -0.19082093 -0.013502311 -0.13719204
0000e0 0a 41 f6 3b 54 ee 34 3e b6 8d 3e 3e 37 56 14 3d
       0.0075150775 0.1766904 0.18608746 0.036215033
0000f0 3f 1e 13 be ec 59 46 3e a3 99 6e 3e 98 9b c8 bd
       -0.14367007 0.1937024 0.23300795 -0.09795302
000100 c2 5a a2 bc 7d f1 0e 3e f5 48 e5 3c d4 6d 9f 3d
       -0.019818667 0.13959308 0.02798889 0.0778462
000110 88 20 3c 3e 00 d8 01 be 1d 01 08 3e a1 92 17 3d
       0.18371785 -0.12680054 0.13281675 0.03700507
000120 ae e4 19 be ce 19 fc bc 79 bd 38 3e bf df 31 be
       -0.1502864 -0.030774023 0.18041028 -0.17370509
000130 21 b9 56 3e 2d c9 80 bd 60 0b 2b be d7 b8 87 3e
       0.20969059 -0.06288371 -0.16703558 0.2650821
000140 89 e2 b7 bc 1d a1 82 3d 49 17 30 be d0 2e 0a 3e
       -0.022446888 0.06378386 -0.17196383 0.1349442
000150 cf c1 31 3d 34 a9 1a 3d d9 dc 6f 3c f4 2a c9 3d
       0.04339772 0.03775902 0.0146400565 0.09822646
000160 be 91 3b 3e c8 cc 29 be c8 6f 7f 3d 8f d8 4c 3d
       0.18317315 -0.16582024 0.062362462 0.050011214
000170 02 30 09 bd 6a df 17 3e ad 19 e6 3d 4a 91 74 3e
       -0.03349305 0.1483132 0.11235366 0.23883548
000180 ba 38 67 be e1 4b 1b 3e 06 4b 68 be fa f7 38 be
       -0.22580233 0.15165664 -0.22684869 -0.18063346
000190 e5 64 34 be 41 3b 71 be 05 65 9a bc 69 88 2b be
       -0.17616613 -0.2355776 -0.018846998 -0.16751255
0001a0 0c 1a 69 bd 8e 3e 0e be 94 0f 1f be 69 a4 4a 3e
       -0.056909606 -0.1389105 -0.15533286 0.1978928
0001b0 b6 b2 05 3e e6 38 ab bd 10 ee 00 bd 54 1f b9 bd
       0.13056454 -0.08360462 -0.031477034 -0.090391785
0001c0 ad 5b aa 3d 90 a8 2a be 8c f3 08 3e fe 6e 5f 3e
       0.08318267 -0.16665864 0.13374156 0.21819684
0001d0 4b 85 04 3e 83 84 36 3d 16 9b db bd 96 5c 90 3d
       0.12941472 0.044559967 -0.1072294 0.07048909
0001e0 ae f7 4c 3e 9b c0 4f 3e 46 a8 57 be ea 5c bd bd
       0.20016357 0.20288317 -0.21060285 -0.092462376
0001f0 3a 1b 40 be ef 20 1a be 8c 81 60 bc 85 87 93 bd
       -0.18760386 -0.15051626 -0.013702761 -0.07203583
000200 8b 27 3b bd 61 db 26 be 2d 38 a5 3d e9 5c 5a 3b
       -0.045692008 -0.16294624 0.08067355 0.003331954
000210 87 d3 5c bd 25 cb d2 bd 58 11 bf 3d c8 dd 30 bd
       -0.053912666 -0.10292653 0.0932948 -0.043180257
000220 6b ef 2a be 3c 64 4b be 95 86 59 3e 92 0b 49 be
       -0.16692893 -0.19862455 0.21242745 -0.1963332
000230 07 e6 17 be b9 32 95 bc 3a a1 d9 bd a6 8d 25 be
       -0.14833842 -0.018212663 -0.10626455 -0.16167316
000240 6d 62 9c bd 1a 91 12 3e e8 75 ae bd fc e4 2f be
       -0.07635961 0.14313164 -0.085185826 -0.17177194
000250 cc 86 3c be b9 67 03 be 20 ec a4 bc a1 4d 6d be
       -0.18410796 -0.12832536 -0.020132124 -0.23174144
000260 90 fa 8c 3c f2 3f ff bc f8 95 11 be 6d 08 52 3e
       0.017209321 -0.031158421 -0.14217365 0.20511027
000270 44 46 09 3d ec 80 aa 3d 32 54 cd 3d de 60 73 3e
       0.033514276 0.08325371 0.100258246 0.2376742
000280 03 3b 61 3e d8 2b 80 3c 6c a7 57 be 1c 72 3d 3e
       0.21995167 0.015645906 -0.2105996 0.1850056
000290 f2 e6 2f 3e 94 d4 c8 3d a6 08 58 3d 30 0b 5c 3e
       0.17177942 0.09806171 0.052742623 0.21488643
0002a0 6f 23 22 be 25 b8 96 3d 6b 9e 47 3d ee ba f7 bd
       -0.1583383 0.073593415 0.048735064 -0.12096201
0002b0 eb 03 ab bd a8 1b dc 3d 81 26 d3 3d 7a 96 3e 3e
       -0.08350357 0.107474625 0.103100784 0.1861209
0002c0 2f 69 7c bd ce 30 9b 3d be f1 ab bb 64 d7 45 3e
       -0.06162375 0.07577668 -0.005247324 0.19320446
0002d0 ca 09 8b 3d ef 18 64 3d 7f 7a 98 3d 2b e1 25 3e
       0.067889765 0.05568784 0.07445239 0.16199176
0002e0 63 d8 47 3d d7 c4 6f be 42 51 34 3e 56 26 8d bd
       0.048790347 -0.23414932 0.17609122 -0.068920776
0002f0 26 76 af bd 46 28 27 3e 44 cd 51 bd 43 7c 30 3b
       -0.08567457 0.16323957 -0.051221147 0.0026929535
000300 87 9c 18 bc 70 0a bb 3d e9 b3 62 3d 4f 4b 12 3e
       -0.009314663 0.0913285 0.055347357 0.1428654
000310 8d f1 66 3d 30 0c b8 3d 39 8d a1 bd 1d c1 24 be
       0.056382705 0.089866996 -0.07888264 -0.16089292
000320 2c b8 79 3e 8b e7 82 3d 44 53 c4 bd 67 34 51 3e
       0.24386662 0.063918196 -0.09586194 0.20430146
000330 f8 69 29 be 33 ae d5 3c 60 ef da 3d 70 98 4e 3e
       -0.1654433 0.026084041 0.106901884 0.20175338
000340 60 c2 1a 3e 5d d5 8e bd 32 62 a2 3d 58 70 8b 3d
       0.1511321 -0.069742896 0.079288855 0.06808537
000350 9b 95 e3 3d a1 6e 46 3e 97 3b e0 3d 0f 13 ef 3d
       0.11112519 0.19378139 0.10948866 0.11673557
000360 64 77 9c bd 3d 62 cd bc 9b 1f 4c 3d 5e db 41 3e
       -0.076399595 -0.025071258 0.04983483 0.18931338
000370 03 8d 55 bd 4b 05 34 be 50 4d 29 3e aa 61 48 be
       -0.052136432 -0.17580144 0.16533399 -0.19568506
000380 2f ef 93 3d 32 54 e1 bd 62 78 89 bd 90 93 68 bd
       0.07223355 -0.11002387 -0.06712414 -0.05678135
000390 0b e4 0f be 6a fc e2 3b 82 0e 79 3e ce b1 53 be
       -0.14051835 0.0069270628 0.2432194 -0.20673296
0003a0 b1 c5 d3 3d ef 8b 13 3d cf 83 0e be 27 46 79 bc
       0.10340441 0.036022123 -0.13917468 -0.0152144795
0003b0 4b c8 65 be 3a 3e 28 be ed 8f ef 3d 73 03 1e 3e
       -0.22439687 -0.16429988 0.116973735 0.15431003
0003c0 15 25 52 3e 5c 3e 8a bd 05 07 18 3e 18 ed 58 3d
       0.20521958 -0.06750175 0.14846428 0.052960485
0003d0 d6 f1 2d 3e 6d 24 d4 bd 5b 06 25 be 1e 89 40 3e
       0.16986784 -0.1035851 -0.16115706 0.18802306
0003e0 83 33 11 be 29 72 2b be a3 8d 48 3b e4 63 80 3d
       -0.14179806 -0.16742767 0.0030602 0.062690526
0003f0 50 b5 12 3e 32 0c 64 be cb 34 2a 3e 22 80 a5 3d
       0.14326978 -0.22270277 0.16621701 0.0808108

conv1.bias f4 [16]
000000 e4 cc 88 bd aa 40 73 3d 04 5a 14 3e dc ff ec 3d
       -0.06679705 0.05938784 0.14487463 0.11572239
000010 0d e8 02 bd 0d be 0a 3e 9d d7 7b be a9 d2 88 bb
       -0.031959582 0.13549061 -0.24593969 -0.0041755033
000020 f8 66 d7 bb cf 64 e6 bc 99 c3 36 be b6 b8 a5 3d
       -0.006573554 -0.028124241 -0.17848052 0.080918714
000030 d5 b3 30 be 8b 87 36 bc 42 10 2b be 04 f1 f1 3b
       -0.172561 -0.011140714 -0.1670542 0.0073834676

conv2.weight f4 [32, 16, 3, 3]
000000 bf 13 c8 bb f4 aa 83 bd 9c 1b 1e bd 7b d0 1c bc
       -0.0061058695 -0.06429091 -0.03860055 -0.00957119
000010 fd a1 ca 3c 9e 6c f4 3c a4 3f 03 bd e8 59 7d bd
       0.024735445 0.029836949 -0.032043114 -0.06185332
000020 55 68 7e 3d 47 3f ac 3d 68 c4 bd bd 01 23 1b 3d
       0.062111218 0.08410507 -0.09265977 0.03787518
000030 a3 e4 2e bc 84 d1 50 3d b7 14 cc 3d 5a 4b 04 3d
       -0.010674628 0.05098106 0.099648885 0.032298423
000040 6d 19 45 3d 0f 41 ac bb 32 e8 ce 3d 20 0a e3 bc
       0.04811995 -0.005256779 0.101028815 -0.027714789
000050 3f 31 c9 3d 03 6e 02 bd fb 2b 10 bd ef d6 68 3c
       0.09823846 -0.031843197 -0.035198193 0.0142114
000060 8a cb 04 bd 1e 4e 54 3d 47 f5 c7 3c f6 bc af 3b
       -0.032420672 0.05183231 0.02440895 0.005363102
000070 f5 4e 63 3b aa 31 94 3d 59 0e 57 bd b3 a6 71 3d
       0.0034684513 0.07236035 -0.052503917 0.058996867
000080 93 ee b8 3d 01 b8 92 3d 7d f1 82 3d 40 60 d5 3c
       0.090298794 0.07164002 0.063937165 0.026046872
000090 d7 3b 92 3d 54 da c2 3c 2e 9c 64 3d ee c2 6f 3d
       0.0714032 0.023785748 0.055813007 0.05853551
0000a0 d8 0c 88 3c 56 27 8f bd 6a 13 74 3d c3 b9 5a 3d
       0.016607687 -0.069899246 0.059588827 0.053399812
0000b0 c8 4c a5 3c 14 8a 4b bd 82 2b 21 bb ae a7 af bd
       0.020178214 -0.04969223 -0.0024592583 -0.08576904
0000c0 34 b1 d4 3c d7 12 17 3c fc c4 4b 3b 1a e9 2a bc
       0.025963403 0.0092208 0.0031092754 -0.010431552
0000d0 a0 b9 02 bd d6 8b 6b bd 1b 26 8e bd fc 2a 4d 3c
       -0.031915307 -0.057506405 -0.06940862 0.012522455
0000e0 14 69 9f 3c e9 d9 97 bd de aa 30 bd 9f 6e ff bc
       0.019459285 -0.0741461 -0.0431317 -0.031180678
0000f0 9a 2d 9f bc 5b 75 85 3d e2 56 1d bb d5 2d 45 bd
       -0.019430924 0.065165244 -0.0024008085 -0.048139412
000100 be 2f 66 3b 28 d0 72 bd 69 2d 88 3d a7 20 40 ba
       0.0035123671 -0.059280545 0.06649286 -0.00073290843
000110 ad 61 82 bd 48 20 d8 3c e9 36 6f bd 29 e5 6c 3d
       -0.063662864 0.02638258 -0.058401976 0.05783573
000120 02 17 40 3d ad 52 86 3c a1 31 75 bd aa 97 88 3d
       0.046896942 0.016396845 -0.059861783 0.066695526
000130 46 a3 a0 3b ce 6f 45 3d 3e c0 2d 3d 1e f3 ef bc
       0.004902276 0.04820233 0.042419665 -0.029290732
000140 bb ef 2f 3d bb 50 59 3d d6 a3 7b 3c 6f 2e 2d bd
       0.042953234 0.053055506 0.015358886 -0.04228061
000150 e2 cc 47 3d f6 bf 81 3b b3 d1 81 3d b5 8e 33 3a
       0.048779376 0.003959651 0.06338825 0.0006849573
000160 4b a8 6a bd b0 7e c7 bc e4 29 cf bc 4e 03 c4 3c
       -0.057289403 -0.024352401 -0.02528853 0.023927357
000170 f8 d9 fc 3c 3b cf d5 3c e7 c9 98 bd 0d 85 69 bd
       0.030865654 0.026099792 -0.07460385 -0.057011653
000180 10 ec 96 ba aa 11 00 bd 76 83 bc bc 88 04 34 bd
       -0.0011514444 -0.031266846 -0.023011904 -0.043949634
000190 de d3 46 bd 6b 4a 83 3c 41 8c 77 3d 57 19 2e bd
       -0.048541896 0.016026696 0.06043649 -0.042504635
0001a0 f1 80 99 3d 00 6a 86 3d ac 42 80 bd 6d 25 87 3d
       0.07495297 0.06563187 -0.06262717 0.06598935
0001b0 5f bc 73 bd 77 9f 1b bd a5 14 84 3d 12 24 6b 3d
       -0.059505817 -0.037993874 0.0644925 0.057407446
0001c0 a5 82 01 3d a9 36 52 bc c3 1e 47 bd a9 00 f2 3c
       0.031618733 -0.012830415 -0.04861332 0.02954133
0001d0 bc f5 a3 3d 4f 2b a6 bc 8d 8b a3 bd 4b a0 31 3c
       0.080058545 -0.020284323 -0.079856016 0.0108414395
0001e0 34 eb b9 3d 52 6f a8 bc 2b 6a 49 bd 75 15 a8 3c
       0.090780646 -0.020560894 -0.049173515 0.020518044
0001f0 8b d6 da bc e7 dc 37 3d be 29 49 3d a9 2a 44 3c
       -0.02671363 0.044888403 0.049112074 0.011973062
000200 8f 60 86 bd e6 f5 a2 39 6b ff 4a 3d bd dc 8b bd
       -0.06561386 0.00031082256 0.04955999 -0.06829212
000210 ab ed 6b 3d 40 5e 59 bd 08 87 09 3d fd c5 99 bc
       0.057599705 -0.0530684 0.03357604 -0.018771166
000220 01 d4 79 bd af 5f 90 3d 72 32 27 3d 5b b5 7a 3c
       -0.0609932 0.070495 0.040819593 0.015302028
000230 cc 67 7d 3d 1c 2b 06 3d 51 4d 79 3d 9d dc 18 3d
       0.061866567 0.032755956 0.06086475 0.03731977
000240 75 34 66 bd ea 28 83 3d 3b 9c 4d bd 64 2e 23 bb
       -0.05620237 0.06404288 -0.05019782 -0.0024899477
000250 9e 41 a3 bd a4 74 12 3d 21 45 cb bc 02 5f 11 bd
       -0.079715 0.03575577 -0.024813237 -0.035490997
000260 4b 64 9c 3d 23 fd f5 3d a2 f9 ac bd 52 39 5f 3e
       0.07636317 0.120111726 -0.08446051 0.2179921
000270 9c 9c 8a bd 15 11 7d bd 78 be 0b 3d b1 61 04 3d
       -0.06768152 -0.06178387 0.034117192 0.03231973
000280 3d fe 9a bd 49 23 a4 3b 0a 98 40 bd e5 e7 a5 bd
       -0.07568023 0.005009089 -0.047019996 -0.08100871
000290 39 e7 90 3d 1d 5a 8d 3d 0d 20 39 bd 72 7d fe 3d
       0.07075352 0.06901953 -0.04519658 0.124262705
0002a0 95 45 ac 3c 7b 35 33 3d 41 14 fb 3b c5 5f 5e 3d
       0.021029273 0.043752175 0.0076623266 0.05429055
0002b0 eb cc 60 bd 8d c1 c6 3c ad b0 4f bd 63 24 ac 3b
       -0.054882925 0.024262214 -0.0507056 0.005253361
0002c0 5c af 36 3d 26 26 ba 3b 02 07 ac bb a0 35 85 3d
       0.04460083 0.005680817 -0.005249859 0.06504369
0002d0 2b 72 e5 3c 27 21 5b bd aa 09 5c bd ed 24 61 3d
       0.028008541 -0.053498413 -0.053720154 0.054966856
0002e0 af e0 67 bb 7c d4 25 bb d8 b1 e0 bc 44 29 55 bc
       -0.0035381725 -0.0025303653 -0.027428553 -0.013010327
0002f0 40 bc d1 3c af a6 68 3d e5 a1 a9 bd 1f 23 c1 3d
       0.02560246 0.056799587 -0.08282832 0.09430527
000300 28 df 9c 3d 99 9e 3c bd 86 91 e2 3c e5 37 f3 3c
       0.07659751 -0.046049688 0.027657282 0.029689739
000310 d7 55 a8 bc 5f a0 88 bd eb 40 35 3d ce 23 7d 3d
       -0.020548744 -0.06671213 0.044251364 0.061801724
000320 54 bf 69 3d 93 00 80 3d 63 e2 d7 ba 2f b7 dd 3c
       0.05706723 0.062501095 -0.0016470667 0.027064888
000330 50 43 2b bc 48 ce 7d 3d 02 a7 06 bc c9 60 7d 3d
       -0.01045306 0.061964303 -0.008218529 0.06185988
000340 29 d8 93 bb 5b 47 8b 3d 74 75 ae 3d cf 59 d6 3c
       -0.0045118523 0.06800719 0.08518496 0.026165871
000350 0f 23 59 bd 82 a9 c1 3c d5 87 29 39 34 49 3c bd
       -0.05301195 0.023640398 0.00016167697 -0.04596825
000360 f7 fc 0f 3d 48 f9 2a 3d 41 42 e2 3c 14 2f b3 bd
       0.035153355 0.04174164 0.027619483 -0.08749214
000370 2f d6 be 3c 4b a7 a8 bd 1c 35 d8 3c 23 38 4b 3d
       0.02329549 -0.082350336 0.026392512 0.049614083
000380 9d 46 90 bd 97 dd 5f bd a7 68 4e 3d 44 db a7 3d
       -0.070447184 -0.054654684 0.050392773 0.081961185
000390 a6 2f 65 bd d7 f8 6a bd 8d b0 ec 3d 4d 51 24 3d
       -0.055953644 -0.05736622 0.11557112 0.040116597
0003a0 6b 81 93 bd e9 70 91 bc 7d 9a a3 bd f4 82 74 3c
       -0.07202419 -0.017754035 -0.07988451 0.0149238
0003b0 70 6e 96 bc 6a 6a 6a 3a 59 82 a2 3d a6 2e 20 bd
       -0.018363208 0.00089422485 0.07935018 -0.039106987
0003c0 53 bd 54 bd f4 fa 6b 3d fd 5f 4b 3d aa dd 6b 3d
       -0.051938366 0.057612374 0.04965209 0.057584442
0003d0 10 ee 0e bd d6 4e 18 3e d4 ef 91 3d 4d 67 89 3b
       -0.034895003 0.14873824 0.07125822 0.0041932226
0003e0 7b fd cb 3d 96 8a 6c 3d f6 67 af bd 45 ec cf 3d
       0.09960457 0.057749353 -0.08564751 0.10152487
0003f0 97 87 9d 3d 46 88 0c 3b e1 9d 73 bd 53 43 68 bd
       0.07691877 0.002144353 -0.059476737 -0.05670483

conv2.bias f4 [32]
000000 39 5a e2 3c eb 50 25 bd d6 da be bc 40 a5 b2 3d
       0.027630912 -0.040360373 -0.023297708 0.08722925
000010 24 6d df 3d 81 43 b0 3d 8e 74 16 bd f9 9f 4b bd
       0.10909489 0.08606625 -0.03673225 -0.04971311
000020 f1 f6 33 3d 30 06 a1 3d ed e3 c7 3c 8c 35 e0 bc
       0.043936674 0.07862508 0.024400676 -0.027369283
000030 01 a5 c2 bc d7 dd 2d bb 2c 6c bc 3d 5c 9e 5c 3d
       -0.02376032 -0.0026529932 0.0920032 0.05386196
000040 74 a9 63 3d b9 d4 d5 bc 4f 5c 36 3c 26 fe 42 3c
       0.055581525 -0.02610241 0.0111304065 0.011901414
000050 64 97 c3 3c e3 e8 ae bd 6e 81 af bd 21 1d bc bd
       0.0238759 -0.08540513 -0.08569609 -0.091852434
000060 45 30 22 bd 2c e7 ef bc 65 29 13 3d 9f f6 66 3d
       -0.039596815 -0.029285036 0.03592815 0.05638754
000070 92 fa 6c bc 34 d4 28 bd ab 6e 88 bd 12 e2 2c bd
       -0.0144640375 -0.041217998 -0.06661733 -0.042207785

fc1.weight f4 [256, 32]
000000 d0 8e 68 3d 9a f8 ba 3d cd 7f c5 bd 80 e8 13 3c
       0.05677682 0.09129448 -0.09643517 0.0090276
000010 60 03 25 3d 78 03 4e 3d 98 72 78 3d 30 a8 8c bd
       0.04028642 0.050296277 0.06065616 -0.06868017
000020 78 04 31 3d 4b 8b 1f be 28 bc dd bc c9 0d 2a 3e
       0.043217152 -0.1558048 -0.027067259 0.16606821
000030 a6 5b f3 3d ab 76 18 be 12 42 63 bd e2 99 c0 3d
       0.11882715 -0.14889018 -0.05548293 0.09404351
000040 a8 f1 78 bd 9b 60 1b 3e 02 de 9a 3d cb a4 aa bd
       -0.060777336 0.15173571 0.07561876 -0.08332213
000050 a4 7f 0f bd 80 81 d8 bc ac 58 89 3d 20 00 47 bd
       -0.035033837 -0.026428938 0.06706366 -0.048584104
000060 0d 8b cf bd 10 9e 94 bc ca eb 9d 3d bf 5f b7 bd
       -0.10133944 -0.018141776 0.07710989 -0.08953809
000070 a6 7e 2c be 20 3f 01 3c 30 50 f5 bd 40 1d f9 3c
       -0.16845188 0.007888585 -0.11978185 0.030409455
000080 7c 06 12 3e 78 aa 1d be b0 e3 04 be 70 bd d1 bc
       0.14260286 -0.1539706 -0.12977481 -0.025603026
000090 7a e5 e1 3d 4c 02 e5 3d 36 81 c2 bd 13 e4 6a bd
       0.11030097 0.11182079 -0.09497301 -0.057346415
0000a0 18 1e 14 bd 9e a7 2b 3e 12 59 a8 bd 99 1c 1d 3e
       -0.036161512 0.1676316 -0.08220114 0.1534294
0000b0 80 fc be bd 84 fa f5 3d c3 1d 05 3e c4 fa 1b 3e
       -0.09325504 0.12010673 0.12999634 0.15232378
0000c0 3b 4e 0f 3d 89 38 02 3e 44 5d f9 bd d6 d4 30 bd
       0.034986716 0.12716879 -0.12175992 -0.043171726
0000d0 e2 40 bc bd 97 73 94 3d ab 36 db bd ba 2a 85 bd
       -0.09192063 0.072486095 -0.107037865 -0.0650229
0000e0 ae 4b 1a bd 28 fe b3 3d cf f1 e8 3d 04 bc 90 3d
       -0.03766983 0.08788711 0.11374246 0.07067111
0000f0 86 76 17 3e 22 65 f8 3d 73 9e 78 3d 1e f5 79 bd
       0.14791307 0.121286646 0.060697984 -0.061024778
000100 80 22 09 bd e9 a8 22 bd e9 57 2e be e2 3a 40 3d
       -0.033480167 -0.039711867 -0.17025723 0.046931155
000110 5e bb cb 3d 39 0a ed 3d dc 29 c1 3d 16 ee dc 3d
       0.09947847 0.115742154 0.09431812 0.10787599
000120 5d af 92 3b 55 fc 1a 3e 93 63 1f 3e 2d 08 ba 3c
       0.0044764713 0.1513532 0.15565328 0.022708977
000130 23 61 31 3b b3 63 30 be 7e db 1a be 09 5d 7b bc
       0.0027065955 -0.17225532 -0.15122792 -0.0153420055
000140 8b f2 03 be b0 46 bc 3c 7f d0 2a 3e 9c 4a 8b 3d
       -0.12885492 0.022982925 0.16681097 0.0680134
000150 d3 ce dd 3d f8 8f 09 be 88 e1 8d bc 22 d1 09 3e
       0.10830464 -0.13433826 -0.017319456 0.13458684
000160 d2 0e ef 3d f8 7e 88 bc 1c 4b 20 bd 45 5e 1d 3e
       0.116727486 -0.016662106 -0.03913413 0.15367992
000170 d0 8f a2 bc 4e 70 36 be 8b a5 58 3d 20 eb f6 3c
       -0.019843966 -0.17816278 0.05289225 0.030141413
000180 bb 59 18 be b7 f6 ee bd 7a 4f 15 3d 43 56 20 be
       -0.1487798 -0.11668151 0.036452748 -0.15657906
000190 55 43 ef 3d c5 f6 ed bd 77 41 2e 3d 12 80 24 be
       0.116827644 -0.11619333 0.0425429 -0.1606448
0001a0 9f 05 1a be dc f5 cc 3d 4e 74 dd 3d 8b 57 bb bd
       -0.15041207 0.100078315 0.10813199 -0.09147557
0001b0 36 c5 de 3d 2b ea 0d be af df 0e be 25 82 eb bd
       0.10877459 -0.13858859 -0.13952516 -0.114994325
0001c0 71 58 25 bd 27 50 06 3e 02 c5 90 3c 56 f3 09 3e
       -0.040367547 0.13116513 0.017672066 0.13471732
0001d0 ab 12 c9 3d d2 ee 3d bd f3 4e 0e bd d7 c0 9f bd
       0.09818014 -0.046370335 -0.03474326 -0.07800453
0001e0 78 f1 b0 bc cf 63 2a be b6 82 15 be 84 27 13 bd
       -0.021599516 -0.16639636 -0.14600644 -0.035926357
0001f0 9d 5c 41 bd ab d2 c7 3d f3 75 d2 bd 42 8f 3b 3d
       -0.047207464 0.097569786 -0.10276403 0.04579092
000200 55 4f 22 3c 76 25 4a bd 22 73 0a 3e 22 07 d8 bd
       0.00990661 -0.04935213 0.13520482 -0.105482355
000210 85 bb d9 bd bb 1e 31 be b7 89 01 be 21 df 11 3e
       -0.1063147 -0.17296879 -0.1265019 0.14245273
000220 e4 09 6d 3d e0 af 04 3e 91 94 ab 3d d9 bc 06 3e
       0.05787076 0.12957716 0.08377946 0.13157977
000230 7d 14 b9 3d 1a a5 69 3d 2a 38 1a be b0 33 51 3d
       0.09037111 0.05704222 -0.15060487 0.051074684
000240 27 36 1a be 5c f5 bd 3c 12 25 2e be b2 4c 19 3d
       -0.1505972 0.023188286 -0.17006329 0.037426658
000250 09 39 08 be b6 29 10 3d 0f 47 1b be 44 b8 2f bc
       -0.13303007 0.03519603 -0.15163825 -0.010725085
000260 18 99 b5 bd de 89 fa bd bf d7 f6 3d 85 b6 0d 3e
       -0.08867091 -0.12233327 0.12052869 0.13839157
000270 e5 39 f3 3d 1c 51 c2 bd a7 a0 23 be ec 45 89 3c
       0.11876277 -0.09488127 -0.15979253 0.016756974
000280 cc 47 ed bd 6b ec d0 3d b5 85 ca bd 2d bc 93 3d
       -0.1158596 0.10201343 -0.09888784 0.07213626
000290 14 f5 b3 bc 56 5e 0a bd be 8d f8 3d 09 48 d3 3c
       -0.021967448 -0.033781372 0.1213641 0.025791185
0002a0 70 49 50 bd a9 aa d2 bc b4 33 04 3e 45 85 26 be
       -0.050851285 -0.025716143 0.12910348 -0.16261776
0002b0 46 68 13 be 1b 3a 10 3e 0f cd a9 3d 26 43 01 bc
       -0.14395246 0.14084665 0.08291065 -0.007889545
0002c0 25 25 e8 bd ba ce 4c bc a2 2f 88 3d 50 99 39 3d
       -0.1133521 -0.012500459 0.0664971 0.045312226
0002d0 0a 96 cf 3d cd bc 33 be f0 1d 72 3d af 94 82 bb
       0.101360396 -0.1755249 0.059110582 -0.0039850096
0002e0 ea 14 d5 3d 40 86 06 3d 65 72 a6 3c 76 ee 18 be
       0.1040438 0.032842875 0.02031822 -0.14934716
0002f0 fc 34 4b bd ff b1 a4 bc d6 16 28 3c 47 28 98 bd
       -0.049611077 -0.020104406 0.010259351 -0.07429557
000300 7e 17 7f 3b 2d 8e b7 bd 28 a8 84 bd 37 57 2d 3e
       0.0038923915 -0.08962665 -0.06477386 0.16927801
000310 73 c8 c7 bd 1d 4d aa 3c a3 dc a9 3d 6a ee f5 3c
       -0.097550295 0.020788724 0.08294036 0.030020911
000320 8c 9f b1 3b 23 e7 38 3d 7d 92 be 3d 23 3d 16 be
       0.005420631 0.045142304 0.09305284 -0.1467176
000330 cd 3e c3 ba a3 19 09 3e 5e 3b 14 be 70 f3 9a 3d
       -0.0014896035 0.13388686 -0.14475772 0.07565963
000340 1a 0a 82 3d d4 df fc 3d 08 ff 40 bd a5 42 9c bd
       0.06349583 0.12347379 -0.047118217 -0.07629899
000350 24 4f a3 3d 2c ea af bd 08 a0 01 3e af 22 11 bd
       0.07974079 -0.085895866 0.12658703 -0.035433467
000360 7c 42 29 be 64 b5 83 3d 67 ed 14 3e f0 af 0b 3e
       -0.16529268 0.06431082 0.14543687 0.13641334
000370 a2 75 c7 3d 45 4b 96 ba 7c ec 6c bd c4 1e 2c be
       0.097392336 -0.0011466524 -0.057842717 -0.16808611
000380 82 30 f1 3d 13 7d ff 3c e4 41 dd bc 98 7c 0f be
       0.1177683 0.03118757 -0.027008958 -0.14012372
000390 32 8b 72 3a 48 9d 03 3d 1e 03 09 3e 74 64 ff 3d
       0.0009252309 0.032132417 0.13380095 0.12470332
0003a0 72 1f ed bd dd 7a 3c bb ad 03 da bd 80 3a 92 bd
       -0.11578263 -0.0028759756 -0.10645232 -0.07140064
0003b0 2f d9 19 3c 11 65 01 3e 7d 02 14 bd 96 54 b1 3d
       0.0093901595 0.1263621 -0.036135186 0.086587116
0003c0 20 a1 fa bd 7f d3 fa bc 8e 7c 8e 3d 21 87 50 bd
       -0.122377634 -0.030618427 0.06957351 -0.05091012
0003d0 39 d9 b7 3d 08 e9 13 be 1c a1 b1 bc 0a 30 c7 bd
       0.08976979 -0.14444363 -0.021683268 -0.097259596
0003e0 92 fe f0 3d cc c8 15 bd 4b 51 04 be 3a 52 13 3d
       0.117673054 -0.036568448 -0.12921636 0.03596709
0003f0 03 09 b2 bd fe 8b 90 bd 91 06 fa 3d 8f 39 95 3d
       -0.08693125 -0.070579514 0.12208284 0.07286369

fc1.bias f4 [256]
000000 6f e4 0e be 1b ba 8b bd 15 47 04 3d 17 98 82 3d
       -0.13954328 -0.06822606 0.03229435 0.06376665
000010 14 b7 ed bc fb 17 91 bd 8a 7c 22 3d c3 c0 4d 3d
       -0.029017963 -0.07084652 0.03966955 0.05023266
000020 14 eb 2e be 9a 2b b8 3b 7d 24 dd 3c 32 f2 d5 bd
       -0.17081863 0.005620432 0.026994938 -0.10446586
000030 ff 5e a9 3c 5c 8d 52 3d 8f 34 25 b7 62 a2 7a bd
       0.02067518 0.051404342 -9.847004e-06 -0.061190017
000040 7c 20 9c 3c 70 29 f5 bd f1 0f 05 bd 6b 65 de bd
       0.019058459 -0.11970794 -0.032485906 -0.10859188
000050 f0 f7 12 3c 8c 47 9b 3b 27 54 b6 bd f6 5b a1 3d
       0.008970246 0.0047387537 -0.089027695 0.07878868
000060 4a cd 00 3d d7 2b de bd 6c 6a e3 bd e2 18 c8 bc
       0.03144578 -0.108482055 -0.11104283 -0.024425928
000070 9f d6 6a 3d d4 ee a7 3c cd ef 05 be 62 26 4a 3d
       0.057333585 0.020499624 -0.13079758 0.04935301
000080 0f 58 00 be c9 12 44 3d d4 21 4f 3c ce 67 00 be
       -0.12533592 0.047869477 0.012642343 -0.12539598
000090 34 38 04 3d 2d 46 d9 bd 6c 59 f4 3c 1a 26 22 3d
       0.032280162 -0.10609088 0.029827796 0.039587118
0000a0 22 c5 69 bd a8 0d 75 bc af cc 03 be 5f 09 18 bd
       -0.057072766 -0.014956869 -0.1287105 -0.037118312
0000b0 1b b3 3a bc 07 28 43 3c 7a 19 19 3d fc 11 f6 bc
       -0.011395241 0.011911399 0.037377812 -0.030037872
0000c0 d3 2d 18 bd a6 29 2c be 24 17 50 bc 47 a0 d7 bd
       -0.037153076 -0.16812763 -0.01270083 -0.10528617
0000d0 a0 55 e3 3c 9c dd c3 3c 29 fd 19 3c fa 02 da bd
       0.02775079 0.023909383 0.009398737 -0.10645099
0000e0 27 7e 61 3d be b3 f1 bb ce 19 dd 3c 35 ba 0d bd
       0.05505195 -0.0073761633 0.026989844 -0.03460141
0000f0 40 2d fb bc 75 57 19 be 77 ac c9 bd ad 95 44 bd
       -0.030661225 -0.14974768 -0.09847348 -0.047994304
000100 d2 cb 1a 3d e3 fb a7 bd 69 cb 3d 3d af ee 82 bd
       0.037792034 -0.082023405 0.046336565 -0.063931815
000110 0d 31 8d 3c ea bd f1 ba 36 85 d0 3c 27 5c 2d 3d
       0.017235303 -0.001844344 0.025454145 0.04232421
000120 e3 9c aa 3c ac c5 08 3d 1d d5 31 3c 81 34 8d 3d
       0.020826763 0.03339164 0.010854033 0.0689478
000130 f5 cb 1c 3d 22 5e 63 3d 6b 41 07 bd f8 61 34 be
       0.038280446 0.055509694 -0.03302137 -0.17615497
000140 9e f4 27 3a 95 e2 f5 bd c9 44 2a 3d a8 2f 85 3d
       0.0006406995 -0.12006108 0.041569505 0.0650323
000150 ff 14 23 be 8b a6 05 be 13 a3 32 be 67 37 83 3c
       -0.15925978 -0.13051812 -0.1744502 0.016017629
000160 81 2f b3 bd de 09 43 3d 25 98 d6 3b 19 6a 17 be
       -0.08749295 0.047616832 0.0065488988 -0.14786567
000170 c3 9d 4a 3d d4 7f 1f be 15 49 a4 bd af a9 be bc
       0.04946686 -0.15576106 -0.08021752 -0.02327427
000180 bb ba a7 3a ea 5e 05 be 2d 93 da 3c 9a 23 9a 3c
       0.0012796739 -0.13024488 0.026681507 0.018815804
000190 89 5a dc bd 94 d4 0a bd 21 85 18 bd 9e 36 93 3c
       -0.10759456 -0.033894137 -0.037236337 0.01797038
0001a0 ae df 06 be 5a 6b 15 be d4 dd 76 3c 65 5e 53 3d
       -0.13171265 -0.14591733 0.015067536 0.051603694
0001b0 e8 85 18 be 6b 2e ef bd 32 65 05 3d 17 f9 5d bd
       -0.14894831 -0.116787754 0.03256721 -0.05419263
0001c0 54 a2 f0 3c 95 5a 53 3c f8 3d 1c bd 23 77 32 3d
       0.02937428 0.012900014 -0.038145036 0.04357065
0001d0 88 b7 29 3d e7 e7 42 bc 72 ef ee bd 69 00 e7 bd
       0.041434795 -0.01189611 -0.11666764 -0.11279375
0001e0 d1 2f 42 3d bc af 9f 3d 6f 3c 17 3d 1f 55 66 3d
       0.047408883 0.077971905 0.03692287 0.05623352
0001f0 4d 54 1a bd b4 55 2c 3d 1f 8a 5c 3d 3f fb d3 3c
       -0.03767805 0.04207392 0.05384266 0.02587664
000200 19 f5 8c ba 0d 0e e7 bc 4d ed a0 3c 1f e3 9e 3c
       -0.0010754197 -0.028204942 0.019644404 0.01939541
000210 a6 81 b2 3c af f3 b1 bd a1 74 3b 3d e0 58 a0 3c
       0.021790337 -0.08689057 0.045765523 0.019573629
000220 77 c4 9d 3c 02 ef c3 3b ee 6e 2d be 1e ef f2 bc
       0.01925872 0.0059794197 -0.16936848 -0.029655036
000230 d8 7f 25 be 4a 83 da 3c 8f 3d bc bd 10 2d 73 3b
       -0.1616205 0.026673932 -0.09191429 0.0037105717
000240 63 5a 18 be e9 e1 3a 3d d7 a3 d5 bb 4b 5e df 3c
       -0.1487823 0.0456256 -0.0065197754 0.027266642
000250 84 7b ec 3c f6 3b 8e bb 1a 47 a8 bc 82 5c 5a 3d
       0.02886749 -0.004340644 -0.020541716 0.05331088
000260 06 72 b9 bd c2 84 fd bd b2 48 90 3c ff b0 a5 3c
       -0.09054951 -0.12378837 0.017612789 0.020226
000270 65 3f df ba e1 84 81 bd 49 b7 bc bd e6 f2 29 be
       -0.0017032443 -0.06324173 -0.09214646 -0.16596565
000280 27 6f e5 3c d9 73 e0 39 e6 3a f7 3c e7 4e f0 bc
       0.028007103 0.00042810923 0.030179452 -0.029334499
000290 2e 68 e3 3c d1 c7 8a 3c a1 9e 33 3d 84 19 12 be
       0.027759638 0.016940983 0.043852452 -0.14267546
0002a0 c6 e9 16 be 4c 57 2d 3d c0 62 28 3d 29 4d bc bd
       -0.14737615 0.04231958 0.0411098 -0.09194405
0002b0 7e 0c f2 3c b2 e8 1a be 12 16 9f 3c e2 e8 10 be
       0.029546972 -0.15127829 0.019419704 -0.14151338
0002c0 6b 18 0c 3d ce 9d 1f be 30 bb 69 3c d8 b2 9a 3b
       0.034202974 -0.15587541 0.01426582 0.004721027
0002d0 38 4b 0d be 0c f1 05 3d 61 d9 07 bd 34 f4 1b be
       -0.13798225 0.032700583 -0.033166293 -0.15229875
0002e0 b1 c9 54 3d c1 2b bf b8 e2 80 11 be d8 f4 24 be
       0.05195016 -9.1157395e-05 -0.14209321 -0.16109025
0002f0 b1 e2 8a 3d e5 86 0d be ea fd 88 bc 20 a2 01 3d
       0.06781519 -0.1382099 -0.016722638 0.031648755
000300 8d 8b 61 3d 31 b8 bb bd 2f d8 06 be 3d 69 bf 3d
       0.055064727 -0.09165991 -0.13168405 0.093462445
000310 80 9b 8d 3d 2c 94 df bd a2 6b ba 3c 51 f9 0a bd
       0.06914425 -0.109169334 0.022756401 -0.033929173
000320 3b fd ec bd 7d ab 8f 3c 24 ba 8b bd f3 2e 7e 3c
       -0.115717374 0.017537827 -0.06822613 0.015514123
000330 e9 03 53 3d eb c9 8f bc 4b 8e 1c be e5 d0 49 3d
       0.0515174 -0.017552337 -0.15288655 0.049271483
000340 94 41 c5 bd 4f 45 dd bb ea 61 11 3d 82 02 0c 3d
       -0.09631649 -0.006752647 0.03549377 0.03418208
000350 6c 60 e7 3a d0 6f 79 bd f5 a0 83 bd 4c de dd bd
       0.0017652637 -0.06089765 -0.064271845 -0.108334154
000360 95 4b 68 3c a2 31 16 bd ee 2d 01 be 01 5b 06 bc
       0.014178176 -0.036668427 -0.12615177 -0.008200408
000370 fc d8 98 39 01 f9 3d 3d 7e 41 f9 3b 0b 6f 91 bd
       0.00029153365 0.046380047 0.007606684 -0.07101258
000380 21 1a 0c be eb be 32 be f2 d4 63 bd 46 44 2d 3c
       -0.13681842 -0.17455642 -0.055623002 0.01057536
000390 ac 5a 80 3c 91 c5 9e 3c 2e 38 b1 bc d9 06 15 3c
       0.015668236 0.019381316 -0.021633234 0.009095871
0003a0 ab 19 94 bd 49 3f 92 3c 82 51 c9 3c 7b be 6a 3d
       -0.07231458 0.017852442 0.024574999 0.057310563
0003b0 fc bd a8 b9 69 24 ad 3c ba 20 27 3c 68 7c d8 bd
       -0.00032185006 0.021135526 0.010200674 -0.105706036
0003c0 c2 b5 5c bd 61 d2 f7 3b 0f b0 29 be 60 9f a3 bd
       -0.053884275 0.007562921 -0.16571067 -0.07989383
0003d0 f1 6f 11 3c 64 d8 fe bd 46 71 19 bd 44 ec d1 bc
       0.008876787 -0.12443617 -0.03746154 -0.025625356
0003e0 fc 82 51 bc 73 42 18 3d c6 59 9e bc b6 e7 ba 3c
       -0.012787577 0.037172746 -0.019329917 0.022815567
0003f0 37 90 98 3c da 1b 24 be cb 8f b8 3c 3d 2f d3 3c
       0.018623454 -0.1602625 0.022529503 0.02577936

fc2.weight f4 [5, 256]
000000 e6 89 2c 3d ca 52 64 bd 6c 4f 69 3d 00 20 b6 3a
       0.042123698 -0.055743016 0.05696051 0.0013895035
000010 ca 1d 1e bd 80 32 0f 3d 0c 05 4b 3d 64 ce da 3c
       -0.038602628 0.03496027 0.04956536 0.026709743
000020 80 8b 34 3c d8 1b 20 3d 50 3b 15 bc f0 d7 cf 3b
       0.0110195875 0.039089054 -0.0091083795 0.0063428804
000030 f4 b3 ff 3c 00 50 41 3c 64 3a 2d bd e0 49 f7 3b
       0.031213738 0.011798859 -0.042292014 0.0075466484
000040 30 5d 81 3b 48 4b 56 3c 42 45 7e bd 0c 67 61 3d
       0.0039478764 0.013079472 -0.06207777 0.055029914
000050 e0 c8 3a bd d6 c4 3d 3d ec 45 63 bd 42 d4 50 bd
       -0.045601726 0.046330296 -0.055486605 -0.050983675
000060 b4 f0 cb bc f0 cf a7 bb f4 65 90 3c c4 94 ba bc
       -0.02489505 -0.0051212236 0.01762674 -0.022776015
000070 0e 13 49 3d 1c a4 21 bd f8 c6 fe bc b4 96 4a 3d
       0.049090438 -0.039463148 -0.031100735 0.049460128
000080 06 d8 0f bd 0c 60 06 3d 30 32 cb bc ec 5e 56 3d
       -0.035118125 0.03280644 -0.024804205 0.05233662
000090 c6 01 65 bd d8 43 d8 bc ca 6d 7d 3d 6a 7e 0c bd
       -0.055909894 -0.026399538 0.06187228 -0.034300245
0000a0 68 91 1d 3c b0 36 66 3c b0 73 2c 3d a4 28 55 bd
       0.009617187 0.014051124 0.042102516 -0.05204071
0000b0 00 d8 56 bb f0 de c9 3b 7c bc 50 3d 1e 2c 3b bd
       -0.0032782555 0.0061606094 0.050961003 -0.04569637
0000c0 4e 98 4e 3d 86 38 38 bd b8 2f 07 bd 00 c6 e8 ba
       0.050438218 -0.04497578 -0.033004493 -0.0017759204
0000d0 50 be d3 bb a4 43 90 3c 24 7b 7b bd 58 96 5c bc
       -0.006461896 0.017610379 -0.061396733 -0.013463579
0000e0 2c da 55 bd 46 c3 5b bd 08 d3 ab bc be e4 57 bd
       -0.052210018 -0.053653024 -0.020974651 -0.05270838
0000f0 24 0c ac bc 78 57 0d 3c c0 18 0b 3d d2 8e 37 3d
       -0.021001883 0.008626811 0.03395915 0.04481394
000100 10 91 fe 3c 34 99 24 bd 38 c4 3f 3d 04 33 39 3d
       0.03107503 -0.04018517 0.04681799 0.045214668
000110 00 0e 45 b9 f0 71 52 3c c4 5e eb 3c 80 66 6a bc
       -0.000187926 0.012844548 0.028731711 -0.0143066645
000120 c4 16 f1 bc f0 89 43 3c 96 13 6e bd 4a 50 26 bd
       -0.0294298 0.011934742 -0.058124147 -0.040603913
000130 d6 bc 7c 3d b2 45 71 3d 80 17 ff ba a4 90 0f 3d
       0.061703525 0.058904357 -0.001946196 0.03505005
000140 68 aa 5b bd d0 ab af 3c 86 ac 58 bd 84 6c 47 3d
       -0.05362931 0.021444231 -0.052898906 0.048687473
000150 c2 83 12 bd f2 06 10 bd ac 38 db 3c 2e e3 76 bd
       -0.035770185 -0.035162874 0.026760422 -0.06027525
000160 10 b7 3f bc 62 97 54 3d 68 b1 8f 3c e8 e7 55 bc
       -0.01170136 0.051902182 0.017540649 -0.013055779
000170 34 4b a8 3c 30 98 df 3c a8 ed 68 bc 70 e4 a6 bc
       0.020543672 0.027294248 -0.014216818 -0.0203726
000180 68 90 35 3d 20 16 81 3c 20 2d 61 3d 78 5f 67 bc
       0.04432717 0.01575762 0.054974675 -0.014121883
000190 20 e1 07 3d b0 64 20 bc 6a 5c 18 3d 48 6e 0b bd
       0.03317368 -0.009789631 0.037197508 -0.03404072
0001a0 8c 91 1e 3d fe 93 5d bd 18 b4 1b 3c 80 61 ff 3a
       0.038713023 -0.054096214 0.009503387 0.0019484013
0001b0 7c 65 22 3d 68 86 94 3c b8 98 78 3c 70 57 1f bc
       0.039647564 0.018130496 0.01517313 -0.009725437
0001c0 fe 64 53 bd 56 80 46 bd a0 c6 71 bd e0 bc 46 bb
       -0.051609986 -0.048462234 -0.059027314 -0.003032498
0001d0 68 d9 ac bc 44 32 e6 bc 58 9d 77 bc a0 eb 81 3c
       -0.021099761 -0.02810014 -0.015113197 0.015859425
0001e0 28 a5 64 bc 90 3f 7a bc bc 71 da bc e2 92 26 3d
       -0.013955392 -0.015273944 -0.02666556 0.040667422
0001f0 80 39 07 3a 38 dc e0 3c be 8c 60 3d d4 76 b6 bc
       0.00051584095 0.027448758 0.054821722 -0.022273459
000200 60 26 38 bb e0 6d 41 bd 18 d4 2e 3d 28 65 2b 3c
       -0.0028099045 -0.047223926 0.042682737 0.010461129
000210 5a 23 6e bd e4 2b 14 3d b0 97 da 3b d4 bb 26 bd
       -0.058139183 0.03617467 0.0066709146 -0.04070647
000220 b8 a3 5b bc 94 37 15 3d e8 42 f7 3c f8 ca 7d 3c
       -0.013405733 0.036429957 0.03018327 0.015490286
000230 f4 74 ea 3c 68 90 c6 3c 88 32 72 bc 2c 53 a9 bc
       0.02862022 0.02423878 -0.014782555 -0.020669542
000240 ec 32 41 bd e4 eb 2c bd 00 c2 e1 bb e0 d1 d3 bc
       -0.047167704 -0.04221715 -0.0068895817 -0.025856912
000250 c6 de 73 bd d6 5e 5b bd b4 4f c3 bc 7c 83 4c bd
       -0.059538625 -0.05355724 -0.023841716 -0.04993008
000260 12 9d 64 bd 10 a0 3c 3d a4 9a b4 3c c0 2e 91 3b
       -0.055813856 0.046051085 0.022046395 0.004430622
000270 70 9b dc 3b 80 03 9a 3c c6 4a 2f 3d a0 4c 97 3b
       0.006732397 0.018800497 0.04279592 0.0046172887
000280 14 4a af 3c 28 a4 7a 3d 9a 99 0a 3d c0 de e9 3c
       0.021397628 0.061191708 0.033837892 0.028548598
000290 54 2a 18 3d 58 90 44 bd 7e bd 37 bd 84 55 ef bc
       0.037149742 -0.04798922 -0.04485845 -0.029215582
0002a0 a0 36 4a bd 08 dd 93 bc 24 f4 4e 3d 80 81 4d ba
       -0.0493685 -0.018049732 0.0505258 -0.00078394264
0002b0 72 8f 30 bd 0a 48 49 bd 44 b0 02 bd 40 84 73 3d
       -0.04310555 -0.049140967 -0.03190638 0.059452295
0002c0 80 bb 79 3c 50 a9 0f bd 68 99 31 3c d6 14 4c bd
       0.015242457 -0.03507358 0.010839798 -0.04982456
0002d0 44 85 4a 3d 96 18 48 bd 34 8c 7b 3d 88 6a dc bc
       0.0494435 -0.048851572 0.061413005 -0.026906267
0002e0 72 0e 66 3d cc 5b 29 bd 90 eb 92 bb c6 2f 25 bd
       0.05616612 -0.04134731 -0.0044836476 -0.040328763
0002f0 a0 0f cf bb 7c c8 ee bc fe 24 10 bd d4 c8 32 bd
       -0.0063190013 -0.029148333 -0.03519153 -0.043648556
000300 a6 c7 43 3d 5a 9e 14 3d 68 08 6b bd 80 d6 4f 3d
       0.04779782 0.03628383 -0.057381064 0.050741673
000310 92 12 03 3d 40 c9 ac bc c8 3d 22 3c ae b6 73 bd
       0.032000132 -0.021092057 0.009902425 -0.05950039
000320 b8 e7 29 3d d8 00 df bc b4 39 a2 3c cc 0f 1d 3d
       0.04148075 -0.027222082 0.019802906 0.038345143
000330 4c 23 6b bd bc cb 23 3d c6 4f 1e bd 80 40 0b 3b
       -0.05740671 0.039989218 -0.038650297 0.0021248162
000340 5e ff 20 3d 98 af 18 3d 50 ee 83 3b dc 18 4a 3d
       0.039306037 0.037276834 0.004026212 0.049340114
000350 9e 7c 38 bd 74 d6 ec bc 68 b9 6f 3c 82 37 0a 3d
       -0.04504072 -0.028910853 0.014631607 0.033744343
000360 94 df 2a 3d 56 e5 6c bd f6 89 40 3d 26 2f 6d 3d
       0.041717127 -0.0578359 0.04700657 0.057906292
000370 f0 cd 5b bd c8 ea 49 3d ac 74 67 3d 58 73 51 bc
       -0.053663194 0.04929617 0.05650775 -0.012783848
000380 20 c0 f6 3b ec 3f 60 bd 74 42 59 bd e2 21 43 bd
       0.0075302273 -0.05474846 -0.05304189 -0.047639735
000390 50 41 85 bb 04 a6 26 bd 10 3c 6e bd 70 48 5b 3d
       -0.0040666237 -0.04068567 -0.05816275 0.05353588
0003a0 d8 54 f1 3c 3c b3 82 3c f2 ee 1b bd c4 6d 51 3d
       0.029459402 0.015954606 -0.038069673 0.05113007
0003b0 d0 2e e9 3c a2 fd 1c bd 20 df 70 bd 80 51 f7 bc
       0.028464705 -0.03832782 -0.05880654 -0.03019023
0003c0 78 bc 62 bc d0 51 79 3d 74 b6 e3 3c 20 18 69 3b
       -0.01383888 0.060869038 0.027796961 0.0035567358
0003d0 ee 24 63 bd a0 22 55 3d 70 1c 17 bc 14 e4 85 bc
       -0.05545514 0.052034974 -0.009223089 -0.016344108
0003e0 a4 0c c7 3c 00 b5 93 bc 8a 94 76 3d 48 b2 77 bd
       0.02429802 -0.018030643 0.06020025 -0.060472757
0003f0 40 91 b2 bb 3a b9 6a 3d 44 d2 eb bc 8c f0 13 bd
       -0.005449444 0.057305552 -0.028786786 -0.036118075

fc2.bias f4 [5]
000000 0c 71 a8 bc 60 48 48 3d d4 f7 01 bd 0a fc 52 bd
       -0.020561717 0.048897147 -0.031730488 -0.051509894
000010 e2 45 0b 3e
       0.13600877
