Models/Torch2/my_model53300.pth (torch_old, 60054 bytes, 8 tensors)

conv1.weight f4 [16, 2, 3, 3]
0.33744547 -0.54488736 -0.1704971 0.26476386 -0.17430738 -0.37937793 -0.21760496 -0.31054005
-0.14076596 -0.16885689 0.84235513 0.8913992 -0.076193646 -0.22980718 0.00015136122 0.07655322
-0.0321739 -0.0022885827 -0.39850655 -0.38931888 -0.13066629 0.92980635 0.21774685 0.67877465
0.60960567 0.9231928 0.017288407 0.12731573 -0.75041 0.28721693 0.036341198 0.252632
-0.8841829 0.03167897 0.2688999 -0.74519694 0.66316485 0.67133796 0.66450346 -0.40899405
-0.42706752 -0.19861077 0.5543617 0.55187815 -0.16727974 0.046964962 0.36903667 -0.69196266
0.16172937 -0.45435333 0.10901582 0.016284611 0.3603096 -0.5196547 0.30315885 -0.21436422
-0.089412436 0.6914107 0.2702296 -0.11312247 -0.065064885 0.51114327 0.495751 -0.099524505
-0.14278865 0.657956 -0.104835756 0.042924937 0.65702593 -0.14136681 0.14211093 -0.16414453
-0.1670951 -0.1681374 0.71998614 -0.17879887 0.09984421 -0.02929834 -0.16557854 0.3814225
-0.04946157 -0.0044048266 -0.2829566 0.24588558 0.03137705 0.097673185 -0.20268 0.11308553
0.0161989 -0.28537646 0.51418364 -0.13053602 -0.11917078 0.98755497 0.28709492 0.6079834
-0.21455748 0.49594957 -0.23002055 -0.575816 -0.42757997 -0.47624516 -0.088860035 -0.914525
0.1371788 -0.15099205 -0.005658989 0.021141237 0.111724354 -0.08360462 -0.035711277 -0.090391785
0.083975956 -0.16665864 0.1564291 0.25521022 0.08391574 0.038905162 -0.1072294 0.090699844
0.1636773 0.2720501 -0.21060285 -0.09260244 -0.18760386 -0.15051626 -0.08456142 0.15053727
-0.09382603 -0.16294624 0.45431635 -0.090963125 -0.038160212 -0.1129149 0.59225535 -0.020148966
-0.27119815 -0.20393269 -0.06325796 -0.17973961 -0.47232312 -0.1228991 -0.20533794 -0.12586825
0.02309581 -0.013017896 -0.115754716 -0.44938526 -0.18361269 -0.16880782 0.11528133 -0.44225848
-0.2969446 -0.079313464 -0.14922893 0.7660488 0.23110907 0.59531415 0.44873607 0.057768926
0.6503136 -0.025120327 -0.6123805 0.1103953 0.0141364 0.6565434 -0.3792914 0.07562671
-0.43693668 0.35681057 0.017232532 -0.06818734 -0.39633298 0.76752913 0.11958882 0.10452816
-0.41006947 0.045745663 -0.09719806 0.59583265 -0.07749406 0.09579677 -0.051904853 0.67305034
0.0013531256 -0.23414932 0.79790604 -0.12552524 -0.14084302 0.5523373 -0.12475113 -0.10349177
0.15198909 0.6763539 0.4058901 0.09690533 0.8395248 0.73383856 0.15563835 0.03983564
0.13098754 0.49299654 -0.3584785 0.29620647 -0.24326833 0.23096971 -0.0040945066 0.235646
0.6096276 -0.06765749 -0.061129734 0.2171298 0.7916589 0.1135935 -0.12843639 0.038772207
-0.25720295 -0.174832 -0.013549351 0.4870213 0.16000865 -0.17580144 0.5462629 0.35766417
0.023936395 -0.09974825 -0.07628438 -0.1293604 -0.13800465 -0.1429862 0.64924985 -0.20673296
-0.08975883 0.44469967 -0.12567866 -0.15338849 -0.15720098 -0.34613794 0.86945134 0.50111395
0.9205781 -0.619308 0.5269633 -0.10856076 -0.09895687 -0.6391579 -0.08277744 -0.004990433
-0.8981943 -0.0051428936 0.25728747 0.8387728 -0.05493574 -0.22298235 0.06475367 -0.0752564
00000000: a7c5 ac3e bd7d 0bbf cb96 2ebe 218f 873e
00000010: a27d 32be d33d c2be d6d3 5ebe 1bff 9ebe
00000020: f424 10be d2e8 2cbe 96a4 573f bd32 643f
00000030: 6a0b 9cbd 9352 6bbe b8b6 1e39 efc7 9c3d
00000040: c8c8 03bd 0cfc 15bb 0d09 ccbe ce54 c7be
00000050: 62cd 05be ca07 6e3f 08f9 5e3e 2dc4 2d3f
00000060: 1e0f 1c3f 5d56 6c3f 6ba0 8d3c 0e5f 023e
00000070: df1a 40bf 190e 933e 82da 143d fb58 813e
00000080: cf59 62bf cfc1 013d 3fad 893e 3ac5 3ebf
00000090: 2cc5 293f cedc 2b3f e61c 2a3f ab67 d1be
000000a0: 98a8 dabe 9f60 4bbe a6ea 0d3f e347 0d3f
000000b0: 614b 2bbe 555e 403d 60f2 bc3e 7724 31bf
000000c0: 629c 253e 00a1 e8be b043 df3d 4e67 853c
000000d0: 807a b83e 1708 05bf a337 9b3e 4b82 5bbe
000000e0: de1d b7bd 4b00 313f 895b 8a3e c1ac e7bd
000000f0: bd40 85bd 49da 023f 13d3 fd3e 81d3 cbbd
00000100: 3037 12be ce6f 283f 21b4 d6bd 0fd2 2f3d
00000110: da32 283f 76c2 10be 8785 113e 8115 28be
00000120: fa1a 2bbe 362c 2cbe 0351 383f 0d17 37be
00000130: 1f7b cc3d 1303 f0bc 6c8d 29be cf49 c33e
00000140: 3798 4abd 5d56 90bb b0df 90be 6ec9 7b3e
00000150: 3985 003d e108 c83d 598b 4fbe 6399 e73d
00000160: 8eb3 843c dd1c 92be 8aa1 033f 3cab 05be
00000170: cf0f f4bd 67d0 7c3f 1bfe 923e cda4 1b3f
00000180: f5b4 5bbe 1aed fd3e 828a 6bbe ad68 13bf
00000190: c3eb dabe 68d6 f3be 40fc b5bd 4f1e 6abf
000001a0: 9978 0c3e a99d 1abe 0a6f b9bb 6330 ad3c
000001b0: bdcf e43d e638 abbd fd45 12bd 541f b9bd
000001c0: 96fb ab3d 90a8 2abe f32e 203e eaaa 823e
000001d0: 04dc ab3d 055b 1f3d 169b dbbd d7c0 b93d
000001e0: 069b 273e 274a 8b3e 46a8 57be 59a6 bdbd
000001f0: 3a1b 40be ef20 1abe 8a2e adbd 7126 1a3e
00000200: dd27 c0bd 61db 26be 279c e83e e04a babd
00000210: e24d 1cbd ed3f e7bd 0c9e 173f 720f a5bc
00000220: 7cda 8abe bbd3 50be 648d 81bd a90d 38be
00000230: 56d4 f1be 86b2 fbbd 1c44 52be 9be3 00be
00000240: 6d33 bd3c 0349 55bc cf10 edbd d315 e6be
00000250: f704 3cbe f5db 2cbe 9e18 ec3d b46f e2be
00000260: 1f09 98be 196f a2bd 78cf 18be c61b 443f
00000270: dba7 6c3e 8266 183f bcc0 e53e 1c9f 6c3d
00000280: f47a 263f 25c9 cdbc f8c4 1cbf ee16 e23d
00000290: 5c9c 673c 3a13 283f 7b32 c2be 2de2 9a3d
000002a0: 2ab6 dfbe e0af b63e 3d2b 8d3c cea5 8bbd
000002b0: 28ec cabe ca7c 443f fcea f43d dc12 d63d
000002c0: a0f4 d1be ce5f 3b3d c70f c7bd 7d88 183f
000002d0: 35b5 9ebd 1931 c43d 2f9a 54bd 074d 2c3f
000002e0: 5c5b b13a d7c4 6fbe 9243 4c3f b089 00be
000002f0: 2739 10be fa65 0d3f 857d ffbd 7ef3 d3bd
00000300: 07a3 1b3e 8725 2d3f d4d0 cf3e 4d76 c63d
00000310: 19eb 563f d8dc 3b3f a95f 1f3e b22a 233d
00000320: 9921 063e 0b6a fc3e 7e8a b7be 60a8 973e
00000330: 551b 79be 5383 6c3e 362b 86bb 2f4d 713e
00000340: 8e10 1c3f 0390 8abd 2c63 7abd 4657 5e3e
00000350: 28aa 4a3f b5a3 e83d d484 03be 9bcf 1e3d
00000360: 1bb0 83be 2907 33be 19fe 5dbc db5a f93e
00000370: 4fd9 233e 4b05 34be e3d7 0b3f c21f b73e
00000380: 4216 c43c cf48 ccbd fc3a 9cbd 0d77 04be
00000390: 1751 0dbe f96a 12be 3d35 263f ceb1 53be
000003a0: 7ad3 b7bd adaf e33e e8b1 00be df11 1dbe
000003b0: 4bf9 20be fe38 b1be 5d94 5e3f 0149 003f
000003c0: 02ab 6b3f f88a 1ebf 11e7 063f 1b55 debd
000003d0: e6a9 cabd da9f 23bf 3887 a9bd c986 a3bb
000003e0: 10f0 65bf b885 a8bb 2fbb 833e d0b9 563f
000003f0: 4c04 61bd 7c55 64be 929d 843d 0720 9abd

conv1.bias f4 [16]
-0.30842358 -0.3735676 -0.21677119 -0.5642068 -0.16624427 -0.12493021 -0.32180583 0.0027471427
-0.12354494 -0.44295216 -0.8492165 -0.48464048 -0.5228288 -0.22301707 -0.38254282 -0.89500654
00000000: b2e9 9dbe 4144 bfbe 44f9 5dbe db6f 10bf
00000010: f03b 2abe 69db ffbd bcc3 a4be 6809 343b
00000020: 2105 fdbd a0ca e2be 4166 59bf cc22 f8be
00000030: 1cd8 05bf 965e 64be a7dc c3be 261f 65bf

conv2.weight f4 [32, 16, 3, 3]
0.32510033 -0.16142592 0.40652943 0.42459792 -0.095110394 0.41367298 -0.049083002 0.008661128
0.15191172 0.20989464 -0.5964817 0.0070403735 -0.063894026 0.079119384 -0.3161951 0.6923448
-0.08120786 0.591177 0.61306775 -0.16297692 0.2784107 0.29903013 -0.27236038 -0.07421104
0.29537115 -0.50568944 0.22328393 -0.08754183 0.19688046 0.04827201 0.065964 -0.00878798
0.07883666 0.12702972 0.06047218 0.09917299 0.13448521 -0.25620645 0.31561017 0.149675
-0.13755712 -0.18449196 -0.13678128 -0.046724036 0.037659362 -0.3614817 0.1406573 -0.69582015
-0.7423206 -0.20697618 -0.18287846 -0.07595468 0.075235814 -0.54194415 -0.051744573 0.000730675
0.097830646 -0.09047782 -0.007708329 -0.03415277 -0.04396923 0.06910694 0.006520507 -0.004694584
-0.06771245 -0.06730347 0.09819277 -0.034886554 -0.040385045 0.15153404 -0.2843858 0.13685277
-0.06406413 0.15919934 -0.3065255 0.01818537 0.017949352 0.22849068 0.15394576 -0.060726866
0.2808177 0.09364865 -0.113619305 -0.12657432 -0.12302389 0.29702994 -0.3534611 0.048739374
0.06767238 -0.11513442 0.43470603 -0.17746173 0.08998123 0.3786881 -0.14319925 -0.0028151756
0.68671036 -0.12090548 0.5477564 0.19612674 -0.05101905 0.07756065 0.13108218 0.1130851
-0.023856571 0.16566119 -0.1785083 0.07023495 -0.15994416 0.13994585 -0.11804593 0.025473386
0.030799804 0.0047775353 -0.029454287 0.1672223 -0.14758162 -0.07252017 -0.1725774 -0.5025707
0.0992543 -0.010731096 0.24999538 0.5997553 -0.07321914 0.46924216 -0.10979179 -0.091375336
-0.13660903 -0.17382242 0.116878055 -0.2761324 -0.13606627 0.2135967 -0.25145158 0.3939666
-0.52905333 0.33758274 0.49638927 -0.18386993 0.4810941 0.26639026 -0.07750388 0.115110844
0.27317244 -0.06577725 0.18268202 0.2054939 -0.17339255 0.25447002 -0.012532254 0.00027085937
0.020803854 0.3625297 -0.030756762 0.28150436 -0.17073895 -0.040039863 0.03610693 0.20317832
-0.1267079 0.27097347 0.14004043 -0.10942624 0.08949112 0.4478721 0.016364995 0.49172103
0.088667125 -0.112114444 0.16029751 -0.015773172 0.065310985 -0.13663901 -0.066924706 -0.050072763
0.13174647 0.022325465 0.033009022 0.06212971 0.20670515 -0.18994303 -0.007855961 0.17573859
-0.039840747 0.24075238 -0.077073686 -0.09126422 0.061104733 0.2771866 0.20640424 0.096247956
0.09394709 0.10894226 0.03467075 0.110700995 0.2071943 0.029758908 0.022027541 -0.0045391032
0.10740163 0.011759135 -0.019557806 0.011818614 -0.06509464 0.040514037 -0.048724312 0.21858726
-0.20208961 0.33185485 0.23501554 0.07169712 0.009232943 0.24755412 -0.047116973 0.06767911
-0.11343425 0.17306651 -0.08832326 -0.031022236 0.07170765 -0.060972333 0.13379855 0.04226761
0.043550912 0.14284581 0.14932142 0.10541488 -0.13582335 0.13090937 -0.08401776 -0.025507048
0.10994201 -0.06691961 0.22564493 -0.061175693 -0.06617485 0.1811668 -0.040221762 -0.10023369
0.30377272 -0.03226914 0.39935103 0.18288319 0.06854248 0.27261153 0.0027690858 0.023821246
0.061351955 0.17751957 -0.12781067 0.12944485 0.0138965165 0.14163049 -0.16273858 -0.10968069
00000000: 8d73 a63e d64c 25be a024 d03e e664 d93e
00000010: 3dc9 c2bd f2cc d33e 420b 49bd 67e7 0d3c
00000020: bf8e 1b3e 9fee 563e 06b3 18bf efb2 e63b
00000030: dfda 82bd 5809 a23d 53e4 a1be 823d 313f
00000040: 4e50 a6bd 6057 173f 02f2 1c3f 6ce3 26be
00000050: d98b 8e3e 7a1a 993e d272 8bbe f5fb 97bd
00000060: e33a 973e dd74 01bf 8ba4 643e 2249 b3bd
00000070: 089b 493e dfb8 453d 2218 873d 76fb 0fbc
00000080: 1d75 a13d 1414 023e adb1 773d 351b cb3d
00000090: 7eb6 093e 7e2d 83be a897 a13e 6744 193e
000000a0: c6db 0cbe 76eb 3cbe 6410 0cbe b461 3fbd
000000b0: b440 1a3d 2114 b9be 7808 103e 4521 32bf
000000c0: b908 3ebf 90f1 53be 7e44 3bbe 218e 9bbd
000000d0: 3c15 9a3d dabc 0abf 1ef2 53bd c58a 3f3a
000000e0: 6f5b c83d 6f4c b9bd 2696 fcbb c6e3 0bbd
000000f0: 1419 34bd f087 8d3d faa9 d53b 06d5 99bb
00000100: d3ac 8abd 67d6 89bd 4a19 c93d 34e5 0ebd
00000110: ca6a 25bd bd2b 1b3e 049b 91be 2223 0c3e
00000120: 0e34 83bd 2705 233e e9f0 9cbe 7cf9 943c
00000130: 850a 933c 76f9 693e f5a3 1d3e bcbc 78bd
00000140: 56c7 8f3e ddca bf3d 3db1 e8bd b39c 01be
00000150: f3f3 fbbd 4f14 983e daf8 b4be f0a2 473d
00000160: d197 8a3d 98cb ebbd ca91 de3e 87b8 35be
00000170: 1448 b83d 68e3 c13e d3a2 12be cf7e 38bb
00000180: 40cc 2f3f 4b9d f7bd c339 0c3f 73d5 483e
00000190: 5af9 50bd 1ed8 9e3d 683a 063e 2999 e73d
000001a0: db6e c3bc 16a3 293e e1ca 36be 57d7 8f3d
000001b0: 67c8 23be f74d 0f3e 11c2 f1bd 90ad d03c
000001c0: df4f fc3c df8c 9c3b 1e4a f1bc 533c 2b3e
000001d0: a31f 17be 7485 94bd 21b8 30be 79a8 00bf
000001e0: d745 cb3d 7bd1 2fbc cafe 7f3e 9089 193f
000001f0: ebf3 95bd 8240 f03e 85da e0bd fe22 bbbd
00000200: 3de3 0bbe 81fe 31be c35d ef3d 3a61 8dbe
00000210: f554 0bbe 18b9 5a3e 43be 80be fdb5 c93e
00000220: 0a70 07bf a5d7 ac3e bc26 fe3e 6648 3cbe
00000230: f751 f63e 4e64 883e 5bba 9ebd 3cbf eb3d
00000240: 42dd 8b3e 39b6 86bd ff10 3b3e fe6c 523e
00000250: d18d 31be e549 823e 1554 4dbc 2102 8e39
00000260: d86c aa3c 7e9d b93e 9bf5 fbbc 5721 903e
00000270: 31d6 2ebe d700 24bd dce4 133d fa0d 503e
00000280: b7bf 01be 09bd 8a3e c266 0f3e dd1a e0bd
00000290: 1f47 b73d 7e4f e53e e20f 863c dcc2 fb3e
000002a0: 1c97 b53d 429c e5bd 0825 243e bd36 81bc
000002b0: c4c1 853d 19eb 0bbe d20f 89bd 1919 4dbd
000002c0: 8ce8 063e e5e3 b63c 7834 073d b97b 7e3d
000002d0: 84aa 533e 6d80 42be 4ab6 00bc d1f4 333e
000002e0: 0d30 23bd cb87 763e cfd8 9dbd bce8 babd
000002f0: f548 7a3d 67eb 8d3e a25b 533e a61d c53d
00000300: 5567 c03d 1f1d df3d eb02 0e3d 34b7 e23d
00000310: be2a 543e f4c8 f33c 1a73 b43c c2bc 94bb
00000320: 63f5 db3d 63a9 403c b137 a0bc dca2 413c
00000330: 5750 85bd 0cf2 253d 2593 47bd 57d5 5f3e
00000340: 94f0 4ebe e1e8 a93e eaa7 703e f1d5 923d
00000350: c545 173c d47e 7d3e bafd 40bd 589b 8a3d
00000360: 3750 e8bd 5938 313e d3e2 b4bd 5822 febc
00000370: 76db 923d 20be 79bd 7d02 093e cd20 2d3d
00000380: 7162 323d 2c46 123e b7e7 183e c2e3 d73d
00000390: 4715 0bbe 1b0d 063e 8111 acbd 28f4 d0bc
000003a0: 4729 e13d 260d 89bd 770f 673e 5d93 7abd
000003b0: ae86 87bd ca83 393e 93bf 24bd 5247 cdbd
000003c0: 1988 9b3e a52c 04bd bd77 cc3e bb45 3b3e
000003d0: 0060 8c3d bd93 8b3e 8d79 353b c624 c33c
000003e0: 304c 7b3d b1c7 353e cde0 02be 318d 043e
000003f0: 37ae 633c 9507 113e f1a4 26be 45a0 e0bd

conv2.bias f4 [32]
0.53025764 0.023139793 -0.03064772 -0.26039425 0.07903736 0.017667342 0.04383498 -0.048979893
-0.29838312 0.12928794 0.13309813 -0.050805964 -0.049820308 0.13376579 -0.07110049 -0.12154542
-0.05140341 0.2194213 0.11842121 -0.118390195 -0.032848123 -0.0076188315 -0.098807454 -0.17606604
0.2157263 -0.21319444 -0.14144686 0.02090441 -0.08275269 -0.14456666 -0.083123036 -0.12947361
00000000: f7be 073f aa8f bd3c ed10 fbbc 6552 85be
00000010: 57de a13d 1abb 903c 4f8c 333d 249f 48bd
00000020: acc5 98be 0f64 043e e04a 083e ea19 50bd
00000030: 6110 4cbd e6f9 083e 229d 91bd ceec f8bd
00000040: 628c 52bd faaf 603e d286 f23d 8f76 f2bd
00000050: c18b 06bd 64a7 f9bb 905b cabd a84a 34be
00000060: 5be7 5c3e a54f 5abe 72d7 10be ba3f ab3c
00000070: 3e7a a9bd 4809 14be 693c aabd bb94 04be

fc1.weight f4 [256, 32]
0.021221362 0.06863854 -0.1513089 -0.01061585 0.029670853 0.032381523 0.06410946 -0.08592961
0.06057081 -0.1962887 -0.03951504 0.124887064 0.09845817 -0.14831904 -0.08656019 0.106807284
-0.08036361 0.1560595 0.05536347 -0.06970272 -0.047970146 -0.02437298 0.1090138 -0.049316842
-0.11908548 -0.0073595326 0.08806406 -0.06363028 -0.15596929 -0.011375851 -0.12578556 0.021977216
0.087397784 -0.19691733 -0.15992162 -0.079160325 0.049591277 0.07374272 -0.12002247 -0.11969369
-0.08372342 0.11977744 -0.15820608 0.06194613 -0.124656044 0.07752557 0.07520721 0.10980734
-0.02505188 0.08043228 -0.12578669 -0.060337972 -0.10210447 0.062596664 -0.109936535 -0.09669436
-0.0734526 0.07066575 0.07087326 0.056173313 0.105545886 0.07574137 0.02541812 -0.081360154
-0.1289975 -0.11735519 -0.2726006 0.06426291 0.1042355 -0.076618694 -0.120944776 0.0992258
0.118806005 0.21145572 0.19850287 -0.0055602887 -0.15532671 -0.31560922 -0.25769258 -0.07655497
-0.22528872 0.013804756 0.14010753 0.18786824 0.20057526 0.021636777 -0.06523361 0.016364282
-0.048115794 0.02880924 0.009861373 0.1971938 -0.00048441326 -0.28365114 -0.18378508 0.0068183546
-0.14288631 -0.14693019 -0.0042741867 -0.16698378 0.15012717 -0.14387405 0.032847244 -0.1703928
-0.15033324 0.068209834 0.06286134 -0.09031189 0.10070378 -0.14749543 -0.14732654 -0.122506574
-0.043231823 0.05896493 -0.0035824294 0.099558905 0.081656404 -0.06425994 -0.049322132 -0.100121915
-0.04318347 -0.18424289 -0.15677738 -0.009472376 -0.06391072 0.09650244 -0.102182366 0.026344758
0.019454515 -0.061032686 0.14290796 -0.11201368 -0.1511434 -0.21098728 -0.15783139 0.088734195
-0.0041809026 -0.0096809575 0.10370619 0.03504374 0.12097761 -0.01035337 -0.17749448 0.010051148
-0.19558877 0.009787531 -0.17681663 0.068994954 -0.15146472 0.10868405 -0.17226055 -0.0242314
-0.11536244 -0.08876572 0.08420457 0.11617832 0.12842563 -0.014189048 -0.19399533 -0.009898598
-0.17413504 0.10047026 -0.11308231 -0.0336905 -0.041530177 -0.0525272 0.07947431 -0.0051424014
-0.06238151 -0.0065838625 0.19453564 -0.1463464 -0.123221 0.12763798 0.102036655 -0.02462482
-0.1316553 -0.057920903 0.008515343 0.07511787 0.094882324 -0.19969815 0.09001508 -0.0133472225
0.041037392 -0.01030556 0.057403944 -0.15671735 0.011420448 -0.043714784 0.02585367 -0.112177335
-0.018597364 -0.13949572 -0.13254732 0.103587076 -0.15948169 0.055933863 0.088741176 -0.056633133
-0.022259017 0.064503215 0.021318873 -0.20865165 0.016679129 0.012782805 -0.117463216 0.033348814
-0.018975843 0.0726497 -0.073641814 -0.13475472 0.015786981 -0.1010365 0.11222027 -0.041586563
-0.17314962 0.082717545 0.12195849 0.1414153 0.07747126 -0.0737429 -0.076096505 -0.18800451
0.070426576 0.051633377 -0.095616296 -0.28103307 0.18545765 -0.013262011 0.10904602 0.12884922
-0.1547472 -0.022991601 -0.047098678 -0.06303869 -0.04692247 0.24464263 -0.099638216 0.04643318
-0.08560168 -0.12116584 0.010242174 -0.06988123 0.059975814 -0.18930167 0.011480156 -0.105760366
0.12129118 -0.04936466 -0.2067483 0.059211854 -0.09962959 -0.117545426 0.10627862 0.08054462
00000000: 6cd8 ad3c 5d92 8c3d b8f0 1abe 1aee 2dbc
00000010: 4a10 f33c 7da2 043d d24b 833d ddfb afbd
00000020: 1919 783d e8ff 48be 86da 21bd cac4 ff3d
00000030: 70a4 c93d f2e0 17be 7846 b1bd c7bd da3d
00000040: ad95 a4bd 10ce 1f3e cec4 623d 4dc0 8ebd
00000050: 587c 44bd d8a9 c7bc a142 df3d 7500 4abd
00000060: 17e3 f3bd 3c28 f1bb ee5a b43d 9850 82bd
00000070: 6ab6 1fbe c761 3abc eecd 00be 9009 b43c
00000080: 9cfd b23d b2a4 49be 7ec2 23be cf1e a2bd
00000090: 3920 4b3d 6c06 973d 57ce f5bd f721 f5bd
000000a0: 2f77 abbd e04d f53d c600 22be 3abb 7d3d
000000b0: ab4b ffbd bac5 9e3d 3d06 9a3d ace2 e03d
000000c0: 9a39 cdbc aeb9 a43d 3ace 00be f324 77bd
000000d0: 261c d1bd ae32 803d 6826 e1bd b107 c6bd
000000e0: 516e 96bd 34b9 903d 0026 913d fd15 663d
000000f0: 7128 d83d 4b1e 9b3d a939 d03c 27a0 a6bd
00000100: ec17 04be eb57 f0bd 4e92 8bbe 469c 833d
00000110: 6c79 d53d 43ea 9cbd e5b1 f7bd e536 cb3d
00000120: 9050 f33d d987 583e 5644 4b3e 1533 b6bb
00000130: f70d 1fbe 8897 a1be 48f0 83be dac8 9cbd
00000140: 16b2 66be 582d 623c 5978 0f3e 8860 403e
00000150: 9a63 4d3e 9c3f b13c 3399 85bd 630e 863c
00000160: 1115 45bd 5b01 ec3c 9991 213c 2ced 493e
00000170: d9f8 fdb9 b93a 91be 2832 3cbe 816c df3b
00000180: ca50 12be de74 16be 7a0e 8cbb ccfd 2abe
00000190: f0ba 193e b853 13be d58a 063d 737b 2ebe
000001a0: f5f0 19be 99b1 8b3d 72bd 803d 71f5 b8bd
000001b0: c93d ce3d 0b09 17be c5dc 16be bae4 fabd
000001c0: da13 31bd 3685 713d 31c7 6abb 8ae5 cb3d
000001d0: 793b a73d b79a 83bd 0106 4abd b80c cdbd
000001e0: 26e1 30bd 2baa 3cbe 408a 20be 0632 1bbc
000001f0: a0e3 82bd 12a3 c53d fd44 d1bd f6d0 d73c
00000200: 135f 9f3c 69fd 79bd 7756 123e 6e67 e5bd
00000210: 56c5 1abe 0d0d 58be 8d9e 21be 46ba b53d
00000220: f4ff 88bb e19c 1ebc e963 d43d 068a 0f3d
00000230: 1cc3 f73d 2ea1 29bc 1dc1 35be 92ad 243c
00000240: 6c48 48be e15b 203c 6b0f 35be 3a4d 8d3d
00000250: 9119 1bbe be95 de3d 1265 30be ee80 c6bc
00000260: 2543 ecbd cdca b5bd 7273 ac3d e6ee ed3d
00000270: 0282 033e 2e79 68bc b6a6 46be bb2d 22bc
00000280: 7550 32be 5ac3 cd3d b397 e7bd 0dff 09bd
00000290: 8c1b 2abd c326 57bd 6dc3 a23d 9781 a8bb
000002a0: c183 7fbd 71bd d7bb 5a34 473e d5db 15be
000002b0: 4b5b fcbd 88b3 023e 98f8 d03d feb9 c9bc
000002c0: a6d0 06be 783e 6dbd f083 0b3c 66d7 993d
000002d0: aa51 c23d ac7d 4cbe d459 b83d 4fae 5abc
000002e0: d316 283d a7d8 28bc 6620 6b3d 837a 20be
000002f0: d51c 3b3c 460e 33bd 13cb d33c 3bbd e5bd
00000300: 8059 98bc f7d7 0ebe 7cba 07be 7625 d43d
00000310: 2b4f 23be e81a 653d efbd b53d 25f8 67bd
00000320: 8b58 b6bc 431a 843d eba4 ae3c c7a8 55be
00000330: aba2 883c f86e 513c 8e90 f0bd c498 083d
00000340: 3a73 9bbc 5ec9 943d 85d1 96bd 24fd 09be
00000350: b353 813c 39ec cebd bed3 e53d ac56 2abd
00000360: 224e 31be d167 a93d 5fc5 f93d 2ccf 103e
00000370: 41a9 9e3d 8406 97bd 7cd8 9bbd 4184 40be
00000380: cf3b 903d 857d 533d 7ad2 c3bd 91e3 8fbe
00000390: 9ce8 3d3e e848 59bc 8553 df3d 0df1 033e
000003a0: 0d76 1ebe e258 bcbc 8bea 40bd 6e1a 81bd
000003b0: c731 40bd 9983 7a3e 1f0f ccbd b830 3e3d
000003c0: ef4f afbd cc25 f8bd cbce 273c e41d 8fbd
000003d0: 33a9 753d 4cd8 41be 4417 3c3c e498 d8bd
000003e0: 8367 f83d 9932 4abd d4b5 53be 2188 723d
000003f0: 990a ccbd a8bb f0bd 9ba8 d93d 94f4 a43d

fc1.bias f4 [256]
-0.112931326 -0.16912629 -0.062489856 -0.033994865 -0.16194546 -0.16319208 -0.14518179 -0.073911294
-0.17164718 0.01782992 0.0037443377 -0.20941763 -0.24951614 -0.05824319 -0.14620039 -0.14133748
-0.17183864 -0.18770672 -0.15256928 -0.09998258 -0.12792194 -0.12832884 -0.17569919 -0.010890876
-0.2719403 -0.20773542 -0.12393575 -0.114230126 0.009253864 -0.110964134 -0.2552893 -0.07157428
-0.12497642 -0.1537734 -0.16225502 -0.15099575 0.0019015096 -0.23297963 -0.015514376 -0.20143665
-0.22381657 -0.1517787 -0.107879125 -0.052801754 -0.12974803 -0.108966835 -0.10271552 -0.18303628
0.0077867787 -0.2933037 -0.05249369 -0.08751416 -0.15196478 -0.15629658 -0.16325805 -0.15487136
-0.060639694 -0.10824844 -0.0646521 -0.15435039 -0.13241573 -0.117640935 -0.23380964 -0.13422908
-0.11453656 -0.08881033 -0.17339858 -0.33302474 -0.16481058 -0.11098076 -0.067681305 0.008112805
0.037221514 -0.10863981 -0.0005455647 -0.031225534 -0.1567193 -0.08511938 -0.08843655 -0.22041205
-0.0697004 -0.21390994 -0.19459334 -0.14541456 -0.21608399 -0.15813982 -0.29848596 -0.098775476
-0.21218863 -0.015520053 -0.020183092 -0.22714522 -0.09011156 -0.25265336 -0.24945046 -0.1365581
-0.19595788 -0.15390743 -0.17471142 -0.104305044 -0.114259094 -0.046704516 -0.1325647 -0.094823085
-0.20872486 -0.15886426 -0.28418574 0.2045778 -0.17519048 -0.1118992 -0.106454566 -0.114754744
-0.15667318 0.037344474 -0.1328617 -0.076683536 -0.048914403 -0.15302327 -0.11915184 -0.122926995
-0.18355648 -0.095651925 -0.070380874 -0.040626124 -0.09547339 -0.15899022 -0.12022938 -0.10670376
-0.12889895 -0.19845226 -0.11635798 -0.109012455 -0.17845643 -0.15088063 -0.109672606 -0.11957328
-0.09982277 -0.19383396 -0.23083553 -0.1861375 -0.16385996 0.057266504 -0.094937064 -0.19956622
-0.1769613 -0.080574736 -0.19909024 -0.25683415 -0.053421035 -0.12960863 -0.1089778 0.0139076775
-0.2289743 -0.19028148 -0.11856108 -0.2011311 -0.24864945 -0.07784211 -0.16618496 -0.16241297
-0.17789783 -0.08104692 -0.07662957 -0.095515355 -0.062088035 -0.20256606 -0.03772541 -0.102864526
-0.16902505 -0.15477824 -0.17454982 -0.12882708 0.011524164 -0.20465761 -0.21201296 -0.22110446
-0.034467276 -0.11905536 -0.14482729 -0.100049876 -0.1580705 0.0066530444 -0.16804975 -0.20133226
-0.18490359 -0.094633184 -0.1352158 -0.17415467 -0.054675985 -0.23862095 -0.27784777 -0.035104156
-0.011528537 -0.13971485 -0.23794422 -0.049999606 -0.056460205 -0.15866013 -0.089934126 -0.21976285
-0.12664041 -0.16004154 -0.070659414 -0.2091909 -0.048387382 -0.06673456 -0.18652558 -0.06510432
-0.12315926 0.20270216 -0.14443798 -0.1396392 -0.11242175 -0.33049405 -0.09258171 -0.15621834
-0.12703024 -0.15684012 -0.19726695 -0.10122495 -0.075793535 -0.053899 -0.109005086 -0.062945224
-0.12503196 -0.14216575 0.008331908 -0.1404176 -0.12723489 -0.1258686 -0.19954707 -0.09207772
-0.18394074 -0.22408366 -0.19840285 -0.09351385 -0.140423 -0.095200785 -0.05471835 -0.16193947
-0.14693384 -0.13333862 -0.16452901 -0.19278885 -0.09610401 -0.15867022 -0.12195577 -0.1654901
-0.16761853 -0.11747629 -0.13656983 -0.18329166 -0.16101204 -0.21810001 -0.15112811 -0.14057651
00000000: 8a48 e7bd 712f 2dbe 5df5 7fbd 333e 0bbd
00000010: 08d5 25be d31b 27be 89aa 14be ce5e 97bd
00000020: 47c4 2fbe 0d10 923c 9063 753b 9371 56be
00000030: 2981 7fbe 6990 6ebd 8eb5 15be c6ba 10be
00000040: 78f6 2fbe 3136 40be 1f3b 1cbe abc3 ccbd
00000050: f8fd 02be a368 03be 7dea 33be a56f 32bc
00000060: c23b 8bbe 98b8 54be 07d2 fdbd 7cf1 e9bd
00000070: 859d 173c 2a41 e3bd 47b5 82be 8995 92bd
00000080: a3f3 ffbd c676 1dbe 2e26 26be a19e 1abe
00000090: 133c f93a 3692 6ebe 0230 7ebc 6945 4ebe
000000a0: 2c30 65be e06b 1bbe bbef dcbd a746 58bd
000000b0: abdc 04be 012a dfbd 845c d2bd dd6d 3bbe
000000c0: 3c28 ff3b e72b 96be a003 57bd a03a b3bd
000000d0: a89c 1bbe 360c 20be 1e2d 27be 9996 1ebe
000000e0: 5461 78bd 5cb1 ddbd 5268 84bd 070e 1ebe
000000f0: fd97 07be bbed f0bd cb6b 6fbe 5973 09be
00000100: 2592 eabd 31e2 b5bd 668f 31be 3882 aabe
00000110: 1bc4 28be e149 e3bd 7f9c 8abd 92eb 043c
00000120: 9675 183d 8c7e debd 3a04 0fba b1cc ffbc
00000130: 067b 20be 1253 aebd 391e b5bd b2b3 61be
00000140: 15bf 8ebd 350b 5bbe 7a43 47be 8ee7 14be
00000150: 1f45 5dbe 68ef 21be 27d3 98be cc4a cabd
00000160: fa47 59be d247 7ebc 0357 a5bc c298 68be
00000170: 698c b8bd c85b 81be f16f 7fbe e3d5 0bbe
00000180: 2fa9 48be e999 1dbe 8de7 32be e29d d5bd
00000190: ac00 eabd 3c4d 3fbd 0abf 07be 9b32 c2bd
000001a0: f8bb 55be 50ad 22be cb80 91be d87c 513e
000001b0: 2265 33be 682b e5bd da04 dabd 8904 ebbd
000001c0: ef6e 20be 85f6 183d e60c 08be 420c 9dbd
000001d0: 785a 48bd 22b2 1cbe e105 f4bd 26c1 fbbd
000001e0: 3bf6 3bbe 28e5 c3bd d923 90bd 9467 26bd
000001f0: 8d87 c3bd 55ce 22be d23a f6bd 8087 dabd
00000200: 16fe 03be 1237 4bbe 184d eebd ec41 dfbd
00000210: 48bd 36be 7480 1abe 089c e0bd d6e2 f4bd
00000220: e16f ccbd 697c 46be 2660 6cbe d49a 3ebe
00000230: e8ca 27be 4890 6a3d 5d6e c2bd 165b 4cbe
00000240: 5835 35be 5e04 a5bd 50de 4bbe c47f 83be
00000250: 04d0 5abd 20b8 04be c12f dfbd 07dd 633c
00000260: 3d78 6abe 26d9 42be 27d0 f2bd 50f5 4dbe
00000270: f69d 7ebe af6b 9fbd 642c 2abe 964f 26be
00000280: d92a 36be edfb a5bd f7ef 9cbd 8e9d c3bd
00000290: 0650 7ebd 7a6d 4fbe f685 1abd a3aa d2bd
000002a0: e714 2dbe 307e 1ebe 30bd 32be 3feb 03be
000002b0: d9cf 3c3c c491 51be ed19 59be 3569 62be
000002c0: 8f2d 0dbd 4cd3 f3bd 9b4d 14be f3e6 ccbd
000002d0: 3cdd 21be c801 da3b 3c15 2cbe 0b2a 4ebe
000002e0: 5e57 3dbe 0bcf c1bd 0376 0abe 9a55 32be
000002f0: edf3 5fbd 0d59 74be 1042 8ebe 60c9 0fbd
00000300: 30e2 3cbc 6911 0fbe a6a7 73be 63cc 4cbd
00000310: d142 67bd cd77 22be 622f b8bd 8309 61be
00000320: 06ae 01be eee1 23be e2b5 90bd 2436 56be
00000330: d931 46bd 21ac 88bd 9000 3fbe 6a55 85bd
00000340: ec3a fcbd 2891 4f3e 8de7 13be 94fd 0ebe
00000350: 603d e6bd 8436 a9be 7b9b bdbd b3f7 1fbe
00000360: 3714 02be b29a 20be 5900 4abe 074f cfbd
00000370: a439 9bbd 33c5 5cbd 0f3e dfbd 6de9 80bd
00000380: 6108 00be e693 11be 8e82 083c a2c9 0fbe
00000390: dd49 02be b3e3 00be 1156 4cbe 3e93 bcbd
000003a0: f65a 3cbe 3076 65be 1e2a 4bbe 3084 bfbd
000003b0: 0ccb 0fbe a1f8 c2bd 5920 60bd 76d3 25be
000003c0: d375 16be eb89 08be 4b7a 28be 716a 45be
000003d0: 2ed2 c4bd 727a 22be f2c3 f9bd 3d76 29be
000003e0: 31a4 2bbe 6997 f0bd f6d8 0bbe cfb0 3bbe
000003f0: 57e0 24be 9c55 5fbe 54c1 1abe 4af3 0fbe

fc2.weight f4 [5, 256]
0.042123698 -0.055743016 0.05696051 0.0013895035 -0.038602628 0.03496027 0.04956536 0.026709743
0.0110195875 0.039089054 -0.0091083795 0.0063428804 0.031213738 0.011798859 -0.042292014 0.0075466484
0.0039478764 0.013079472 -0.06207777 0.055029914 -0.045601726 0.046330296 -0.055486605 -0.050983675
-0.02489505 -0.0051212236 0.01762674 -0.022776015 0.049090438 -0.039463148 -0.031100735 0.049460128
-0.035118125 0.03280644 -0.024804205 0.05233662 -0.055909894 -0.026399538 0.06187228 -0.034300245
0.009617187 0.014051124 0.042102516 -0.05204071 -0.0032782555 0.0061606094 0.050961003 -0.04569637
0.050438218 -0.04497578 -0.033004493 -0.0017759204 -0.006461896 0.017610379 -0.061396733 -0.013463579
-0.052210018 -0.053653024 -0.020974651 -0.05270838 -0.021001883 0.008626811 0.03395915 0.04481394
0.03107503 -0.04018517 0.04681799 0.045214668 -0.000187926 0.012844548 0.028731711 -0.0143066645
-0.0294298 0.011934742 -0.058124147 -0.040603913 0.061703525 0.058904357 -0.001946196 0.03505005
-0.05362931 0.021444231 -0.052898906 0.048687473 -0.035770185 -0.035162874 0.026760422 -0.06027525
-0.01170136 0.051902182 0.017540649 -0.013055779 0.020543672 0.027294248 -0.014216818 -0.0203726
0.04432717 0.01575762 0.054974675 -0.014121883 0.03317368 -0.009789631 0.037197508 -0.03404072
0.038713023 -0.054096214 0.009503387 0.0019484013 0.039647564 0.018130496 0.01517313 -0.009725437
-0.051609986 -0.048462234 -0.059027314 -0.003032498 -0.021099761 -0.02810014 -0.015113197 0.015859425
-0.013955392 -0.015273944 -0.02666556 0.040667422 0.00051584095 0.027448758 0.054821722 -0.022273459
-0.0028099045 -0.047223926 0.042682737 0.010461129 -0.058139183 0.03617467 0.0066709146 -0.04070647
-0.013405733 0.036429957 0.03018327 0.015490286 0.02862022 0.02423878 -0.014782555 -0.020669542
-0.047167704 -0.04221715 -0.0068895817 -0.025856912 -0.059538625 -0.05355724 -0.023841716 -0.04993008
-0.055813856 0.046051085 0.022046395 0.004430622 0.006732397 0.018800497 0.04279592 0.0046172887
0.021397628 0.061191708 0.033837892 0.028548598 0.037149742 -0.04798922 -0.04485845 -0.029215582
-0.0493685 -0.018049732 0.0505258 -0.00078394264 -0.04310555 -0.049140967 -0.03190638 0.059452295
0.015242457 -0.03507358 0.010839798 -0.04982456 0.0494435 -0.048851572 0.061413005 -0.026906267
0.05616612 -0.04134731 -0.0044836476 -0.040328763 -0.0063190013 -0.029148333 -0.03519153 -0.043648556
0.04779782 0.03628383 -0.057381064 0.050741673 0.032000132 -0.021092057 0.009902425 -0.05950039
0.04148075 -0.027222082 0.019802906 0.038345143 -0.05740671 0.039989218 -0.038650297 0.0021248162
0.039306037 0.037276834 0.004026212 0.049340114 -0.04504072 -0.028910853 0.014631607 0.033744343
0.041717127 -0.0578359 0.04700657 0.057906292 -0.053663194 0.04929617 0.05650775 -0.012783848
0.0075302273 -0.05474846 -0.05304189 -0.047639735 -0.0040666237 -0.04068567 -0.05816275 0.05353588
0.029459402 0.015954606 -0.038069673 0.05113007 0.028464705 -0.03832782 -0.05880654 -0.03019023
-0.01383888 0.060869038 0.027796961 0.0035567358 -0.05545514 0.052034974 -0.009223089 -0.016344108
0.02429802 -0.018030643 0.06020025 -0.060472757 -0.005449444 0.057305552 -0.028786786 -0.036118075
00000000: e689 2c3d ca52 64bd 6c4f 693d 0020 b63a
00000010: ca1d 1ebd 8032 0f3d 0c05 4b3d 64ce da3c
00000020: 808b 343c d81b 203d 503b 15bc f0d7 cf3b
00000030: f4b3 ff3c 0050 413c 643a 2dbd e049 f73b
00000040: 305d 813b 484b 563c 4245 7ebd 0c67 613d
00000050: e0c8 3abd d6c4 3d3d ec45 63bd 42d4 50bd
00000060: b4f0 cbbc f0cf a7bb f465 903c c494 babc
00000070: 0e13 493d 1ca4 21bd f8c6 febc b496 4a3d
00000080: 06d8 0fbd 0c60 063d 3032 cbbc ec5e 563d
00000090: c601 65bd d843 d8bc ca6d 7d3d 6a7e 0cbd
000000a0: 6891 1d3c b036 663c b073 2c3d a428 55bd
000000b0: 00d8 56bb f0de c93b 7cbc 503d 1e2c 3bbd
000000c0: 4e98 4e3d 8638 38bd b82f 07bd 00c6 e8ba
000000d0: 50be d3bb a443 903c 247b 7bbd 5896 5cbc
000000e0: 2cda 55bd 46c3 5bbd 08d3 abbc bee4 57bd
000000f0: 240c acbc 7857 0d3c c018 0b3d d28e 373d
00000100: 1091 fe3c 3499 24bd 38c4 3f3d 0433 393d
00000110: 000e 45b9 f071 523c c45e eb3c 8066 6abc
00000120: c416 f1bc f089 433c 9613 6ebd 4a50 26bd
00000130: d6bc 7c3d b245 713d 8017 ffba a490 0f3d
00000140: 68aa 5bbd d0ab af3c 86ac 58bd 846c 473d
00000150: c283 12bd f206 10bd ac38 db3c 2ee3 76bd
00000160: 10b7 3fbc 6297 543d 68b1 8f3c e8e7 55bc
00000170: 344b a83c 3098 df3c a8ed 68bc 70e4 a6bc
00000180: 6890 353d 2016 813c 202d 613d 785f 67bc
00000190: 20e1 073d b064 20bc 6a5c 183d 486e 0bbd
000001a0: 8c91 1e3d fe93 5dbd 18b4 1b3c 8061 ff3a
000001b0: 7c65 223d 6886 943c b898 783c 7057 1fbc
000001c0: fe64 53bd 5680 46bd a0c6 71bd e0bc 46bb
000001d0: 68d9 acbc 4432 e6bc 589d 77bc a0eb 813c
000001e0: 28a5 64bc 903f 7abc bc71 dabc e292 263d
000001f0: 8039 073a 38dc e03c be8c 603d d476 b6bc
00000200: 6026 38bb e06d 41bd 18d4 2e3d 2865 2b3c
00000210: 5a23 6ebd e42b 143d b097 da3b d4bb 26bd
00000220: b8a3 5bbc 9437 153d e842 f73c f8ca 7d3c
00000230: f474 ea3c 6890 c63c 8832 72bc 2c53 a9bc
00000240: ec32 41bd e4eb 2cbd 00c2 e1bb e0d1 d3bc
00000250: c6de 73bd d65e 5bbd b44f c3bc 7c83 4cbd
00000260: 129d 64bd 10a0 3c3d a49a b43c c02e 913b
00000270: 709b dc3b 8003 9a3c c64a 2f3d a04c 973b
00000280: 144a af3c 28a4 7a3d 9a99 0a3d c0de e93c
00000290: 542a 183d 5890 44bd 7ebd 37bd 8455 efbc
000002a0: a036 4abd 08dd 93bc 24f4 4e3d 8081 4dba
000002b0: 728f 30bd 0a48 49bd 44b0 02bd 4084 733d
000002c0: 80bb 793c 50a9 0fbd 6899 313c d614 4cbd
000002d0: 4485 4a3d 9618 48bd 348c 7b3d 886a dcbc
000002e0: 720e 663d cc5b 29bd 90eb 92bb c62f 25bd
000002f0: a00f cfbb 7cc8 eebc fe24 10bd d4c8 32bd
00000300: a6c7 433d 5a9e 143d 6808 6bbd 80d6 4f3d
00000310: 9212 033d 40c9 acbc c83d 223c aeb6 73bd
00000320: b8e7 293d d800 dfbc b439 a23c cc0f 1d3d
00000330: 4c23 6bbd bccb 233d c64f 1ebd 8040 0b3b
00000340: 5eff 203d 98af 183d 50ee 833b dc18 4a3d
00000350: 9e7c 38bd 74d6 ecbc 68b9 6f3c 8237 0a3d
00000360: 94df 2a3d 56e5 6cbd f689 403d 262f 6d3d
00000370: f0cd 5bbd c8ea 493d ac74 673d 5873 51bc
00000380: 20c0 f63b ec3f 60bd 7442 59bd e221 43bd
00000390: 5041 85bb 04a6 26bd 103c 6ebd 7048 5b3d
000003a0: d854 f13c 3cb3 823c f2ee 1bbd c46d 513d
000003b0: d02e e93c a2fd 1cbd 20df 70bd 8051 f7bc
000003c0: 78bc 62bc d051 793d 74b6 e33c 2018 693b
000003d0: ee24 63bd a022 553d 701c 17bc 14e4 85bc
000003e0: a40c c73c 00b5 93bc 8a94 763d 48b2 77bd
000003f0: 4091 b2bb 3ab9 6a3d 44d2 ebbc 8cf0 13bd

fc2.bias f4 [5]
-0.020561717 0.048897147 -0.031730488 -0.051509894 0.062028263
00000000: 0c71 a8bc 6048 483d d4f7 01bd 0afc 52bd
00000010: 5911 7e3d
