Models/Torch2/my_model19600.pth (torch_old, 60054 bytes, 8 tensors)

conv1.weight f4 [16, 2, 3, 3]
0	0x3e38fe30	0.18065715
1	0xbea0f644	-0.31437886
2	0xbd8c4a67	-0.068501286
3	0x3c307753	0.010770637
4	0xbd37eda1	-0.044904355
5	0xbe7bf912	-0.24606732
6	0xbe346b67	-0.17619096
7	0xbe927b1a	-0.28609544
8	0xbe16a3c9	-0.14710917
9	0xbe2bd9a6	-0.16782245
10	0x3f0521e7	0.52004856
11	0x3edf7a9e	0.43648237
12	0xbd5bfb7a	-0.053706624
13	0xbe6b5293	-0.22980718
14	0x3d5a6c89	0.053326163
15	0x3df1d302	0.11807825
16	0x3d08c2d0	0.033388913
17	0xbcd00c4b	-0.025396487
18	0xbea5ef49	-0.32409123
19	0xbea32920	-0.31867313
20	0xbe0af442	-0.1356974
21	0x3f0b76e5	0.54478294
22	0x3ebafc27	0.36520502
23	0x3ef9f37f	0.48818585
24	0x3eeebf2a	0.46630222
25	0x3f222240	0.6333351
26	0x3e0e0b1a	0.13871422
27	0x3d98d714	0.07462898
28	0xbed4635d	-0.41482058
29	0x3eb0273a	0.34404927
30	0xbd151d78	-0.036405057
31	0x3ddbf363	0.10739782
32	0xbf1ae338	-0.6050296
33	0x3dbce405	0.09223179
34	0x3e9ef70b	0.31047854
35	0xbf121b44	-0.57072854
36	0x3ede7f6e	0.43456596
37	0x3ee0dedd	0.4392003
38	0x3ef85617	0.4850318
39	0xbebdc7b0	-0.37066412
40	0xbeba9324	-0.36440384
41	0xbe3d7941	-0.18503286
42	0x3e577d75	0.21043952
43	0x3ea25219	0.3170326
44	0x3df65191	0.12027276
45	0xbe12379d	-0.14279027
46	0x3e6a47fd	0.22879024
47	0xbf160f31	-0.5861693
48	0x3c97d327	0.018533302
49	0xbecf982e	-0.4054579
50	0x3e538d83	0.20659451
51	0x3d3fe885	0.046852607
52	0x3ddea1a6	0.10870676
53	0xbedb289a	-0.42804414
54	0x3e939c8f	0.28830382
55	0xbe5b824b	-0.21436422
56	0xbdb60793	-0.088881634
57	0x3eca82e3	0.39552984
58	0x3de6942a	0.11258729
59	0xbdb7c214	-0.08972564
60	0x3d00699b	0.031350713
61	0x3eae9ae0	0.34102535
62	0x3f0a54f6	0.5403589
63	0xbdc78fc1	-0.09744216
64	0xbddee2bd	-0.10883091
65	0x3e9f7021	0.31140235
66	0xbdbcdda8	-0.09221965
67	0x3dc9e0e3	0.09857347
68	0x3e97a23d	0.29615965
69	0xbe15d7e7	-0.14633141
70	0x3e91c63e	0.2847156
71	0xbe22230a	-0.15833679
72	0xbe2949ec	-0.16532105
73	0xbdff4c8a	-0.124657705
74	0x3f0a3d2e	0.539996
75	0xbe2a8832	-0.16653517
76	0x3e52fa2e	0.20603248
77	0xbd99f3b5	-0.075171866
78	0xbe27d775	-0.16390784
79	0x3eb6977d	0.3566245
80	0xbd91697e	-0.07100199
81	0x3c82a13d	0.015946025
82	0xbe4452ec	-0.19172257
83	0x3e393c28	0.18089354
84	0xbc31c144	-0.010849301
85	0x3d8217dd	0.06352208
86	0xbe2afb01	-0.16697313
87	0x3dfe1998	0.12407225
88	0x3c81719b	0.015801242
89	0xbe85fad5	-0.26167932
90	0x3eda082c	0.4258436
91	0xbe06e9fd	-0.13175197
92	0xbdf4ca80	-0.11952686
93	0x3f12ebb7	0.5739092
94	0x3eb2cf83	0.34923944
95	0x3f27c48c	0.6553428
96	0xbe5bb4f5	-0.21455748
97	0x3ef18ab8	0.47176147
98	0xbe6b8a82	-0.23002055
99	0xbed038f2	-0.40668446
100	0xbed3d675	-0.41374555
101	0xbe714815	-0.23562653
102	0x3a7c1690	0.0009616399
103	0xbf19ddd0	-0.60104084
104	0x3df83099	0.12118644
105	0xbde14990	-0.11000359
106	0xbd68f591	-0.056874815
107	0x3ccfdeab	0.025374731
108	0x3e084ddb	0.1331095
109	0xbdab38e6	-0.08360462
110	0xbd0014c4	-0.031269804
111	0xbdb91f54	-0.090391785
112	0x3da4703b	0.08029219
113	0xbe2aa890	-0.16665864
114	0x3d97dde5	0.0741537
115	0x3e845fb7	0.25854275
116	0x3e13ba40	0.14426517
117	0x3cfa6a16	0.030568164
118	0xbddb9b16	-0.1072294
119	0x3da351b9	0.07974572
120	0x3e48589c	0.19565052
121	0x3e62336d	0.2208993
122	0xbe57a846	-0.21060285
123	0xbdbcb8c6	-0.0921493
124	0xbe401b3a	-0.18760386
125	0xbe1a20ef	-0.15051626
126	0xbda385df	-0.07984518
127	0x3dfda988	0.12385851
128	0xbd619ed8	-0.055083126
129	0xbe26db61	-0.16294624
130	0x3ea9b52f	0.33146045
131	0xbc58910f	-0.013218178
132	0xbce24ffc	-0.02762603
133	0xbdde908c	-0.10867414
134	0x3e904c25	0.28183094
135	0xbd98abc1	-0.074546345
136	0xbe8db447	-0.27676603
137	0xbe18c2d8	-0.14918077
138	0x3dadef12	0.08492865
139	0xbe4e5f15	-0.20153458
140	0xbeb121ed	-0.34596196
141	0xbd358074	-0.044311956
142	0xbe091a56	-0.13388953
143	0xbe0cbfa2	-0.13744977
144	0xbd855c58	-0.06511754
145	0x3e4b6061	0.19860984
146	0xbdef2ef3	-0.11678877
147	0xbdd52751	-0.1040789
148	0xbd903ead	-0.070432045
149	0xbdfa3a9f	-0.12218212
150	0x3d9871f7	0.07443612
151	0xbe8d8f1a	-0.2764824
152	0xbda28b69	-0.079367466
153	0x3cd62ba2	0.026143853
154	0xbe0e3e63	-0.13890986
155	0x3f212380	0.62944794
156	0x3e7fb4f9	0.2497138
157	0x3e96b7fb	0.2943724
158	0x3ec14005	0.37744156
159	0x3e23f515	0.1601146
160	0x3ee486f6	0.44634217
161	0xbcb11d01	-0.021620275
162	0xbec3f993	-0.38276348
163	0x3e5ce3f1	0.21571328
164	0x3dcd7284	0.10031608
165	0x3e865bc9	0.26241902
166	0xbcf32291	-0.029679568
167	0x3ea2413f	0.31690404
168	0xbea7655e	-0.32694525
169	0x3e87ef2d	0.26549664
170	0x3d9dd466	0.077065274
171	0xbe1f3a41	-0.15549566
172	0xbe8c6384	-0.27419674
173	0x3f093c67	0.5360779
174	0x3d6dacf7	0.05802628
175	0x3e26ce35	0.16289599
176	0xbe9b5747	-0.30340025
177	0x3d65e2bb	0.05612443
178	0x3c29c740	0.010362446
179	0x3ea8f600	0.33000183
180	0x3b957ef5	0.0045622536
181	0x3decfdf5	0.11571876
182	0xbcef0f81	-0.029182198
183	0x3ed4a966	0.4153549
184	0xbcefb1b8	-0.029259548
185	0xbe6fc4d7	-0.23414932
186	0x3eeef5a6	0.4667179
187	0xbe21d196	-0.15802607
188	0xbdce7b28	-0.10082084
189	0x3eb1c5f5	0.34721342
190	0xbe00588c	-0.12533778
191	0xbd520de1	-0.051282767
192	0x3e0fa5ad	0.14028044
193	0x3f006e8c	0.5016868
194	0x3ead90e2	0.338996
195	0x3ddf9ce1	0.10918594
196	0x3eccad6a	0.39976054
197	0x3ec1a0dd	0.3781804
198	0x3e2590ad	0.1616847
199	0xbc2d2af5	-0.010569324
200	0x3e913c34	0.28366244
201	0x3e5a0524	0.21291023
202	0xbe68fbe7	-0.22752343
203	0x3eaa47f2	0.33258015
204	0xbe6a94b3	-0.22908287
205	0xbd08de46	-0.0334151
206	0x3dcd340b	0.10019692
207	0x3e7836a8	0.242396
208	0x3edc9145	0.43079582
209	0xbe008508	-0.12550747
210	0xbd9606d1	-0.07325519
211	0x3e93d5ec	0.28874147
212	0x3ee5b080	0.4486122
213	0x3e373a42	0.17893317
214	0xbdd91a4e	-0.1060072
215	0x3d8b2ecb	0.067960344
216	0xbe3c462a	-0.1838614
217	0xbdc2ed83	-0.09517958
218	0x3c9e8bd0	0.019353777
219	0x3eda54f8	0.4264295
220	0x3d66f4c9	0.05638579
221	0xbe34054b	-0.17580144
222	0x3eb34c6c	0.35019243
223	0xbbd50b69	-0.0065016043
224	0x3d7bd72e	0.06148451
225	0xbdda16ae	-0.10648857
226	0xbd80fb59	-0.06297941
227	0xbe027be9	-0.1274258
228	0xbe0fe40b	-0.14051835
229	0xbe134506	-0.14381799
230	0x3f09fa8f	0.5389795
231	0xbe53b1ce	-0.20673296
232	0xbd2cc766	-0.04218235
233	0x3e8d516c	0.27601182
234	0xbdc2be0e	-0.09508906
235	0xbc2486dd	-0.01004192
236	0xbe116f6b	-0.14202659
237	0xbe9b441e	-0.30325407
238	0x3f12233d	0.5708502
239	0x3e5c5901	0.21518327
240	0x3f5fc527	0.87410206
241	0xbf173c48	-0.59076357
242	0x3eb37074	0.35046732
243	0xbde5f6f1	-0.11228741
244	0xbe2039d9	-0.15647067
245	0xbea4464d	-0.32084885
246	0x3d333b97	0.043758
247	0xbd8d5984	-0.069018394
248	0xbf2c64be	-0.6734122
249	0xbc241f80	-0.010017276
250	0x3e8a6a59	0.27034262
251	0x3f035be2	0.5131208
252	0xba38fc5e	-0.00070566486
253	0xbe640c32	-0.22270277
254	0x3dd758ef	0.105150096
255	0x3c2f2575	0.010690083

conv1.bias f4 [16]
0	0xbe89b478	-0.268955
1	0xbdb92b12	-0.09041418
2	0x3cff4cf7	0.03116463
3	0xbedfa80f	-0.43682906
4	0xbdcde542	-0.10053493
5	0xbce715e8	-0.028208688
6	0xbe86957e	-0.26285928
7	0xbc8ae971	-0.016957017
8	0xbde2a694	-0.110669285
9	0x3cd7914c	0.0263144
10	0xbed36c3e	-0.4129352
11	0xbe0b247f	-0.13588141
12	0xbec1f6f6	-0.3788373
13	0x3d202b4d	0.039103795
14	0xbe303d3f	-0.17210864
15	0xbea58547	-0.32328245

conv2.weight f4 [32, 16, 3, 3]
0	0x3e6e3bf4	0.23265058
1	0xbe01ebeb	-0.12687652
2	0x3e73fee8	0.23827708
3	0x3e5e72e0	0.21723509
4	0x3c2363f1	0.009972558
5	0x3e947cb7	0.290014
6	0x3d3267bf	0.04355597
7	0xbcec83eb	-0.028871497
8	0x3dc9e7ef	0.09858691
9	0x3e3120d4	0.17297679
10	0xbec5478d	-0.3853115
11	0xbe15130f	-0.14558052
12	0xbda7e6e5	-0.081983365
13	0x3dc76bac	0.09737334
14	0xbe25250e	-0.16127416
15	0x3ef20d2f	0.47275683
16	0xbe30b143	-0.1725512
17	0x3f0c8b6d	0.54900247
18	0x3ed9bfbe	0.425291
19	0xbe0dac72	-0.13835314
20	0x3eb27eb1	0.34862283
21	0x3e60ecb8	0.21965301
22	0xbe28992f	-0.16464685
23	0xbd478948	-0.048714906
24	0x3dbf83ef	0.09351336
25	0xbed601f1	-0.41798356
26	0xbc2f81be	-0.010712085
27	0xbce9d0ec	-0.028542005
28	0x3cc52d6b	0.024069509
29	0x3cb60dcd	0.022223378
30	0x3e0101ad	0.12598296
31	0x3d857400	0.06516266
32	0x3d9dc8df	0.07704329
33	0x3e2abf96	0.16674647
34	0xbdd44843	-0.10365345
35	0x3ddc8e9f	0.1076939
36	0x3e04e915	0.12979539
37	0xbdda4e31	-0.10659445
38	0x3e487b63	0.19578318
39	0x3d9daa7c	0.07698533
40	0x3c000bcc	0.007815313
41	0xbe17f247	-0.14838515
42	0xbd68c118	-0.056824774
43	0xbcd4ff89	-0.026000755
44	0xbd6437e9	-0.055717383
45	0xbe8832dd	-0.26601306
46	0xbca6034f	-0.02026525
47	0xbf0380ea	-0.5136858
48	0xbef6732d	-0.48134747
49	0xbd9d00de	-0.07666181
50	0xbe56dd1d	-0.20982786
51	0xbdd409a9	-0.10353405
52	0x3e2b72ce	0.16743013
53	0xbec37cbf	-0.3818111
54	0xbd86e5db	-0.0658681
55	0x3b89cf8c	0.0042056497
56	0x3d8ab4ba	0.06772752
57	0xbdc428b7	-0.09578078
58	0xbc4e63a0	-0.012596995
59	0xbcbab55d	-0.022791559
60	0xbc931a67	-0.017956926
61	0x3daf4a5a	0.08559103
62	0xbbfbe975	-0.0076877424
63	0xba8af58e	-0.0010601745
64	0xbd8dbaa4	-0.069203645
65	0xbd049e30	-0.03237742
66	0x3e0273b8	0.12739456
67	0xbc9bf3cf	-0.019037155
68	0x3b2a542c	0.0025990112
69	0x3db9107d	0.09036348
70	0xbe49ccb4	-0.19706994
71	0x3d84aa0a	0.06477745
72	0x3dcebacf	0.10094225
73	0x3eab3ac2	0.33443266
74	0xbe9cb4b4	-0.30606616
75	0x3d90cd1a	0.0707037
76	0x3df6897f	0.12037944
77	0x3d98e85f	0.07466196
78	0x3df115f3	0.117717646
79	0xbd6ce51b	-0.05783568
80	0x3e740e9b	0.23833697
81	0x3e18253c	0.14857954
82	0xbd8641eb	-0.065555416
83	0xbe8911a9	-0.26771286
84	0xbd46530e	-0.04841905
85	0x3e83d9fe	0.25752252
86	0xbe47a693	-0.19497137
87	0x3dbd882a	0.09254487
88	0xbcd56ab3	-0.026051855
89	0xbe422a72	-0.18961504
90	0x3e962bb4	0.29330218
91	0xbdf398c0	-0.11894369
92	0x3d986329	0.07440788
93	0x3e9a3e33	0.3012558
94	0xbe50a745	-0.20376308
95	0x3d0cb26e	0.03434985
96	0x3e82da1b	0.25557026
97	0xbe54a602	-0.20766452
98	0x3ed67b7e	0.41891092
99	0x3e17ebbd	0.14836021
100	0xbd3e60ef	-0.04647916
101	0x3db121a1	0.08648992
102	0x3de7829c	0.11304209
103	0x3d5c23bb	0.053745013
104	0xbdd2ffa0	-0.10302663
105	0x3e1631a2	0.14667371
106	0xbdd82012	-0.10552992
107	0x3cb8a66f	0.0225403
108	0xbdeb66fe	-0.114942536
109	0x3dbd5f61	0.09246708
110	0xbd2247f7	-0.039619412
111	0x3d8a6f6a	0.06759532
112	0x3ce6cceb	0.028173884
113	0xbba2dcc6	-0.004970166
114	0xbcbdba11	-0.023160012
115	0x3de9e1e3	0.114200376
116	0x3bdd1a4f	0.006747521
117	0x3c20c873	0.009813416
118	0xbe5a79af	-0.21335481
119	0xbe8fcbaf	-0.28085086
120	0x3ddd98aa	0.10820134
121	0xbe4552af	-0.19269823
122	0x3ea039a0	0.31293964
123	0x3ec93781	0.3930016
124	0xbe81d4f1	-0.25357774
125	0x3ee623d8	0.44949222
126	0xbd606f9e	-0.054793946
127	0xbd0a1b81	-0.033717636
128	0xbe1ab865	-0.15109403
129	0xbdadb837	-0.08482402
130	0x3dbe25f7	0.09284585
131	0xbdf96b6a	-0.12178691
132	0xbb0cdad6	-0.002149274
133	0x3d1c563c	0.038168177
134	0xbd6049ef	-0.05475801
135	0x3e456781	0.19277765
136	0xbedea211	-0.43483022
137	0x3edcc3b8	0.43118072
138	0x3e7fcd2e	0.24980614
139	0xbead0655	-0.33793893
140	0x3ec936ca	0.39299613
141	0x3e80d57e	0.25162882
142	0xbe3a8108	-0.18213284
143	0x3dcd618a	0.1002837
144	0x3cacac54	0.021078266
145	0xbd9946a2	-0.07484175
146	0x3dbd4b1f	0.09242844
147	0x3deb790d	0.11497698
148	0xbe3cc530	-0.18434596
149	0x3e4ca52f	0.19984888
150	0xbb251b2b	-0.0025193195
151	0xbd5e8569	-0.05432645
152	0x3e0dcc1d	0.13847394
153	0x3e8934fa	0.2679823
154	0xbdbe207e	-0.09283541
155	0x3ecc02b6	0.39845818
156	0xbe610fee	-0.21978733
157	0xbdd9be71	-0.10632027
158	0x3dc5d82a	0.09660371
159	0x3dd3b35c	0.103369445
160	0xbe16f64b	-0.14742391
161	0x3e501872	0.20321825
162	0x3dcf47d2	0.101211205
163	0xbe6b4b42	-0.22977927
164	0x3e3a8922	0.18216375
165	0x3e9308a5	0.28717533
166	0xbd424860	-0.047432303
167	0x3ea41cd6	0.3205325
168	0x3dcb099f	0.099139445
169	0xbe5e817c	-0.21729082
170	0x3b6e71a9	0.0036383665
171	0x3da4b4ee	0.08042322
172	0xbda9add4	-0.08285108
173	0xbd8a8752	-0.067640916
174	0xbd8894fa	-0.0666904
175	0x3c9e7a00	0.019345284
176	0x3d422452	0.04739792
177	0x3d08a021	0.033355836
178	0xbd0ffebc	-0.035155043
179	0x3daf9bf0	0.085746646
180	0x3e2ac3a2	0.1667619
181	0xbe6978c2	-0.22799972
182	0x3b9d7720	0.0048054606
183	0x3e169ca8	0.14708197
184	0xbd9c2649	-0.0762449
185	0x3dab8fe4	0.08377054
186	0xbc560e5f	-0.01306495
187	0xbdc60a9f	-0.096699946
188	0xbdfe2c09	-0.12410743
189	0x3e18a249	0.14905657
190	0x3e47909f	0.19488762
191	0x3de9f5ba	0.11423822
192	0x3d46887b	0.04847
193	0x3df8a7fc	0.121414155
194	0xbe55ac6b	-0.20866553
195	0x3ad2881c	0.0016062292
196	0x3e2702fe	0.16309735
197	0xbd1f6045	-0.03891017
198	0x3d219b75	0.039454896
199	0x3cc46b69	0.023976998
200	0x3db16a5c	0.086628646
201	0x3d1b3267	0.037889864
202	0xbc8d45ae	-0.01724514
203	0x3d2ae655	0.041723568
204	0xbd369cd5	-0.04458316
205	0x3d4f7706	0.05065062
206	0xbcc942a8	-0.024567917
207	0x3e4e1bff	0.20127867
208	0xbe05b244	-0.13056284
209	0x3e12c367	0.14332353
210	0x3e599551	0.21248366
211	0x3c44c336	0.012009433
212	0xbc107ea3	-0.008819255
213	0x3e28d2c8	0.16486657
214	0xbd6e6ae7	-0.05820742
215	0x3b665e7e	0.0035151537
216	0xbcdb00f1	-0.026733847
217	0x3e2bdf3d	0.16784377
218	0xbda45457	-0.08023899
219	0xbd03ee55	-0.032209713
220	0x3db2a6aa	0.08723195
221	0xbd62deff	-0.055388447
222	0x3dec5118	0.11538905
223	0x3e025fed	0.12731905
224	0xbcefdc7d	-0.029279942
225	0x3d4ac4be	0.049504034
226	0x3e56c47b	0.20973389
227	0xbc44c9ef	-0.012011035
228	0xbd40023a	-0.046877123
229	0x3d6453ba	0.05574391
230	0x3dce90e5	0.1008623
231	0x3c1d2dc6	0.009593433
232	0x3df9520b	0.121738516
233	0xbe10d8c7	-0.14145194
234	0x3dba80ff	0.09106635
235	0xbd3ece07	-0.0465832
236	0x3dbb8eb2	0.09158076
237	0x3d662b50	0.05619365
238	0x3cd067b9	0.025440084
239	0x3da7d009	0.081939764
240	0x3da2c25d	0.07947228
241	0xbd14b63e	-0.036306612
242	0x3e8e42a0	0.27785206
243	0x3e238c40	0.1597147
244	0xbd3b3367	-0.045703318
245	0x3e80bc6a	0.2514375
246	0x3dc72148	0.09723145
247	0xbc36da98	-0.011160515
248	0x3daa1153	0.083040856
249	0x3db8f64f	0.09031355
250	0xbd99a26a	-0.07501681
251	0x3e04bcad	0.12962599
252	0x3d1f903b	0.03895591
253	0x3dfcaeba	0.12338014
254	0xbdc0e5b0	-0.094188094
255	0xbd965b92	-0.073416844

conv2.bias f4 [32]
0	0x3f00ba80	0.50284576
1	0x3e446654	0.1917966
2	0x3d9c784c	0.07640132
3	0xbe37d40d	-0.17951985
4	0x3e31fcd7	0.17381607
5	0x3e615275	0.22004111
6	0x3d44562b	0.04793374
7	0xbd7a44d1	-0.061100785
8	0xbd5f7b29	-0.054560814
9	0x3e2b08b2	0.16702536
10	0x3d100038	0.03515646
11	0x3d29906a	0.04139749
12	0x3ceeb7bc	0.029140346
13	0x3cf12cb1	0.029440256
14	0xbd2997d4	-0.04140456
15	0xbd131bd4	-0.03591521
16	0x3a60e33a	0.0008578781
17	0x3d17a958	0.037026733
18	0x3e1a8dd7	0.1509317
19	0xbe23a7de	-0.15982005
20	0xbda1c4d5	-0.07898871
21	0x3dcf0786	0.10108857
22	0xbe0e530f	-0.13898872
23	0xbe1f7a7e	-0.15574071
24	0xbdc8da60	-0.09807277
25	0x3d259c5d	0.040432323
26	0xbd89b6ed	-0.067243434
27	0xba8707e6	-0.0010302037
28	0xbddaf220	-0.10690713
29	0xbde4556c	-0.111491054
30	0xbddab31a	-0.10678692
31	0xbdc1ddf4	-0.09466162

fc1.weight f4 [256, 32]
0	0x3d1ab70e	0.03777223
1	0x3d9e917e	0.07742594
2	0xbe0752e0	-0.13215208
3	0xba8fa97c	-0.0010960544
4	0x3cc004d8	0.02343981
5	0x3d00b3e9	0.031421576
6	0x3d88ffba	0.06689401
7	0xbdb22b06	-0.08699612
8	0x3d627520	0.05528748
9	0xbe36ef2e	-0.17864677
10	0xbd051eb8	-0.0325
11	0x3e1694c5	0.14705189
12	0x3dcb7b1d	0.09935591
13	0xbe1dfb69	-0.15427937
14	0xbdb62c8b	-0.08895215
15	0x3dbb64fd	0.09150121
16	0xbd9d53e6	-0.07682018
17	0x3e0cbfc6	0.13745031
18	0x3d922161	0.07135273
19	0xbda4891f	-0.08033966
20	0xbd28cdd7	-0.04121193
21	0xbcee8091	-0.02911404
22	0x3d898ec4	0.067166835
23	0xbd375d78	-0.044766873
24	0xbdd0dbe3	-0.1019819
25	0xbca43e0a	-0.020049114
26	0x3dacf39e	0.08444904
27	0xbda692e0	-0.08133483
28	0xbe27ce30	-0.16387248
29	0x3c845f63	0.016158765
30	0xbdf14564	-0.11780813
31	0x3cfcb48d	0.030847812
32	0x3dea73d0	0.11447871
33	0xbe37bd2c	-0.17943257
34	0xbdf3d63c	-0.11906096
35	0xbd504329	-0.0508453
36	0x3d97ef55	0.07418696
37	0x3de82bce	0.1133648
38	0xbdd9e64d	-0.106396295
39	0xbde81ddf	-0.113338225
40	0xbd1efb50	-0.03881389
41	0x3e0c2732	0.13686827
42	0xbe098f55	-0.13433583
43	0x3e091456	0.13386664
44	0xbdd3d260	-0.1034286
45	0x3dd21bd2	0.102592126
46	0x3ddd103a	0.107941106
47	0x3e1e53d7	0.1546167
48	0x394442f5	0.0001871696
49	0x3de363fe	0.11103056
50	0xbde7ebf2	-0.113243
51	0xbd61af92	-0.055099078
52	0xbda73ff9	-0.08166499
53	0x3d97ac5f	0.07405924
54	0xbdd101a0	-0.10205388
55	0xbd9155f0	-0.070964694
56	0xbd887a5b	-0.066639625
57	0x3db31db3	0.08745899
58	0x3dd346e0	0.10316253
59	0x3d84da20	0.064869165
60	0x3e0808d1	0.13284613
61	0x3df84740	0.12122965
62	0x3d4d8c8f	0.050182875
63	0xbd93035a	-0.07178374
64	0xbd76283f	-0.060096975
65	0xbe0b4f6e	-0.13604519
66	0xbe8538ba	-0.2601984
67	0x3d4b9d0b	0.049710315
68	0x3db03257	0.086033516
69	0x3caa076a	0.020755488
70	0x3d690f59	0.056899402
71	0x3e1957d5	0.14974912
72	0xbc72837c	-0.014801856
73	0x3e37b812	0.17941311
74	0x3e4f620b	0.20252244
75	0x3dcd41b8	0.100223005
76	0xbccd5de5	-0.025069186
77	0xbe22e476	-0.15907463
78	0xbe27c4ec	-0.16383713
79	0xbc93d71e	-0.018046912
80	0xbe19e6b8	-0.15029418
81	0x3c546125	0.012962614
82	0x3e2f7eae	0.17138168
83	0x3db7f45d	0.089821555
84	0x3db1ff02	0.08691217
85	0xbdd8ed36	-0.105921194
86	0xbcbfb578	-0.02340196
87	0x3dd20751	0.10255302
88	0x3e1b3aac	0.151591
89	0x3b602c1d	0.003420598
90	0x3be37b55	0.0069421926
91	0x3e5f7b64	0.21824414
92	0xbd268c22	-0.040660985
93	0xbe5eea45	-0.21769054
94	0x3cc84f89	0.024451988
95	0x3c8a4f85	0.016883621
96	0xbe0b98a4	-0.13632447
97	0xbe103e22	-0.14086202
98	0x3cd63cd1	0.026152046
99	0xbe23a7fb	-0.15982048
100	0x3e248285	0.16065414
101	0xbdffe286	-0.12494378
102	0x3d25f309	0.04051498
103	0xbe2c5f31	-0.16833188
104	0xbe175cff	-0.14781569
105	0x3db0e4ee	0.08637415
106	0x3da10ee5	0.07864169
107	0xbdc6779d	-0.09690783
108	0x3dc8149e	0.097695574
109	0xbe13498d	-0.14383526
110	0xbe144c9a	-0.14482346
111	0xbdf17a09	-0.117908545
112	0xbd221bb1	-0.03957719
113	0x3dd666c0	0.10468817
114	0x3be0f127	0.006864685
115	0x3df8b2c1	0.121434696
116	0x3dae06e4	0.08497408
117	0xbd40fef0	-0.047118127
118	0xbd1c8b27	-0.038218644
119	0xbdb75086	-0.089509055
120	0xbcfacb98	-0.03061466
121	0xbe36c37f	-0.17848013
122	0xbe1c4c26	-0.15263423
123	0xbc5b3144	-0.013378445
124	0xbd7b36be	-0.061331503
125	0x3ddb00ea	0.10693534
126	0xbdc627f9	-0.09675593
127	0x3d1ef71d	0.038809884
128	0x3bf11f67	0.00735848
129	0xbd57db7e	-0.05269956
130	0x3e0123ca	0.12611309
131	0xbdebc59c	-0.115123
132	0xbe00e23b	-0.125863
133	0xbe4f2b58	-0.20231378
134	0xbe0db5e4	-0.13838917
135	0x3db947e8	0.09046918
136	0x3d023bb2	0.03179521
137	0x3da3c58f	0.07996666
138	0x3d80dd87	0.06292253
139	0x3de4ac54	0.111656815
140	0x3da58dd5	0.08083693
141	0x3d1cad98	0.03825149
142	0xbe3a8f55	-0.1821874
143	0x3d19dda5	0.037564892
144	0xbe320f23	-0.17388587
145	0x3b1ca7ef	0.0023903807
146	0xbe2ba256	-0.16761145
147	0x3d500202	0.050783165
148	0xbe124c58	-0.14286935
149	0x3d3c54f4	0.045979455
150	0xbe1ef4f2	-0.15523127
151	0x3b92096b	0.004456689
152	0xbde98d2a	-0.11403878
153	0xbdeec597	-0.11658781
154	0x3dec9b26	0.1155303
155	0x3e21c80e	0.15798971
156	0x3e08947e	0.13337895
157	0xbd9d9b02	-0.07695581
158	0xbe29e9d6	-0.16593108
159	0x3beee1f9	0.0072901216
160	0xbe1648b9	-0.14676179
161	0x3dd91de2	0.10601403
162	0xbdeb6886	-0.11494546
163	0x3c87596a	0.016522128
164	0x3c3bcf58	0.011463009
165	0xbd3bdc59	-0.045864437
166	0x3df65c2f	0.120293014
167	0x3cbccad4	0.023045935
168	0xbd4aeeae	-0.04954403
169	0xbd0c94ee	-0.034321718
170	0x3e26bad2	0.16282204
171	0xbe2faee3	-0.17156558
172	0xbe19525c	-0.14972824
173	0x3e1bc359	0.15211238
174	0x3da16e2e	0.07882343
175	0xbc8e2dde	-0.017355856
176	0xbdd0f876	-0.1020364
177	0xbd207123	-0.039170396
178	0x3d4620f1	0.04837126
179	0x3d31569a	0.04329548
180	0x3da40fcf	0.08010828
181	0xbe3f9117	-0.18707691
182	0x3d899697	0.06718176
183	0x3b46041e	0.0030214856
184	0x3da8d88b	0.08244427
185	0x3d2a6c3f	0.041607138
186	0x3ca7dc1f	0.020490704
187	0xbe156645	-0.14589794
188	0xbd3a74c1	-0.0455215
189	0xbca6edfc	-0.020377152
190	0x3c5d752a	0.013516704
191	0xbd905025	-0.07046536
192	0x3b7eaaab	0.003885905
193	0xbdc74afd	-0.097311
194	0xbdaa666e	-0.08320318
195	0x3e1d6613	0.1537097
196	0xbdcaad84	-0.09896377
197	0xbbea1cdb	-0.007144553
198	0x3d839476	0.06424801
199	0x3b0d2ced	0.002154167
200	0x3c405168	0.011738159
201	0x3d17c47f	0.037052628
202	0x3dcf80e2	0.10132004
203	0xbe1eb0cc	-0.1549713
204	0x3b03b07a	0.0020094202
205	0x3dec73cd	0.11545525
206	0xbe0e13c2	-0.13874725
207	0x3d8dd01d	0.0692446
208	0x3d6b0252	0.05737526
209	0x3e05f962	0.13083413
210	0xbd611823	-0.05495466
211	0xbda4f5f5	-0.08054725
212	0x3d79a3fd	0.060947407
213	0xbdaf4695	-0.08558384
214	0x3e006007	0.12536632
215	0xbd30726f	-0.043077882
216	0xbe2e3f9e	-0.17016456
217	0x3d7c5548	0.061604768
218	0x3e0d65b6	0.13808331
219	0x3e20fa67	0.15720521
220	0x3dba2a00	0.09090042
221	0xbc48b1a7	-0.012249387
222	0xbd968e05	-0.07351307
223	0xbe3308ac	-0.17483777
224	0x3d9fb920	0.07798982
225	0x3d777dfe	0.06042289
226	0xbd88f495	-0.06687275
227	0xbe56d344	-0.20979029
228	0x3ddd59c3	0.10808136
229	0xbbfbbbfd	-0.007682322
230	0x3d91cacb	0.07118758
231	0x3e27f26e	0.16401073
232	0xbe26b0ba	-0.16278353
233	0xbd56e691	-0.05246598
234	0xbda42a22	-0.08015849
235	0xbdb70a6b	-0.08937534
236	0xbcf6ac97	-0.030111594
237	0x3e3c3d99	0.18382873
238	0xbdb4f873	-0.088364504
239	0x3d833e71	0.06408394
240	0xbda06578	-0.07831854
241	0xbdc89864	-0.09794691
242	0x3d050d43	0.03248335
243	0xbd97c122	-0.07409884
244	0x3d56483f	0.052314993
245	0xbe36e771	-0.17861725
246	0xbc88f302	-0.016717438
247	0xbde46afc	-0.11153218
248	0x3dc9a649	0.098461695
249	0xbd564dd6	-0.052320324
250	0xbe203b47	-0.15647613
251	0x3d206f89	0.03916887
252	0xbdcf1167	-0.10110741
253	0xbd99e18c	-0.07513723
254	0x3df54ba5	0.11977319
255	0x3db627c4	0.088943034

fc1.bias f4 [256]
0	0xbe12d826	-0.14340267
1	0xbdd17da5	-0.10229043
2	0xbda92045	-0.08258108
3	0x3c9c53df	0.019082962
4	0xbdbc7501	-0.09202004
5	0xbde42bd9	-0.11141176
6	0xbd62b793	-0.05535085
7	0xbddf4684	-0.10902122
8	0xbe2f88e6	-0.17142066
9	0xbe1c7952	-0.15280655
10	0xbd274671	-0.040838663
11	0xbe1a1f91	-0.15051104
12	0xbdc514ac	-0.096230835
13	0xbb93bcc9	-0.004508589
14	0xbd496dbb	-0.049176913
15	0xbdee1be3	-0.11626413
16	0xbddb216f	-0.10699736
17	0xbe06a230	-0.13147807
18	0xbddd9084	-0.1081858
19	0xbe0604eb	-0.13087814
20	0xbe2d51e2	-0.16925767
21	0xbe085e79	-0.13317288
22	0xbe39cdab	-0.18144862
23	0xbba3e5db	-0.005001766
24	0xbdbcf83b	-0.09227034
25	0xbe3a98e3	-0.18222384
26	0xbdde00e2	-0.10840012
27	0xbd27c244	-0.04095675
28	0x3d24c57b	0.040227395
29	0xbd575243	-0.052568685
30	0xbe51853a	-0.20460978
31	0xbb9afead	-0.0047300668
32	0xbe399b82	-0.18125728
33	0xbc5cc264	-0.013474081
34	0xbe0cac58	-0.13737619
35	0xbdeea0bc	-0.116517514
36	0xbbba3c5d	-0.0056834654
37	0xbdbe9106	-0.09305005
38	0xbe061de3	-0.13097338
39	0xbe3b2be1	-0.18278457
40	0xbdc3e860	-0.095658064
41	0xbe138df0	-0.14409614
42	0xbe06ad54	-0.13152057
43	0xbd6f225d	-0.05838238
44	0xbb276982	-0.0025545065
45	0xbe1d8a0f	-0.15384696
46	0x3d02e4cd	0.031956483
47	0xbdcf0ac0	-0.10109472
48	0xbda331d2	-0.07968487
49	0xbe32da63	-0.1746612
50	0xbd4d51ba	-0.05012677
51	0xbdecff80	-0.1157217
52	0x3d2dd8fe	0.042443268
53	0xbdc6744d	-0.09690151
54	0xbdc3967e	-0.095501885
55	0xbddb788a	-0.107163504
56	0x3992aa4e	0.00027974177
57	0xbc889272	-0.016671393
58	0xbd349531	-0.044087593
59	0xbda9b9a4	-0.08287361
60	0xbde119ba	-0.10991235
61	0xbe1c2eba	-0.152522
62	0xbe30b2f4	-0.17255765
63	0xbd8a4f67	-0.06753426
64	0xbde2c0a5	-0.110719
65	0xbe10545a	-0.14094678
66	0xbda48015	-0.08032242
67	0xbe307f59	-0.1723608
68	0xbd4d5306	-0.050128005
69	0xbd9b1b61	-0.075735815
70	0xbc2d3fc9	-0.01057429
71	0xbd784a62	-0.060617812
72	0xbd23dd67	-0.040006068
73	0xbdacc7cb	-0.08436545
74	0xbde1e9bd	-0.1103091
75	0xbd8f3c37	-0.06993907
76	0xbd417114	-0.04722698
77	0xbd89bc0a	-0.06725319
78	0xbd249b24	-0.040187016
79	0xbe993765	-0.29925075
80	0xbc7bf8d9	-0.015379154
81	0xbe5d7588	-0.21626866
82	0xbd2b6cbc	-0.041851744
83	0xbe1e54d9	-0.15462054
84	0xbe6958c1	-0.22787763
85	0xbdfe0dc7	-0.124049716
86	0xbe815ee9	-0.25267723
87	0xbc973ab8	-0.018460616
88	0xbe360d5e	-0.17778537
89	0xbc41111c	-0.011783864
90	0xbc046bcf	-0.008082344
91	0xbe1c5d5a	-0.15269986
92	0xbceffdd9	-0.029295849
93	0xbe1d5771	-0.15365387
94	0xbe02df2c	-0.12780446
95	0xbd3fbea9	-0.046812687
96	0xbd7de2d6	-0.061983906
97	0xbe247061	-0.16058494
98	0xbdc4560c	-0.09586725
99	0xbccb6516	-0.024828475
100	0xbdcc183a	-0.09965558
101	0xbd72aa15	-0.059244234
102	0xbd4484e2	-0.04797829
103	0xbce90e8d	-0.028449321
104	0xbe322210	-0.17395806
105	0xbe165e86	-0.14684495
106	0xbe01630d	-0.12635441
107	0x3d9b1b05	0.07573513
108	0xbe1885e8	-0.14894831
109	0xbe4bde4c	-0.19909018
110	0xbd4914eb	-0.049092215
111	0xbda96c9f	-0.08272671
112	0xbd0a0c23	-0.03370298
113	0xbcdaaa40	-0.02669251
114	0xbe72f8ba	-0.23727694
115	0xbd27fe52	-0.041014023
116	0xbd67a992	-0.0565582
117	0xbd700042	-0.058593996
118	0xbe0e86dc	-0.13918632
119	0xbde70ff6	-0.11282341
120	0x3c389a2e	0.011267228
121	0xbd9937fe	-0.07481383
122	0x3bd7a4dd	0.0065809325
123	0xbd9efb56	-0.07762782
124	0xbd43252c	-0.04764287
125	0xbbebde02	-0.0071980963
126	0xbb91b508	-0.0044466294
127	0xbd215df7	-0.039396252
128	0xbdf94177	-0.121706896
129	0xbd98f80a	-0.07469185
130	0xbdded0a7	-0.10879641
131	0xbde47b5d	-0.11156342
132	0xbdac5905	-0.08415417
133	0xbe0e41df	-0.13892315
134	0xbe1ee613	-0.15517454
135	0xbc81ad61	-0.015829744
136	0xbdb8a2f6	-0.09015457
137	0xbe1cf71e	-0.15328643
138	0xbe557f53	-0.20849352
139	0xbe159c02	-0.14610294
140	0xbe2519e6	-0.1612316
141	0x3ca27166	0.019829463
142	0xbdc455cf	-0.09586679
143	0xbdd61319	-0.10452861
144	0xbe159a3b	-0.14609616
145	0xbdbce00f	-0.09222423
146	0xbe3c6d89	-0.1840116
147	0xbe8ca701	-0.27471164
148	0xbd137fe5	-0.03601064
149	0xbbd23272	-0.006414705
150	0xbe3d1d75	-0.18468268
151	0xbc54bf40	-0.012985051
152	0xbe5ffaac	-0.21872967
153	0xbe244b77	-0.16044413
154	0xbd916dc8	-0.07101017
155	0xbe3840dd	-0.17993493
156	0xbdc2f285	-0.09518913
157	0xbd7d1f5b	-0.06179748
158	0xbdda62c4	-0.10663369
159	0xbe20a8f5	-0.15689452
160	0xbdbac342	-0.09119274
161	0xbcd6c310	-0.02621606
162	0xbc3f92b7	-0.011692694
163	0xbd448b87	-0.047984626
164	0x3c1b8cda	0.009494031
165	0xbe0ec92c	-0.13943928
166	0xbcbdce56	-0.023169678
167	0xbe0f7a81	-0.14011575
168	0xbe0f8b3c	-0.14017957
169	0xbd8720e7	-0.065980725
170	0xbc01c491	-0.0079204
171	0xbdf8ebf9	-0.12154383
172	0x3c8ab837	0.016933544
173	0xbe1dc9a4	-0.15408951
174	0xbd34b5d7	-0.04411873
175	0xbdea57b6	-0.11442511
176	0xbe0bce77	-0.13652979
177	0xbe33e3c4	-0.17567354
178	0xbdd2839b	-0.10279008
179	0xbd37e460	-0.04489553
180	0xbe0dcc93	-0.1384757
181	0x3c9c7683	0.01909948
182	0xbd4ad393	-0.04951818
183	0xbe35e6d8	-0.17763841
184	0xbde8ce28	-0.11367446
185	0xbda2c053	-0.07946839
186	0xbe14fc39	-0.1454934
187	0xbe28a4be	-0.16469094
188	0xbd1b2d0a	-0.03788475
189	0xbe51a3fe	-0.20472714
190	0xbe69f2d7	-0.22846542
191	0xbd39d22b	-0.045366447
192	0x3d405120	0.046952367
193	0xbdcc0823	-0.099624895
194	0xbe3ea543	-0.1861773
195	0x3cd6a555	0.026201883
196	0xbd044226	-0.032289647
197	0xbe002111	-0.12512614
198	0xbd7526c5	-0.059851427
199	0xbe145ed8	-0.14489305
200	0xbdd96e5f	-0.10616755
201	0xbde24394	-0.11048046
202	0xbe11aab5	-0.14225276
203	0xbe067fe5	-0.13134725
204	0xbd30c997	-0.043161
205	0xbd19811d	-0.037476648
206	0xbe299195	-0.16559441
207	0xbc6755ed	-0.014119607
208	0xbdd6ff2f	-0.10497891
209	0x3ba2ef15	0.0049723485
210	0xbd8411fc	-0.06448743
211	0xbde5848b	-0.11206921
212	0xbd8228dc	-0.063554496
213	0xbe090253	-0.13379793
214	0xbde49295	-0.11160771
215	0xbe07b4f5	-0.13252623
216	0xbdf69400	-0.120399475
217	0xbdcb41ac	-0.09924635
218	0xbe14e0b0	-0.14538836
219	0xbd807b64	-0.06273535
220	0xbd252ee7	-0.040327933
221	0xbcc2280e	-0.02370074
222	0xbd47b179	-0.048753235
223	0xbdd50294	-0.10400882
224	0xbe0ee45a	-0.13954297
225	0xbe1ee168	-0.15515673
226	0xbce13742	-0.02749217
227	0xbdb16535	-0.08661882
228	0xbdfca8da	-0.123368934
229	0xbdd17897	-0.10228079
230	0xbe239bd6	-0.15977415
231	0xbdaa0c7a	-0.08303161
232	0xbdc61f78	-0.09673971
233	0xbdb1d3d8	-0.08682984
234	0xbda20a0e	-0.07912074
235	0xbe2987b8	-0.16555679
236	0xbcde85d7	-0.02716343
237	0xbdd9234f	-0.10602438
238	0xbc49674c	-0.012292694
239	0xbdf58e53	-0.11990037
240	0xbd9347aa	-0.07191403
241	0xbdcbc6c1	-0.09950019
242	0xbe29b00f	-0.16571067
243	0xbe1299bf	-0.14316462
244	0xbd858bed	-0.06520829
245	0xbdde741a	-0.10861988
246	0xbcc132b6	-0.023583751
247	0xbd8ce8bc	-0.06880328
248	0xbe28dd0d	-0.16490574
249	0xbce72dfe	-0.028220173
250	0xbda1a7b8	-0.07893318
251	0xbe8cf441	-0.275301
252	0xbd81244e	-0.06305753
253	0xbe2573dc	-0.16157478
254	0xbe048a99	-0.12943496
255	0xbdd70730	-0.10499418

fc2.weight f4 [5, 256]
0	0x3d2c89e6	0.042123698
1	0xbd6452ca	-0.055743016
2	0x3d694f6c	0.05696051
3	0x3ab62000	0.0013895035
4	0xbd1e1dca	-0.038602628
5	0x3d0f3280	0.03496027
6	0x3d4b050c	0.04956536
7	0x3cdace64	0.026709743
8	0x3c348b80	0.0110195875
9	0x3d201bd8	0.039089054
10	0xbc153b50	-0.0091083795
11	0x3bcfd7f0	0.0063428804
12	0x3cffb3f4	0.031213738
13	0x3c415000	0.011798859
14	0xbd2d3a64	-0.042292014
15	0x3bf749e0	0.0075466484
16	0x3b815d30	0.0039478764
17	0x3c564b48	0.013079472
18	0xbd7e4542	-0.06207777
19	0x3d61670c	0.055029914
20	0xbd3ac8e0	-0.045601726
21	0x3d3dc4d6	0.046330296
22	0xbd6345ec	-0.055486605
23	0xbd50d442	-0.050983675
24	0xbccbf0b4	-0.02489505
25	0xbba7cff0	-0.0051212236
26	0x3c9065f4	0.01762674
27	0xbcba94c4	-0.022776015
28	0x3d49130e	0.049090438
29	0xbd21a41c	-0.039463148
30	0xbcfec6f8	-0.031100735
31	0x3d4a96b4	0.049460128
32	0xbd0fd806	-0.035118125
33	0x3d06600c	0.03280644
34	0xbccb3230	-0.024804205
35	0x3d565eec	0.05233662
36	0xbd6501c6	-0.055909894
37	0xbcd843d8	-0.026399538
38	0x3d7d6dca	0.06187228
39	0xbd0c7e6a	-0.034300245
40	0x3c1d9168	0.009617187
41	0x3c6636b0	0.014051124
42	0x3d2c73b0	0.042102516
43	0xbd5528a4	-0.05204071
44	0xbb56d800	-0.0032782555
45	0x3bc9def0	0.0061606094
46	0x3d50bc7c	0.050961003
47	0xbd3b2c1e	-0.04569637
48	0x3d4e984e	0.050438218
49	0xbd383886	-0.04497578
50	0xbd072fb8	-0.033004493
51	0xbae8c600	-0.0017759204
52	0xbbd3be50	-0.006461896
53	0x3c9043a4	0.017610379
54	0xbd7b7b24	-0.061396733
55	0xbc5c9658	-0.013463579
56	0xbd55da2c	-0.052210018
57	0xbd5bc346	-0.053653024
58	0xbcabd308	-0.020974651
59	0xbd57e4be	-0.05270838
60	0xbcac0c24	-0.021001883
61	0x3c0d5778	0.008626811
62	0x3d0b18c0	0.03395915
63	0x3d378ed2	0.04481394
64	0x3cfe9110	0.03107503
65	0xbd249934	-0.04018517
66	0x3d3fc438	0.04681799
67	0x3d393304	0.045214668
68	0xb9450e00	-0.000187926
69	0x3c5271f0	0.012844548
70	0x3ceb5ec4	0.028731711
71	0xbc6a6680	-0.0143066645
72	0xbcf116c4	-0.0294298
73	0x3c4389f0	0.011934742
74	0xbd6e1396	-0.058124147
75	0xbd26504a	-0.040603913
76	0x3d7cbcd6	0.061703525
77	0x3d7145b2	0.058904357
78	0xbaff1780	-0.001946196
79	0x3d0f90a4	0.03505005
80	0xbd5baa68	-0.05362931
81	0x3cafabd0	0.021444231
82	0xbd58ac86	-0.052898906
83	0x3d476c84	0.048687473
84	0xbd1283c2	-0.035770185
85	0xbd1006f2	-0.035162874
86	0x3cdb38ac	0.026760422
87	0xbd76e32e	-0.06027525
88	0xbc3fb710	-0.01170136
89	0x3d549762	0.051902182
90	0x3c8fb168	0.017540649
91	0xbc55e7e8	-0.013055779
92	0x3ca84b34	0.020543672
93	0x3cdf9830	0.027294248
94	0xbc68eda8	-0.014216818
95	0xbca6e470	-0.0203726
96	0x3d359068	0.04432717
97	0x3c811620	0.01575762
98	0x3d612d20	0.054974675
99	0xbc675f78	-0.014121883
100	0x3d07e120	0.03317368
101	0xbc2064b0	-0.009789631
102	0x3d185c6a	0.037197508
103	0xbd0b6e48	-0.03404072
104	0x3d1e918c	0.038713023
105	0xbd5d93fe	-0.054096214
106	0x3c1bb418	0.009503387
107	0x3aff6180	0.0019484013
108	0x3d22657c	0.039647564
109	0x3c948668	0.018130496
110	0x3c7898b8	0.01517313
111	0xbc1f5770	-0.009725437
112	0xbd5364fe	-0.051609986
113	0xbd468056	-0.048462234
114	0xbd71c6a0	-0.059027314
115	0xbb46bce0	-0.003032498
116	0xbcacd968	-0.021099761
117	0xbce63244	-0.02810014
118	0xbc779d58	-0.015113197
119	0x3c81eba0	0.015859425
120	0xbc64a528	-0.013955392
121	0xbc7a3f90	-0.015273944
122	0xbcda71bc	-0.02666556
123	0x3d2692e2	0.040667422
124	0x3a073980	0.00051584095
125	0x3ce0dc38	0.027448758
126	0x3d608cbe	0.054821722
127	0xbcb676d4	-0.022273459
128	0xbb382660	-0.0028099045
129	0xbd416de0	-0.047223926
130	0x3d2ed418	0.042682737
131	0x3c2b6528	0.010461129
132	0xbd6e235a	-0.058139183
133	0x3d142be4	0.03617467
134	0x3bda97b0	0.0066709146
135	0xbd26bbd4	-0.04070647
136	0xbc5ba3b8	-0.013405733
137	0x3d153794	0.036429957
138	0x3cf742e8	0.03018327
139	0x3c7dcaf8	0.015490286
140	0x3cea74f4	0.02862022
141	0x3cc69068	0.02423878
142	0xbc723288	-0.014782555
143	0xbca9532c	-0.020669542
144	0xbd4132ec	-0.047167704
145	0xbd2cebe4	-0.04221715
146	0xbbe1c200	-0.0068895817
147	0xbcd3d1e0	-0.025856912
148	0xbd73dec6	-0.059538625
149	0xbd5b5ed6	-0.05355724
150	0xbcc34fb4	-0.023841716
151	0xbd4c837c	-0.04993008
152	0xbd649d12	-0.055813856
153	0x3d3ca010	0.046051085
154	0x3cb49aa4	0.022046395
155	0x3b912ec0	0.004430622
156	0x3bdc9b70	0.006732397
157	0x3c9a0380	0.018800497
158	0x3d2f4ac6	0.04279592
159	0x3b974ca0	0.0046172887
160	0x3caf4a14	0.021397628
161	0x3d7aa428	0.061191708
162	0x3d0a999a	0.033837892
163	0x3ce9dec0	0.028548598
164	0x3d182a54	0.037149742
165	0xbd449058	-0.04798922
166	0xbd37bd7e	-0.04485845
167	0xbcef5584	-0.029215582
168	0xbd4a36a0	-0.0493685
169	0xbc93dd08	-0.018049732
170	0x3d4ef424	0.0505258
171	0xba4d8180	-0.00078394264
172	0xbd308f72	-0.04310555
173	0xbd49480a	-0.049140967
174	0xbd02b044	-0.03190638
175	0x3d738440	0.059452295
176	0x3c79bb80	0.015242457
177	0xbd0fa950	-0.03507358
178	0x3c319968	0.010839798
179	0xbd4c14d6	-0.04982456
180	0x3d4a8544	0.0494435
181	0xbd481896	-0.048851572
182	0x3d7b8c34	0.061413005
183	0xbcdc6a88	-0.026906267
184	0x3d660e72	0.05616612
185	0xbd295bcc	-0.04134731
186	0xbb92eb90	-0.0044836476
187	0xbd252fc6	-0.040328763
188	0xbbcf0fa0	-0.0063190013
189	0xbceec87c	-0.029148333
190	0xbd1024fe	-0.03519153
191	0xbd32c8d4	-0.043648556
192	0x3d43c7a6	0.04779782
193	0x3d149e5a	0.03628383
194	0xbd6b0868	-0.057381064
195	0x3d4fd680	0.050741673
196	0x3d031292	0.032000132
197	0xbcacc940	-0.021092057
198	0x3c223dc8	0.009902425
199	0xbd73b6ae	-0.05950039
200	0x3d29e7b8	0.04148075
201	0xbcdf00d8	-0.027222082
202	0x3ca239b4	0.019802906
203	0x3d1d0fcc	0.038345143
204	0xbd6b234c	-0.05740671
205	0x3d23cbbc	0.039989218
206	0xbd1e4fc6	-0.038650297
207	0x3b0b4080	0.0021248162
208	0x3d20ff5e	0.039306037
209	0x3d18af98	0.037276834
210	0x3b83ee50	0.004026212
211	0x3d4a18dc	0.049340114
212	0xbd387c9e	-0.04504072
213	0xbcecd674	-0.028910853
214	0x3c6fb968	0.014631607
215	0x3d0a3782	0.033744343
216	0x3d2adf94	0.041717127
217	0xbd6ce556	-0.0578359
218	0x3d4089f6	0.04700657
219	0x3d6d2f26	0.057906292
220	0xbd5bcdf0	-0.053663194
221	0x3d49eac8	0.04929617
222	0x3d6774ac	0.05650775
223	0xbc517358	-0.012783848
224	0x3bf6c020	0.0075302273
225	0xbd603fec	-0.05474846
226	0xbd594274	-0.05304189
227	0xbd4321e2	-0.047639735
228	0xbb854150	-0.0040666237
229	0xbd26a604	-0.04068567
230	0xbd6e3c10	-0.05816275
231	0x3d5b4870	0.05353588
232	0x3cf154d8	0.029459402
233	0x3c82b33c	0.015954606
234	0xbd1beef2	-0.038069673
235	0x3d516dc4	0.05113007
236	0x3ce92ed0	0.028464705
237	0xbd1cfda2	-0.03832782
238	0xbd70df20	-0.05880654
239	0xbcf75180	-0.03019023
240	0xbc62bc78	-0.01383888
241	0x3d7951d0	0.060869038
242	0x3ce3b674	0.027796961
243	0x3b691820	0.0035567358
244	0xbd6324ee	-0.05545514
245	0x3d5522a0	0.052034974
246	0xbc171c70	-0.009223089
247	0xbc85e414	-0.016344108
248	0x3cc70ca4	0.02429802
249	0xbc93b500	-0.018030643
250	0x3d76948a	0.06020025
251	0xbd77b248	-0.060472757
252	0xbbb29140	-0.005449444
253	0x3d6ab93a	0.057305552
254	0xbcebd244	-0.028786786
255	0xbd13f08c	-0.036118075

fc2.bias f4 [5]
0	0xbca8710c	-0.020561717
1	0x3d484860	0.048897147
2	0xbd01f7d4	-0.031730488
3	0xbd52fc0a	-0.051509894
4	0x3d64d1f4	0.05586429
