Models/Torch2/my_model46500.pth (torch_old, 60054 bytes, 8 tensors)

conv1.weight f4 [16, 2, 3, 3]
0.3280468 -0.53329366 -0.19070542 0.28534082 -0.11900115 -0.36339945 -0.18747978 -0.2891016
-0.171245 -0.16782245 0.7928997 0.76876515 -0.07619454 -0.22980718 0.01677777 0.087763704
-0.025415342 0.02683698 -0.39850655 -0.38908407 -0.10989875 0.96359855 0.2417282 0.76241714
0.62784165 0.76224434 0.015621734 0.23451135 -0.70027745 0.27642977 0.11171727 0.29522586
-0.8732996 0.005347605 0.23161785 -0.71087605 0.73473465 0.7054355 0.65622455 -0.40899405
-0.42706752 -0.17029876 0.45600984 0.47487208 -0.1495255 0.21400613 0.36245218 -0.6630374
0.22282468 -0.46429044 0.15436694 -0.018378155 0.28306532 -0.47182468 0.23984933 -0.21436422
-0.091410145 0.5624795 0.2856369 -0.09942474 -0.033156082 0.5183621 0.5166727 -0.098982565
-0.11328637 0.590523 -0.104835756 0.042795353 0.5427602 -0.1453791 0.15025087 -0.15950748
-0.16942151 -0.16466132 0.6491187 -0.17681189 0.12374852 -0.01196974 -0.16377069 0.40492252
-0.04257291 0.030398944 -0.36005208 0.28189966 0.03674612 0.11435819 -0.17976458 0.074587725
0.015976828 -0.31237972 0.5039187 -0.13053602 -0.11917078 0.9580948 0.31539243 0.59519917
-0.21455748 0.48256403 -0.23002055 -0.535585 -0.46569717 -0.39854342 -0.077693194 -0.84930575
0.11147768 -0.105936825 0.03680519 -0.012208144 0.11522181 -0.08360462 -0.035711277 -0.090391785
0.083975956 -0.16665864 0.120008744 0.2753279 0.09071765 0.03588799 -0.1072294 0.10464867
0.16124035 0.25370523 -0.21060285 -0.09260244 -0.18760386 -0.15051626 -0.08456142 0.13664474
-0.09382603 -0.16294624 0.4328478 -0.090963125 -0.03915741 -0.1129149 0.5154467 -0.031351607
-0.2696629 -0.21067393 -0.05084933 -0.19256736 -0.4814223 -0.09209629 -0.18797222 -0.12855181
0.011772477 -0.008886016 -0.07144189 -0.38220876 -0.11459184 -0.10431489 0.1307295 -0.39356992
-0.23195393 -0.08046408 -0.14922893 0.7968499 0.15221845 0.5778471 0.49900445 0.06869611
0.5311993 -0.022763805 -0.571379 0.12520605 0.046687514 0.57677734 -0.31807476 0.12513068
-0.43510303 0.4114987 0.06522371 -0.094388865 -0.39633298 0.7068498 0.097092524 0.11675641
-0.41006947 0.05702482 -0.0903694 0.59029734 -0.07414033 0.1010833 -0.05608852 0.65770864
-0.002435319 -0.23414932 0.7320657 -0.124303006 -0.14191638 0.58295673 -0.124650925 -0.10883159
0.16106598 0.7550728 0.38941702 0.08345615 0.68973804 0.6009985 0.19062996 0.043645028
0.15135291 0.40601745 -0.35089952 0.35499072 -0.26328275 0.27403915 -0.0011953932 0.24849226
0.61533356 -0.063558094 -0.061129734 0.27216974 0.6941569 0.09138369 -0.12838174 0.062142007
-0.25549933 -0.16590671 -0.0044498607 0.4029448 0.14398032 -0.17580144 0.46408063 0.362294
0.082010046 -0.09864511 -0.07417014 -0.12954028 -0.1368639 -0.1429862 0.6751855 -0.20673296
-0.086826056 0.38997447 -0.109096885 -0.17165212 -0.15329702 -0.3579068 0.8999024 0.41702667
0.9416042 -0.6322665 0.5470819 -0.06926019 -0.08904154 -0.4953559 -0.024858978 0.050544653
-0.890794 0.04546135 0.34299988 0.7202884 -0.0602783 -0.22298235 0.09373216 -0.07449226
00000000: c0f5 a73e ef85 08bf 4848 43be 3118 923e
00000010: e0b6 f3bd 7e0f babe b3fa 3fbe 2005 94be
00000020: d95a 2fbe a6d9 2bbe 7afb 4a3f cbcd 443f
00000030: e20b 9cbd 9352 6bbe 8971 893c 75bd b33d
00000040: d633 d0bc 3ad9 db3c 0d09 ccbe 0736 c7be
00000050: 9912 e1bd 65ae 763f 9987 773e c52d 433f
00000060: 3bba 203f 7222 433f 4df2 7f3c be23 703e
00000070: 6245 33bf 3488 8d3e 06cc e43d d827 973e
00000080: 9090 5fbf f63a af3b 3b2d 6d3e f9fb 35bf
00000090: 9217 3c3f 6c97 343f 55fe 273f ab67 d1be
000000a0: 98a8 dabe cc62 2ebe 1f7a e93e 6f22 f33e
000000b0: 361d 19be 6c24 5b3e 5593 b93e d2bc 29bf
000000c0: 272c 643e 7ab7 edbe 5e12 1e3e c98d 96bc
000000d0: f0ed 903e 0193 f1be 109b 753e 4b82 5bbe
000000e0: 3e35 bbbd a8fe 0f3f 003f 923e 339f cbbd
000000f0: acce 07bd 61b3 043f a944 043f 5fb7 cabd
00000100: af02 e8bd 842c 173f 21b4 d6bd 2e4a 2f3d
00000110: 55f2 0a3f 42de 14be 5ddb 193e ee55 23be
00000120: d57c 2dbe fa9c 28be a52c 263f 2d0e 35be
00000130: dd6f fd3d ba1c 44bc 81b3 27be 0152 cf3e
00000140: ef60 2ebd 3507 f93c bf58 b8be 2755 903e
00000150: 1983 163d a034 ea3d 3514 38be 73c1 983d
00000160: d6e1 823c 3cf0 9fbe d100 013f 3cab 05be
00000170: cf0f f4bd b345 753f 1e7b a13e f95e 183f
00000180: f5b4 5bbe a212 f73e 828a 6bbe 191c 09bf
00000190: dc6f eebe e20d ccbe 9c1d 9fbd 1a6c 59bf
000001a0: 694e e43d 68f5 d8bd 0ac1 163d ab04 48bc
000001b0: 6af9 eb3d e638 abbd fd45 12bd 541f b9bd
000001c0: 96fb ab3d 90a8 2abe 25c7 f53d c7f7 8c3e
000001d0: 2dca b93d 49ff 123d 169b dbbd 0b52 d63d
000001e0: 311c 253e a7e5 813e 46a8 57be 59a6 bdbd
000001f0: 3a1b 40be ef20 1abe 8a2e adbd 99ec 0b3e
00000200: dd27 c0bd 61db 26be 3a9e dd3e e04a babd
00000210: 8563 20bd ed3f e7bd 51f4 033f 8b6a 00bd
00000220: 4111 8abe e8ba 57be 6347 50bd 6130 45be
00000230: fc7c f6be fb9c bcbd ca7b 40be 16a3 03be
00000240: 59e1 403c a796 11bc 2050 92bd deb0 c3be
00000250: 20af eabd 0ca3 d5bd f4dd 053e ff81 c9be
00000260: 5585 6dbe 5aca a4bd 78cf 18be 5bfe 4b3f
00000270: 27df 1b3e caed 133f 837d ff3e 8cb0 8c3d
00000280: adfc 073f 297b babc e545 12bf 0436 003e
00000290: 683b 3f3d aea7 133f b2da a2be 4222 003e
000002a0: d3c5 debe f5af d23e 0294 853d f34e c1bd
000002b0: 28ec cabe 1cf4 343f 72d8 c63d fc1d ef3d
000002c0: a0f4 d1be dc92 693d 9813 b9bd ba1d 173f
000002d0: e3d6 97bd c304 cf3d 13bd 65bd 985f 283f
000002e0: df99 1fbb d7c4 6fbe a868 3b3f 9392 febd
000002f0: 8752 11be a73c 153f fc48 ffbd 19e3 debd
00000300: 7bee 243e 734c 413f ab61 c73e 0feb aa3d
00000310: ac92 303f 0adb 193f 8034 433e 21c5 323d
00000320: 42fc 1a3e 85e1 cf3e 1aa9 b3be 58c1 b53e
00000330: ffcc 86be dc4e 8c3e bdae 9cba c174 7e3e
00000340: 8086 1d3f bf2a 82bd 2c63 7abd d559 8b3e
00000350: 44b4 313f 5f27 bb3d 8176 03be 9e88 7e3d
00000360: cfd0 82be 73e3 29be 23d0 91bb c84e ce3e
00000370: 946f 133e 4b05 34be fa9b ed3e 997e b93e
00000380: e2f4 a73d 7306 cabd 84e6 97bd 35a6 04be
00000390: 0d26 0cbe f96a 12be f5d8 2c3f ceb1 53be
000003a0: dcd1 b1bd bcaa c73e 306e dfbd 93c5 2fbe
000003b0: e5f9 1cbe 8f3f b7be 0160 663f 8584 d53e
000003c0: f90c 713f 38dc 21bf 8f0d 0c3f 49d8 8dbd
000003d0: 695b b6bd 4a9f fdbe 0ea5 cbbc e907 4f3d
000003e0: 130b 64bf ae35 3a3d ae9d af3e d264 383f
000003f0: 61e6 76bd 7c55 64be a6f6 bf3d 668f 98bd

conv1.bias f4 [16]
-0.3998731 -0.21759644 -0.018257288 -0.58198404 -0.18912683 -0.15269683 -0.3186417 -0.06793965
-0.0886673 -0.44943118 -0.79755116 -0.4282206 -0.48844406 -0.10536077 -0.27072948 -0.9736955
00000000: 2bbc ccbe 9ad1 5ebe 4f90 95bc e8fc 14bf
00000010: 77aa 41be 8f5c 1cbe 0125 a3be f123 8bbd
00000020: 3497 b5bd d81b e6be 502c 4cbf bb3f dbbe
00000030: 5715 fabe 63c7 d7bd 0e9d 8abe 1c44 79bf

conv2.weight f4 [32, 16, 3, 3]
0.43694255 -0.16867507 0.31948712 0.4775928 -0.07502825 0.35639188 -0.04729864 0.004627892
0.123755984 0.24927373 -0.5627335 -0.096737504 -0.16681436 0.06359904 -0.24282748 0.5853183
-0.10873088 0.65955806 0.6654159 -0.09936652 0.24162422 0.278408 -0.23676684 -0.093401745
0.16250686 -0.5132014 0.17278546 -0.06565511 0.15623502 0.038506538 0.063918784 -0.012494053
0.045211494 0.10293269 0.054144617 0.084169395 0.14097558 -0.2723173 0.30055568 0.1087304
-0.13114308 -0.17538966 -0.13732332 -0.06448304 0.05245151 -0.3826287 0.16790244 -0.6860326
-0.7304912 -0.18270573 -0.19091588 -0.057175327 0.091853544 -0.4845543 -0.05137994 -0.00016456434
0.0911175 -0.091365494 -0.014840945 -0.03087915 -0.045282457 0.06468669 0.0069749183 0.0073992666
-0.0762226 -0.052247413 0.12669133 -0.048636634 -0.05353798 0.16747631 -0.22731858 0.12923543
-0.031245012 0.15668814 -0.3516657 -0.005875075 0.014217993 0.239268 0.12202343 -0.049631122
0.26326802 0.15547769 -0.10710071 -0.21961938 -0.11982514 0.3006878 -0.36939612 0.02427735
0.037494566 -0.09255868 0.4669639 -0.20176958 0.044366978 0.31409642 -0.157703 0.025231188
0.5404364 -0.1318037 0.55736977 0.2548202 -0.03432498 0.07077242 0.1533169 0.08387223
-0.05893403 0.15194756 -0.14787133 0.05690757 -0.16045155 0.10371936 -0.112192295 0.017408617
0.03559318 -0.0042910483 -0.041145004 0.19054937 -0.13940346 -0.077273004 -0.22513326 -0.49535638
0.05829287 -0.001029722 0.30445212 0.583984 -0.08008162 0.47651988 -0.11814551 -0.097309284
-0.1290262 -0.17383425 0.14874221 -0.24775548 -0.12493231 0.21025415 -0.1919414 0.4750465
-0.552468 0.32432443 0.5692373 -0.181599 0.38957 0.22168688 -0.07056404 0.10601029
0.2558896 -0.072988205 0.12806186 0.23809592 -0.16714807 0.23246269 -0.0065913736 0.0034367412
0.053977825 0.4412545 -0.1215172 0.30876103 -0.18458062 -0.11081368 0.11924392 0.16114596
-0.12200974 0.26392663 0.13062014 -0.11846158 0.114654265 0.4843913 -0.017143276 0.5112247
0.040546995 -0.21188085 0.08767916 -0.009664648 0.045571186 -0.12985381 -0.07231947 -0.014618638
0.08105811 0.02090681 0.041580338 0.07558171 0.19681038 -0.18221816 0.01393545 0.19042644
-0.09774379 0.23659548 -0.07807209 -0.117410496 0.04394551 0.25469673 0.20191175 0.071056195
0.09504046 0.09332782 0.008961644 0.10637804 0.20368247 0.031248847 0.01739847 -0.011095172
0.10083056 0.009477835 -0.02353552 0.029129868 -0.065763846 0.03972831 -0.041726172 0.22275624
-0.21991214 0.28191376 0.23791063 0.068652794 -0.0024566292 0.2513244 -0.059501093 0.05821234
-0.09969723 0.16256782 -0.046190973 -0.0363738 0.08315468 -0.048967358 0.109262645 0.124066524
0.044875834 0.1470214 0.15480436 0.12653606 -0.107228406 0.12823984 -0.060936976 -0.019380463
0.12490175 -0.095984064 0.24377723 -0.05933001 0.021007566 0.15412027 -0.06709751 -0.036253024
0.2504172 -0.061151132 0.4030075 0.19823594 0.049554363 0.26847178 0.019760987 0.05152274
0.06622562 0.16518582 -0.11081725 0.14280452 0.01827557 0.14812608 -0.1632491 -0.10633747
00000000: efb6 df3e 28b9 2cbe d193 a33e 0b87 f43e
00000010: 69a8 99bd ff78 b63e 38bc 41bd 92a5 973b
00000020: c773 fd3d 9d41 7f3e 4d0f 10bf 501e c6bd
00000030: 62d1 2abe 3740 823d c4a7 78be 6cd7 153f
00000040: 4cae debd ccd8 283f b258 2a3f ad80 cbbd
00000050: 576c 773e 7e8b 8e3e 0273 72be 6a49 bfbd
00000060: 3368 263e 2b61 03bf acee 303e 3076 86bd
00000070: 13fc 1f3e 08b9 1d3d dae7 823d dbb3 4cbc
00000080: b02f 393d 60ce d23d bfc6 5d3d 0161 ac3d
00000090: e75b 103e 2c6d 8bbe 6fe2 993e 0bae de3d
000000a0: 5f4a 06be 5999 33be 7c9e 0cbe af0f 84bd
000000b0: 65d7 563d e9e7 c3be 9eee 2b3e d59f 2fbf
000000c0: 7901 3bbf 3617 3bbe 747f 43be ad30 6abd
000000d0: b61d bc3d 8017 f8be c673 52bd e78e 2cb9
000000e0: d09b ba3d d51d bbbd 6f27 73bc 45f6 fcbc
000000f0: 197a 39bd 757a 843d db8d e43b 8c75 f23b
00000100: 981a 9cbd 6201 56bd 5fbb 013e 3537 47bd
00000110: a44a 5bbd e97e 2b3e 34c6 68be 4b56 043e
00000120: 8af5 ffbc db72 203e 870d b4be b383 c0bb
00000130: 96f2 683c ac02 753e 6ce7 f93d 014a 4bbd
00000140: 11cb 863e 8b35 1f3e 9e57 dbbd e7e3 60be
00000150: e266 f5bd c0f3 993e 7d21 bdbe 4be1 c63c
00000160: e793 193d 688f bdbd e415 ef3e af9c 4ebe
00000170: 26ba 353d 3fd1 a03e e57c 21be a3b1 ce3c
00000180: 0a5a 0a3f 8df7 06be c9af 0e3f cb77 823e
00000190: 5a98 0cbd 21f1 903d 1bff 1c3e 34c5 ab3d
000001a0: cf64 71bd 2498 1b3e 956b 17be ea17 693d
000001b0: 694d 24be d16a d43d 13c5 e5bd 849c 8e3c
000001c0: 28ca 113d ec9b 8cbb aa87 28bd 601f 433e
000001d0: c8bf 0ebe 4f41 9ebd 5589 66be 5a9f fdbe
000001e0: 81c4 6e3d bdf7 86ba 26e1 9b3e fa7f 153f
000001f0: d501 a4bd 6afa f33e 46f6 f1bd 174a c7bd
00000200: 721f 04be 9b01 32be e14f 183e 9db3 7dbe
00000210: 83dc ffbd dd4c 573e 498c 44be 4b39 f33e
00000220: 8b6e 0dbf da0d a63e 89b9 113f 17f5 39be
00000230: b875 c73e e301 633e e183 90bd ec1b d93d
00000240: f603 833e d77a 95bd a622 033e 6bcf 733e
00000250: dd28 2bbe b30a 6e3e 73fc d7bb f33a 613b
00000260: da17 5d3d 1cec e13e 02de f8bd ed15 9e3e
00000270: b402 3dbe 48f2 e2bd 2836 f43d 7203 253e
00000280: 3ee0 f9bd 6421 873e 49c1 053e fc9b f2bd
00000290: dbcf ea3d 2302 f83e 0e70 8cbc 9fdf 023f
000002a0: 9b14 263d 4bf7 58be 2291 b33d 7958 1ebc
000002b0: daa8 3a3d 66f8 04be 3b1c 94bd 0383 6fbc
000002c0: cb01 a63d c244 ab3c 2550 2a3d 95ca 9a3d
000002d0: a988 493e 6697 3abe 8451 643c 26ff 423e
000002e0: e52d c8bd 1646 723e 43e4 9fbd ea74 f0bd
000002f0: 3500 343d 9c67 823e f4c1 4e3e e985 913d
00000300: 93a4 c23d a822 bf3d dcd3 123c bbdc d93d
00000310: 2392 503e 95fd ff3c 3c87 8e3c 86c8 35bc
00000320: 4180 ce3d ec48 1b3c 90cd c0bc c3a1 ee3c
00000330: 32af 86bd 27ba 223d 10e9 2abd 361a 643e
00000340: a630 61be 0057 903e d89e 733e d699 8c3d
00000350: 66ff 20bb 97ad 803e 6bb7 73bd 1070 6e3d
00000360: 102e ccbd 2e78 263e bf32 3dbd b2fc 14bd
00000370: 004d aa3d ff91 48bd 18c5 df3d 9716 fe3d
00000380: b9cf 373d c78c 163e 0985 1e3e ab92 013e
00000390: 919a dbbd 4e51 033e 0d99 79bd c7c3 9ebc
000003a0: 7dcc ff3d 4b93 c4bd bda0 793e 0604 73bd
000003b0: 0f18 ac3c b4d1 1d3e 6b6a 89bd 0d7e 14bd
000003c0: af36 803e 9c79 7abd 0057 ce3e 5dfe 4a3e
000003d0: 84f9 4a3d 2275 893e cbe1 a13c 8209 533d
000003e0: 4ca1 873d 7926 293e 28f4 e2bd 593b 123e
000003f0: a6b6 953c 5dae 173e c62a 27be 76c7 d9bd

conv2.bias f4 [32]
0.39676046 0.08327867 -0.072696365 -0.2780476 -0.04882094 0.22815317 0.026561212 -0.06895253
-0.33460024 0.029156687 0.14675653 -0.03696568 0.054625534 0.15375718 -0.0819607 -0.12490436
-0.051459838 0.24568821 0.05045108 -0.15098877 0.011153451 0.0610665 -0.10900316 -0.17606604
0.17153904 -0.18596013 -0.11932176 -0.054901365 -0.04269791 -0.15361904 -0.05081928 -0.12116509
00000000: 3024 cb3e 028e aa3d d5e1 94bd 415c 8ebe
00000010: 77f8 47bd fca0 693e e696 d93c fc36 8dbd
00000020: b950 abbe 01da ee3c 5847 163e 5369 17bd
00000030: 06bf 5f3d 8672 1d3e 03db a7bd dbcd ffbd
00000040: 8dc7 52bd b195 7b3e cba5 4e3d cd9c 1abe
00000050: f7bc 363c de20 7a3d 0c3d dfbd a84a 34be
00000060: eea7 2f3e 556c 3ebe f85e f4bd 41e0 60bd
00000070: 01e4 2ebd 4f4e 1dbe e127 50bd 6725 f8bd

fc1.weight f4 [256, 32]
0.032977592 0.06812281 -0.15692054 -0.0028710815 0.02611311 0.038517892 0.07087234 -0.07933221
0.055305704 -0.19039634 -0.041933972 0.10962298 0.094987825 -0.14986525 -0.0904675 0.107546814
-0.075819984 0.14303406 0.059028555 -0.07619515 -0.05053684 -0.030762589 0.10470303 -0.048369467
-0.10705026 -0.021080317 0.07277243 -0.06940134 -0.16578045 -0.007156944 -0.12522842 0.024772074
0.087927036 -0.19725907 -0.15722123 -0.07841255 0.049017884 0.07539239 -0.11887131 -0.1199051
-0.08273538 0.121726595 -0.15802585 0.06388861 -0.12348221 0.07667329 0.07672586 0.11041113
-0.02590541 0.08305309 -0.1256674 -0.060546912 -0.102158286 0.063946575 -0.10978242 -0.097044624
-0.07202734 0.07110741 0.07206032 0.056169976 0.10510034 0.07581903 0.025311127 -0.08153884
-0.17467271 -0.091813326 -0.26674786 0.03758461 0.11366391 -0.0037933774 -0.0984023 0.14871706
0.1011157 0.19711083 0.29566434 0.04520277 -0.15063196 -0.30016 -0.19484219 -0.06780321
-0.19143951 0.028458798 0.12499853 0.17994152 0.20436184 0.021557009 0.019270316 0.092242695
-0.03213897 0.034551412 0.011145048 0.20843355 -0.011990745 -0.28451717 -0.13019814 0.012001446
-0.14329365 -0.1461559 -0.0034785636 -0.16708623 0.14928564 -0.1435873 0.031679876 -0.17034975
-0.15044034 0.06843908 0.06170461 -0.09161081 0.09846844 -0.14722306 -0.14748523 -0.12262558
-0.04345701 0.060064804 -0.0041796323 0.10036152 0.080865815 -0.065553874 -0.05016461 -0.10008296
-0.043678816 -0.18428499 -0.15695292 -0.010101038 -0.06462445 0.09492558 -0.102114365 0.02614625
0.008144569 -0.046474382 0.14472868 -0.1180816 -0.14327452 -0.21391286 -0.16273522 0.084061965
-0.028269501 -0.002005286 0.09316372 0.029431602 0.11860755 -0.010006276 -0.17253844 0.0054792813
-0.19960831 0.017198004 -0.1749733 0.087466575 -0.15545121 0.114919156 -0.17214325 -0.02190244
-0.11471004 -0.082316674 0.086992145 0.12588318 0.13404645 -0.038556725 -0.19401383 -0.0044806227
-0.17529991 0.100105114 -0.11267286 -0.029344099 -0.03972053 -0.05768511 0.075510845 0.0018273595
-0.06436489 -0.0042863996 0.18947418 -0.14521351 -0.12630796 0.13088933 0.1053115 -0.024085673
-0.12167467 -0.0597727 0.015730886 0.07213383 0.09275495 -0.20155762 0.093437485 -0.018758647
0.04229128 0.0013452707 0.048808463 -0.15628365 0.0071779354 -0.045049574 0.03036435 -0.109495595
-0.011186094 -0.14105321 -0.1188384 0.112180956 -0.12621085 0.054623745 0.1061145 -0.05109123
-0.0071747727 0.07553006 0.022587778 -0.20002516 0.030181143 0.032679982 -0.123320445 0.046392485
-0.012475081 0.07813886 -0.06915291 -0.124508224 0.015677886 -0.09698701 0.1236393 -0.035597257
-0.16613996 0.08077607 0.12595788 0.1658995 0.09068678 -0.068077736 -0.07412851 -0.18785717
0.034156606 0.038801007 -0.11280767 -0.25197032 0.12638137 -0.029937705 0.07206482 0.15397187
-0.13392973 -0.050407972 -0.07956159 -0.05827078 -0.036006935 0.21867152 -0.10004131 0.047194578
-0.07914215 -0.11530764 0.010725174 -0.08379 0.07831655 -0.18063384 0.009149894 -0.14475112
0.07514396 -0.070365466 -0.18188857 0.055317406 -0.07497718 -0.09403057 0.10997079 0.07742314
00000000: 8313 073d f983 8b3d c7af 20be c128 3cbb
00000010: 29eb d53c f0c4 1d3d 8425 913d ed78 a2bd
00000020: 3c88 623d 42f7 42be f5c2 2bbd 0382 e03d
00000030: fa88 c23d 4776 19be 0647 b9bd 8141 dc3d
00000040: 8247 9bbd 8577 123e edc7 713d 340c 9cbd
00000050: b8ff 4ebd d301 fcbc 8b6e d63d 101f 46bd
00000060: 2b3d dbbd a1b0 acbc b609 953d 4a22 8ebd
00000070: 5ac2 29be cc84 eabb e13b 00be ceee ca3c
00000080: 1713 b43d 48fe 49be 9afe 20be c296 a0bd
00000090: fac6 483d 5367 9a3d cd72 f3bd ce90 f5bd
000000a0: 2b71 a9bd cb4b f93d 87d1 21be 08d8 823d
000000b0: 3ee4 fcbd e306 9d3d 7322 9d3d 3b1f e23d
000000c0: 9537 d4bc bd17 aa3d f4ae 00be 0a00 78bd
000000d0: 5d38 d1bd 6cf6 823d 9bd5 e0bd 55bf c6bd
000000e0: 1283 93bd c3a0 913d 5c94 933d 7d12 663d
000000f0: d93e d73d 0247 9b3d 4859 cf3c d6fd a6bd
00000100: 67dd 32be a008 bcbd 2d93 88be 52f2 193d
00000110: a0c8 e83d 509a 78bb 2587 c9bd 4949 183e
00000120: c015 cf3d 6cd7 493e 5161 973e 8a26 393d
00000130: 443f 1abe 92ae 99be b684 47be 69dc 8abd
00000140: b808 44be 6d22 e93c 3bff ff3d 9742 383e
00000150: 3b44 513e 5398 b03c c8dc 9d3c bde9 bc3d
00000160: 27a4 03bd c885 0d3d b899 363c 9b6f 553e
00000170: d474 44bc 3cac 91be a952 05be b7a1 443c
00000180: 92bb 12be e4a9 15be 9df8 63bb a718 2bbe
00000190: 56de 183e 8d08 13be c2c2 013d 2a70 2ebe
000001a0: 080d 1abe ca29 8c3d f9bd 7c3d 739e bbbd
000001b0: d2a9 c93d a4c1 16be 5e06 17be 1f23 fbbd
000001c0: faff 31bd 8306 763d 4cf5 88bb 578a cd3d
000001d0: fa9c a53d 1c41 86bd 6879 4dbd 4cf8 ccbd
000001e0: 8fe8 32bd 34b5 3cbe 44b8 20be d37e 25bc
000001f0: d359 84bd 5868 c23d 5621 d1bd a930 d63c
00000200: cc70 053c ec5b 3ebd c133 143e c4d4 f1bd
00000210: 8eb6 12be f90b 5bbe 10a4 26be ae28 ac3d
00000220: 7195 e7bc 1e6b 03bb 9fcc be3d 8b1a f13c
00000230: 84e8 f23d 5df1 23bc ebad 30be 8b8b b33b
00000240: 1f66 4cbe d4e2 8c3c 332c 33be ad21 b33d
00000250: 9a2e 1fbe bc5a eb3d 5246 30be bf6c b3bc
00000260: 19ed eabd a595 a8bd f028 b23d 85e7 003e
00000270: 7943 093e a8ed 1dbd 90ab 46be 30d2 92bb
00000280: d281 33be e903 cd3d 07c1 e6bd 0963 f0bc
00000290: ffb1 22bd 3947 6cbd 6ea5 9a3d 0384 ef3a
000002a0: bdd1 83bd ed74 8cbb 8505 423e dab2 14be
000002b0: e056 01be da07 063e 8ead d73d 514f c5bc
000002c0: 9230 f9bd 38d4 74bd 0fde 803c e7ba 933d
000002d0: 4ff6 bd3d 1f65 4ebe 275c bf3d bcab 99bc
000002e0: 9f39 2d3d cb53 b03a 62eb 473d d208 20be
000002f0: e334 eb3b e785 38bd a8be f83c 3a3f e0bd
00000300: e145 37bc 4170 10be 8c61 f3bd 21bf e53d
00000310: 6b3d 01be 26bd 5f3d 8f52 d93d 0a45 51bd
00000320: 5b1a ebbb 81af 9a3d 010a b93c 65d3 4cbe
00000330: 723e f73c 72db 053d 6e8f fcbd 0c06 3e3d
00000340: 4864 4cbc 4407 a03d 0aa0 8dbd 2bfe febd
00000350: e96e 803c 20a1 c6bd 9a36 fd3d 6ece 11bd
00000360: 9820 2abe ed6d a53d 1afb 003e 8fe1 293e
00000370: feb9 b93d 576c 8bbd b0d0 97bd a15d 40be
00000380: cce7 0b3d ceed 1e3d b507 e7bd 4102 81be
00000390: 1e6a 013e eb3f f5bc b896 933d cdaa 1d3e
000003a0: e024 09be 9778 4ebd 30f1 a2bd 57ad 6ebd
000003b0: 027c 13bd 6deb 5f3e 75e2 ccbd 1a4f 413d
000003c0: 4815 a2bd 6926 ecbd a4b8 2f3c 179a abbd
000003d0: 6d64 a03d 14f8 38be 70e9 153c a339 14be
000003e0: 14e5 993d c51b 90bd ff40 3abe 8194 623d
000003f0: a38d 99bd 1993 c0bd 5e38 e13d 0690 9e3d

fc1.bias f4 [256]
-0.1244888 -0.168908 -0.050520603 -0.037234932 -0.16430205 -0.16949259 -0.105735846 -0.07690049
-0.1690702 -0.13443781 -0.006834822 -0.17359006 -0.20032336 -0.0598477 -0.16078423 -0.12703665
-0.1521115 -0.12469996 -0.16753294 -0.15516956 -0.099340945 -0.1462785 -0.17461298 -0.015581664
-0.26020744 -0.20295489 -0.18140927 -0.07834477 0.053426966 -0.0767898 -0.25089937 -0.053362884
-0.14993541 -0.121664345 -0.14463435 -0.14548443 0.008458888 -0.20994766 -0.08586709 -0.16707894
-0.123764865 -0.115509406 -0.11416237 -0.05973464 -0.08230199 -0.10553964 -0.114159964 -0.1631475
-0.04016364 -0.2034982 -0.035538632 -0.11107372 -0.08481267 -0.12910311 -0.1429595 -0.14660394
-0.08280698 -0.09010608 -0.07320053 -0.15183175 -0.10388239 -0.1474934 -0.23744379 -0.13705339
-0.14102629 -0.06965117 -0.16470294 -0.27872023 -0.1569182 -0.1064476 -0.058132652 0.061334264
-0.046549823 -0.11414766 -0.08869409 -0.10467841 -0.12068957 -0.060090605 -0.08800837 -0.24302414
-0.10531737 -0.21073753 -0.1500082 -0.17012762 -0.21283028 -0.10070762 -0.2938374 -0.0859607
-0.201532 -0.11281547 0.027325317 -0.23436098 -0.0695745 -0.28009546 -0.22093625 -0.13415743
-0.17303935 -0.1733528 -0.13417418 -0.12549873 -0.117580295 -0.036903583 -0.12953837 -0.09597001
-0.1836852 -0.16251628 -0.18120676 0.011086201 -0.17527692 -0.105084084 -0.10509953 -0.115641735
-0.1459782 -0.04791962 -0.18924598 -0.063093126 -0.034300346 -0.13750882 -0.12159854 -0.11619703
-0.16970201 -0.09609744 -0.059027746 -0.12182533 -0.0635527 -0.13892046 -0.09010151 -0.116305776
-0.1424743 -0.23211445 -0.13530564 -0.18313996 -0.17292479 -0.15657628 -0.13875793 -0.12327482
-0.14249866 -0.18159547 -0.18891056 -0.16738003 -0.16380769 0.121842675 -0.07049461 -0.14774092
-0.14234369 -0.13548885 -0.2004336 -0.3506882 -0.07895959 -0.13183038 -0.1891063 -0.013379327
-0.25668508 -0.19365054 -0.10058433 -0.18576196 -0.22202438 -0.07489297 -0.17669031 -0.13805203
-0.14282238 -0.026672708 -0.06716111 -0.099235825 -0.05831184 -0.17651835 -0.027951576 -0.13878961
-0.16689716 -0.14655676 -0.09783502 -0.12149455 -0.011309409 -0.17869699 -0.07675032 -0.20026422
-0.15617375 -0.0755993 -0.16974543 -0.07336823 -0.14989501 -0.009923954 -0.09068317 -0.20505084
-0.18293303 -0.072810814 -0.1268609 -0.18412511 -0.0803163 -0.2675755 -0.29468453 -0.048654296
-0.017782414 -0.13554378 -0.23631346 -0.040722676 -0.04441223 -0.16256969 -0.088150255 -0.21547347
-0.031058948 -0.16991507 -0.11336312 -0.19512448 -0.061017495 -0.06071284 -0.16407888 -0.06411257
-0.1217751 0.07047045 -0.12901314 -0.14000207 -0.11750968 -0.30540767 -0.09210954 -0.14473954
-0.16157658 -0.15318438 -0.19050007 -0.07114069 -0.02487464 -0.051326256 -0.0030173953 -0.106081404
-0.13865243 -0.18382505 0.020730747 -0.1390971 -0.12531118 -0.1275373 -0.1911158 -0.0075568543
-0.13222572 -0.21969444 -0.18698291 -0.18927847 -0.13277778 -0.07503601 -0.09527941 -0.15724729
-0.129967 -0.105785616 -0.16521384 -0.2025858 -0.101440445 -0.15483718 -0.16637836 -0.11136705
-0.20679949 -0.093204595 -0.124532215 -0.24897584 -0.12464273 -0.1618217 -0.18803595 -0.17469335
00000000: fcf3 febd 38f6 2cbe b1ee 4ebd a883 18bd
00000010: cc3e 28be 778f 2dbe 098c d8bd 017e 9dbd
00000020: bd20 2dbe 11aa 09be a4f6 dfbb 98c1 31be
00000030: 9121 4dbe dd22 75bd 9fa4 24be e515 02be
00000040: 1ec3 1bbe b162 ffbd c18d 2bbe c5e4 1ebe
00000050: 4473 cbbd 08ca 15be bfcd 32be 3c4a 7fbc
00000060: e939 85be 68d3 4fbe 5ac3 39be 3973 a0bd
00000070: 3cd6 5a3d f843 9dbd e275 80be 0a93 5abd
00000080: ab88 19be 282b f9bd 071b 14be dff9 14be
00000090: 2697 0a3c 85fc 56be 16db afbd be16 2bbe
000000a0: 6f78 fdbd 3290 ecbd f6cd e9bd 4fac 74bd
000000b0: f28d a8bd 2b25 d8bd b3cc e9bd 2310 27be
000000c0: a182 24bd d561 50be f590 11bd 9e7a e3bd
000000d0: 44b2 adbd 9b33 04be fa63 12be 581f 16be
000000e0: b596 a9bd 8989 b8bd 29ea 95bd c879 1bbe
000000f0: 4ac0 d4bd 8308 17be 7724 73be b957 0cbe
00000100: 3269 10be 46a5 8ebd e3a7 28be 6bb4 8ebe
00000110: 2aaf 20be 3301 dabd 811c 6ebd a339 7b3d
00000120: 07ab 3ebd 40c6 e9bd 3fa5 b5bd a261 d6bd
00000130: 182c f7bd 9121 76bd bb3d b4bd 52db 78be
00000140: a2b0 d7bd 94cb 57be c09b 19be ef35 2ebe
00000150: 2ef0 59be cc3f cebd db71 96be 2a0c b0bd
00000160: 685e 4ebe cc0b e7bd 58d9 df3c 53fc 6fbe
00000170: 137d 8ebd ac68 8fbe 1d3d 62be 9160 09be
00000180: 3a31 31be 6583 31be f564 09be bd82 00be
00000190: f0cd f0bd 3628 17bd b5a5 04be ed8b c4bd
000001a0: f917 3cbe ab6a 26be 448e 39be e6a2 353c
000001b0: cb7b 33be 5336 d7bd 6c3e d7bd 93d5 ecbd
000001c0: 4f7b 15be 5d47 44bd b3c9 41be f836 81bd
000001d0: 857e 0cbd 1dcf 0cbe a808 f9bd b5f8 edbd
000001e0: 5dc6 2dbe bcce c4bd 14c7 71bd 8f7f f9bd
000001f0: eb27 82bd 2a41 0ebe 2487 b8bd b931 eebd
00000200: c8e4 11be 69af 6dbe 908d 0abe 0b89 3bbe
00000210: 3213 31be 8855 20be 8f16 0ebe 8277 fcbd
00000220: 2beb 11be 2af4 39be c571 41be ac65 2bbe
00000230: 34bd 27be a788 f93d 7a5f 90bd 6549 17be
00000240: 8bc2 11be 97bd 0abe 773e 4dbe 678d b3be
00000250: 91b5 a1bd 8bfe 06be 15a5 41be f734 5bbc
00000260: 3a6c 83be 544c 46be 28ff cdbd 6238 3ebe
00000270: 5c5a 63be 7c61 99bd 4eee 34be 835d 0dbe
00000280: 0840 12be b980 dabc c48b 89bd 273c cbbd
00000290: 65d8 6ebd 3ac1 34be b4fa e4bc dd1e 0ebe
000002a0: 17e7 2abe fa12 16be ba5d c8bd 22d2 f8bd
000002b0: 194b 39bc 58fc 36be 462f 9dbd 1012 4dbe
000002c0: 03ec 1fbe ced3 9abd bfd1 2dbe 1542 96bd
000002d0: 147e 19be 1498 22bc 19b8 b9bd d9f8 51be
000002e0: cc52 3bbe d61d 95bd d3e7 01be 4b8b 3cbe
000002f0: df7c a4bd a8ff 88be e4e0 96be ba49 47bd
00000300: 6dac 91bc fdcb 0abe 28fc 71be d2cc 26bd
00000310: 99e9 35bd ab78 26be 1f88 b4bd 14a5 5cbe
00000320: 566f febc 37fe 2dbe ec2a e8bd b6ce 47be
00000330: 7bed 79bd 07ae 78bd 4b04 28be 734d 83bd
00000340: 3965 f9bd d052 903d 051c 04be b45c 0fbe
00000350: eaa8 f0bd 655e 9cbe eda3 bcbd 9a36 14be
00000360: 5574 25be 5edc 1cbe 7312 43be 36b2 91bd
00000370: e7c5 cbbc 7b3b 52bd 7ebf 45bb 3541 d9bd
00000380: e7fa 0dbe a23c 3cbe 87d3 a93c 786f 0ebe
00000390: 9351 00be 2399 02be dcb3 43be 7d9f f7bb
000003a0: 2e66 07be 94f7 60be 7378 3fbe 37d2 41be
000003b0: e6f6 07be 7bac 99bd da21 c3bd 6f05 21be
000003c0: 1216 05be 21a6 d8bd d12d 29be a772 4fbe
000003d0: 02c0 cfbd a38d 1ebe 175f 2abe 6814 e4bd
000003e0: 3fc3 53be 0de2 bebd bf0a ffbd 86f3 7ebe
000003f0: b044 ffbd 96b4 25be 7f8c 40be d0e2 32be

fc2.weight f4 [5, 256]
0.042123698 -0.055743016 0.05696051 0.0013895035 -0.038602628 0.03496027 0.04956536 0.026709743
0.0110195875 0.039089054 -0.0091083795 0.0063428804 0.031213738 0.011798859 -0.042292014 0.0075466484
0.0039478764 0.013079472 -0.06207777 0.055029914 -0.045601726 0.046330296 -0.055486605 -0.050983675
-0.02489505 -0.0051212236 0.01762674 -0.022776015 0.049090438 -0.039463148 -0.031100735 0.049460128
-0.035118125 0.03280644 -0.024804205 0.05233662 -0.055909894 -0.026399538 0.06187228 -0.034300245
0.009617187 0.014051124 0.042102516 -0.05204071 -0.0032782555 0.0061606094 0.050961003 -0.04569637
0.050438218 -0.04497578 -0.033004493 -0.0017759204 -0.006461896 0.017610379 -0.061396733 -0.013463579
-0.052210018 -0.053653024 -0.020974651 -0.05270838 -0.021001883 0.008626811 0.03395915 0.04481394
0.03107503 -0.04018517 0.04681799 0.045214668 -0.000187926 0.012844548 0.028731711 -0.0143066645
-0.0294298 0.011934742 -0.058124147 -0.040603913 0.061703525 0.058904357 -0.001946196 0.03505005
-0.05362931 0.021444231 -0.052898906 0.048687473 -0.035770185 -0.035162874 0.026760422 -0.06027525
-0.01170136 0.051902182 0.017540649 -0.013055779 0.020543672 0.027294248 -0.014216818 -0.0203726
0.04432717 0.01575762 0.054974675 -0.014121883 0.03317368 -0.009789631 0.037197508 -0.03404072
0.038713023 -0.054096214 0.009503387 0.0019484013 0.039647564 0.018130496 0.01517313 -0.009725437
-0.051609986 -0.048462234 -0.059027314 -0.003032498 -0.021099761 -0.02810014 -0.015113197 0.015859425
-0.013955392 -0.015273944 -0.02666556 0.040667422 0.00051584095 0.027448758 0.054821722 -0.022273459
-0.0028099045 -0.047223926 0.042682737 0.010461129 -0.058139183 0.03617467 0.0066709146 -0.04070647
-0.013405733 0.036429957 0.03018327 0.015490286 0.02862022 0.02423878 -0.014782555 -0.020669542
-0.047167704 -0.04221715 -0.0068895817 -0.025856912 -0.059538625 -0.05355724 -0.023841716 -0.04993008
-0.055813856 0.046051085 0.022046395 0.004430622 0.006732397 0.018800497 0.04279592 0.0046172887
0.021397628 0.061191708 0.033837892 0.028548598 0.037149742 -0.04798922 -0.04485845 -0.029215582
-0.0493685 -0.018049732 0.0505258 -0.00078394264 -0.04310555 -0.049140967 -0.03190638 0.059452295
0.015242457 -0.03507358 0.010839798 -0.04982456 0.0494435 -0.048851572 0.061413005 -0.026906267
0.05616612 -0.04134731 -0.0044836476 -0.040328763 -0.0063190013 -0.029148333 -0.03519153 -0.043648556
0.04779782 0.03628383 -0.057381064 0.050741673 0.032000132 -0.021092057 0.009902425 -0.05950039
0.04148075 -0.027222082 0.019802906 0.038345143 -0.05740671 0.039989218 -0.038650297 0.0021248162
0.039306037 0.037276834 0.004026212 0.049340114 -0.04504072 -0.028910853 0.014631607 0.033744343
0.041717127 -0.0578359 0.04700657 0.057906292 -0.053663194 0.04929617 0.05650775 -0.012783848
0.0075302273 -0.05474846 -0.05304189 -0.047639735 -0.0040666237 -0.04068567 -0.05816275 0.05353588
0.029459402 0.015954606 -0.038069673 0.05113007 0.028464705 -0.03832782 -0.05880654 -0.03019023
-0.01383888 0.060869038 0.027796961 0.0035567358 -0.05545514 0.052034974 -0.009223089 -0.016344108
0.02429802 -0.018030643 0.06020025 -0.060472757 -0.005449444 0.057305552 -0.028786786 -0.036118075
00000000: e689 2c3d ca52 64bd 6c4f 693d 0020 b63a
00000010: ca1d 1ebd 8032 0f3d 0c05 4b3d 64ce da3c
00000020: 808b 343c d81b 203d 503b 15bc f0d7 cf3b
00000030: f4b3 ff3c 0050 413c 643a 2dbd e049 f73b
00000040: 305d 813b 484b 563c 4245 7ebd 0c67 613d
00000050: e0c8 3abd d6c4 3d3d ec45 63bd 42d4 50bd
00000060: b4f0 cbbc f0cf a7bb f465 903c c494 babc
00000070: 0e13 493d 1ca4 21bd f8c6 febc b496 4a3d
00000080: 06d8 0fbd 0c60 063d 3032 cbbc ec5e 563d
00000090: c601 65bd d843 d8bc ca6d 7d3d 6a7e 0cbd
000000a0: 6891 1d3c b036 663c b073 2c3d a428 55bd
000000b0: 00d8 56bb f0de c93b 7cbc 503d 1e2c 3bbd
000000c0: 4e98 4e3d 8638 38bd b82f 07bd 00c6 e8ba
000000d0: 50be d3bb a443 903c 247b 7bbd 5896 5cbc
000000e0: 2cda 55bd 46c3 5bbd 08d3 abbc bee4 57bd
000000f0: 240c acbc 7857 0d3c c018 0b3d d28e 373d
00000100: 1091 fe3c 3499 24bd 38c4 3f3d 0433 393d
00000110: 000e 45b9 f071 523c c45e eb3c 8066 6abc
00000120: c416 f1bc f089 433c 9613 6ebd 4a50 26bd
00000130: d6bc 7c3d b245 713d 8017 ffba a490 0f3d
00000140: 68aa 5bbd d0ab af3c 86ac 58bd 846c 473d
00000150: c283 12bd f206 10bd ac38 db3c 2ee3 76bd
00000160: 10b7 3fbc 6297 543d 68b1 8f3c e8e7 55bc
00000170: 344b a83c 3098 df3c a8ed 68bc 70e4 a6bc
00000180: 6890 353d 2016 813c 202d 613d 785f 67bc
00000190: 20e1 073d b064 20bc 6a5c 183d 486e 0bbd
000001a0: 8c91 1e3d fe93 5dbd 18b4 1b3c 8061 ff3a
000001b0: 7c65 223d 6886 943c b898 783c 7057 1fbc
000001c0: fe64 53bd 5680 46bd a0c6 71bd e0bc 46bb
000001d0: 68d9 acbc 4432 e6bc 589d 77bc a0eb 813c
000001e0: 28a5 64bc 903f 7abc bc71 dabc e292 263d
000001f0: 8039 073a 38dc e03c be8c 603d d476 b6bc
00000200: 6026 38bb e06d 41bd 18d4 2e3d 2865 2b3c
00000210: 5a23 6ebd e42b 143d b097 da3b d4bb 26bd
00000220: b8a3 5bbc 9437 153d e842 f73c f8ca 7d3c
00000230: f474 ea3c 6890 c63c 8832 72bc 2c53 a9bc
00000240: ec32 41bd e4eb 2cbd 00c2 e1bb e0d1 d3bc
00000250: c6de 73bd d65e 5bbd b44f c3bc 7c83 4cbd
00000260: 129d 64bd 10a0 3c3d a49a b43c c02e 913b
00000270: 709b dc3b 8003 9a3c c64a 2f3d a04c 973b
00000280: 144a af3c 28a4 7a3d 9a99 0a3d c0de e93c
00000290: 542a 183d 5890 44bd 7ebd 37bd 8455 efbc
000002a0: a036 4abd 08dd 93bc 24f4 4e3d 8081 4dba
000002b0: 728f 30bd 0a48 49bd 44b0 02bd 4084 733d
000002c0: 80bb 793c 50a9 0fbd 6899 313c d614 4cbd
000002d0: 4485 4a3d 9618 48bd 348c 7b3d 886a dcbc
000002e0: 720e 663d cc5b 29bd 90eb 92bb c62f 25bd
000002f0: a00f cfbb 7cc8 eebc fe24 10bd d4c8 32bd
00000300: a6c7 433d 5a9e 143d 6808 6bbd 80d6 4f3d
00000310: 9212 033d 40c9 acbc c83d 223c aeb6 73bd
00000320: b8e7 293d d800 dfbc b439 a23c cc0f 1d3d
00000330: 4c23 6bbd bccb 233d c64f 1ebd 8040 0b3b
00000340: 5eff 203d 98af 183d 50ee 833b dc18 4a3d
00000350: 9e7c 38bd 74d6 ecbc 68b9 6f3c 8237 0a3d
00000360: 94df 2a3d 56e5 6cbd f689 403d 262f 6d3d
00000370: f0cd 5bbd c8ea 493d ac74 673d 5873 51bc
00000380: 20c0 f63b ec3f 60bd 7442 59bd e221 43bd
00000390: 5041 85bb 04a6 26bd 103c 6ebd 7048 5b3d
000003a0: d854 f13c 3cb3 823c f2ee 1bbd c46d 513d
000003b0: d02e e93c a2fd 1cbd 20df 70bd 8051 f7bc
000003c0: 78bc 62bc d051 793d 74b6 e33c 2018 693b
000003d0: ee24 63bd a022 553d 701c 17bc 14e4 85bc
000003e0: a40c c73c 00b5 93bc 8a94 763d 48b2 77bd
000003f0: 4091 b2bb 3ab9 6a3d 44d2 ebbc 8cf0 13bd

fc2.bias f4 [5]
-0.020561717 0.048897147 -0.031730488 -0.051509894 0.12704162
00000000: 0c71 a8bc 6048 483d d4f7 01bd 0afc 52bd
00000010: 3317 023e
