Models/Torch2/my_model38800.pth (torch_old, 60054 bytes, 8 tensors)

conv1.weight f4 [16, 2, 3, 3]
0.31944072 -0.47082776 -0.16395523 0.29539475 -0.040488582 -0.321432 -0.20620866 -0.33589306
-0.1537077 -0.16782245 0.8070393 0.6959168 -0.060495026 -0.22980718 0.044768557 0.06706607
-0.0026612883 0.0050204466 -0.3839348 -0.38559696 -0.11256464 0.8836656 0.2790909 0.5521341
0.47100803 0.80111367 0.08851978 0.3236129 -0.5427312 0.41445723 0.040824153 0.20382378
-0.8514749 0.07265432 0.18354565 -0.70418733 0.7324595 0.7697275 0.5751191 -0.38153067
-0.4244706 -0.1662297 0.47090685 0.4377827 -0.11644553 -0.018207934 0.4425445 -0.6725212
0.24528053 -0.52292866 0.18419133 0.04325389 0.2008046 -0.48318502 0.2517488 -0.21436422
-0.09107752 0.46956435 0.3094565 -0.091105014 -0.022164403 0.42342284 0.57513314 -0.090730354
-0.10428701 0.43685982 -0.104791425 0.065460384 0.47169504 -0.14731848 0.19117925 -0.15833679
-0.17061755 -0.17078142 0.6766136 -0.16651134 0.11976298 -0.056043256 -0.16231114 0.4081952
-0.052820873 0.012364331 -0.32728958 0.22372563 0.032665942 0.12995943 -0.17760672 0.09127335
0.01663437 -0.27066585 0.472712 -0.13053602 -0.11917078 0.7775946 0.26269138 0.67411226
-0.21455748 0.5757994 -0.23002055 -0.48770875 -0.3900621 -0.38847464 -0.03442168 -0.7619542
0.14353597 -0.0833307 0.05289826 -0.009170045 0.11921949 -0.08360462 -0.037123293 -0.090391785
0.08274757 -0.16665864 0.12771027 0.32162806 0.10752723 0.039371498 -0.1072294 0.09724419
0.16536127 0.26885003 -0.21060285 -0.092510305 -0.18760386 -0.15051626 -0.08456142 0.13210557
-0.09382603 -0.16294624 0.47223473 -0.090963125 -0.03912867 -0.1129149 0.5014688 -0.060939416
-0.31248474 -0.1529648 -0.0062984573 -0.19658647 -0.40265372 -0.0699973 -0.16903444 -0.1268482
0.014742688 -0.02060696 -0.1186113 -0.25813156 -0.022143507 -0.104048915 0.13830848 -0.30123395
-0.19311231 -0.025923844 -0.14427668 0.6837798 0.17467238 0.53544444 0.49042812 0.014781827
0.3634445 -0.028009582 -0.5614978 0.085655846 0.072918706 0.50345343 -0.23687035 0.18563847
-0.42490906 0.4073291 0.121294856 -0.11412513 -0.37346348 0.6421597 0.054079972 0.17057027
-0.41006947 0.044911694 -0.100013606 0.5376918 -0.055762846 0.08172659 -0.057823334 0.6283452
-0.010052924 -0.23414932 0.7238812 -0.12391462 -0.14191638 0.6141292 -0.12888001 -0.082570456
0.21311873 0.7112175 0.40045625 0.08898948 0.639175 0.4087035 0.23930298 0.07491104
0.1513325 0.3997032 -0.3479603 0.46104383 -0.2539712 0.20195048 -0.015730307 0.3411785
0.60792536 -0.049019344 -0.062136102 0.21257922 0.53742397 0.1099871 -0.12462684 0.06488058
-0.23802315 -0.14632678 0.0074341074 0.3528625 0.11092816 -0.17580144 0.4222935 0.34789494
0.1161815 -0.09969997 -0.07990884 -0.13001907 -0.14206597 -0.14381799 0.6672081 -0.20673296
-0.059739523 0.3334518 -0.049113233 -0.14878723 -0.18200408 -0.3684919 0.75504076 0.48916137
0.9194337 -0.62329656 0.4902576 -0.10563796 -0.15990432 -0.3333268 0.031908706 0.13042605
-0.8446161 0.119329385 0.34641317 0.59764564 -0.062195912 -0.22298235 0.084617384 -0.060479924
00000000: bc8d a33e 5610 f1be e1e3 27be fb3d 973e
00000010: 5bd7 25bd bc92 a4be 5d28 53be 2dfa abbe
00000020: 8d65 1dbe a6d9 2bbe 219a 4e3f 9a27 323f
00000030: a2c9 77bd 9352 6bbe 3c5f 373d f059 893d
00000040: 0269 2ebb 8f82 a43b 1a93 c4be f76c c5be
00000050: 4a88 e6bd e937 623f 01e5 8e3e a958 0d3f
00000060: f727 f13e c915 4d3f dc49 b53d 97b0 a53e
00000070: 6ff0 0abf bd33 d43e 3a37 273d 2eb7 503e
00000080: 42fa 59bf cacb 943d 64f3 3b3e 9f45 34bf
00000090: 7782 3b3f dd0c 453f 013b 133f fd57 c3be
000000a0: 3654 d9be 1e38 2abe b41a f13e 0e25 e03e
000000b0: fe7a eebd ce28 95bc 3195 e23e 592a 2cbf
000000c0: d22a 7b3e a7de 05bf a79c 3c3e fe2a 313d
000000d0: b99f 4d3e 0764 f7be 38e5 803e 4b82 5bbe
000000e0: da86 babd bd6a f03e 1571 9e3e 4495 babd
000000f0: 1f92 b5bc e1ca d83e ed3b 133f d6d0 b9bd
00000100: 6e94 d5bd 17ac df3e e39c d6bd 1810 863d
00000110: 0382 f13e a8da 16be 7ec4 433e 0a23 22be
00000120: 5eb6 2ebe 53e1 2ebe 8d36 2d3f f381 2abe
00000130: 4b46 f53d 9d8d 65bd e434 26be f6fe d03e
00000140: b35a 58bd c393 4a3c 8092 a7be 5518 653e
00000150: b9cc 053d 1614 053e 89de 35be 86ed ba3d
00000160: cd44 883c b794 8abe 4f07 f23e 3cab 05be
00000170: cf0f f4bd 7110 473f 7c7f 863e 9f92 2c3f
00000180: f5b4 5bbe 9767 133f 828a 6bbe f6b4 f9be
00000190: 38b6 c7be 26e6 c6be bffd 0cbd 6e0f 43bf
000001a0: 18fb 123e 49a9 aabd d9ab 583d f53d 16bc
000001b0: 5929 f43d e638 abbd 980e 18bd 541f b9bd
000001c0: 8f77 a93d 90a8 2abe 7bc6 023e 6fac a43e
000001d0: 3d37 dc3d 0244 213d 169b dbbd f627 c73d
000001e0: 7754 293e b6a6 893e 46a8 57be 0b76 bdbd
000001f0: 3a1b 40be ef20 1abe 8a2e adbd af46 073e
00000200: dd27 c0bd 61db 26be c0c8 f13e e04a babd
00000210: 6245 20bd ed3f e7bd 4260 003f 9c9b 79bd
00000220: 00fe 9fbe cea2 1cbe 4a63 cebb f74d 49be
00000230: a128 cebe bf5a 8fbd 5d17 2dbe 7fe4 01be
00000240: 518b 713c edcf a8bc 7bea f2bd d229 84be
00000250: 4d66 b5bc 9917 d5bd bda0 0d3e 563b 9abe
00000260: 3cbf 45be 3e5e d4bc 44bd 13be 310c 2f3f
00000270: 51dd 323e e312 093f 6519 fb3e 7a2f 723c
00000280: 6615 ba3e 5a74 e5bc 52be 0fbf 556c af3d
00000290: 6756 953d 53e2 003f 248e 72be 0318 3e3e
000002a0: ae8d d9be 718d d03e 7069 f83d 70ba e9bd
000002b0: 9b36 bfbe 9464 243f f682 5d3d f9a9 2e3e
000002c0: a0f4 d1be 53f5 373d efd3 ccbd 2ba6 093f
000002d0: 9567 64bd 4560 a73d 29d8 6cbd 3bdb 203f
000002e0: 05b5 24bc d7c4 6fbe 4750 393f f3c6 fdbd
000002f0: 8752 11be 9237 1d3f 1ff9 03be b31a a9bd
00000300: cc3b 5a3e 5a12 363f 9a08 cd3e 1e40 b63d
00000310: f9a0 233f 9641 d13e d70b 753e f66a 993d
00000320: e8f6 1a3e e6a5 cc3e da27 b2be f00d ec3e
00000330: 8308 82be 1bcc 4e3e d8dc 80bc f3ae ae3e
00000340: ffa0 1b3f 82c8 48bd 6d82 7ebd 5eae 593e
00000350: 9e94 093f eb40 e13d 5b3c ffbd 1ce0 843d
00000360: 57bc 73be b0d6 15be d099 f33b 65aa b43e
00000370: 4e2e e33d 4b05 34be db36 d83e 491f b23e
00000380: 91f0 ed3d 7f2f ccbd 3fa7 a3bd b823 05be
00000390: be79 11be 0645 13be 26ce 2a3f ceb1 53be
000003a0: 6eb1 74bd 32ba aa3e f52a 49bd ae5b 18be
000003b0: 475f 3abe f8aa bcbe 5a4a 413f 5c73 fa3e
000003c0: 0260 6b3f 5d90 1fbf 0b03 fb3e b758 d8bd
000003d0: f5bd 23be cfa9 aabe b4b2 023d 688e 053e
000003e0: c338 58bf f762 f43d 115d b13e 4eff 183f
000003f0: 24c1 7ebd 7c55 64be e14b ad3d ccb9 77bd

conv1.bias f4 [16]
-0.22288717 -0.17943017 -0.07959532 -0.577986 -0.14394511 -0.09140978 -0.24257028 -0.0043945312
-0.08656351 -0.19442286 -0.7328889 -0.39657703 -0.4035052 -0.009073732 -0.24988031 -0.5597925
00000000: 893c 64be 8bbc 37be df02 a3bd e4f6 13bf
00000010: 5966 13be 0d35 bbbd 5864 78be 0000 90bb
00000020: 3648 b1bd c916 47be 9b9e 3bbf 250c cbbe
00000030: 3c98 cebe fea9 14bc a0e0 7fbe 904e 0fbf

conv2.weight f4 [32, 16, 3, 3]
0.46331158 -0.17436935 0.24827486 0.44068125 -0.08878802 0.32835284 -0.06803288 0.036883455
0.17310145 0.25896284 -0.52234834 -0.06894373 -0.11992654 0.09750261 -0.23153172 0.61182606
-0.119814225 0.5506962 0.6507187 -0.117892236 0.22452778 0.378681 -0.18157317 -0.100436494
0.1000784 -0.52858675 0.16600697 -0.075979 0.1525385 0.09560264 0.07796092 0.008003693
0.038345855 0.12704656 0.0143916635 0.0738962 0.081181325 -0.20520148 0.30610138 0.114344925
-0.073241435 -0.15440685 -0.10361285 -0.02049231 0.07138766 -0.38013297 0.1551955 -0.616939
-0.6645496 -0.17990036 -0.17393237 -0.076801166 0.06552242 -0.48172933 -0.059461083 0.00031443097
0.09080955 -0.09697904 -0.010951571 -0.0278422 -0.034333162 0.074328095 0.008119986 0.0019572033
-0.044499833 -0.015340535 0.100776255 -0.022976177 -0.026677618 0.10553705 -0.23738876 0.11315253
0.0055322326 0.12756181 -0.26675582 0.02916054 0.024991693 0.2490957 0.17767473 0.013511049
0.21619937 0.12581259 -0.10784623 -0.17650461 -0.11807422 0.26810727 -0.29211622 0.038117442
0.0068870145 -0.16233088 0.4758683 -0.20627314 0.06503141 0.34436864 -0.18749008 -0.01341634
0.50003505 -0.17266704 0.40673274 0.27214673 -0.034271058 0.044800393 0.18029572 0.08956409
-0.090709634 0.12716116 -0.13952367 0.06478953 -0.17359681 0.12158693 -0.06534251 0.025588235
0.047014743 -0.0048909364 -0.041250315 0.1477956 -0.11732177 -0.024375848 -0.16352221 -0.39880985
0.09017414 -0.018795304 0.29909056 0.57583594 -0.12737004 0.33559301 -0.12022237 -0.07882788
-0.11911653 -0.16337565 0.10934478 -0.18881056 -0.10704428 0.1297717 -0.1745627 0.45656008
-0.5330703 0.28742817 0.46736842 -0.23120652 0.500867 0.20447792 -0.078855716 0.11463433
0.1797438 -0.054082338 0.117987365 0.2259512 -0.18023013 0.24982509 -0.01591977 -0.0151788425
0.12143195 0.39501575 -0.14936239 0.3122897 -0.18258499 -0.047778994 0.08027369 0.17324808
-0.16562922 0.21400943 0.19513763 -0.14575106 0.14356239 0.49139434 -0.02461398 0.4594368
0.06662361 -0.288541 0.04824668 -0.009328064 0.012143331 -0.13978523 -0.06466025 0.008864352
0.06887883 0.024364121 0.011110086 0.056851756 0.18615943 -0.21163869 0.0251633 0.14398798
-0.116950676 0.23721173 -0.056911476 -0.118274026 -0.033503193 0.20252869 0.18002921 0.034035876
0.10595193 0.12118166 -0.07474433 0.10920497 0.16309689 -0.006704351 0.011647824 -0.0178304
0.09689202 0.0071552224 -0.017156182 0.034200136 -0.065937474 0.038455218 -0.042713083 0.23609567
-0.21117248 0.23858331 0.23373629 0.06691193 -0.0033175524 0.20187442 -0.0677266 0.07073831
-0.04411402 0.12844744 -0.03388331 -0.04207448 0.097929925 -0.077619255 0.1409821 0.16783494
0.052239873 0.11257957 0.16220143 0.09834388 -0.097608946 0.13130356 -0.048745103 -0.024776597
0.14497946 -0.10528762 0.24481139 -0.075631104 0.037206035 0.13840033 -0.07433551 -0.031798743
0.2093118 -0.0661688 0.33899364 0.20719884 0.0478692 0.26113474 0.066756815 0.028427146
0.04928634 0.176759 -0.09720882 0.14809759 0.014100063 0.14294334 -0.1598166 -0.09332634
00000000: 2d37 ed3e e18d 32be c43b 7e3e f9a0 e13e
00000010: 7ed6 b5bd dd1d a83e d354 8bbd 1b13 173d
00000020: 8241 313e c796 843e 9fb8 05bf 5f32 8dbd
00000030: 0c9c f5bd 73af c73d a716 6dbe a2a0 1c3f
00000040: 2961 f5bd 6dfa 0c3f 8095 263f 7c71 f1bd
00000050: 9cea 653e 7ae2 c13e 51ee 39be a6b1 cdbd
00000060: e7f5 cc3d 7651 07bf bbfd 293e e19a 9bbd
00000070: 0d33 1c3e 51cb c33d faa9 9f3d ec21 033c
00000080: 8b10 1d3d 7e18 023e 03cb 6b3c e456 973d
00000090: 6542 a63d 5620 52be 52b9 9c3e ac2d ea3d
000000a0: 9bff 95bd d41c 1ebe f932 d4bd 7ddf a7bc
000000b0: b233 923d caa0 c2be 92eb 1e3e b7ef 1dbf
000000c0: ec1f 2abf cd37 38be 541b 32be ee49 9dbd
000000d0: 9e30 863d 3aa5 f6be 778d 73bd 36da a439
000000e0: 5bfa b93d f29c c6bd 386e 33bc 5315 e4bc
000000f0: eea0 0cbd 5439 983d b109 053c 6c44 003b
00000100: 7545 36bd de56 7bbc c863 ce3d 8938 bcbc
00000110: 058b dabc cf23 d83d 0a16 73be 83bc e73d
00000120: bb47 b53b 909f 023e 3894 88be 16e2 ee3c
00000130: 61bb cc3c f112 7f3e 5df0 353e 725d 5d3c
00000140: 5e63 5d3e 04d5 003e 7cde dcbd a0bd 34be
00000150: e6d0 f1bd 5b45 893e 4290 95be 0921 1c3d
00000160: 77ac e13b 113a 26be 03a5 f33e 4439 53be
00000170: 302f 853d 1651 b03e 66fd 3fbe 35d0 5bbc
00000180: 4c02 003f a1cf 30be 463f d03e d156 8b3e
00000190: cf5f 0cbd 9e80 373d 719f 383e 616d b73d
000001a0: f9c5 b9bd 8936 023e 4bdf 0ebe 60b0 843d
000001b0: 5dc3 31be 9102 f93d 4bd2 85bd 6b9e d13c
000001c0: 8892 403d 2644 a0bb 17f6 28bd bb57 173e
000001d0: 6546 f0bd dcaf c7bc 5e72 27be ce30 ccbe
000001e0: 38ad b83d 9cf8 99bc 6622 993e fc69 133f
000001f0: 4b6d 02be d9d2 ab3e 2537 f6bd 8370 a1bd
00000200: 5ef3 f3bd f24b 27be 28f0 df3d 8e57 41be
00000210: 083a dbbd dfe2 043e 90c0 32be 3ec2 e93e
00000220: 4c77 08bf c929 933e ea4a ef3e 67c1 6cbe
00000230: d238 003f a962 513e 1b7f a1bd 67c5 ea3d
00000240: c20e 383e 7185 5dbd 5ca3 f13d c05f 673e
00000250: 3f8e 38be 26d2 7f3e 2d6a 82bc aeb0 78bc
00000260: 50b1 f83d 813f ca3e 74f2 18be 70e4 9f3e
00000270: 8ff7 3abe e8b3 43bd 8866 a43d f267 313e
00000280: b59a 29be 4a25 5b3e 29d2 473e c43f 15be
00000290: 0502 133e 0a98 fb3e 42a3 c9bc 4d3b eb3e
000002a0: f671 883d a5bb 93be 509e 453d bcd4 18bc
000002b0: d2f4 463c dc23 0fbe 986c 84bd c93b 113c
000002c0: 5810 8d3d 4497 c73c 1407 363c 63dd 683d
000002d0: 94a0 3e3e d0b7 58be 4423 ce3c 9671 133e
000002e0: d683 efbd a2e7 723e 021c 69bd a739 f2bd
000002f0: a53a 09bd ae63 4f3e 9459 383e 3469 0b3d
00000300: 53fd d83d 172e f83d 8e13 99bd dba6 df3d
00000310: df02 273e 2cb0 dbbb 84d6 3e3c 0f11 92bc
00000320: 536f c63d 5b76 ea3b 1f8b 8cbc 7115 0c3d
00000330: 3a0a 87bd 3883 1d3d eaf3 2ebd 10c3 713e
00000340: 993d 58be 2f4f 743e 9158 6f3e 1f09 893d
00000350: 4b6b 59bb 2bb8 4e3e 3eb4 8abd 3fdf 903d
00000360: e7b0 34bd ba87 033e 3ac9 0abd 4a56 2cbd
00000370: 7c8f c83d d8f6 9ebd 9d5d 103e ecdc 2b3e
00000380: 7af9 553d 1e90 e63d 2218 263e 8468 c93d
00000390: 33e7 c7bd 7174 063e f2a8 47bd 4af8 cabc
000003a0: 7f75 143e 09a1 d7bd d6af 7a3e 7be4 9abd
000003b0: 5b65 183d d1b8 0d3e 373d 98bd 663f 02bd
000003c0: d555 563e 8283 87bd 9390 ad3e ef2b 543e
000003d0: 7f12 443d 74b3 853e ccb7 883d 0ce0 e83c
000003e0: 79e0 493d 5000 353e 6b15 c7bd e5a6 173e
000003f0: f303 673c bd5f 123e f6a6 23be e121 bfbd

conv2.bias f4 [32]
0.50608665 0.0776899 -0.0125980675 -0.3005767 -0.10662262 0.21040267 -0.051228084 0.19204737
-0.17109084 -0.051226683 0.10884767 -0.14076282 -0.019042496 0.19854055 -0.029203871 -0.11185349
-0.04924953 0.094768986 0.13271762 -0.15863554 0.029331151 0.07607754 -0.1307654 -0.17606604
0.12626627 -0.21287628 -0.04978418 0.09554512 -0.06756848 -0.04665729 0.06791183 -0.10411335
00000000: e58e 013f e21b 9f3d 2068 4ebc 30e5 99be
00000010: f65c dabd cc73 573e 8ad4 51bd 11a8 443e
00000020: 7032 2fbe 12d3 51bd 87eb de3d 2124 10be
00000030: 02ff 9bbc 374e 4b3e f53c efbc 7113 e5bd
00000040: e0b9 49bd 3e16 c23d 21e7 073e 5b71 22be
00000050: e247 f03c 8bce 9b3d 5de7 05be a84a 34be
00000060: f24b 013e 3dfc 59be 7fea 4bbd 29ad c33d
00000070: 5861 8abd b71b 3fbd 5c15 8b3d 6139 d5bd

fc1.weight f4 [256, 32]
0.031322043 0.0677139 -0.1510859 -0.0043542534 0.013944615 0.027374016 0.06172813 -0.08684046
0.039360926 -0.18934482 -0.034318235 0.10370427 0.09657121 -0.15514155 -0.092372894 0.08759635
-0.07656597 0.13928463 0.06586 -0.07691085 -0.049573366 -0.031287804 0.09752244 -0.057029508
-0.103929766 -0.025857296 0.07397702 -0.079778805 -0.16911432 -0.0063016876 -0.12366002 0.026697436
0.09057265 -0.19684677 -0.1501919 -0.077037394 0.04971841 0.07797473 -0.11714999 -0.11982487
-0.08004085 0.12543389 -0.1579586 0.06767052 -0.12290785 0.07775065 0.08050406 0.11342159
-0.025085224 0.08890086 -0.12551531 -0.060415737 -0.101811126 0.06434271 -0.10965353 -0.09584496
-0.07215889 0.07109869 0.07366099 0.05648407 0.103608675 0.0772839 0.026262144 -0.08087789
-0.087178275 -0.10986428 -0.21947798 0.07224176 0.27207276 0.027116703 -0.012189271 0.15711655
0.12161236 0.17307222 0.25722834 0.07000462 -0.10753493 -0.2029658 -0.22114088 -0.017408537
-0.1529396 0.024838528 0.11862626 0.13587984 0.19370015 -0.019989636 -0.017949827 0.04899318
-0.015792849 0.025840128 -0.023531392 0.2497726 -0.055452734 -0.2741307 -0.10517057 -0.047178127
-0.14325589 -0.1453494 -0.0019875995 -0.1667533 0.15448043 -0.14159735 0.032692708 -0.1695643
-0.15011309 0.07010893 0.06296349 -0.09221233 0.09677103 -0.14578703 -0.14727229 -0.12223602
-0.04310975 0.067632325 -0.0018137078 0.10483332 0.08230875 -0.066278905 -0.048864525 -0.098570414
-0.04257505 -0.18417574 -0.15683486 -0.009256085 -0.06428947 0.09480031 -0.10202921 0.026681775
0.01948208 -0.039950654 0.1546093 -0.11242814 -0.13349701 -0.21135166 -0.14778523 0.08182558
-0.02252847 0.03818785 0.09664339 0.04303033 0.10929982 0.011035818 -0.16342461 0.011958266
-0.19181526 0.04050492 -0.16265436 0.09584558 -0.144744 0.09212873 -0.16148448 -0.01783124
-0.12041555 -0.09709046 0.079755574 0.13436525 0.1063642 -0.090497546 -0.19222122 0.005457513
-0.17589378 0.105057605 -0.10833113 -0.010178029 -0.021362243 -0.060988802 0.079570025 0.034383237
-0.067854874 0.0038464512 0.22731687 -0.1423772 -0.13485606 0.14756644 0.10102504 -0.024555787
-0.09681654 -0.052658014 0.04191879 0.079053335 0.088332355 -0.19960873 0.13823208 -0.009553362
0.049333338 0.03163911 0.048130255 -0.15263264 0.018012369 -0.050028842 0.0352198 -0.10243841
-0.018227069 -0.13218147 -0.10027495 0.12494524 -0.14451627 0.044182166 0.08796638 -0.048158504
-0.009244387 0.07261011 0.04072303 -0.20267591 0.033067927 0.03557565 -0.11729367 0.041817132
0.001430943 0.09279668 -0.065919645 -0.118104525 0.020284737 -0.087473884 0.1515967 -0.038490076
-0.16814736 0.07555066 0.13786839 0.16467427 0.08964546 -0.04886096 -0.07530778 -0.19280212
0.06320477 0.05020637 -0.10137358 -0.23086128 0.11323972 -0.015428256 0.072623774 0.15677239
-0.14881282 -0.046656054 -0.07008451 -0.06135355 -0.010026456 0.21292813 -0.08255757 0.059738383
-0.057893652 -0.1104152 0.006914002 -0.07395271 0.08289375 -0.19251513 -0.032488458 -0.13452795
0.073807076 -0.079451986 -0.17306995 0.039325353 -0.07506319 -0.094993204 0.13693875 0.077096544
00000000: 8b4b 003d 96ad 8a3d 43b6 1abe 20ae 8ebb
00000010: f477 643c 793f e03c a3d6 7c3d 69d9 b1bd
00000020: ec38 213d 9ce3 41be 4791 0cbd e862 d43d
00000030: 20c7 c53d 6ddd 1ebe 002e bdbd b765 b33d
00000040: 9fce 9cbd a1a0 0e3e 9ce1 863d 7083 9dbd
00000050: 710d 4bbd a427 00bd d8b9 c73d c697 69bd
00000060: 21d9 d4bd aed2 d3bc 4481 973d 1263 a3bd
00000070: 4e2c 2dbe 637e cebb 7741 fdbd 95b4 da3c
00000080: 277e b93d 3392 49be e8cb 19be c8c5 9dbd
00000090: 88a5 4b3d 37b1 9f3d 55ec efbd be66 f5bd
000000a0: 75ec a3bd be71 003e e6bf 21be d796 8a3d
000000b0: 1cb7 fbbd bc3b 9f3d 50df a43d 9449 e83d
000000c0: 877f cdbc a711 b63d 1687 00be 7e76 77bd
000000d0: 5a82 d0bd 1cc6 833d 0892 e0bd 5d4a c4bd
000000e0: 0ac8 93bd 319c 913d 93db 963d d75b 673d
000000f0: c930 d43d 0547 9e3d b523 d73c 4fa3 a5bd
00000100: 868a b2bd 8600 e1bd d6be 60be 7df3 933d
00000110: 1f4d 8b3e d923 de3c 82b5 47bc 29e3 203e
00000120: e70f f93d d839 313e 6fb3 833e 955e 8f3d
00000130: 463b dcbd 44d6 4fbe c172 62be 599c 8ebc
00000140: 339c 1cbe 2b7a cb3c 53f2 f23d 1624 0b3e
00000150: 5559 463e 4ec1 a3bc 840b 93bc 13ad 483d
00000160: 0160 81bc adae d33c e8c4 c0bc 63c4 7f3e
00000170: 6822 63bd dc5a 8cbe ab63 d7bd da3d 41bd
00000180: acb1 12be 79d6 14be 6342 02bb 61c1 2abe
00000190: 1e30 1e3e e5fe 10be cae8 053d 44a2 2dbe
000001a0: 3fb7 19be 4595 8f3d 01f3 803d d1d9 bcbd
000001b0: e42f c63d 3249 15be 8cce 16be e156 fabd
000001c0: d993 30bd d182 8a3d efb9 edba dab2 d63d
000001d0: 7d91 a83d 3cbd 87bd 2b26 48bd 49df c9bd
000001e0: 2d63 2ebd 9198 3cbe 5199 20be d6a6 17bc
000001f0: 33aa 83bd aa26 c23d b1f4 d0bd bd93 da3c
00000200: e298 9f3c 4ca3 23bd e651 1e3e ba40 e6bd
00000210: 71b3 08be 926c 58be 0355 17be 2b94 a73d
00000220: a08d b8bc dd6a 1c3d f8ec c53d 9240 303d
00000230: 96d8 df3d 93cf 343c c858 27be 9aec 433c
00000240: 386b 44be 7de8 253d dd8e 26be b04a c43d
00000250: c537 14be fdad bc3d 305c 25be d212 92bc
00000260: 6e9c f6bd 5dd7 c6bd e456 a33d 0b97 093e
00000270: 79d5 d93d c756 b9bd a4d5 44be f0d4 b23b
00000280: 801d 34be 7128 d73d b6dc ddbd bfc1 26bc
00000290: dfff aebc 65cf 79bd 9cf5 a23d 70d5 0c3d
000002a0: 7ff7 8abd be14 7c3b c1c5 683e 54cb 11be
000002b0: b517 0abe a81b 173e 37e6 ce3d 3829 c9bc
000002c0: c047 c6bd eeaf 57bd 0ab3 2b3d b7e6 a13d
000002d0: 98e7 b43d 3b66 4cbe b68c 0d3e b485 1cbc
000002e0: c111 4a3d 0398 013d 3b24 453d bb4b 1cbe
000002f0: ad8e 933c 0beb 4cbd a342 103d 3bcb d1bd
00000300: ef50 95bc 945a 07be f45c cdbd 4ae3 ff3d
00000310: 13fc 13be 5cf8 343d b827 b43d da41 45bd
00000320: c575 17bc 9cb4 943d 31cd 263d 468a 4fbe
00000330: 3c72 073d c6b7 113d aa37 f0bd 7148 2b3d
00000340: 7b8e bb3a 300c be3d e100 87bd c9e0 f1bd
00000350: 2d2c a63c 8225 b3bd 2a3c 1b3e c5a7 1dbd
00000360: d22e 2cbe 4eba 9a3d 5f2d 0d3e 5fa0 283e
00000370: 0a98 b73d 6e22 48bd f73a 9abd eb6d 45be
00000380: 8171 813d 32a5 4d3d f49c cfbd e666 6cbe
00000390: 3aea e73d ccc6 7cbc c6bb 943d f188 203e
000003a0: 6362 18be 6b1a 3fbd 7888 8fbd dc4d 7bbd
000003b0: 0146 24bc d509 5a3e f113 a9bd 3cb0 743d
000003c0: e521 6dbd 5d21 e2bd da8e e23b 8574 97bd
000003d0: 33c4 a93d b022 45be 9e12 05bd b2c1 09be
000003e0: 2a28 973d b9b7 a2bd 4039 31be 9f13 213d
000003f0: bbba 99bd cc8b c2bd ac39 0c3e cbe4 9d3d

fc1.bias f4 [256]
-0.1409262 -0.16824862 -0.014741421 -0.028356569 -0.121112645 -0.14950909 -0.06910672 -0.05201213
-0.16935876 -0.16401185 -0.031186014 -0.14748688 -0.1472858 -0.037474327 -0.098755814 -0.11777826
-0.15037298 -0.17314748 -0.17406712 -0.122246355 -0.16392276 -0.13561958 -0.19430831 -0.012674452
-0.14707834 -0.20814359 -0.17267969 -0.075636074 -0.04055667 -0.06762389 -0.25605235 -0.034800887
-0.054275192 -0.0387151 -0.16376905 -0.13352306 0.040789764 -0.16823834 -0.09887203 -0.15253681
-0.14043255 -0.09586305 -0.13186121 -0.06676268 -0.09703253 -0.16112292 -0.08208737 -0.15497053
-0.110618286 -0.18262242 0.0018924935 -0.12911013 -0.014946276 -0.12060336 -0.1382578 -0.14409147
-0.05190262 -0.076207556 0.0036133726 -0.0731185 -0.15259007 -0.14861181 -0.22873905 -0.13145338
-0.12725505 0.017417556 -0.119876005 -0.19641806 -0.055010095 -0.11990701 -0.025035786 -0.11217837
0.007594114 -0.052743673 0.09199823 0.067217946 -0.01977787 -0.058448642 -0.09020646 -0.24242707
-0.085474454 -0.21273006 -0.123217195 -0.109588355 -0.16270614 -0.094045416 -0.28197253 -0.045109812
-0.19182104 0.035065323 0.059745952 -0.20730461 -0.03146025 -0.24479175 -0.21558018 -0.1380977
-0.13481882 -0.15109417 -0.14958946 -0.10382043 -0.117439575 -0.062459353 -0.0967121 -0.07427912
-0.19221804 -0.1549142 -0.22009647 0.1018831 -0.16362368 -0.0959624 -0.106917635 -0.027498694
-0.09192529 -0.054027725 -0.09339792 -0.052367374 -0.03630147 -0.1653239 -0.13238119 -0.11309896
-0.08602689 -0.07902673 -0.0025449835 0.041249868 -0.057487976 -0.122683145 -0.06483013 -0.15210588
-0.14694323 -0.15169993 -0.13170134 -0.2538914 -0.13515082 -0.15459885 -0.13271515 -0.14180401
-0.11009839 -0.14798178 -0.20866276 -0.10609445 -0.16224033 0.109990455 -0.06884025 -0.11929147
-0.16127712 -0.13335462 -0.18947038 -0.3126448 -0.056059517 -0.089601494 -0.17806445 -0.021098262
-0.194666 -0.17907175 -0.07120548 -0.18408671 -0.19529794 -0.065671034 -0.13463646 -0.15899125
-0.10873746 -0.0714326 -0.049575 -0.0803185 0.018052904 -0.18947941 -0.0106224315 -0.15517382
-0.17544904 -0.12824082 -0.07067303 -0.12255806 0.004246409 -0.16960263 -0.13897139 -0.22151032
-0.14267771 -0.17943655 -0.20945682 -0.05698083 -0.14634933 0.006061405 0.032925643 -0.1736395
-0.19071509 -0.15335886 -0.13037895 -0.20147516 -0.068269014 -0.23200299 -0.13258645 -0.0235867
-0.0017377425 -0.12950702 -0.22595896 -0.034563016 0.018935986 -0.16050643 -0.08093071 -0.20718135
-0.09661077 -0.114558265 -0.117564544 -0.16412853 -0.0457803 -0.061756197 -0.1590404 -0.06456889
-0.1197153 0.0768349 -0.052273724 -0.15535936 -0.089710504 -0.31326655 -0.08503238 -0.13929968
-0.08460015 -0.15181416 -0.17707667 -0.07571558 0.0052069374 0.0037539902 -0.104979225 -0.052743256
-0.12965502 -0.21323843 0.038414102 -0.11081783 -0.12397224 -0.13418311 -0.19054244 -0.114008136
-0.14861174 -0.16154082 -0.15472908 -0.095255055 -0.11933077 -0.074845575 -0.01419128 -0.14320385
-0.13724865 -0.09724521 -0.16559768 -0.15402636 -0.08257108 -0.150201 -0.1762842 -0.11437312
-0.19616987 -0.08454756 -0.092565365 -0.23225708 -0.118738145 -0.14134505 -0.16342203 -0.17301264
00000000: f54e 10be 5e49 2cbe 0086 71bc 094c e8bc
00000010: e809 f8bd e918 19be d387 8dbd ac0a 55bd
00000020: 626c 2dbe b9f2 27be d079 ffbc cd06 17be
00000030: 17d2 16be ae7e 19bd 7d40 cabd ba35 f1bd
00000040: 60fb 19be 934d 31be a73e 32be 4c5c fabd
00000050: 5edb 27be dcdf 0abe c2f8 46be 81a8 4fbc
00000060: b49b 16be 9823 55be f2d2 30be 16e7 9abd
00000070: c01e 26bd 657e 8abd 4b19 83be 608b 0ebd
00000080: aa4f 5ebd ba93 1ebd 13b3 27be 45ba 08be
00000090: 2b13 273d ac46 2cbe 6b7d cabd 9c32 1cbe
000000a0: 8dcd 0fbe d953 c4bd a006 07be dfba 88bd
000000b0: feb8 c6bd 68fd 24be 6c1d a8bd 98b0 1ebe
000000c0: d78b e2bd 5f01 3bbe 8b0d f83a 7235 04be
000000d0: 3ae1 74bc e5fe f6bd 7493 0dbe b78c 13be
000000e0: d797 54bd b512 9cbd 55ce 6c3b 27bf 95bd
000000f0: 9240 1cbe b22d 18be 923a 6abe b79b 06be
00000100: 264f 02be 43af 8e3c 8d81 f5bd d121 49be
00000110: 4452 61bd ce91 f5bd d917 cdbc c6bd e5bd
00000120: 0cd8 f83b c009 58bd 9169 bc3d 90a9 893d
00000130: 3305 a2bc d867 6fbd 2abe b8bd cd3e 78be
00000140: 3b0d afbd e9d5 59be 4c59 fcbd dc6f e0bd
00000150: 709c 26be e29a c0bd b45e 90be 11c5 38bd
00000160: bc6c 44be a8a0 0f3d 2cb8 743d a947 54be
00000170: 77dc 00bd b0aa 7abe 0dc1 5cbe 7c69 0dbe
00000180: f20d 0abe 6eb8 1abe fb2d 19be ce9f d4bd
00000190: 2984 f0bd 61d5 7fbd fe10 c6bd a71f 98bd
000001a0: ced4 44be d4a1 1ebe f860 61be 16a8 d03d
000001b0: f78c 27be ef87 c4bd a2f7 dabd f144 e1bc
000001c0: 5443 bcbd 2d4c 5dbd 6947 bfbd 2c7f 56bd
000001d0: dab0 14bd ab4a 29be ef8e 07be 6da0 e7bd
000001e0: de2e b0bd c4d8 a1bd bdc9 26bb 9ff5 283d
000001f0: 8378 6bbd 4d41 fbbd a9c5 84bd a5c1 1bbe
00000200: 4978 16be 3a57 1bbe b7dc 06be 0efe 81be
00000210: fa64 0abe 294f 1ebe 7be6 07be 1235 11be
00000220: 447b e1bd 8988 17be b1ab 55be 0c48 d9bd
00000230: 5422 26be ad42 e13d 1efc 8cbd 164f f4bd
00000240: d425 25be 1d8e 08be 8604 42be fb12 a0be
00000250: aa9e 65bd fd80 b7bd 8756 36be 43d6 acbc
00000260: 8656 47be 965e 37be 2ed4 91bd 3a81 3cbe
00000270: 2ffc 47be 897e 86bd 24de 09be 9ace 22be
00000280: bfb1 debd 414b 92bd 280f 4bbd 077e a4bd
00000290: afe3 933c e406 42be b509 2ebc e3e5 1ebe
000002a0: eaa8 33be 9051 03be 06bd 90bd b8ff fabd
000002b0: 7625 8b3b 50ac 2dbe 844e 0ebe 9ad3 62be
000002c0: 1b1a 12be 37be 37be d97b 56be bb64 69bd
000002d0: 99dc 15be c09e c63b 0add 063d 8ece 31be
000002e0: d14a 43be 1b0a 1dbe 0f82 05be 814f 4ebe
000002f0: a0d0 8bbd 3192 6dbe bec4 07be e538 c1bc
00000300: f6c4 e3ba 7d9d 04be c961 67be f391 0dbd
00000310: a41f 9b3c cc5b 24be 00bf a5bd 5927 54be
00000320: dedb c5bd 869d eabd aec5 f0bd 4f11 28be
00000330: 2084 3bbd 11f4 7cbd 7ddb 22be b23c 84bd
00000340: 4c2d f5bd 9e5b 9d3d f91c 56bd 8616 1fbe
00000350: 24ba b7bd 7964 a0be 7525 aebd 93a4 0ebe
00000360: d842 adbd 2c75 1bbe 9653 35be c510 9bbd
00000370: f59e aa3b 8105 763b 59ff d6bd 5009 58bd
00000380: 49c4 04be 2d5b 5abe 1b58 1d3d 75f4 e2bd
00000390: 28e5 fdbd 4c67 09be 8f1d 43be 197d e9bd
000003a0: ad2d 18be f56a 25be 4d71 1ebe 1515 c3bd
000003b0: b163 f4bd a348 99bd 8b82 68bc 08a4 12be
000003c0: e98a 0cbe 7f28 c7bd 7092 29be 16b9 1dbe
000003d0: 071b a9bd 4ace 19be d883 34be 743c eabd
000003e0: c1e0 48be 4527 adbd e992 bdbd cdd4 6dbe
000003f0: fc2c f3bd c2bc 10be 1b58 27be 3a2a 31be

fc2.weight f4 [5, 256]
0.042123698 -0.055743016 0.05696051 0.0013895035 -0.038602628 0.03496027 0.04956536 0.026709743
0.0110195875 0.039089054 -0.0091083795 0.0063428804 0.031213738 0.011798859 -0.042292014 0.0075466484
0.0039478764 0.013079472 -0.06207777 0.055029914 -0.045601726 0.046330296 -0.055486605 -0.050983675
-0.02489505 -0.0051212236 0.01762674 -0.022776015 0.049090438 -0.039463148 -0.031100735 0.049460128
-0.035118125 0.03280644 -0.024804205 0.05233662 -0.055909894 -0.026399538 0.06187228 -0.034300245
0.009617187 0.014051124 0.042102516 -0.05204071 -0.0032782555 0.0061606094 0.050961003 -0.04569637
0.050438218 -0.04497578 -0.033004493 -0.0017759204 -0.006461896 0.017610379 -0.061396733 -0.013463579
-0.052210018 -0.053653024 -0.020974651 -0.05270838 -0.021001883 0.008626811 0.03395915 0.04481394
0.03107503 -0.04018517 0.04681799 0.045214668 -0.000187926 0.012844548 0.028731711 -0.0143066645
-0.0294298 0.011934742 -0.058124147 -0.040603913 0.061703525 0.058904357 -0.001946196 0.03505005
-0.05362931 0.021444231 -0.052898906 0.048687473 -0.035770185 -0.035162874 0.026760422 -0.06027525
-0.01170136 0.051902182 0.017540649 -0.013055779 0.020543672 0.027294248 -0.014216818 -0.0203726
0.04432717 0.01575762 0.054974675 -0.014121883 0.03317368 -0.009789631 0.037197508 -0.03404072
0.038713023 -0.054096214 0.009503387 0.0019484013 0.039647564 0.018130496 0.01517313 -0.009725437
-0.051609986 -0.048462234 -0.059027314 -0.003032498 -0.021099761 -0.02810014 -0.015113197 0.015859425
-0.013955392 -0.015273944 -0.02666556 0.040667422 0.00051584095 0.027448758 0.054821722 -0.022273459
-0.0028099045 -0.047223926 0.042682737 0.010461129 -0.058139183 0.03617467 0.0066709146 -0.04070647
-0.013405733 0.036429957 0.03018327 0.015490286 0.02862022 0.02423878 -0.014782555 -0.020669542
-0.047167704 -0.04221715 -0.0068895817 -0.025856912 -0.059538625 -0.05355724 -0.023841716 -0.04993008
-0.055813856 0.046051085 0.022046395 0.004430622 0.006732397 0.018800497 0.04279592 0.0046172887
0.021397628 0.061191708 0.033837892 0.028548598 0.037149742 -0.04798922 -0.04485845 -0.029215582
-0.0493685 -0.018049732 0.0505258 -0.00078394264 -0.04310555 -0.049140967 -0.03190638 0.059452295
0.015242457 -0.03507358 0.010839798 -0.04982456 0.0494435 -0.048851572 0.061413005 -0.026906267
0.05616612 -0.04134731 -0.0044836476 -0.040328763 -0.0063190013 -0.029148333 -0.03519153 -0.043648556
0.04779782 0.03628383 -0.057381064 0.050741673 0.032000132 -0.021092057 0.009902425 -0.05950039
0.04148075 -0.027222082 0.019802906 0.038345143 -0.05740671 0.039989218 -0.038650297 0.0021248162
0.039306037 0.037276834 0.004026212 0.049340114 -0.04504072 -0.028910853 0.014631607 0.033744343
0.041717127 -0.0578359 0.04700657 0.057906292 -0.053663194 0.04929617 0.05650775 -0.012783848
0.0075302273 -0.05474846 -0.05304189 -0.047639735 -0.0040666237 -0.04068567 -0.05816275 0.05353588
0.029459402 0.015954606 -0.038069673 0.05113007 0.028464705 -0.03832782 -0.05880654 -0.03019023
-0.01383888 0.060869038 0.027796961 0.0035567358 -0.05545514 0.052034974 -0.009223089 -0.016344108
0.02429802 -0.018030643 0.06020025 -0.060472757 -0.005449444 0.057305552 -0.028786786 -0.036118075
00000000: e689 2c3d ca52 64bd 6c4f 693d 0020 b63a
00000010: ca1d 1ebd 8032 0f3d 0c05 4b3d 64ce da3c
00000020: 808b 343c d81b 203d 503b 15bc f0d7 cf3b
00000030: f4b3 ff3c 0050 413c 643a 2dbd e049 f73b
00000040: 305d 813b 484b 563c 4245 7ebd 0c67 613d
00000050: e0c8 3abd d6c4 3d3d ec45 63bd 42d4 50bd
00000060: b4f0 cbbc f0cf a7bb f465 903c c494 babc
00000070: 0e13 493d 1ca4 21bd f8c6 febc b496 4a3d
00000080: 06d8 0fbd 0c60 063d 3032 cbbc ec5e 563d
00000090: c601 65bd d843 d8bc ca6d 7d3d 6a7e 0cbd
000000a0: 6891 1d3c b036 663c b073 2c3d a428 55bd
000000b0: 00d8 56bb f0de c93b 7cbc 503d 1e2c 3bbd
000000c0: 4e98 4e3d 8638 38bd b82f 07bd 00c6 e8ba
000000d0: 50be d3bb a443 903c 247b 7bbd 5896 5cbc
000000e0: 2cda 55bd 46c3 5bbd 08d3 abbc bee4 57bd
000000f0: 240c acbc 7857 0d3c c018 0b3d d28e 373d
00000100: 1091 fe3c 3499 24bd 38c4 3f3d 0433 393d
00000110: 000e 45b9 f071 523c c45e eb3c 8066 6abc
00000120: c416 f1bc f089 433c 9613 6ebd 4a50 26bd
00000130: d6bc 7c3d b245 713d 8017 ffba a490 0f3d
00000140: 68aa 5bbd d0ab af3c 86ac 58bd 846c 473d
00000150: c283 12bd f206 10bd ac38 db3c 2ee3 76bd
00000160: 10b7 3fbc 6297 543d 68b1 8f3c e8e7 55bc
00000170: 344b a83c 3098 df3c a8ed 68bc 70e4 a6bc
00000180: 6890 353d 2016 813c 202d 613d 785f 67bc
00000190: 20e1 073d b064 20bc 6a5c 183d 486e 0bbd
000001a0: 8c91 1e3d fe93 5dbd 18b4 1b3c 8061 ff3a
000001b0: 7c65 223d 6886 943c b898 783c 7057 1fbc
000001c0: fe64 53bd 5680 46bd a0c6 71bd e0bc 46bb
000001d0: 68d9 acbc 4432 e6bc 589d 77bc a0eb 813c
000001e0: 28a5 64bc 903f 7abc bc71 dabc e292 263d
000001f0: 8039 073a 38dc e03c be8c 603d d476 b6bc
00000200: 6026 38bb e06d 41bd 18d4 2e3d 2865 2b3c
00000210: 5a23 6ebd e42b 143d b097 da3b d4bb 26bd
00000220: b8a3 5bbc 9437 153d e842 f73c f8ca 7d3c
00000230: f474 ea3c 6890 c63c 8832 72bc 2c53 a9bc
00000240: ec32 41bd e4eb 2cbd 00c2 e1bb e0d1 d3bc
00000250: c6de 73bd d65e 5bbd b44f c3bc 7c83 4cbd
00000260: 129d 64bd 10a0 3c3d a49a b43c c02e 913b
00000270: 709b dc3b 8003 9a3c c64a 2f3d a04c 973b
00000280: 144a af3c 28a4 7a3d 9a99 0a3d c0de e93c
00000290: 542a 183d 5890 44bd 7ebd 37bd 8455 efbc
000002a0: a036 4abd 08dd 93bc 24f4 4e3d 8081 4dba
000002b0: 728f 30bd 0a48 49bd 44b0 02bd 4084 733d
000002c0: 80bb 793c 50a9 0fbd 6899 313c d614 4cbd
000002d0: 4485 4a3d 9618 48bd 348c 7b3d 886a dcbc
000002e0: 720e 663d cc5b 29bd 90eb 92bb c62f 25bd
000002f0: a00f cfbb 7cc8 eebc fe24 10bd d4c8 32bd
00000300: a6c7 433d 5a9e 143d 6808 6bbd 80d6 4f3d
00000310: 9212 033d 40c9 acbc c83d 223c aeb6 73bd
00000320: b8e7 293d d800 dfbc b439 a23c cc0f 1d3d
00000330: 4c23 6bbd bccb 233d c64f 1ebd 8040 0b3b
00000340: 5eff 203d 98af 183d 50ee 833b dc18 4a3d
00000350: 9e7c 38bd 74d6 ecbc 68b9 6f3c 8237 0a3d
00000360: 94df 2a3d 56e5 6cbd f689 403d 262f 6d3d
00000370: f0cd 5bbd c8ea 493d ac74 673d 5873 51bc
00000380: 20c0 f63b ec3f 60bd 7442 59bd e221 43bd
00000390: 5041 85bb 04a6 26bd 103c 6ebd 7048 5b3d
000003a0: d854 f13c 3cb3 823c f2ee 1bbd c46d 513d
000003b0: d02e e93c a2fd 1cbd 20df 70bd 8051 f7bc
000003c0: 78bc 62bc d051 793d 74b6 e33c 2018 693b
000003d0: ee24 63bd a022 553d 701c 17bc 14e4 85bc
000003e0: a40c c73c 00b5 93bc 8a94 763d 48b2 77bd
000003f0: 4091 b2bb 3ab9 6a3d 44d2 ebbc 8cf0 13bd

fc2.bias f4 [5]
-0.020561717 0.048897147 -0.031730488 -0.051509894 0.074739955
00000000: 0c71 a8bc 6048 483d d4f7 01bd 0afc 52bd
00000010: 4311 993d
