Models/Torch2/my_model9900.pth (torch_old, 60054 bytes, 8 tensors)

conv1.weight f4 [16, 2, 3, 3]
000000 23 60 4e 3d 1a bd 5d be 2a 1b 07 bb cd 4d d0 bd
       0.050384652 -0.21654168 -0.0020615556 -0.10171089
000010 00 7c b6 bd cc a3 52 be 6b c8 2c be 59 15 3e be
       -0.0891037 -0.20570296 -0.16873328 -0.18562831
000020 96 41 48 be a6 d9 2b be ed 2e 87 3e 80 b3 37 3e
       -0.19556269 -0.16782245 0.2640299 0.17939568
000030 85 7f a8 bc 93 52 6b be fa 60 05 3e 61 4f 12 3e
       -0.020568619 -0.22980718 0.13025275 0.14288093
000040 a9 a6 08 3d 10 a4 30 bd 65 9a cd bd b6 9b a4 bd
       0.033362065 -0.043125212 -0.10039214 -0.08037512
000050 21 d2 91 3e 00 19 81 3e f3 56 04 be 19 e9 cc 3e
       0.28480628 0.25214386 -0.12923793 0.4002159
000060 7f 7c 29 3e bf f4 34 3e 09 0c 82 3e 5e ed 6c 3d
       0.16551398 0.17671488 0.25399807 0.05784356
000070 c3 9d bf bd fe f6 7a 3d 45 b0 54 bc 00 26 7a 3e
       -0.093562625 0.061270706 -0.012981479 0.24428558
000080 bf bd 91 be 52 54 d8 bd ff a1 61 3e 60 bd 43 be
       -0.28465077 -0.10562958 0.22034453 -0.1911521
000090 ed e4 b4 3e cf 8d 25 be c7 9a e8 3e 8e 38 62 be
       0.35330907 -0.16167377 0.45430586 -0.22091886
0000a0 32 b6 2a be c6 e6 17 bd e4 f9 8d bd 7f 95 d0 3d
       -0.16671064 -0.037085317 -0.069324285 0.10184764
0000b0 be da 62 3e cc f9 a2 bd 28 e2 63 be ca e7 71 be
       0.22153756 -0.07957801 -0.2225424 -0.23623577
0000c0 ac 0e 5a 3c 52 b6 b9 bd ff 9e 9e 3c f3 6e e4 3c
       0.013309162 -0.09067978 0.019362925 0.027884936
0000d0 e8 10 9c 3d b7 cb 72 be 8e 92 ac 3b 03 ab 53 be
       0.07620412 -0.23710524 0.005266494 -0.20670705
0000e0 1f d2 95 bd 04 09 62 3e 5f 81 96 3e 86 d1 20 bc
       -0.07315468 0.22073752 0.29395577 -0.009815579
0000f0 84 8c 32 bd 52 d4 97 3e db 31 ab 3e a2 e4 dd bd
       -0.043591037 0.29654175 0.33436474 -0.10834624
000100 7e d1 88 b9 6b 79 46 3e 89 2f 09 bd 08 12 ba 3d
       -0.00026096025 0.19382255 -0.0334926 0.090854704
000110 0a 9b 79 3d 27 78 fe bd e7 7d 2f 3e 2f 2d 2b bd
       0.060938872 -0.12425261 0.17137872 -0.041791137
000120 c1 50 30 be e1 01 09 bd 05 8f d4 3e 9f 16 1e be
       -0.17218305 -0.033449057 0.41515365 -0.15438317
000130 60 2f 6c 3e 4e e4 db bd ea c2 27 be 59 1f a3 3e
       0.23064947 -0.10736905 -0.16382948 0.31859854
000140 51 c0 d7 bd 6b 03 ae 3d 2f 4d 09 be 4f 75 2d 3e
       -0.10534728 0.08496746 -0.1340835 0.16939281
000150 6a fe 58 3c 8f 94 12 3e 47 dd 45 3d 19 fa 34 3e
       0.013244251 0.14314483 0.04830673 0.1767353
000160 1f 53 9b 3d 55 79 53 be 84 ef 01 3e dd 61 52 bd
       0.075842135 -0.20651753 0.12689024 -0.05136286
000170 1a bc ce bd c2 5a ae 3e 61 11 77 3e 04 a8 00 3f
       -0.10094471 0.34053618 0.24127723 0.5025637
000180 4b fe 59 be 11 c6 8b 3e f5 7b 6b be 4e 45 45 be
       -0.21288411 0.2729955 -0.22996505 -0.19264719
000190 19 67 39 be d7 bd 84 be ab d4 28 bd fe 66 6b be
       -0.18105735 -0.25926086 -0.04121844 -0.22988507
0001a0 b5 74 b5 bc 92 5c 09 be aa 72 c1 bd fb 59 e5 3c
       -0.022150377 -0.13414219 -0.094456986 0.027997008
0001b0 fa 6a 14 3e e6 38 ab bd 10 ee 00 bd 54 1f b9 bd
       0.14493933 -0.08360462 -0.031477034 -0.090391785
0001c0 08 4f 9c 3d 90 a8 2a be 71 95 b8 3d b3 ae 8e 3e
       0.076322615 -0.16665864 0.09012879 0.2786766
0001d0 e5 a7 ea 3d 20 44 29 3d 16 9b db bd e9 6a 9a 3d
       0.114578046 0.041324735 -0.1072294 0.07539923
0001e0 ac 08 44 3e bc c0 65 3e 46 a8 57 be ea 5c bd bd
       0.19143933 0.22436804 -0.21060285 -0.092462376
0001f0 3a 1b 40 be ef 20 1a be 42 85 5c bc 48 b7 92 bd
       -0.18760386 -0.15051626 -0.0134595055 -0.071638644
000200 c4 98 27 bd 61 db 26 be bd 66 39 3e 06 16 0a 3c
       -0.040917173 -0.16294624 0.18105598 0.008428102
000210 be c5 04 bd 58 89 da bd 1b 6a 24 3e c0 af 0e bd
       -0.032415144 -0.106707275 0.16056101 -0.034835577
000220 dc eb 42 be 8c 47 2e be bc 83 51 3e da e9 4f be
       -0.19035286 -0.1701948 0.20460409 -0.20304051
000230 02 5e 54 be ea 40 ec bc 47 31 cb bd 72 66 20 be
       -0.20738986 -0.028839547 -0.09921508 -0.1566408
000240 8b c0 0f be 52 72 1e 3e 9c 9c 14 be 86 a7 10 be
       -0.14038293 0.15473297 -0.14512867 -0.14126405
000250 90 2b 44 be f5 9e be bd a1 2c a8 bd 00 b3 80 be
       -0.19157243 -0.093076624 -0.08211637 -0.25136566
000260 a0 07 e5 3c 68 63 a2 bc 81 94 ff bd ed 76 a6 3e
       0.027957737 -0.019822791 -0.12479497 0.32512608
000270 70 13 ab 3d 34 bb 4c 3e 97 86 36 3e 87 d4 65 3e
       0.08353317 0.19993287 0.1782478 0.22444354
000280 dd 9d 84 3e 2a 2f ac bc d5 b9 58 be 78 ad 41 3e
       0.2590169 -0.021018583 -0.2116464 0.1891383
000290 2a 62 29 3e e9 1e 37 3e ac 66 5d 3c c4 bb 81 3e
       0.16541353 0.17882885 0.013513248 0.25338566
0002a0 02 89 2a be f9 d6 d8 3d 31 92 92 3d 9d 88 09 be
       -0.16653827 0.10587878 0.0715679 -0.1343102
0002b0 4b 80 df bd 34 e2 f0 3d 01 6f 86 3d c7 e1 42 3e
       -0.10913142 0.11761895 0.06564141 0.1903144
0002c0 1c 10 ac bd f3 42 07 3d e4 54 b0 3c 8d 92 33 3e
       -0.0840151 0.033022832 0.021524854 0.17536373
0002d0 0b c4 a0 3d 3a 0b 84 3d ae 21 00 3d c8 34 81 3e
       0.07849892 0.06447454 0.03128212 0.2523558
0002e0 15 48 16 3d d7 c4 6f be eb 11 48 3e 56 26 8d bd
       0.036689837 -0.23414932 0.19538085 -0.068920776
0002f0 26 76 af bd 88 92 ec 3d de bf 55 bd 01 62 14 3c
       -0.08567457 0.11551386 -0.052184932 0.009056569
000300 51 21 3b bc 6c 5a 15 3e 78 51 b6 3d 85 1d 00 3e
       -0.0114215175 0.14585274 0.08902258 0.12511261
000310 b8 55 c2 3d 17 19 08 3e 1b b4 61 bc 1d 94 0b be
       0.09489006 0.13290821 -0.013775851 -0.1363072
000320 ac 7e 5d 3e 26 a6 83 3d 43 40 e5 bd 6e 51 8d 3e
       0.21630353 0.06428175 -0.111938976 0.27601188
000330 bf c6 44 be 78 01 cb bd 21 07 35 3e 56 1c 6f 3e
       -0.1921644 -0.099123895 0.176785 0.23350653
000340 b2 06 18 3e 01 3d 33 be d2 e0 92 bc 7e e4 35 3e
       0.14846304 -0.1750374 -0.017929468 0.17762944
000350 8e 29 eb 3d 08 17 3a 3e 14 d3 05 3c 14 b3 e5 3d
       0.11482535 0.18172848 0.008168001 0.11215797
000360 9f 63 a0 bd a0 d9 0d bd 5e 34 dd 3c 96 ff 7e 3e
       -0.07831501 -0.03463137 0.02700251 0.24902186
000370 1c 89 21 bb 4b 05 34 be a0 2e 10 3e bc 23 49 be
       -0.0024648374 -0.17580144 0.14080286 -0.19642538
000380 ae 6b 9d 3d 02 ab de bd 1f 48 8f bd 48 93 82 bd
       0.07686554 -0.10872461 -0.06996178 -0.06375748
000390 0b e4 0f be 1e ad 28 bd d4 e0 aa 3e ce b1 53 be
       -0.14051835 -0.041180722 0.33374655 -0.20673296
0003a0 0d e2 99 3d 3e 76 97 3d f7 64 24 be a6 ae 96 bb
       0.07513819 0.073956 -0.1605414 -0.0045984564
0003b0 6c 9c 65 be 31 bf 0e be 13 85 90 3e b8 a3 81 3e
       -0.22422951 -0.13940121 0.28226528 0.2532022
0003c0 de a8 c1 3e 48 19 22 be 80 e2 a8 3e de f4 85 ba
       0.37824148 -0.15829957 0.32985306 -0.0010220071
0003d0 bf a1 b3 3d 06 b1 01 be 8f db da bd 41 14 b2 3d
       0.08771085 -0.12665185 -0.10686409 0.086952694
0003e0 9f 25 92 be c0 38 e9 bd 39 bd 48 3d b2 38 0f 3e
       -0.28544328 -0.11387777 0.04900858 0.13986471
0003f0 fe 85 02 3e 32 0c 64 be 46 25 c8 3d b7 85 95 3d
       0.12746426 -0.22270277 0.09772734 0.07300895

conv1.bias f4 [16]
000000 4f aa 4e bd bd 1f 16 3d 1d 74 16 3e d3 f6 14 3d
       -0.050455388 0.03665136 0.14692731 0.036368202
000010 0d e3 dd bc da 8d 6c 3c f8 45 74 be d6 a3 aa 3d
       -0.027085805 0.014438117 -0.23854816 0.083320305
000020 7c 10 1c 3e c3 3b 09 bd 1e 6a 12 be cd 54 fd bc
       0.15240663 -0.03350426 -0.14298293 -0.030924225
000030 dd 79 b6 bd d1 2e 89 3b ce 8b 2c be 97 ad b3 3c
       -0.08909962 0.004186489 -0.16850206 0.02193336

conv2.weight f4 [32, 16, 3, 3]
000000 dd 5d 97 3c 63 3b 86 bd 0d 70 1a 3c 48 d3 47 3c
       0.018477375 -0.06554296 0.009426129 0.0121963695
000010 79 11 35 3c 12 d0 95 3d 40 13 e7 3b 92 33 14 bd
       0.011051529 0.07315077 0.0070518553 -0.036181994
000020 19 18 e4 3d ec 84 5f 3d a0 b9 44 be 4c a1 55 3d
       0.11137409 0.054570124 -0.19211435 0.052155778
000030 fa 6c b1 bd 82 fe 95 3d e6 c3 1c 3e 39 e0 6e 3d
       -0.08663364 0.07323934 0.15309104 0.058319304
000040 06 cb 83 bd c4 26 5f 3e 6b 72 8c 3d f7 8b 01 bd
       -0.06435208 0.21792132 0.06857761 -0.03162762
000050 fd 73 9f 3e 3d 6f e0 bd 49 b1 29 be b6 d4 62 3b
       0.3114318 -0.10958717 -0.16571535 0.003461165
000060 93 c2 c7 3b 8e ba 2a 3c 23 de 94 3d 4e b1 ea bc
       0.006096193 0.010420455 0.07268932 -0.028648999
000070 2a 2e 26 3c 2a f1 11 3d 24 79 a8 bd cd 52 09 3e
       0.010142842 0.035630383 -0.08226231 0.13410492
000080 bd 1f 41 3e 84 37 08 3c 85 11 1a bd e0 87 10 3d
       0.18859763 0.008314017 -0.037614364 0.03528583
000090 9a e9 ff 3c 08 1e 1b bd 5d eb 2d 3e e2 c9 13 bd
       0.03123932 -0.037870437 0.16984315 -0.036081202
0000a0 50 9a 19 bd e6 20 9d bd a4 7a 43 bb 6e 13 59 3d
       -0.03750068 -0.076722905 -0.0029827738 0.052997045
0000b0 82 9e 1c bd da 61 12 be f7 bf 06 be cb cd 4d be
       -0.038237102 -0.1429514 -0.13159166 -0.20098035
0000c0 cb e4 09 bd b7 72 a3 b9 b8 41 ac bd ef 16 e5 bd
       -0.03366546 -0.00031175252 -0.08410972 -0.11186015
0000d0 50 99 fd 36 48 15 37 be 83 48 7b bd 0b 70 90 bb
       7.5578355e-06 -0.17879212 -0.06134845 -0.004407888
0000e0 6e 4e a9 3d 99 ab 9f bd e6 3d 59 bd 86 58 26 bc
       0.082669124 -0.077964015 -0.053037547 -0.010152942
0000f0 1c 39 bd bc e5 f0 78 3d ae 79 97 3c da be 13 bd
       -0.023098521 0.06077661 0.018490639 -0.036070682
000100 6e de 02 bd 56 c8 a7 bd 68 f4 92 3d 53 c4 16 bc
       -0.031950407 -0.08192508 0.07175523 -0.009202081
000110 76 53 5b 3c 62 3a c9 3b a1 41 15 be 41 f6 f6 3d
       0.013386598 0.006140993 -0.14575817 0.12058688
000120 1b 24 58 3d 70 48 31 3e da e6 54 bc 8a e4 4f 3d
       0.052768808 0.17312789 -0.012994492 0.05075506
000130 32 ee 48 3d 01 5f 1a 3e 1b bc 17 3e 0b 73 ac 3c
       0.049055286 0.15075304 0.1481785 0.02105095
000140 c2 13 d7 3d 58 9f e9 3c aa 8e d8 3b a1 e9 e5 bd
       0.105018154 0.028518364 0.0066088038 -0.11226202
000150 a6 00 8d bc 76 6f c8 3d e8 a4 93 3c 97 ed 4f 3c
       -0.017212223 0.097868845 0.01802297 0.012690923
000160 79 bc fc bc 01 47 b9 bc b9 0b f4 bb 64 8c 3e 3c
       -0.03085159 -0.022616865 -0.0074476865 0.011630151
000170 a4 59 44 3d 47 0d 3e 3d 54 c1 97 bd da 6b c8 bb
       0.04793705 0.04639938 -0.07409921 -0.0061163725
000180 04 a9 c0 3c 20 e2 7f bd 13 0d 4e 3d c1 c3 7d bc
       0.023518093 -0.06247151 0.050305437 -0.015488566
000190 b3 8f 81 bd b9 ca bc 3d 0a f2 51 3d 14 e5 4d bb
       -0.063262366 0.09218354 0.051256217 -0.0031417059
0001a0 d5 e4 4c 3d 2b 4d 20 3d 5f 3c 83 bc 27 67 07 3e
       0.05002292 0.039136093 -0.016019998 0.13222943
0001b0 ff c2 8c bd 45 c7 88 bc 47 89 b1 3d 82 18 b4 3d
       -0.0687313 -0.016696582 0.08668762 0.08793737
0001c0 db 67 de 3c a1 62 b0 ba a2 17 fe bc cb 34 61 3d
       0.027149132 -0.0013457128 -0.031017128 0.054981988
0001d0 f0 58 49 3d aa cd 2c bd 66 d4 1f be 7e 1c a7 3c
       0.049157083 -0.042188324 -0.15608367 0.020399328
0001e0 60 a7 7f 3d e6 6d e6 bd a2 82 d4 3c 48 72 50 3d
       0.06241548 -0.1125143 0.025941197 0.050890237
0001f0 3f a9 1c be f4 5e 4f 3e 65 95 45 3d 9a 2d 0f bc
       -0.15298937 0.20251065 0.048238177 -0.0087389
000200 c7 18 f2 bd b1 7c 7b 3b cc da 32 3d a8 00 dd bd
       -0.11821132 0.0038373882 0.043665692 -0.10791141
000210 97 40 b4 3d 1f 4d 11 bd cc b0 56 3d b1 22 38 bd
       0.08801382 -0.03547394 0.0524147 -0.04495496
000220 89 c2 46 be 0c 60 12 3e f6 e8 db 3b 80 08 06 be
       -0.19410147 0.14294451 0.0067111207 -0.1308918
000230 0c e7 96 3e 9c 52 a3 3c fe dc 0f be e5 1e 28 3e
       0.2947315 0.019936852 -0.14049146 0.16418035
000240 23 5c 93 bd bb 17 1b 3c 63 7d 29 bd 67 ef 0d bc
       -0.07195308 0.009466107 -0.041379344 -0.008663035
000250 33 5a f2 bd d6 b0 95 3d 30 0e 04 bd dc c8 44 bd
       -0.118336104 0.073091194 -0.032240093 -0.048043117
000260 e1 68 b8 3d dd 53 c0 3d d9 9b 37 be 94 03 ce 3e
       0.09004379 0.09390996 -0.17930545 0.40237105
000270 86 1c e0 bd 08 b3 c4 bd cb b2 d8 3d 4e 79 ab 3c
       -0.109429404 -0.0960446 0.10580977 0.020931866
000280 ad f0 be bd 88 1f 74 3d 3a ac 85 bc 73 d0 b1 3b
       -0.09323249 0.059600383 -0.016317476 0.0054264604
000290 17 32 26 3e d5 cf 76 3d 7e dd 76 bd 14 b2 9e 3e
       0.16230045 0.060256798 -0.060269825 0.30995238
0002a0 55 d8 a8 3b 91 89 31 3d b3 d8 b8 bb 5f 85 46 b9
       0.005152742 0.043344084 -0.005641067 -0.00018932436
0002b0 0d 78 9e bd e3 ee 1c bd 2e b5 d2 bd e2 b1 48 3d
       -0.077377416 -0.038313758 -0.102884635 0.048997767
0002c0 a2 da f3 3c c0 06 09 bd 26 e6 8d 3c c0 aa 97 3d
       0.029767338 -0.033453703 0.017321657 0.07405615
0002d0 40 43 69 3d 88 f7 f1 bd 0b 23 95 bb 30 cb 80 3d
       0.0569489 -0.11814791 -0.0045512966 0.06288755
0002e0 3c 77 72 bd 41 35 68 3d 98 96 c3 bd bf c7 c3 3b
       -0.059195742 0.056691412 -0.09550208 0.0059747393
0002f0 9d eb c9 bd a0 c7 ad 3d 31 1a 95 bd df 41 75 3e
       -0.09859393 0.08485341 -0.07280386 0.23950909
000300 8c d1 ab 3c 35 15 41 bc 1e 92 04 bd 91 2f 49 3c
       0.020973943 -0.011784841 -0.03236591 0.012279407
000310 57 b9 de 3c 6c 00 23 bd 60 51 27 3d fa a6 42 3d
       0.027187986 -0.039795324 0.04084909 0.047522523
000320 76 fc e2 3d 14 f9 7f 3d 72 f9 9e bc a4 e7 7d 3d
       0.11083309 0.0624934 -0.019406054 0.061988488
000330 e3 aa 91 bc 8b 3d 80 3d c2 ea 6b bb 8c 70 d0 3d
       -0.01778168 0.062617384 -0.003599808 0.101777166
000340 d6 98 e6 bc 10 6e 8d 3d b5 b4 fb 3d 74 7d cf 3b
       -0.02814905 0.069057584 0.122903265 0.006332094
000350 6b 55 9c bb c8 94 69 3d 9e 0b 09 bd eb de 63 bc
       -0.004770925 0.057026654 -0.033458345 -0.013908128
000360 c6 2b 1e 3d 53 34 28 3d c9 94 f9 bc d9 31 88 bd
       0.038615964 0.041065525 -0.030466454 -0.06650133
000370 b5 fc ea 3c 44 ce b6 bd 69 93 28 3d ef af e4 ba
       0.028684953 -0.08926061 0.041156206 -0.0017447452
000380 06 3e 70 bd 16 56 4e bd d6 4f 8a 3d 95 1f 04 3e
       -0.0586529 -0.050375067 0.06753509 0.12902673
000390 d7 af 96 bd 74 76 d8 3a 2c 73 a8 3d fb 7b 12 3d
       -0.073577575 0.0016514794 0.08225092 0.03576277
0003a0 99 37 ae bb 09 1d 08 bd 40 08 aa bd ca 03 af 3c
       -0.0053166864 -0.033230815 -0.08302355 0.021364111
0003b0 1f 3e c8 ba f6 dd 54 3c c1 f2 a1 3d e1 4b 19 bc
       -0.0015277303 0.012992373 0.0790763 -0.00935647
0003c0 46 fb 0f bd 02 f4 30 3d 0e d3 df 3d 58 b6 96 3d
       -0.035151742 0.043201454 0.10928927 0.07358998
0003d0 aa d3 9c bd 13 ca 3d 3e 5d 7c d2 3d a5 18 ce bc
       -0.07657559 0.18534116 0.10277627 -0.025158236
0003e0 51 a3 de 3d e1 16 99 3d 16 c2 bd bd 34 61 9b 3d
       0.10870994 0.07475067 -0.092655346 0.075868994
0003f0 40 da 55 3d 8c 48 19 3d 1b e7 90 bd 81 91 5b bd
       0.052210093 0.0374227 -0.0707533 -0.05360556

conv2.bias f4 [32]
000000 03 8a 22 3e 53 ce c1 3d 4e 10 df 3d f2 c0 db 3c
       0.1587296 0.09463181 0.10891782 0.026825402
000010 f6 7e 04 3e 21 e1 be 3d 97 36 89 3d 40 2a 22 3d
       0.12939057 0.09320284 0.06699865 0.039591074
000020 2c c7 6c bb 83 81 1c b9 67 47 ac bc ea 32 94 3c
       -0.0036129458 -0.00014925566 -0.021030141 0.018090684
000030 20 97 45 3c 61 c6 b3 3d 4c 03 c5 bc b4 66 a4 bc
       0.012059957 0.08778072 -0.024049424 -0.020068504
000040 fa 13 57 3d 25 5b 67 bd e1 46 93 3d 4b b0 04 be
       0.052509286 -0.056483407 0.071912535 -0.12957875
000050 42 12 5f 3d 20 f0 81 bc 88 16 12 be e0 6d fd bd
       0.05446077 -0.01586157 -0.14266407 -0.123744726
000060 75 5f 9e bd 05 1c aa bd 48 80 87 bd 93 b8 26 bd
       -0.07733051 -0.083061256 -0.066162646 -0.040703367
000070 df e6 c3 bd ce d2 9c bd a0 67 44 bc 68 00 8c bd
       -0.095655195 -0.07657395 -0.011987597 -0.06836015

fc1.weight f4 [256, 32]
000000 e2 2e 5b 3d 77 63 af 3d 8e 43 bf bd b5 6f fc 3b
       0.053511508 0.08563893 -0.09339057 0.007703746
000010 9d a3 14 3d 0b 1a 5e 3d 76 65 72 3d f9 cd 8c bd
       0.036288846 0.054224055 0.059178792 -0.06875224
000020 81 00 31 3d 08 96 21 be 2a 94 f7 bc 30 cd 2c 3e
       0.04321337 -0.15779889 -0.030222017 0.16875148
000030 e0 84 ec 3d cf 73 19 be 06 1a 61 bd a7 22 b8 3d
       0.115487814 -0.14985584 -0.05495646 0.089909844
000040 f7 ee 7b bd 22 ae 17 3e 3f e7 99 3d ed 86 aa bd
       -0.06150719 0.1481252 0.0751481 -0.08326516
000050 91 16 0f bd 58 2e df bc d0 69 89 3d b0 8c 46 bd
       -0.03493363 -0.027243778 0.06709635 -0.048474014
000060 84 f5 d0 bd 46 44 95 bc b8 b9 9d 3d 0d c2 b7 bd
       -0.102030784 -0.018221032 0.07701439 -0.08972559
000070 db cf 2c be d0 27 ce 3b c7 a5 f5 bd ae ad f8 3c
       -0.16876166 0.006291367 -0.1199451 0.030356254
000080 a0 b9 0e 3e 7a fd 1e be a3 98 ef bd f8 48 18 bd
       0.13937998 -0.15526381 -0.11699035 -0.037178963
000090 59 ba c1 3d 3e 84 fb 3d 4d 0b bd bd 0f 6f 90 bd
       0.09459371 0.122810826 -0.09230671 -0.07052433
0000a0 93 81 14 bd 45 cc 1f 3e a5 77 c2 bd c8 d9 21 3e
       -0.036256384 0.15605266 -0.09495477 0.15805733
0000b0 39 04 b4 bd f6 6d ed 3d 2e 1b 0a 3e 56 f9 25 3e
       -0.08789868 0.11593239 0.1348693 0.16208395
0000c0 8c 56 f0 3c b5 39 f3 3d 13 89 fa bd 7c a6 3d bd
       0.029338144 0.11876241 -0.12233176 -0.04630135
0000d0 50 ee bb bd 7c 2d 89 3d e5 c4 e4 bd 6a 38 88 bd
       -0.09176314 0.066981286 -0.11170367 -0.06651385
0000e0 aa 42 30 bd 3a bb bb 3d f4 48 de 3d 83 d6 76 3d
       -0.043032326 0.0916657 0.108537585 0.060263168
0000f0 f0 b9 15 3e f9 1a fa 3d 99 77 81 3d 85 d3 75 bd
       0.14621711 0.12212176 0.063216396 -0.060016174
000100 e5 3c d8 bc 0d 9c 28 bd 9b 00 2b be d9 39 66 3d
       -0.026396224 -0.041164447 -0.1669945 0.05620751
000110 4a 54 03 3e 6e 9e c9 3d c2 61 a3 3d a5 66 e9 3d
       0.12825122 0.09844671 0.0797763 0.11396531
000120 14 a1 40 bb a7 d2 26 3e 16 8c 2c 3e 1d e9 d5 3c
       -0.0029392885 0.16291295 0.16850314 0.026112134
000130 5f 11 ce ba 92 e7 22 be c6 bd 19 be 0a d6 8e 3b
       -0.001572173 -0.1590865 -0.15013799 0.0043590115
000140 05 21 fd bd a9 fc e7 3c 91 57 25 3e 15 5b 93 3d
       -0.123598136 0.02831872 0.16146685 0.07195107
000150 e7 b2 cd 3d 1a fd 00 be 1e 40 e3 bc cc 35 0b 3e
       0.100438885 -0.1259655 -0.027740534 0.1359474
000160 97 2c f1 3d 08 86 0a bd bb a6 33 bd 45 7a 2b 3e
       0.11776083 -0.03381923 -0.04386018 0.16745861
000170 47 10 b3 bc 08 e6 3a be 01 90 37 3d 70 ff d3 3c
       -0.021858348 -0.18251812 0.044815067 0.025878638
000180 a5 ab 15 be 20 62 f5 bd 73 be 0f 3d 62 d2 1f be
       -0.14616258 -0.119816065 0.035093736 -0.15607598
000190 2c e6 05 3e 8c 45 fa bd f1 e7 3f 3d 99 06 25 be
       0.13076085 -0.12220296 0.046852056 -0.16115798
0001a0 aa cf 12 be 84 8d c8 3d 6a ab e5 3d e0 6f b3 bd
       -0.1433703 0.09792617 0.11214335 -0.08761573
0001b0 a2 9b dd 3d 79 48 0b be be 11 0e be fb 49 e7 bd
       0.108207 -0.13601865 -0.13873956 -0.112934075
0001c0 a5 10 10 bd c9 7a 08 3e cc 4d 9a 3c bf 25 0e 3e
       -0.035172123 0.13328089 0.018835925 0.13881586
0001d0 89 1e c4 3d ae ee 37 bd 6d 2f 12 bd 6a 2e 95 bd
       0.095761366 -0.044905357 -0.03568976 -0.072842434
0001e0 5e 6a d6 bc d5 6c 2b be e5 e7 18 be 9d 5e 04 bd
       -0.026173767 -0.16740735 -0.1493221 -0.032316793
0001f0 24 0d 38 bd 96 9f c2 3d 46 77 d2 bd 40 a0 49 3d
       -0.044934407 0.09503095 -0.10276656 0.049225092
000200 72 1c 29 3c 78 8f 3b bd bd ab 16 3e 30 69 e7 bd
       0.010321723 -0.04579112 0.1471395 -0.1129936
000210 ca ea f5 bd 72 c2 33 be 1b a0 01 be d0 d6 fb 3d
       -0.12007673 -0.17554644 -0.12658732 0.122968316
000220 ff c5 38 3d 68 89 ec 3d d6 05 76 3d 34 3b 06 3e
       0.0451107 0.11549646 0.06006416 0.13108522
000230 62 b1 b6 3d 6e 4a 51 3d b5 66 1a be b0 a8 4e 3d
       0.08920552 0.051096372 -0.15078242 0.05045384
000240 a9 ec 1e be 18 9a 90 3c 3c ff 2f be 79 66 11 3d
       -0.15519966 0.017651603 -0.17187208 0.035498116
000250 52 82 09 be 62 23 f5 3c c9 39 20 be 2a f5 3b bc
       -0.1342862 0.029924098 -0.15647043 -0.011472026
000260 d7 f3 c5 bd 34 85 ff bd 52 a9 e5 3d 05 4a fe 3d
       -0.096656494 -0.12476578 0.11213936 0.12416462
000270 4c 5d f1 3d 84 02 c4 bd 82 0c 28 be 6c aa 5b 3c
       0.11785373 -0.09570792 -0.16411021 0.013407331
000280 f1 7e f0 bd ad fd d0 3d b9 8a cb bd 86 ab 90 3d
       -0.11742962 0.10204635 -0.099385686 0.070639655
000290 7f 31 cb bc 7d aa 0f bd f8 1b f5 3d 30 b9 d7 3c
       -0.024803875 -0.0350747 0.11968225 0.026333421
0002a0 19 22 58 bd 5a f7 da bc 4d 49 fd 3d 89 72 26 be
       -0.052766893 -0.026729275 0.12367497 -0.16254629
0002b0 df af 14 be c5 2c 0e 3e b0 6b a6 3d 73 2a 22 bc
       -0.14520214 0.13884266 0.081260085 -0.009897816
0002c0 d4 f3 e9 bd 25 2d 6e bc 46 74 87 3d 8d 5d 3b 3d
       -0.1142346 -0.0145371305 0.06613974 0.045743514
0002d0 7f d2 cf 3d 98 55 34 be 9d b4 74 3d 9f 45 91 bb
       0.10147571 -0.17610776 0.05974256 -0.0044333483
0002e0 24 9d d4 3d b8 84 05 3d af 57 a5 3c f4 4b 18 be
       0.10381535 0.032597274 0.020183412 -0.14872724
0002f0 af 12 4c bd 6e f4 a1 bc bd 71 2c 3c 55 0f 97 bd
       -0.049822506 -0.019769873 0.010525164 -0.07375971
000300 3d e1 5d b8 fd 2c d2 bd 19 c5 ae bd 2e 6a 24 3e
       -5.2900275e-05 -0.10262487 -0.08533687 0.1605613
000310 92 f8 bd bd 85 fb 90 3a 34 b7 85 3d fe c1 ee 3c
       -0.09275927 0.0011061287 0.06529084 0.029145237
000320 7e ec da 3b 9c 87 30 3d 9b dc d8 3d 86 fa 23 be
       0.006681024 0.043098077 0.10588952 -0.16013536
000330 d4 8f aa bb 05 0c ff 3d 20 44 12 be 2e aa 85 3d
       -0.005205134 0.124534644 -0.142838 0.065266
000340 0f 34 8b 3d 8c 35 f9 3d d3 5b 68 bd f2 a4 a5 bd
       0.06797039 0.121684164 -0.056728195 -0.080881014
000350 30 2d 8a 3d 31 9a b1 bd 52 50 e8 3d c9 30 47 bd
       0.067469 -0.08671988 0.11343445 -0.04863051
000360 25 e0 29 be 66 1c 61 3d 3c d0 0e 3e f1 31 18 3e
       -0.1658941 0.054958723 0.13946623 0.14862801
000370 4b 8e bb 3d c5 fe 78 bc 09 5b 85 bd 82 af 31 be
       0.091579996 -0.015197461 -0.06511504 -0.17352107
000380 4a 87 ef 3d c9 a1 ca 3c a7 b3 0b bd e0 17 1c be
       0.11695726 0.024735348 -0.034106877 -0.15243483
000390 17 d3 31 bc 75 79 1e 3d 4a bb f7 3d c4 51 ed 3d
       -0.01085355 0.03869005 0.120962694 0.11587861
0003a0 89 87 08 be cb 00 42 bc 43 51 ec bd dc d3 ac bd
       -0.13332953 -0.011841009 -0.11538937 -0.084388465
0003b0 a5 b6 1b bb e9 be ff 3d 14 ad 43 bd d1 1f 9d 3d
       -0.0023759988 0.12487585 -0.047772482 0.07672084
0003c0 66 7a 04 be 6f 9d 1b bd 46 56 90 3d e0 25 6e bd
       -0.12937316 -0.037991937 0.07047705 -0.05814159
0003d0 c7 b9 be 3d eb 78 1c be 6c a2 be bc 8b 14 d2 bd
       0.09312778 -0.15280502 -0.023270808 -0.102578245
0003e0 5e 71 e9 3d c6 dd 2e bd c5 82 08 be 9c 50 df 3c
       0.11398576 -0.04269197 -0.13331135 0.027260117
0003f0 f6 32 b9 bd 1e d7 88 bd cf b1 f9 3d 38 f4 8f 3d
       -0.09042923 -0.06681655 0.121921174 0.07029003

fc1.bias f4 [256]
000000 78 a8 13 be ad 1c 41 bd 8d 00 d4 bc 6c 6b 27 3d
       -0.14419734 -0.047146488 -0.025879169 0.04087393
000010 a2 6f a3 bd 42 12 9f bd 0e 13 29 bd 30 93 d7 bc
       -0.07980277 -0.07767154 -0.041277938 -0.026315302
000020 14 eb 2e be 8a 0a 37 bd 9f 35 2d bd 2d a1 d4 bd
       -0.17081863 -0.044687785 -0.042287465 -0.10382304
000030 a1 75 3d bd 5b e5 8f 3c aa ab 80 bc a8 aa 89 bd
       -0.046254758 0.01756542 -0.015706856 -0.06722003
000040 9e ed 3c bd bd 82 02 be 43 f4 84 bd ce 18 de bd
       -0.046125047 -0.12745185 -0.06491902 -0.10844575
000050 b6 12 66 bd df f5 35 bd 3e 77 df bd 1c 0b c7 3c
       -0.056170188 -0.044423934 -0.109114155 0.02429729
000060 cb 22 ad bc a6 7c f6 bd 16 8c e2 bd 9f df 18 bd
       -0.021134755 -0.120354936 -0.110618755 -0.037322637
000070 b9 82 80 3c 40 11 c8 bc 53 d3 f9 bd 83 ac f8 3c
       0.015687333 -0.024422288 -0.1219851 0.030355697
000080 98 8b 00 be fb 3c 52 3c 49 9f 41 bd c5 7c 00 be
       -0.12553251 0.012831922 -0.047271047 -0.12547596
000090 b2 12 fe 3b e8 71 da bd 53 a8 66 bd 31 d4 8c bc
       0.0077536935 -0.10666257 -0.05631287 -0.017191024
0000a0 31 a7 99 bd 4b e9 fb bb 76 0f 04 be e8 6e 32 bd
       -0.07502592 -0.007687723 -0.12896523 -0.0435628
0000b0 46 3f 43 bc 79 45 f1 bc 94 57 89 3b a1 86 2e bd
       -0.011916941 -0.029452072 0.0041913483 -0.04260886
0000c0 d6 11 54 bd 6f c1 31 be 9e 08 e7 bc eb c8 ca bd
       -0.051774822 -0.17358945 -0.028202351 -0.09901603
0000d0 40 8d 9f bc ef f8 83 bc 59 28 f9 3b 00 ee e0 bd
       -0.019476533 -0.016109912 0.007603687 -0.10982895
0000e0 8e 33 6f 3c 97 62 9a bb 7c af c0 bc 0b a4 27 bd
       0.014599694 -0.00471146 -0.023521177 -0.040927928
0000f0 58 cf 4d bd ee 79 1a be 4c cc fd bd 8f 32 0d bd
       -0.050246567 -0.15085575 -0.12392482 -0.034472045
000100 3e 7d f5 3b b9 1c 54 bd 18 51 96 bb 6c 38 bb bd
       0.0074917367 -0.051785205 -0.004587304 -0.09141621
000110 37 2e 33 ba a8 61 d6 bc 7b a8 1d bb e7 c5 9a bc
       -0.00068351947 -0.026169613 -0.002405672 -0.018893195
000120 6a ad 24 bd fd 42 01 3c 20 98 29 bc b2 57 c8 3c
       -0.040204443 0.007889506 -0.010351211 0.024455879
000130 97 e5 13 3c ea fb 63 3c a3 49 1f bd ba e5 30 be
       0.009026906 0.013915041 -0.038888585 -0.17275134
000140 3f 15 a0 3a 66 5c eb bd 8f da 3b 3c 45 4b 4e bd
       0.0012213363 -0.11492233 0.011465683 -0.05036475
000150 84 64 28 be 8b a6 05 be f0 94 47 be 9b ca 28 bc
       -0.16444594 -0.13051812 -0.19490409 -0.010302211
000160 56 b9 c4 bd 00 38 1c 3d b7 0c 93 3b 0d 62 18 be
       -0.096056625 0.038139343 0.0044875997 -0.14881153
000170 10 cc ff 3b eb fb 1c be 28 68 99 bd 24 63 13 bd
       0.0078063086 -0.15330474 -0.07490569 -0.03598322
000180 50 88 15 bc 15 34 05 be 33 e6 ae bc d8 32 e9 bb
       -0.009126738 -0.13008149 -0.021350002 -0.0071166568
000190 a4 a7 db bd bf 69 46 bd 53 62 48 bd f7 c7 e5 bc
       -0.10725334 -0.04844069 -0.048921894 -0.028049452
0001a0 84 52 25 be ff 6c 15 be dd 3d ad bc f9 8f 5d 3c
       -0.16144758 -0.1459236 -0.021147663 0.013523095
0001b0 e8 85 18 be 54 25 cc bd 1d 94 10 3d d5 ad 86 bd
       -0.14894831 -0.09968057 0.0352975 -0.065761246
0001c0 92 8a 77 3c 5e b9 55 bc c1 9b fc bc 59 3f 05 3d
       0.015108721 -0.013044683 -0.030835988 0.032531116
0001d0 c8 98 2e 3d 3d bf 31 bd 56 10 fb bd 69 00 e7 bd
       0.042626172 -0.04339527 -0.12258975 -0.11279375
0001e0 9f 36 60 3d 03 77 a2 bb c6 c3 81 bc b7 47 27 3d
       0.05473959 -0.004958035 -0.015840422 0.040839877
0001f0 44 77 2d bd 9a 85 09 3d 6c 3d cc 3b ed ab 0d bd
       -0.04235007 0.033574678 0.006232908 -0.03458779
000200 cb 4b 2a bd c3 1c 8d bd d5 e9 12 bc a3 e8 f7 bc
       -0.041576188 -0.068902515 -0.008966883 -0.030262297
000210 0e f3 58 bd ab dd b0 bd 3f 22 71 bd 9e 04 27 bd
       -0.05296617 -0.0863603 -0.05887055 -0.040775888
000220 86 39 e1 bb ac e8 92 bd 05 ce 37 be ab d2 8c bd
       -0.0068733124 -0.07173285 -0.17949684 -0.06876119
000230 a7 83 25 be 64 c3 85 3c a2 87 cb bd 0d 4e 82 bd
       -0.16163503 0.016328521 -0.09937979 -0.06362543
000240 21 a8 1d be 3f a1 82 3c 26 db 94 bd 89 cc b8 3b
       -0.15396167 0.015946029 -0.07268362 0.005639617
000250 dc 2b 86 bb 0b bf c5 bc fb a3 a2 bc a8 6c 0e 3d
       -0.004094584 -0.024138948 -0.019853583 0.03477159
000260 e2 95 ee bd e1 e2 fd bd 74 f4 8a bc 64 6e 8e bd
       -0.11649682 -0.12396789 -0.016962267 -0.06954649
000270 3d 02 70 bc 95 8d 81 bd d4 90 b2 bd a4 e0 29 be
       -0.014648971 -0.06325833 -0.0871903 -0.165896
000280 3c 4c 83 bc 2e a5 9a 3c aa 28 49 3d a5 b1 76 ba
       -0.016027562 0.018877592 0.049111046 -0.00094106264
000290 18 87 18 3c 57 c0 68 bd c3 92 b7 3b f6 08 12 be
       0.009309553 -0.056824055 0.005602212 -0.14261231
0002a0 3e 9c 15 be 35 1c d0 bb 18 cd aa 3d e3 56 db bd
       -0.14610383 -0.006351019 0.083399 -0.10709932
0002b0 93 e4 e8 3c e2 99 1b be 34 a5 3a bd d9 8e 1e be
       0.028429305 -0.1519542 -0.045567706 -0.1548418
0002c0 f7 15 ef bc 3e 3e 20 be 12 aa 2d bd 20 47 57 bb
       -0.029185278 -0.15648744 -0.04239852 -0.003284879
0002d0 38 4b 0d be 86 0f ca 3b c3 f1 e8 bc 40 e5 23 be
       -0.13798225 0.0061664013 -0.028435593 -0.1600542
0002e0 71 f0 98 bc e0 17 29 bb e2 80 11 be 5d 22 25 be
       -0.018669339 -0.0025801584 -0.14209321 -0.1612639
0002f0 bf 86 88 3d 43 ba 1a be 78 cb 3c be 01 9c 74 bc
       0.06666326 -0.15110116 -0.18436992 -0.014929772
000300 bf b5 93 3d 09 7d c4 bd 60 77 0d be 54 4c 85 3d
       0.072124 -0.09594161 -0.13815069 0.06508699
000310 7b c6 03 3d d3 33 ec bd 2a bd a9 bc 4f a8 46 bd
       0.032171708 -0.11533322 -0.020720083 -0.048500355
000320 65 fd ec bd d5 f4 9f bc a0 dd c1 bd 8e 47 3f bd
       -0.11571769 -0.019525925 -0.094661 -0.0466991
000330 36 19 8c 3d 13 85 0d bd fd 8a 1c be 23 02 b6 3d
       0.06840746 -0.034550738 -0.15287395 0.08887126
000340 a2 0c c6 bd 03 1a 0e bd 09 02 cb bc 6c 30 6b bc
       -0.09670378 -0.034692775 -0.024781244 -0.014354806
000350 dc e8 c8 bc b7 11 35 bd 51 90 87 bd 69 18 01 be
       -0.024525099 -0.044206347 -0.06619323 -0.12606968
000360 49 fe 0e bd b6 b7 49 bd 52 95 04 be b1 c0 8a bb
       -0.034910474 -0.049247466 -0.12947586 -0.0042343964
000370 c5 52 6a bb 96 2f a6 bc d3 b7 49 bd 1c c1 86 bd
       -0.00357549 -0.020286363 -0.049247574 -0.065798014
000380 1d 5d 0c be b1 81 29 be 3b 2a 9f bd b6 14 5e bd
       -0.13707395 -0.1655338 -0.07771727 -0.05421897
000390 f1 ae a3 3b c3 ed 18 bd e6 08 aa bd 9c c4 59 bd
       0.00499522 -0.037336122 -0.083024785 -0.053166017
0003a0 73 67 89 bd e9 3d 48 bd b6 04 3e bc 2f 00 b8 3d
       -0.067091845 -0.048887167 -0.011597803 0.0898441
0003b0 aa eb 2f bc 9d 1c 44 bc 50 14 94 bd 88 39 d0 bd
       -0.010737339 -0.011969713 -0.07230437 -0.10167223
0003c0 64 81 8b bd 57 4a 65 bd 0f b0 29 be c2 51 bf bd
       -0.06811789 -0.0559791 -0.16571067 -0.09341766
0003d0 e6 19 c8 bc b1 c9 fc bd c2 a5 3c bd d0 b0 15 bd
       -0.024426412 -0.12343157 -0.046056516 -0.036545575
0003e0 22 b3 63 bd 26 9d 28 3c c0 22 24 bd 9e 11 25 bd
       -0.055590756 0.010291373 -0.040072203 -0.040300004
0003f0 8a c5 73 bd 45 17 24 be 94 27 8d 3c de 79 98 3b
       -0.05951456 -0.16024502 0.017230786 0.0046531996

fc2.weight f4 [5, 256]
000000 e6 89 2c 3d ca 52 64 bd 6c 4f 69 3d 00 20 b6 3a
       0.042123698 -0.055743016 0.05696051 0.0013895035
000010 ca 1d 1e bd 80 32 0f 3d 0c 05 4b 3d 64 ce da 3c
       -0.038602628 0.03496027 0.04956536 0.026709743
000020 80 8b 34 3c d8 1b 20 3d 50 3b 15 bc f0 d7 cf 3b
       0.0110195875 0.039089054 -0.0091083795 0.0063428804
000030 f4 b3 ff 3c 00 50 41 3c 64 3a 2d bd e0 49 f7 3b
       0.031213738 0.011798859 -0.042292014 0.0075466484
000040 30 5d 81 3b 48 4b 56 3c 42 45 7e bd 0c 67 61 3d
       0.0039478764 0.013079472 -0.06207777 0.055029914
000050 e0 c8 3a bd d6 c4 3d 3d ec 45 63 bd 42 d4 50 bd
       -0.045601726 0.046330296 -0.055486605 -0.050983675
000060 b4 f0 cb bc f0 cf a7 bb f4 65 90 3c c4 94 ba bc
       -0.02489505 -0.0051212236 0.01762674 -0.022776015
000070 0e 13 49 3d 1c a4 21 bd f8 c6 fe bc b4 96 4a 3d
       0.049090438 -0.039463148 -0.031100735 0.049460128
000080 06 d8 0f bd 0c 60 06 3d 30 32 cb bc ec 5e 56 3d
       -0.035118125 0.03280644 -0.024804205 0.05233662
000090 c6 01 65 bd d8 43 d8 bc ca 6d 7d 3d 6a 7e 0c bd
       -0.055909894 -0.026399538 0.06187228 -0.034300245
0000a0 68 91 1d 3c b0 36 66 3c b0 73 2c 3d a4 28 55 bd
       0.009617187 0.014051124 0.042102516 -0.05204071
0000b0 00 d8 56 bb f0 de c9 3b 7c bc 50 3d 1e 2c 3b bd
       -0.0032782555 0.0061606094 0.050961003 -0.04569637
0000c0 4e 98 4e 3d 86 38 38 bd b8 2f 07 bd 00 c6 e8 ba
       0.050438218 -0.04497578 -0.033004493 -0.0017759204
0000d0 50 be d3 bb a4 43 90 3c 24 7b 7b bd 58 96 5c bc
       -0.006461896 0.017610379 -0.061396733 -0.013463579
0000e0 2c da 55 bd 46 c3 5b bd 08 d3 ab bc be e4 57 bd
       -0.052210018 -0.053653024 -0.020974651 -0.05270838
0000f0 24 0c ac bc 78 57 0d 3c c0 18 0b 3d d2 8e 37 3d
       -0.021001883 0.008626811 0.03395915 0.04481394
000100 10 91 fe 3c 34 99 24 bd 38 c4 3f 3d 04 33 39 3d
       0.03107503 -0.04018517 0.04681799 0.045214668
000110 00 0e 45 b9 f0 71 52 3c c4 5e eb 3c 80 66 6a bc
       -0.000187926 0.012844548 0.028731711 -0.0143066645
000120 c4 16 f1 bc f0 89 43 3c 96 13 6e bd 4a 50 26 bd
       -0.0294298 0.011934742 -0.058124147 -0.040603913
000130 d6 bc 7c 3d b2 45 71 3d 80 17 ff ba a4 90 0f 3d
       0.061703525 0.058904357 -0.001946196 0.03505005
000140 68 aa 5b bd d0 ab af 3c 86 ac 58 bd 84 6c 47 3d
       -0.05362931 0.021444231 -0.052898906 0.048687473
000150 c2 83 12 bd f2 06 10 bd ac 38 db 3c 2e e3 76 bd
       -0.035770185 -0.035162874 0.026760422 -0.06027525
000160 10 b7 3f bc 62 97 54 3d 68 b1 8f 3c e8 e7 55 bc
       -0.01170136 0.051902182 0.017540649 -0.013055779
000170 34 4b a8 3c 30 98 df 3c a8 ed 68 bc 70 e4 a6 bc
       0.020543672 0.027294248 -0.014216818 -0.0203726
000180 68 90 35 3d 20 16 81 3c 20 2d 61 3d 78 5f 67 bc
       0.04432717 0.01575762 0.054974675 -0.014121883
000190 20 e1 07 3d b0 64 20 bc 6a 5c 18 3d 48 6e 0b bd
       0.03317368 -0.009789631 0.037197508 -0.03404072
0001a0 8c 91 1e 3d fe 93 5d bd 18 b4 1b 3c 80 61 ff 3a
       0.038713023 -0.054096214 0.009503387 0.0019484013
0001b0 7c 65 22 3d 68 86 94 3c b8 98 78 3c 70 57 1f bc
       0.039647564 0.018130496 0.01517313 -0.009725437
0001c0 fe 64 53 bd 56 80 46 bd a0 c6 71 bd e0 bc 46 bb
       -0.051609986 -0.048462234 -0.059027314 -0.003032498
0001d0 68 d9 ac bc 44 32 e6 bc 58 9d 77 bc a0 eb 81 3c
       -0.021099761 -0.02810014 -0.015113197 0.015859425
0001e0 28 a5 64 bc 90 3f 7a bc bc 71 da bc e2 92 26 3d
       -0.013955392 -0.015273944 -0.02666556 0.040667422
0001f0 80 39 07 3a 38 dc e0 3c be 8c 60 3d d4 76 b6 bc
       0.00051584095 0.027448758 0.054821722 -0.022273459
000200 60 26 38 bb e0 6d 41 bd 18 d4 2e 3d 28 65 2b 3c
       -0.0028099045 -0.047223926 0.042682737 0.010461129
000210 5a 23 6e bd e4 2b 14 3d b0 97 da 3b d4 bb 26 bd
       -0.058139183 0.03617467 0.0066709146 -0.04070647
000220 b8 a3 5b bc 94 37 15 3d e8 42 f7 3c f8 ca 7d 3c
       -0.013405733 0.036429957 0.03018327 0.015490286
000230 f4 74 ea 3c 68 90 c6 3c 88 32 72 bc 2c 53 a9 bc
       0.02862022 0.02423878 -0.014782555 -0.020669542
000240 ec 32 41 bd e4 eb 2c bd 00 c2 e1 bb e0 d1 d3 bc
       -0.047167704 -0.04221715 -0.0068895817 -0.025856912
000250 c6 de 73 bd d6 5e 5b bd b4 4f c3 bc 7c 83 4c bd
       -0.059538625 -0.05355724 -0.023841716 -0.04993008
000260 12 9d 64 bd 10 a0 3c 3d a4 9a b4 3c c0 2e 91 3b
       -0.055813856 0.046051085 0.022046395 0.004430622
000270 70 9b dc 3b 80 03 9a 3c c6 4a 2f 3d a0 4c 97 3b
       0.006732397 0.018800497 0.04279592 0.0046172887
000280 14 4a af 3c 28 a4 7a 3d 9a 99 0a 3d c0 de e9 3c
       0.021397628 0.061191708 0.033837892 0.028548598
000290 54 2a 18 3d 58 90 44 bd 7e bd 37 bd 84 55 ef bc
       0.037149742 -0.04798922 -0.04485845 -0.029215582
0002a0 a0 36 4a bd 08 dd 93 bc 24 f4 4e 3d 80 81 4d ba
       -0.0493685 -0.018049732 0.0505258 -0.00078394264
0002b0 72 8f 30 bd 0a 48 49 bd 44 b0 02 bd 40 84 73 3d
       -0.04310555 -0.049140967 -0.03190638 0.059452295
0002c0 80 bb 79 3c 50 a9 0f bd 68 99 31 3c d6 14 4c bd
       0.015242457 -0.03507358 0.010839798 -0.04982456
0002d0 44 85 4a 3d 96 18 48 bd 34 8c 7b 3d 88 6a dc bc
       0.0494435 -0.048851572 0.061413005 -0.026906267
0002e0 72 0e 66 3d cc 5b 29 bd 90 eb 92 bb c6 2f 25 bd
       0.05616612 -0.04134731 -0.0044836476 -0.040328763
0002f0 a0 0f cf bb 7c c8 ee bc fe 24 10 bd d4 c8 32 bd
       -0.0063190013 -0.029148333 -0.03519153 -0.043648556
000300 a6 c7 43 3d 5a 9e 14 3d 68 08 6b bd 80 d6 4f 3d
       0.04779782 0.03628383 -0.057381064 0.050741673
000310 92 12 03 3d 40 c9 ac bc c8 3d 22 3c ae b6 73 bd
       0.032000132 -0.021092057 0.009902425 -0.05950039
000320 b8 e7 29 3d d8 00 df bc b4 39 a2 3c cc 0f 1d 3d
       0.04148075 -0.027222082 0.019802906 0.038345143
000330 4c 23 6b bd bc cb 23 3d c6 4f 1e bd 80 40 0b 3b
       -0.05740671 0.039989218 -0.038650297 0.0021248162
000340 5e ff 20 3d 98 af 18 3d 50 ee 83 3b dc 18 4a 3d
       0.039306037 0.037276834 0.004026212 0.049340114
000350 9e 7c 38 bd 74 d6 ec bc 68 b9 6f 3c 82 37 0a 3d
       -0.04504072 -0.028910853 0.014631607 0.033744343
000360 94 df 2a 3d 56 e5 6c bd f6 89 40 3d 26 2f 6d 3d
       0.041717127 -0.0578359 0.04700657 0.057906292
000370 f0 cd 5b bd c8 ea 49 3d ac 74 67 3d 58 73 51 bc
       -0.053663194 0.04929617 0.05650775 -0.012783848
000380 20 c0 f6 3b ec 3f 60 bd 74 42 59 bd e2 21 43 bd
       0.0075302273 -0.05474846 -0.05304189 -0.047639735
000390 50 41 85 bb 04 a6 26 bd 10 3c 6e bd 70 48 5b 3d
       -0.0040666237 -0.04068567 -0.05816275 0.05353588
0003a0 d8 54 f1 3c 3c b3 82 3c f2 ee 1b bd c4 6d 51 3d
       0.029459402 0.015954606 -0.038069673 0.05113007
0003b0 d0 2e e9 3c a2 fd 1c bd 20 df 70 bd 80 51 f7 bc
       0.028464705 -0.03832782 -0.05880654 -0.03019023
0003c0 78 bc 62 bc d0 51 79 3d 74 b6 e3 3c 20 18 69 3b
       -0.01383888 0.060869038 0.027796961 0.0035567358
0003d0 ee 24 63 bd a0 22 55 3d 70 1c 17 bc 14 e4 85 bc
       -0.05545514 0.052034974 -0.009223089 -0.016344108
0003e0 a4 0c c7 3c 00 b5 93 bc 8a 94 76 3d 48 b2 77 bd
       0.02429802 -0.018030643 0.06020025 -0.060472757
0003f0 40 91 b2 bb 3a b9 6a 3d 44 d2 eb bc 8c f0 13 bd
       -0.005449444 0.057305552 -0.028786786 -0.036118075

fc2.bias f4 [5]
000000 0c 71 a8 bc 60 48 48 3d d4 f7 01 bd 0a fc 52 bd
       -0.020561717 0.048897147 -0.031730488 -0.051509894
000010 b1 9e 00 3e
       0.12560536
