Models/Torch2/my_model32300.pth (torch_old, 60054 bytes, 8 tensors)

conv1.weight f4 [16, 2, 3, 3]
0.22060277 -0.44214007 -0.12705979 0.19001924 0.07787303 -0.27541307 -0.18026718 -0.3157658
-0.114381514 -0.16782245 0.7156449 0.65632015 -0.059207488 -0.22980718 0.060873915 0.07259567
0.010220238 0.011892163 -0.343223 -0.38307205 -0.07835599 0.762227 0.25705916 0.5937054
0.5862559 0.7666532 0.14881887 0.15856452 -0.6106887 0.32423943 0.029639281 0.20913604
-0.83083844 0.056634836 0.26553652 -0.63185406 0.7682606 0.72757256 0.545035 -0.374015
-0.40609884 -0.18536645 0.48594984 0.40635988 -0.078652464 -0.073807456 0.3372471 -0.6123768
0.106954426 -0.45788273 0.23473653 0.046587706 0.22424106 -0.51554346 0.21803954 -0.21436422
-0.09107752 0.40935135 0.26950625 -0.09086725 -0.022182804 0.49503326 0.5141062 -0.08989909
-0.09686855 0.49384844 -0.105802245 0.10645656 0.388382 -0.14474112 0.22869016 -0.15833679
-0.17061755 -0.16180077 0.5658303 -0.16651134 0.09312112 -0.045728438 -0.16231114 0.39728117
-0.0436684 0.0061001084 -0.29000106 0.29915157 0.025112668 0.09664788 -0.14535414 0.08511802
0.006687484 -0.28242794 0.51141155 -0.1313361 -0.11983599 0.75267255 0.3095318 0.5054522
-0.21455748 0.45134506 -0.23002055 -0.4446316 -0.44445327 -0.3876829 -0.041369252 -0.72542787
0.030799137 -0.13483393 0.035242286 -0.056842312 0.13374366 -0.08360462 -0.031835377 -0.090391785
0.083685145 -0.16665864 0.11994141 0.2882362 0.12151016 0.038821194 -0.1072294 0.108613975
0.18157402 0.23147257 -0.21060285 -0.092221305 -0.18760386 -0.15051626 -0.07812877 0.13516109
-0.075006746 -0.16294624 0.36710167 -0.031864688 -0.048751693 -0.111903414 0.4417551 -0.064298704
-0.2724864 -0.18432583 0.054462165 -0.21774958 -0.4127855 -0.07395118 -0.1671607 -0.1154627
-0.03472684 -0.0127915405 -0.0986011 -0.18060103 -0.011366654 -0.106367245 0.16337909 -0.29392084
-0.13036682 -0.021426443 -0.14427668 0.58414793 0.2808664 0.4194373 0.42369628 0.041544594
0.4344611 -0.033198033 -0.5172816 0.091705 0.07232928 0.43605587 -0.26206508 0.20026155
-0.4006672 0.37690905 0.17226557 -0.12516731 -0.30517453 0.5358264 0.11556237 0.10737328
-0.40493667 0.0518555 -0.06504503 0.42603806 -0.028228587 0.10392779 -0.05545511 0.6220823
-0.011259099 -0.23414932 0.59266955 -0.15548737 -0.14145182 0.53590715 -0.13145134 -0.07343868
0.20525675 0.69816774 0.3759899 0.09638977 0.6784943 0.2879167 0.21864678 0.05630049
0.17811282 0.3208468 -0.3410219 0.42429495 -0.2665802 0.19362009 0.0270452 0.25202087
0.54917055 -0.028765837 -0.07847974 0.24585786 0.58621883 0.11251306 -0.12189673 0.083369225
-0.23186108 -0.13183899 0.024797777 0.3348487 0.10189348 -0.17580144 0.39577952 0.27227953
0.12723088 -0.09944296 -0.07252459 -0.13001907 -0.14206597 -0.14381799 0.59548813 -0.20673296
-0.06709602 0.24643674 -0.0718185 -0.12696262 -0.12869018 -0.3599704 0.86469686 0.42668366
0.83542436 -0.5886449 0.37529936 -0.09365441 -0.12969534 -0.2537309 0.0848792 -0.104775496
-0.7198166 0.06982295 0.40692344 0.5481314 -0.054858644 -0.22298235 0.089284785 -0.06983479
00000000: b1e5 613e 2f60 e2be f61b 02be 6794 423e
00000010: e57b 9f3d f102 8dbe f697 38be 0eac a1be
00000020: db40 eabd a6d9 2bbe 8134 373f 9904 283f
00000030: 8d83 72bd 9352 6bbe ed56 793d 0aad 943d
00000040: c972 273c 59d7 423c edba afbe 0522 c4be
00000050: 1b79 a0bd 4f21 433f 429d 833e 14fd 173f
00000060: de14 163f 6243 443f f963 183e bd5e 223e
00000070: 1856 1cbf b602 a63e 14ce f23c c227 563e
00000080: d4b1 54bf eef9 673d 67f4 873e 30c1 21bf
00000090: baac 443f 3242 3a3f 6a87 0b3f e57e bfbe
000000a0: 30ec cfbe b4d0 3dbe 6bce f83e 670e d03e
000000b0: 8b14 a1bd 5d28 97bd a7ab ac3e bac4 1cbf
000000c0: ec0a db3d 9b6f eabe c65e 703e c0d2 3e3d
000000d0: 739f 653e a8fa 03bf c245 5f3e 4b82 5bbe
000000e0: da86 babd 8096 d13e b9fc 893e 9c18 babd
000000f0: b6b8 b5bc 0075 fd3e 779c 033f 041d b8bd
00000100: 0563 c6bd b4d9 fc3e d9ae d8bd e605 da3d
00000110: 01da c63e 0437 14be c12d 6a3e 0a23 22be
00000120: 5eb6 2ebe 1aaf 25be 41da 103f f381 2abe
00000130: 49b6 be3d be4d 3bbd e434 26be 7068 cb3e
00000140: a3dd 32bd 6be3 c73b 057b 94be 652a 993e
00000150: 15b9 cd3c 53ef c53d b7d7 14be 5b52 ae3d
00000160: af22 db3b 659a 90be deeb 023f f87c 06be
00000170: 926c f5bd 26af 403f f47a 9e3e 5165 013f
00000180: f5b4 5bbe b316 e73e 828a 6bbe c1a6 e3be
00000190: 618f e3be 607e c6be ce72 29bd a4b5 39bf
000001a0: 794e fc3c e811 0abe 375a 103d 7cd3 68bd
000001b0: 19f4 083e e638 abbd d065 02bd 541f b9bd
000001c0: 1e63 ab3d 90a8 2abe d8a3 f53d b293 933e
000001d0: 52da f83d f902 1f3d 169b dbbd 0171 de3d
000001e0: 8aee 393e 2507 6d3e 46a8 57be 86de bcbd
000001f0: 3a1b 40be ef20 1abe fa01 a0bd ab67 0a3e
00000200: 239d 99bd 61db 26be c0f4 bb3e 8c84 02bd
00000210: dbaf 47bd 9e2d e5bd b92d e23e 0aaf 83bd
00000220: 5683 8bbe e9bf 3cbe b813 5f3d bff9 5ebe
00000230: 9f58 d3be b773 97bd 2d2c 2bbe b577 ecbd
00000240: bb3d 0ebd 9c93 51bc 60ef c9bd 7aef 38be
00000250: 343b 3abc 12d7 d9bd d94c 273e cb7c 96be
00000260: e17e 05be 8286 afbc 44bd 13be b88a 153f
00000270: b9cd 8f3e 7cc0 d63e b8ee d83e aa2a 2a3d
00000280: af71 de3e a9fa 07bd 916c 04bf d5cf bb3d
00000290: 6021 943d b742 df3e 652d 86be 5d11 4d3e
000002a0: 4024 cdbe 39fa c03e 6366 303e dc2b 00be
000002b0: d63f 9cbe eb2b 093f f7ab ec3d 86e6 db3d
000002c0: dc53 cfbe 6f66 543d 5436 85bd a921 da3e
000002d0: a33f e7bc 18d8 d43d e624 63bd c940 1f3f
000002e0: 1578 38bc d7c4 6fbe 31b9 173f 1538 1fbe
000002f0: bfd8 10be 3631 093f 2e9b 06be 0567 96bd
00000300: d32e 523e 1fbb 323f c081 c03e 0068 c53d
00000310: cdb1 2d3f d169 933e f1e4 5f3e 589b 663d
00000320: 3563 363e 0846 a43e 6c9a aebe 303d d93e
00000330: 337d 88be 5844 463e e58d dd3c e108 813e
00000340: 7196 0c3f 55a6 ebbc fcb9 a0bd 2ac2 7b3e
00000350: 7012 163f 3f6d e63d fea4 f9bd 7cbd aa3d
00000360: fe6c 6dbe cd00 07be b524 cb3c 4a71 ab3e
00000370: 87ad d03d 4b05 34be 9da3 ca3e 3968 8b3e
00000380: d048 023e c0a8 cbbd c687 94bd b823 05be
00000390: be79 11be 0645 13be e971 183f ceb1 53be
000003a0: a369 89bd ea59 7c3e 9415 93bd 7d02 02be
000003b0: 5cc7 03be 0a4e b8be c65c 5d3f 4876 da3e
000003c0: 5fde 553f 6fb1 16bf 3d27 c03e e2cd bfbd
000003d0: dbce 04be 04e9 81be 25d5 ad3d 8994 d6bd
000003e0: e745 38bf 56ff 8e3d 4558 d03e 5752 0c3f
000003f0: 75b3 60bd 7c55 64be f1da b63d 8b05 8fbd

conv1.bias f4 [16]
-0.22866341 -0.15703002 -0.054928444 -0.5172653 -0.16271049 -0.1855542 -0.26756626 -0.0027562578
-0.19639389 -0.2197296 -0.6647743 -0.28587317 -0.4725179 -0.025463609 -0.2036028 -0.664267
00000000: be26 6abe 7acc 20be a6fc 60bd 806b 04bf
00000010: 949d 26be ec01 3ebe 72fe 88be 55a2 34bb
00000020: 7b1b 49be cc00 61be a62e 2abf f85d 92be
00000030: deed f1be 0f99 d0bc 417d 50be 670d 2abf

conv2.weight f4 [32, 16, 3, 3]
0.40775025 -0.18543658 0.21369997 0.37418407 -0.052648712 0.28644636 -0.009931702 0.026747873
0.11723082 0.12771179 -0.48863557 -0.12687989 -0.06945246 0.08858091 -0.26554698 0.7312417
-0.085244276 0.5322331 0.5747281 -0.095657 0.21961981 0.3039761 -0.21923058 -0.16284175
0.10903163 -0.5005717 0.074457996 -0.049579088 0.10851199 0.063064784 0.11200734 0.010708806
0.05173111 0.13115817 -0.017984895 0.08007125 0.08269707 -0.109994315 0.25491303 0.100720264
-0.06799326 -0.110702135 -0.09117217 -0.042246707 0.041653976 -0.36841038 0.04336973 -0.5835982
-0.646016 -0.2439024 -0.18867972 -0.12808253 0.064272664 -0.39514953 -0.06109645 0.0060598357
0.096046 -0.09405391 -0.001139591 -0.01861002 -0.01991051 0.082782246 0.0033506434 -0.02421442
-0.07619578 -0.017912338 0.082614884 0.006850733 -0.016742935 0.10882764 -0.19953504 0.11258319
0.026093021 0.17345268 -0.22556391 0.14422211 0.027430099 0.15268813 0.2423724 -0.011073064
0.20151389 0.08297905 -0.13480909 -0.16052997 -0.09103545 0.191447 -0.25591683 0.10806026
-0.035313047 -0.18115269 0.40078846 -0.16973202 0.02289921 0.4013629 -0.20201805 -0.027883481
0.5412252 -0.16521439 0.44314033 0.2586752 -0.03856358 0.039188765 0.1630489 0.102327056
-0.116652586 0.19216037 -0.14249301 0.08476926 -0.14226975 0.10450256 -0.067518726 0.038662247
0.040916875 -0.030160718 -0.035463497 0.15195313 -0.074432075 -0.0479841 -0.16872011 -0.40299535
0.21362185 -0.06992797 0.28501385 0.5730223 -0.03534795 0.39003888 -0.10550577 -0.07077993
-0.1317478 -0.1495504 0.1152274 -0.15702824 -0.073229365 0.11373537 -0.12921733 0.3773005
-0.547615 0.27031547 0.3952493 -0.27164477 0.42941383 0.24271634 -0.09135256 0.112787254
0.1357542 -0.04432137 0.063062325 0.23727632 -0.2241214 0.20612441 -0.019538736 -0.02377158
0.09573213 0.41739765 -0.14921337 0.34212023 -0.18973294 -0.052096277 0.051724713 0.23959324
-0.1360481 0.21954831 0.08943068 -0.22457571 0.066005126 0.5461265 -0.038752373 0.3709721
0.0789242 -0.28968096 0.11399449 0.021449665 -0.0459547 -0.118506156 -0.056904275 -0.031388234
0.04006303 0.040285774 0.00371902 0.06315523 0.16248596 -0.23719221 0.02998645 0.15387027
-0.12224022 0.1667652 -0.059236933 -0.087572776 -0.033206157 0.18087372 0.14384057 0.05951178
0.078131355 0.105176374 -0.06529228 0.07709376 0.14497183 0.017001651 0.017168636 -0.008493151
0.09428158 0.016150724 -0.011510179 0.031411007 -0.058520406 0.049075503 -0.03593787 0.21172367
-0.16070591 0.2293697 0.20989956 0.051998872 0.0013305116 0.21565808 -0.04409346 0.06011707
-0.040457103 0.116343476 -0.09018686 -0.02936085 0.052378353 -0.10949019 0.17716074 0.1484919
0.055949654 0.118728854 0.11304536 0.026827734 -0.08963723 0.050067212 -0.007278241 0.016242664
0.14564438 -0.12310483 0.22335081 -0.08341753 0.028486045 0.14327936 -0.058656424 -0.022539008
0.23355694 -0.057132736 0.36950588 0.22147138 0.00014472479 0.23907065 0.10005578 0.017587343
0.015651876 0.18482757 -0.10029234 0.1641736 0.013461301 0.1017132 -0.15380725 -0.08503297
00000000: a4c4 d03e 16e3 3dbe 2ad4 5a3e 0e95 bf3e
00000010: 2da6 57bd 19a9 923e 94b8 22bc 5b1e db3c
00000020: b616 f03d e1c6 023e 712e fabe cdec 01be
00000030: 173d 8ebd e869 b53d c6f5 87be a832 3b3f
00000040: 8d94 aebd 6e40 083f 6121 133f d1e7 c3bd
00000050: 04e4 603e c1a2 9b3e fb7d 60be fdbf 26be
00000060: fa4b df3d 7825 00bf 6f7d 983d 7113 4bbd
00000070: 893b de3d 1c28 813d 1b64 e53d fd73 2f3c
00000080: 00e4 533d 544e 063e 0f55 93bc 65fc a33d
00000090: 155d a93d b344 e1bd f683 823e 6d46 ce3d
000000a0: 0d40 8bbd cdb7 e2bd 7ab8 babd e20a 2dbd
000000b0: 5c9d 2a3d 49a0 bcbe 75a4 313d b166 15bf
000000c0: 4e61 25bf 8dc1 79be 4235 41be 1128 03be
000000d0: 63a1 833d 0a51 cabe 4540 7abd 9691 c63b
000000e0: c4b3 c43d 569f c0bd 545e 95ba 0a74 98bc
000000f0: 5e1b a3bc bd89 a93d 7896 5b3b 525d c6bc
00000100: 880c 9cbd e5bc 92bc fe31 a93d 1d7c e03b
00000110: 7b28 89bc 07e1 de3d ea52 4cbe 0492 e63d
00000120: 08c1 d53c 949d 313e 3afa 66be f6ae 133e
00000130: 16b5 e03c 475a 1c3e 7830 783e cc6b 35bc
00000140: a859 4e3e ecf0 a93d 650b 0abe f861 24be
00000150: cb70 babd af0a 443e 8807 83be b34e dd3d
00000160: 6aa4 10bd 1780 39be 2534 cd3e 3bce 2dbe
00000170: 2097 bb3c 707f cd3e d2dd 4ebe e66b e4bc
00000180: bc8d 0a3f f62d 29be 4ae3 e23e 1371 843e
00000190: d8f4 1dbd 6684 203d 4af6 263e d990 d13d
000001a0: 8de7 eebd b0c5 443e b0e9 11be 819b ad3d
000001b0: 29af 11be 7005 d63d 4247 8abd 4e5c 1e3d
000001c0: 7498 273d 9c13 f7bc 2c42 11bd 9a99 1b3e
000001d0: d86f 98bd fa8a 44bd f7c4 2cbe 6855 cebe
000001e0: b0bf 5a3e 6536 8fbd 56ed 913e 97b1 123f
000001f0: 03c9 10bd 2db3 c73e 6913 d8bd 11f5 90bd
00000200: e5e8 06be bd23 19be 58fc eb3d 03cc 20be
00000210: 47f9 95bd 17ee e83d 8c51 04be 882d c13e
00000220: 7f30 0cbf ca66 8a3e 1e5e ca3e 0615 8bbe
00000230: 21dc db3e a28a 783e 0d17 bbbd 01fd e63d
00000240: 2603 0b3e 538a 35bd d226 813d 90f8 723e
00000250: 1580 65be 4712 533e b30f a0bc 9ebc c2bc
00000260: 350f c43d 25b5 d53e 64cb 18be 622a af3e
00000270: 5a49 42be e862 55bd 4bdd 533d ee57 753e
00000280: 3150 0bbe 46d1 603e 6f27 b73d 2df7 65be
00000290: b22d 873d f2ce 0b3f cfba 1ebd 0ef0 bd3e
000002a0: 03a3 a13d 1051 94be f175 e93d 35b7 af3c
000002b0: ff3a 3cbd 5bb3 f2bd 7514 69bd f390 00bd
000002c0: 2219 243d b202 253d cdba 733b 8757 813d
000002d0: b862 263e 84e2 72be 25a6 f53c 2b90 1d3e
000002e0: 1559 fabd 7fc4 2a3e 6da2 72bd 5b59 b3bd
000002f0: 2e03 08bd f636 393e f14a 133e a0c2 733d
00000300: 5503 a03d b666 d73d f5b7 85bd 55e3 9d3d
00000310: 7f73 143e 0c47 8b3c 3da5 8c3c db26 0bbc
00000320: b316 c13d 864e 843c 3195 3cbc d4a8 003d
00000330: 18b3 6fbd 6503 493d 9733 13bd 17ce 583e
00000340: 1790 24be e4df 6a3e e9ef 563e c5fc 543d
00000350: 9064 ae3a 79d5 5c3e 589b 34bd 513d 763d
00000360: 59b6 25bd 7d45 ee3d e3b3 b8bd 2a86 f0bc
00000370: af8a 563d 653c e0bd a069 353e 430e 183e
00000380: 772b 653d 1d28 f33d 5384 e73d d6c5 db3c
00000390: b993 b7bd 4713 4d3d 507e eebb 560f 853c
000003a0: cd23 153e 631e fcbd 13b6 643e cfd6 aabd
000003b0: 915b e93c d3b7 123e b841 70bd baa3 b8bc
000003c0: 8d29 6f3e 0404 6abd e02f bd3e 65c9 623e
000003d0: 44c1 1739 f0ce 743e 0bea cc3d 5513 903c
000003e0: 5d38 803c 7043 3d3e 1266 cdbd 201d 283e
000003f0: ca8c 5c3c 034f d03d a67f 1dbe c425 aebd

conv2.bias f4 [32]
0.53023845 0.16491364 -0.11871047 -0.22148071 -0.11365866 0.13588937 -0.009676454 0.07774753
-0.10796779 0.021696825 -0.007523208 -0.03889733 -0.04753403 0.13107507 -0.03156139 -0.10800331
0.011348252 0.14000043 0.06663231 -0.1653565 0.06670764 0.06445586 -0.11759464 -0.17603494
0.019501338 -0.16221824 -0.04744925 -0.0139795765 -0.08303077 -0.08272413 -0.07504395 -0.10050571
00000000: b5bd 073f 1fdf 283e 7a1e f3bd d7cb 62be
00000010: dfc5 e8bd 9526 0b3e fd89 1ebc 193a 9f3d
00000020: 371e ddbd 8abd b13c 3e85 f6bb cf52 1fbd
00000030: 0bb3 42bd 8b38 063e 8446 01bd d730 ddbd
00000040: 05ee 393c 465c 0f3e 8576 883d 3753 29be
00000050: 049e 883d 6f01 843d 75d5 f0bd 8142 34be
00000060: 45c1 9f3c 8a1c 26be 255a 42bd 980a 65bc
00000070: 090c aabd 456b a9bd a4b0 99bd f0d5 cdbd

fc1.weight f4 [256, 32]
0.030473405 0.06819627 -0.15654516 -0.006625416 0.014275979 0.019241437 0.061943315 -0.087749794
0.047497164 -0.19015288 -0.029544104 0.10775375 0.10438879 -0.15358645 -0.1034077 0.089490846
-0.07820695 0.12774375 0.06873898 -0.079474464 -0.047132883 -0.03265441 0.08224557 -0.049121786
-0.103980176 -0.025292788 0.08387349 -0.07795494 -0.16436411 0.0050496063 -0.1238808 0.025660638
0.12590621 -0.18644492 -0.12002467 -0.05733151 0.0620838 0.104237355 -0.1149418 -0.116233096
-0.0497557 0.14194383 -0.14205761 0.10586452 -0.100743674 0.095056504 0.10121193 0.14829014
-0.008664943 0.114218146 -0.12494651 -0.05805392 -0.095006965 0.06524717 -0.10618485 -0.079126835
-0.06610992 0.07406708 0.087051824 0.05867181 0.11486185 0.09849957 0.03664765 -0.07550196
-0.114452645 -0.11303733 -0.23964977 0.025896596 0.1927612 0.0028234662 -0.07555429 0.121713854
0.11729445 0.19068645 0.26636174 0.119129635 -0.10354137 -0.18757093 -0.21470556 -0.04103452
-0.170453 0.019771352 0.13335979 0.13380726 0.15133293 -0.060774412 -0.012813011 0.03683618
0.045521382 0.010353656 -0.011290238 0.21650909 -0.044287585 -0.27372503 -0.104743265 -0.016819557
-0.13901018 -0.14142111 0.0064841257 -0.16517542 0.16308972 -0.13521422 0.036565762 -0.16894977
-0.1487876 0.07855379 0.07381439 -0.093107164 0.09869022 -0.14427552 -0.1457491 -0.1210337
-0.04219349 0.08319674 0.003929455 0.11907754 0.083770156 -0.060616538 -0.045532074 -0.09315344
-0.040513773 -0.18257746 -0.15461794 -0.008853809 -0.062338274 0.100499876 -0.10033928 0.031562593
-0.0011048476 -0.03736202 0.14449048 -0.10598846 -0.13627486 -0.20631854 -0.15267546 0.083566986
0.00021204473 0.046066497 0.0915473 0.07216177 0.09577514 0.01544345 -0.17279367 0.03102233
-0.18444215 0.024493072 -0.16511 0.07206144 -0.14605495 0.07311697 -0.15983434 -0.0062965862
-0.11831531 -0.09540896 0.101711504 0.123414636 0.14733401 -0.07615756 -0.17909792 0.007263763
-0.17266484 0.07064096 -0.10127395 0.0052913586 -0.012309616 -0.04121453 0.095230535 0.009438384
-0.05718882 -0.019557921 0.20894158 -0.15109992 -0.12265912 0.15254086 0.09263676 -0.0150259165
-0.14043723 -0.03793716 0.035972 0.05139732 0.089982174 -0.18437748 0.10775777 -0.001275479
0.072866306 0.044487447 0.052434303 -0.14493567 0.010224535 -0.029051729 0.026138851 -0.09443718
-0.027196132 -0.123726755 -0.10639693 0.13569774 -0.12540582 0.029535007 0.09550864 -0.01399935
0.0056797783 0.04844419 0.09245113 -0.18532358 0.030917272 0.055736348 -0.1225788 0.049264375
0.008310674 0.089881055 -0.056923885 -0.1067879 0.04354927 -0.07424595 0.14573616 -0.030393794
-0.15612336 0.07980765 0.158746 0.13975546 0.09316438 -0.029692482 -0.08298995 -0.19534388
0.044905126 0.0219509 -0.09078544 -0.21965903 0.0672862 -0.030012446 0.04922575 0.15653323
-0.17825165 -0.05024603 -0.09199284 -0.08055052 -0.022227205 0.17363137 -0.097782165 0.040512107
-0.0899609 -0.123276554 0.012392929 -0.09108095 0.047249187 -0.19357632 -0.0450099 -0.11467412
0.07806347 -0.07990804 -0.15838405 0.045439146 -0.08695716 -0.08515303 0.13991834 0.06972617
00000000: 5da3 f93c 7caa 8b3d 604d 20be 051a d9bb
00000010: cce5 693c 38a0 9d3c 46b8 7d3d 2ab6 b3bd
00000020: 638c 423d 70b7 42be 7a06 f2bc 00ae dc3d
00000030: cac9 d53d c445 1dbe 6bc7 d3bd fa46 b73d
00000040: f72a a0bd 42cf 023e 06c7 8c3d 82c3 a2bd
00000050: 690e 41bd a1c0 05bd 5e70 a83d ed33 49bd
00000060: 8ff3 d4bd d232 cfbc ddc5 ab3d d7a6 9fbd
00000070: 114f 28be 2b77 a53b 38b5 fdbd 4236 d23c
00000080: 8fed 003e 6beb 3ebe 7fcf f5bd 72d4 6abd
00000090: 954b 7e3d 657a d53d 9b66 ebbd 9e0b eebd
000000a0: a2cc 4bbd b959 113e 8d77 11be 7fcf d83d
000000b0: b352 cebd fcac c23d 3348 cf3d 5fd9 173e
000000c0: 68f7 0dbc 34eb e93d f5e3 ffbd f2c9 6dbd
000000d0: 0393 c2bd 4fa0 853d 7177 d9bd 400d a2bd
000000e0: a364 87bd 7bb0 973d 3a48 b23d da51 703d
000000f0: b13c eb3d 24ba c93d d91b 163d c6a0 9abd
00000100: 2666 eabd 1e80 e7bd c066 75be 1925 d43c
00000110: 3163 453e e709 393b 35bc 9abd 1d45 f93d
00000120: 1338 f03d 4f43 433e 9160 883e 3dfa f33d
00000130: 7f0d d4bd 9812 40be c6db 5bbe d013 28bd
00000140: 3b8b 2ebe 88f7 a13c 788f 083e c504 093e
00000150: 05f7 1a3e 97ee 78bd aaed 51bc 89e1 163d
00000160: a174 3a3d 61a2 293c b1fa 38bc 8fb4 5d3e
00000170: e666 35bd b025 8cbe a383 d6bd 2bc9 89bc
00000180: af58 0ebe b2d0 10be ca78 d43b bf23 29be
00000190: fe00 273e 9975 0abe fbc5 153d 2b01 2dbe
000001a0: c75b 18be cfe0 a03d 002c 973d f8ae bebd
000001b0: 191e ca3d f6bc 13be 413f 15be 84e0 f7bd
000001c0: 15d3 2cbd 0d63 aa3d a8c2 803b edde f33d
000001d0: b08f ab3d 0c49 78bd d77f 3abd 3bc7 bebd
000001e0: c5f1 25bd 96f5 3abe 2a54 1ebe 910f 11bc
000001f0: 6b56 7fbd e1d2 cd3d ae7e cdbd c747 013d
00000200: 89d0 90ba eb08 19bd 50f5 133e 7a10 d9bd
00000210: a38b 0bbe 2b45 53be f556 1cbe 2b25 ab3d
00000220: 5358 5e39 39b0 3c3d 277d bb3d 8dc9 933d
00000230: c225 c43d 8606 7d3c d3f0 30be 8b22 fe3c
00000240: 67de 3cbe b2a5 c83c 9912 29be f394 933d
00000250: 6e8f 15be 5abe 953d 9dab 23be 9853 cebb
00000260: 4c4f f2bd c665 c3bd 1f4e d03d d0c0 fc3d
00000270: bade 163e 7ff8 9bbd 7265 37be dc04 ee3b
00000280: 0dcf 30be 35ac 903d b768 cfbd 2263 ad3b
00000290: 46ae 49bc 91d0 28bd 3a08 c33d 74a3 1a3c
000002a0: d33e 6abd ef37 a0bc c8f4 553e f0b9 1abe
000002b0: b434 fbbd ac33 1c3e 57b8 bd3d 432f 76bc
000002c0: c7ce 0fbe ff63 1bbd 6057 133d ff85 523d
000002d0: 9348 b83d 73cd 3cbe 1bb0 dc3d f92d a7ba
000002e0: ee3a 953d 7838 363d 5ac5 563d 046a 14be
000002f0: cf84 273c e4fd edbc 2521 d63c 4868 c1bd
00000300: 6cca debc 7464 fdbd a2e6 d9bd 59f4 0a3e
00000310: 626a 00be 66f3 f13c 099a c33d 885d 65bc
00000320: 6f1d ba3b 6a6d 463d 0557 bd3d 77c5 3dbe
00000330: 3846 fd3c cc4b 643d 980a fbbd 71c9 493d
00000340: 7e29 083c 8f13 b83d 0529 69bd 9db3 dabd
00000350: b860 323d 430e 98bd dc3b 153e 68fc f8bc
00000360: cdde 1fbe 3172 a33d 508e 223e 0e1c 0f3e
00000370: f7cc be3d a63d f3bc a3f6 a9bd 3a08 48be
00000380: 70ee 373d 60d2 b33c b7ed b9bd 4cee 60be
00000390: 59cd 893d a9dc f5bc f1a0 493d 3f4a 203e
000003a0: 9a87 36be c8ce 4dbd be66 bcbd acf7 a4bd
000003b0: d415 b6bc 6ccc 313e 0442 c8bd 06f0 253d
000003c0: 6c3d b8bd 6b78 fcbd b60b 4b3c a688 babd
000003d0: 5d88 413d df38 46be 4d5c 38bd 44da eabd
000003e0: bedf 9f3d d4a6 a3bd 6e2f 22be 661e 3a3d
000003f0: 9816 b2bd b664 aebd c146 0f3e 98cc 8e3d

fc1.bias f4 [256]
-0.14594717 -0.13978368 -0.04141345 -0.0005850257 -0.13009588 -0.124306805 -0.08720836 -0.09786474
-0.17129721 -0.15339275 -0.040986374 -0.15834638 -0.0814481 -0.03059788 -0.14036314 -0.11446862
-0.14588125 -0.14989123 -0.13002872 -0.10076059 -0.095428504 -0.1350824 -0.18594588 0.005951061
-0.08532982 -0.19807132 -0.11979023 -0.039035674 -0.03160782 -0.07531363 -0.23403282 -0.029226504
-0.15946914 -0.049022626 -0.13045223 -0.12926602 0.013087638 -0.165193 -0.061116915 -0.15156771
-0.092751585 -0.17287752 -0.13517365 -0.064588465 -0.06177611 -0.11942136 0.08869599 -0.119980596
-0.10444024 -0.17492741 -0.082613744 -0.12856697 -0.063462004 -0.13454221 -0.0763725 -0.13667811
-0.06656392 -0.08082525 -0.0594855 -0.07574052 -0.12877263 -0.12655082 -0.21995533 -0.098637134
-0.14648648 -0.06883986 -0.008355657 -0.13725115 -0.07149042 -0.12117398 -0.0037127254 -0.11922789
-0.010207689 -0.09013111 -0.13064238 0.06269004 -0.10986102 -0.03852325 -0.06283685 -0.22041053
-0.05693137 -0.20772974 -0.0688933 -0.15654509 -0.22930518 -0.091293655 -0.2694455 -0.03807245
-0.20105466 0.045519833 -0.023983622 -0.18929137 -0.004035725 -0.22975516 -0.15667397 -0.10908816
-0.11994316 -0.12336702 -0.09291762 -0.023268979 -0.11641508 -0.05794464 -0.061525293 -0.06343766
-0.15930894 -0.14903219 -0.140695 0.043972235 -0.1502789 -0.17713068 -0.11221828 -0.06318911
-0.117441684 -0.04160271 -0.23908392 -0.050825216 -0.046789277 -0.07504287 -0.13400453 -0.11254562
-0.05044199 -0.11194545 -0.01591245 -0.054500625 -0.05747759 -0.06901553 -0.035648223 -0.13702257
-0.13820022 -0.1604388 -0.13762002 -0.14597818 -0.15613636 -0.14723228 -0.070190296 -0.12521805
-0.123581015 -0.17379577 -0.21362369 -0.19821806 -0.15992962 0.034488156 -0.08470093 -0.12478559
-0.15934066 -0.12775941 -0.20024484 -0.27169314 -0.02708248 -0.0712879 -0.2067784 -0.0126518635
-0.19690093 -0.14618553 -0.13247608 -0.18253769 -0.23808236 -0.06476533 -0.10679978 -0.15686749
-0.15136069 -0.058295425 -0.042373054 -0.07416855 -0.005773672 -0.1623458 -0.034570254 -0.14008112
-0.13032678 -0.13135217 5.657548e-05 -0.1168308 -0.007858431 -0.16790132 -0.0965615 -0.16274433
-0.095842175 -0.16556926 -0.13693206 -0.050720114 -0.14072874 0.03681368 -0.011415373 -0.19984868
-0.18086581 -0.12900092 -0.13394405 -0.17217673 -0.030043235 -0.24140638 -0.21441251 -0.09289555
0.012441351 -0.11474463 -0.21387953 -0.031821575 0.0069822418 -0.15492427 -0.067574956 -0.18632963
-0.09142468 -0.068913825 -0.11271825 -0.16299835 -0.048035882 -0.06343021 -0.15860496 -0.038987663
-0.116300955 0.003470883 -0.052695762 -0.110296026 -0.08081409 -0.19589068 -0.07045338 -0.13732332
-0.06078577 -0.14733253 -0.15799965 -0.0767178 0.026732842 -0.021427142 -0.05787431 -0.10313681
-0.16038476 -0.1610854 0.069207646 -0.10403436 -0.11699949 -0.133477 -0.18658921 -0.1423603
-0.13699952 -0.1800794 -0.0506803 -0.14324133 -0.089857645 -0.07802566 -0.01958361 -0.13846228
-0.07701142 -0.07828883 -0.16570948 -0.18365589 -0.06756627 -0.14873329 -0.15886031 -0.067652725
-0.17453854 -0.06830597 -0.07198889 -0.22712454 -0.10300534 -0.13661015 -0.1632246 -0.13448842
00000000: 2d73 15be 7423 0fbe 26a1 29bd 695c 19ba
00000010: db37 05be 9194 febd 4c9a b2bd 4f6d c8bd
00000020: 8968 2fbe fd12 1dbe 54e1 27bd 8e25 22be
00000030: 43ce a6bd 68a8 fabc 5bbb 0fbe 866e eabd
00000040: e561 15be 167d 19be 4026 05be 915b cebd
00000050: 0570 c3bd 0a53 0abe 9968 3ebe 1e01 c33b
00000060: 67c1 aebd 35d3 4abe 9554 f5bd dfe3 1fbd
00000070: 3477 01bd 083e 9abd 4da6 6fbe 6c6c efbc
00000080: e14b 23be f3cb 48bd 4595 05be 505e 04be
00000090: 886d 563c 5b28 29be bb55 7abd 9134 1bbe
000000a0: 8bf4 bdbd ce06 31be f66a 0abe f546 84bd
000000b0: f208 7dbd 3093 f4bd 3ea6 b53d 63b8 f5bd
000000c0: c4e4 d5bd 2c20 33be 6531 a9bd 0fa7 03be
000000d0: 5ef8 81bd 6fc5 09be 2f69 9cbd 59f5 0bbe
000000e0: aa52 88bd b587 a5bd 11a7 73bd d91d 9bbd
000000f0: f9dc 03be 8a96 01be f83b 61be 4402 cabd
00000100: 8d00 16be eafb 8cbd 2ae6 08bc 918b 0cbe
00000110: 9269 92bd 102a f8bd 3251 73bb c12d f4bd
00000120: 273e 27bc a996 b8bd 1ec7 05be a363 803d
00000130: d1fe e0bd 8eca 1dbd 9bb0 80bd 4cb3 61be
00000140: de30 69bd 1bb7 54be ee17 8dbd 5b4d 20be
00000150: face 6abe 2bf8 babd c3f4 89be dbf1 1bbd
00000160: 46e1 4dbe 0173 3a3d 4d79 c4bc 99d5 41be
00000170: 1d3e 84bb f044 6bbe 246f 20be 9d69 dfbd
00000180: c2a4 f5bd d9a7 fcbd 984b bebd 969e bebc
00000190: 086b eebd 5c57 6dbd f201 7cbd 9beb 81bd
000001a0: e221 23be e59b 18be 5a12 10be 3b1c 343d
000001b0: b6e2 19be bf61 35be b3d2 e5bd 4b69 81bd
000001c0: 4485 f0bd 9a67 2abd 6ad2 74be 1a2e 50bd
000001d0: 1da6 3fbd 14b0 99bd 7c38 09be 517e e6bd
000001e0: 439c 4ebd a843 e5bd d45a 82bc 0c3c 5fbd
000001f0: 9f6d 6bbd 0458 8dbd df03 12bd a54f 0cbe
00000200: 5c84 0dbe 124a 24be 43ec 0cbe 4e7b 15be
00000210: 36e2 1fbe 0fc4 16be eebf 8fbd 2939 00be
00000220: 0b18 fdbd 85f7 31be 2bc0 5abe adf9 4abe
00000230: 97c4 23be 7443 0d3d ae77 adbd 968f ffbd
00000240: 332a 23be 5dd3 02be fc0c 4dbe 5d1b 8bbe
00000250: 14dc ddbc 64ff 91bd b8bd 53be c349 4fbc
00000260: 66a0 49be a9b1 15be cfa7 07be 29eb 3abe
00000270: ddcb 73be afa3 84bd d8b9 dabd dfa1 20be
00000280: 4cfe 1abe 2fc7 6ebd 5e8f 2dbd aee5 97bd
00000290: 1231 bdbb fa3d 26be 8a99 0dbd 6d71 0fbe
000002a0: 6274 05be 2f81 06be 764b 6d38 fd44 efbd
000002b0: a6c0 00bc 53ee 2bbe 09c2 c5bd 73a6 26be
000002c0: e748 c4bd fd8a 29be eb37 0cbe e5bf 4fbd
000002d0: 321b 10be f1c9 163d 8b07 3bbc 22a5 4cbe
000002e0: e334 39be d118 04be a128 09be 194f 30be
000002f0: 3b1d f6bc 3c33 77be f48e 5bbe 0640 bebd
00000300: cfd6 4b3c 3cff eabd 3c03 5bbe 5757 02bd
00000310: 4acb e43b 78a4 1ebe bd64 8abd 32cd 3ebe
00000320: dd3c bbbd b122 8dbd d3d8 e6bd 0ae9 26be
00000330: 46c1 44bd b3e7 81bd 5769 22be 87b1 1fbd
00000340: 322f eebd c177 633b 83d7 57bd e2e2 e1bd
00000350: dc81 a5bd 9197 48be dd49 90bd 7c9e 0cbe
00000360: 80fa 78bd 57de 16be a9ca 21be 391e 9dbd
00000370: d5fe da3c f987 afbc 9d0d 6dbd 6439 d3bd
00000380: e73b 24be 92f3 24be bdbc 8d3d f70f d5bd
00000390: 6e9d efbd 32ae 08be 3e11 3fbe e6c6 11be
000003a0: 9a49 0cbe bc66 38be 2596 4fbd dbad 12be
000003b0: 4907 b8bd ebcb 9fbd cf6d a0bc 0ec9 0dbe
000003c0: 2ab8 9dbd e555 a0bd bfaf 29be 4a10 3cbe
000003d0: 2f60 8abd 8a4d 18be 47ac 22be 838d 8abd
000003e0: 3bba 32be 00e4 8bbd e96e 93bd 5693 68be
000003f0: 77f4 d2bd 88e3 0bbe 5924 27be 55b7 09be

fc2.weight f4 [5, 256]
0.042123698 -0.055743016 0.05696051 0.0013895035 -0.038602628 0.03496027 0.04956536 0.026709743
0.0110195875 0.039089054 -0.0091083795 0.0063428804 0.031213738 0.011798859 -0.042292014 0.0075466484
0.0039478764 0.013079472 -0.06207777 0.055029914 -0.045601726 0.046330296 -0.055486605 -0.050983675
-0.02489505 -0.0051212236 0.01762674 -0.022776015 0.049090438 -0.039463148 -0.031100735 0.049460128
-0.035118125 0.03280644 -0.024804205 0.05233662 -0.055909894 -0.026399538 0.06187228 -0.034300245
0.009617187 0.014051124 0.042102516 -0.05204071 -0.0032782555 0.0061606094 0.050961003 -0.04569637
0.050438218 -0.04497578 -0.033004493 -0.0017759204 -0.006461896 0.017610379 -0.061396733 -0.013463579
-0.052210018 -0.053653024 -0.020974651 -0.05270838 -0.021001883 0.008626811 0.03395915 0.04481394
0.03107503 -0.04018517 0.04681799 0.045214668 -0.000187926 0.012844548 0.028731711 -0.0143066645
-0.0294298 0.011934742 -0.058124147 -0.040603913 0.061703525 0.058904357 -0.001946196 0.03505005
-0.05362931 0.021444231 -0.052898906 0.048687473 -0.035770185 -0.035162874 0.026760422 -0.06027525
-0.01170136 0.051902182 0.017540649 -0.013055779 0.020543672 0.027294248 -0.014216818 -0.0203726
0.04432717 0.01575762 0.054974675 -0.014121883 0.03317368 -0.009789631 0.037197508 -0.03404072
0.038713023 -0.054096214 0.009503387 0.0019484013 0.039647564 0.018130496 0.01517313 -0.009725437
-0.051609986 -0.048462234 -0.059027314 -0.003032498 -0.021099761 -0.02810014 -0.015113197 0.015859425
-0.013955392 -0.015273944 -0.02666556 0.040667422 0.00051584095 0.027448758 0.054821722 -0.022273459
-0.0028099045 -0.047223926 0.042682737 0.010461129 -0.058139183 0.03617467 0.0066709146 -0.04070647
-0.013405733 0.036429957 0.03018327 0.015490286 0.02862022 0.02423878 -0.014782555 -0.020669542
-0.047167704 -0.04221715 -0.0068895817 -0.025856912 -0.059538625 -0.05355724 -0.023841716 -0.04993008
-0.055813856 0.046051085 0.022046395 0.004430622 0.006732397 0.018800497 0.04279592 0.0046172887
0.021397628 0.061191708 0.033837892 0.028548598 0.037149742 -0.04798922 -0.04485845 -0.029215582
-0.0493685 -0.018049732 0.0505258 -0.00078394264 -0.04310555 -0.049140967 -0.03190638 0.059452295
0.015242457 -0.03507358 0.010839798 -0.04982456 0.0494435 -0.048851572 0.061413005 -0.026906267
0.05616612 -0.04134731 -0.0044836476 -0.040328763 -0.0063190013 -0.029148333 -0.03519153 -0.043648556
0.04779782 0.03628383 -0.057381064 0.050741673 0.032000132 -0.021092057 0.009902425 -0.05950039
0.04148075 -0.027222082 0.019802906 0.038345143 -0.05740671 0.039989218 -0.038650297 0.0021248162
0.039306037 0.037276834 0.004026212 0.049340114 -0.04504072 -0.028910853 0.014631607 0.033744343
0.041717127 -0.0578359 0.04700657 0.057906292 -0.053663194 0.04929617 0.05650775 -0.012783848
0.0075302273 -0.05474846 -0.05304189 -0.047639735 -0.0040666237 -0.04068567 -0.05816275 0.05353588
0.029459402 0.015954606 -0.038069673 0.05113007 0.028464705 -0.03832782 -0.05880654 -0.03019023
-0.01383888 0.060869038 0.027796961 0.0035567358 -0.05545514 0.052034974 -0.009223089 -0.016344108
0.02429802 -0.018030643 0.06020025 -0.060472757 -0.005449444 0.057305552 -0.028786786 -0.036118075
00000000: e689 2c3d ca52 64bd 6c4f 693d 0020 b63a
00000010: ca1d 1ebd 8032 0f3d 0c05 4b3d 64ce da3c
00000020: 808b 343c d81b 203d 503b 15bc f0d7 cf3b
00000030: f4b3 ff3c 0050 413c 643a 2dbd e049 f73b
00000040: 305d 813b 484b 563c 4245 7ebd 0c67 613d
00000050: e0c8 3abd d6c4 3d3d ec45 63bd 42d4 50bd
00000060: b4f0 cbbc f0cf a7bb f465 903c c494 babc
00000070: 0e13 493d 1ca4 21bd f8c6 febc b496 4a3d
00000080: 06d8 0fbd 0c60 063d 3032 cbbc ec5e 563d
00000090: c601 65bd d843 d8bc ca6d 7d3d 6a7e 0cbd
000000a0: 6891 1d3c b036 663c b073 2c3d a428 55bd
000000b0: 00d8 56bb f0de c93b 7cbc 503d 1e2c 3bbd
000000c0: 4e98 4e3d 8638 38bd b82f 07bd 00c6 e8ba
000000d0: 50be d3bb a443 903c 247b 7bbd 5896 5cbc
000000e0: 2cda 55bd 46c3 5bbd 08d3 abbc bee4 57bd
000000f0: 240c acbc 7857 0d3c c018 0b3d d28e 373d
00000100: 1091 fe3c 3499 24bd 38c4 3f3d 0433 393d
00000110: 000e 45b9 f071 523c c45e eb3c 8066 6abc
00000120: c416 f1bc f089 433c 9613 6ebd 4a50 26bd
00000130: d6bc 7c3d b245 713d 8017 ffba a490 0f3d
00000140: 68aa 5bbd d0ab af3c 86ac 58bd 846c 473d
00000150: c283 12bd f206 10bd ac38 db3c 2ee3 76bd
00000160: 10b7 3fbc 6297 543d 68b1 8f3c e8e7 55bc
00000170: 344b a83c 3098 df3c a8ed 68bc 70e4 a6bc
00000180: 6890 353d 2016 813c 202d 613d 785f 67bc
00000190: 20e1 073d b064 20bc 6a5c 183d 486e 0bbd
000001a0: 8c91 1e3d fe93 5dbd 18b4 1b3c 8061 ff3a
000001b0: 7c65 223d 6886 943c b898 783c 7057 1fbc
000001c0: fe64 53bd 5680 46bd a0c6 71bd e0bc 46bb
000001d0: 68d9 acbc 4432 e6bc 589d 77bc a0eb 813c
000001e0: 28a5 64bc 903f 7abc bc71 dabc e292 263d
000001f0: 8039 073a 38dc e03c be8c 603d d476 b6bc
00000200: 6026 38bb e06d 41bd 18d4 2e3d 2865 2b3c
00000210: 5a23 6ebd e42b 143d b097 da3b d4bb 26bd
00000220: b8a3 5bbc 9437 153d e842 f73c f8ca 7d3c
00000230: f474 ea3c 6890 c63c 8832 72bc 2c53 a9bc
00000240: ec32 41bd e4eb 2cbd 00c2 e1bb e0d1 d3bc
00000250: c6de 73bd d65e 5bbd b44f c3bc 7c83 4cbd
00000260: 129d 64bd 10a0 3c3d a49a b43c c02e 913b
00000270: 709b dc3b 8003 9a3c c64a 2f3d a04c 973b
00000280: 144a af3c 28a4 7a3d 9a99 0a3d c0de e93c
00000290: 542a 183d 5890 44bd 7ebd 37bd 8455 efbc
000002a0: a036 4abd 08dd 93bc 24f4 4e3d 8081 4dba
000002b0: 728f 30bd 0a48 49bd 44b0 02bd 4084 733d
000002c0: 80bb 793c 50a9 0fbd 6899 313c d614 4cbd
000002d0: 4485 4a3d 9618 48bd 348c 7b3d 886a dcbc
000002e0: 720e 663d cc5b 29bd 90eb 92bb c62f 25bd
000002f0: a00f cfbb 7cc8 eebc fe24 10bd d4c8 32bd
00000300: a6c7 433d 5a9e 143d 6808 6bbd 80d6 4f3d
00000310: 9212 033d 40c9 acbc c83d 223c aeb6 73bd
00000320: b8e7 293d d800 dfbc b439 a23c cc0f 1d3d
00000330: 4c23 6bbd bccb 233d c64f 1ebd 8040 0b3b
00000340: 5eff 203d 98af 183d 50ee 833b dc18 4a3d
00000350: 9e7c 38bd 74d6 ecbc 68b9 6f3c 8237 0a3d
00000360: 94df 2a3d 56e5 6cbd f689 403d 262f 6d3d
00000370: f0cd 5bbd c8ea 493d ac74 673d 5873 51bc
00000380: 20c0 f63b ec3f 60bd 7442 59bd e221 43bd
00000390: 5041 85bb 04a6 26bd 103c 6ebd 7048 5b3d
000003a0: d854 f13c 3cb3 823c f2ee 1bbd c46d 513d
000003b0: d02e e93c a2fd 1cbd 20df 70bd 8051 f7bc
000003c0: 78bc 62bc d051 793d 74b6 e33c 2018 693b
000003d0: ee24 63bd a022 553d 701c 17bc 14e4 85bc
000003e0: a40c c73c 00b5 93bc 8a94 763d 48b2 77bd
000003f0: 4091 b2bb 3ab9 6a3d 44d2 ebbc 8cf0 13bd

fc2.bias f4 [5]
-0.020561717 0.048897147 -0.031730488 -0.051509894 0.069046445
00000000: 0c71 a8bc 6048 483d d4f7 01bd 0afc 52bd
00000010: 3968 8d3d
