Models/Torch2/my_model16300.pth (torch_old, 60054 bytes, 8 tensors)

conv1.weight f4 [16, 2, 3, 3]
0	0x3e272c0f	0.16325401
1	0xbea0f644	-0.31437886
2	0xbd38bc86	-0.045101665
3	0xbdac9993	-0.084277295
4	0xbcddd37b	-0.02707838
5	0xbe62563b	-0.22103207
6	0xbe2dd339	-0.16975106
7	0xbe5538f2	-0.20822504
8	0xbe37a75a	-0.17934933
9	0xbe2bd9a6	-0.16782245
10	0x3ef3a96f	0.47590205
11	0x3ebe5a93	0.37178478
12	0xbd4d71a0	-0.05015719
13	0xbe6b5293	-0.22980718
14	0x3dc9a731	0.09846342
15	0x3e05bcf4	0.13060361
16	0x3cbd4225	0.02310283
17	0xbd05c7f5	-0.032661397
18	0xbe82aec9	-0.25523975
19	0xbe7a3b77	-0.24436747
20	0xbd84b943	-0.06480648
21	0x3f007e5e	0.5019282
22	0x3e4f25af	0.20229219
23	0x3ec8d33b	0.39223656
24	0x3ecf0b60	0.40438366
25	0x3eec266b	0.4612306
26	0x3e0b82c4	0.13624102
27	0xba3cb1ce	-0.0007198126
28	0xbe99810c	-0.29981267
29	0x3e558dea	0.20854917
30	0xbc55e095	-0.013054033
31	0x3e837bec	0.25680482
32	0xbf0e6738	-0.5562625
33	0xbcc1b185	-0.023644218
34	0x3e8255d3	0.25456104
35	0xbee75678	-0.45183158
36	0x3ee386a1	0.4443865
37	0x3e638d36	0.22221836
38	0x3eb5f188	0.35535836
39	0xbea5d522	-0.3238917
40	0xbea8efc8	-0.3299544
41	0xbe6169f2	-0.22013071
42	0x3e459a7a	0.1929721
43	0x3e5b46a8	0.21413672
44	0x3e814f41	0.25255778
45	0xbe2901e1	-0.16504623
46	0x3dc31914	0.09526268
47	0xbef277c3	-0.47356996
48	0x3ccadeb6	0.0247644
49	0xbebd1b23	-0.36934766
50	0x3e292f0b	0.16521852
51	0x3cd927dc	0.026508264
52	0x3d88885b	0.06666633
53	0xbec0f249	-0.3768485
54	0x3e8ba381	0.2727318
55	0xbe5b824b	-0.21436422
56	0xbdb60793	-0.088881634
57	0x3ea6b07f	0.3255653
58	0x3e5cf81e	0.21579024
59	0xbd9c55d0	-0.07633555
60	0x3d32158a	0.043477573
61	0x3ebb003d	0.3652362
62	0x3ec96bad	0.39339963
63	0xbdc913ea	-0.098182514
64	0xbd99a282	-0.07501699
65	0x3ecdba03	0.40180978
66	0xbdafab2e	-0.08577572
67	0x3dbcedbb	0.09225031
68	0x3e693943	0.2277575
69	0xbe10782e	-0.14108345
70	0x3e9b01d3	0.3027483
71	0xbe23a842	-0.15982154
72	0xbe30ad89	-0.17253698
73	0xbdeb5d80	-0.11492443
74	0x3ed5c7e2	0.4175406
75	0xbe1e7eea	-0.15478101
76	0x3e68cd53	0.22734575
77	0xbda49447	-0.08036094
78	0xbe270fda	-0.1631464
79	0x3ea012f3	0.31264457
80	0xbdc927f6	-0.09822075
81	0x3d5a54ab	0.053303402
82	0xbe2e1678	-0.17000759
83	0x3e2be37a	0.16785994
84	0x3bb3d05f	0.0054874863
85	0x3d58418a	0.052796878
86	0xbe126a8a	-0.14298454
87	0x3e0d4995	0.137976
88	0x3d6b1bcf	0.057399567
89	0xbe7a717d	-0.24457355
90	0x3e958d34	0.29209292
91	0xbe01f36b	-0.12690513
92	0xbdead995	-0.11467282
93	0x3f0a6cff	0.54072565
94	0x3ead4139	0.33838823
95	0x3ef26782	0.47344595
96	0xbe5a1ddf	-0.21300457
97	0x3ed0e4e4	0.4079963
98	0xbe6b8a82	-0.23002055
99	0xbe92ca91	-0.2867017
100	0xbec6fc02	-0.38864142
101	0xbe977b3a	-0.29586202
102	0xbd27681d	-0.040870775
103	0xbef3103b	-0.4747332
104	0x3e257781	0.16158868
105	0xbe21798e	-0.15769026
106	0xbd7c1314	-0.06154163
107	0x3c16d45c	0.009205904
108	0x3e0bcffa	0.13653556
109	0xbdab38e6	-0.08360462
110	0xbd0014c4	-0.031269804
111	0xbdb91f54	-0.090391785
112	0x3db61155	0.088900246
113	0xbe2aa890	-0.16665864
114	0x3d8598db	0.065232955
115	0x3e6fa0c5	0.23401172
116	0x3e0d0975	0.13773139
117	0x3cf69dbe	0.030104514
118	0xbddb9b16	-0.1072294
119	0x3da7600b	0.081726156
120	0x3e56c744	0.20974451
121	0x3e2e283e	0.17007539
122	0xbe57a846	-0.21060285
123	0xbdbcb8c6	-0.0921493
124	0xbe401b3a	-0.18760386
125	0xbe1a20ef	-0.15051626
126	0xbdac124b	-0.084019266
127	0x3dd3d356	0.103430435
128	0xbd65e85a	-0.05612979
129	0xbe26db61	-0.16294624
130	0x3e992419	0.29910353
131	0xbcf8106f	-0.030281274
132	0xbd8a27f5	-0.067459024
133	0xbdf10515	-0.117685474
134	0x3e72fd01	0.23729326
135	0xbd9f2c70	-0.07772148
136	0xbe7bc9ca	-0.24588695
137	0xbe11c12c	-0.14233845
138	0x3dfbddfa	0.12298198
139	0xbe53b854	-0.20675784
140	0xbe967ff4	-0.29394495
141	0xbc938f19	-0.01801257
142	0xbdf5341a	-0.11972828
143	0xbe14e782	-0.14541438
144	0xbd8d420d	-0.06897364
145	0x3dba8d3f	0.09108972
146	0xbdd7ce03	-0.105373405
147	0xbdc0603b	-0.093933545
148	0xbdb78712	-0.089613095
149	0xbdc2f6be	-0.095197186
150	0xbcc0e8af	-0.023548452
151	0xbe81de24	-0.25364792
152	0xbd733b1d	-0.059382547
153	0xbc21eee4	-0.009883616
154	0xbe0e3e63	-0.13890986
155	0x3f0a4563	0.54012126
156	0x3e654366	0.22388992
157	0x3eab8e90	0.33507204
158	0x3e9cfb2e	0.30660385
159	0x3e5ecabb	0.21757023
160	0x3eac80d5	0.3369204
161	0xbc993f94	-0.018707074
162	0xbe9ccad4	-0.30623496
163	0x3e48d906	0.19614038
164	0x3e2978a7	0.16549931
165	0x3e82bf95	0.2553679
166	0xbdbf7fca	-0.09350546
167	0x3e95aef1	0.29235032
168	0xbe42e5cc	-0.19032973
169	0x3e4c5f56	0.19958243
170	0x3d6903bd	0.05688833
171	0xbdf5b7a1	-0.11997915
172	0xbe34ce86	-0.17656907
173	0x3eb1f92f	0.34760424
174	0x3c21e274	0.009880651
175	0x3e3151d9	0.17316379
176	0xbe70b4ee	-0.23506519
177	0x3d258843	0.040413152
178	0xbc164f73	-0.009174216
179	0x3e741fdb	0.23840277
180	0x3d029320	0.03187859
181	0x3dd4f7bd	0.10398815
182	0xbbf5e3cf	-0.0075039635
183	0x3ebcdd3e	0.36887544
184	0x3c478e52	0.012179928
185	0xbe6fc4d7	-0.23414932
186	0x3eabf819	0.3358772
187	0xbe1de56e	-0.15419552
188	0xbdaf7626	-0.08567457
189	0x3e43df15	0.19128068
190	0xbdf692dd	-0.12039731
191	0xbcff8e3b	-0.03119575
192	0x3c5feaef	0.013666852
193	0x3e900f57	0.28136703
194	0x3e8f9e4b	0.28050455
195	0x3de59a5b	0.112110816
196	0x3e899304	0.26869977
197	0x3ec3cbaa	0.3824132
198	0x3d82d9f5	0.06389228
199	0xbc7042a0	-0.014664322
200	0x3e696c4a	0.22795215
201	0x3e487f0b	0.19579713
202	0xbe4ee92e	-0.20206138
203	0x3e9dc8f6	0.30817384
204	0xbe5da21b	-0.2164387
205	0xbce22b87	-0.027608646
206	0x3e188feb	0.1489865
207	0x3e5f5237	0.21808706
208	0x3eaa8fdf	0.3331289
209	0xbe0a2166	-0.13489303
210	0xbd8ba9fc	-0.06819531
211	0x3e870b34	0.26375735
212	0x3ec23b9a	0.37936097
213	0x3e576b82	0.21037105
214	0xbde2b076	-0.110688135
215	0x3dd674cf	0.10471498
216	0xbe1056d4	-0.14095622
217	0xbdb2242a	-0.08698304
218	0x3c35a946	0.011087721
219	0x3ec15474	0.37759745
220	0x3c7d2449	0.015450546
221	0xbe34054b	-0.17580144
222	0x3e94666b	0.2898439
223	0x3b837bb3	0.004012549
224	0x3d348be9	0.04407874
225	0xbdc4a418	-0.09601611
226	0xbd84cf61	-0.06484867
227	0xbde9ccd1	-0.11416019
228	0xbe0fe40b	-0.14051835
229	0xbdf88179	-0.1213407
230	0x3f05748f	0.5213098
231	0xbe53b1ce	-0.20673296
232	0xbc7e1f1f	-0.01551035
233	0x3e62fe5e	0.22167346
234	0xbe2bee1b	-0.16790049
235	0x3cde5127	0.027138306
236	0xbe021049	-0.12701525
237	0xbe605e2d	-0.21910925
238	0x3f029daa	0.51021826
239	0x3e7732b4	0.24140435
240	0x3f21b741	0.6317025
241	0xbf0c0033	-0.54687804
242	0x3ea6d92f	0.32587573
243	0x3d061e6b	0.032743853
244	0xbdcdb6e4	-0.10044649
245	0xbe3b95be	-0.18318841
246	0xbd91e032	-0.0712284
247	0xbe3f009a	-0.18652573
248	0xbf209a6f	-0.62735647
249	0xbd173805	-0.03691866
250	0x3e819407	0.25308248
251	0x3eeec13b	0.46631798
252	0x3a8dca28	0.0010817694
253	0xbe640c32	-0.22270277
254	0x3dddd3a1	0.10831381
255	0x3d730ec5	0.059340257

conv1.bias f4 [16]
0	0xbe2e0a40	-0.16996098
1	0x3ca033b4	0.019555904
2	0x3e13650f	0.1439402
3	0xbe9c391b	-0.30512318
4	0xbe1aff64	-0.15136486
5	0xbd00358f	-0.031301077
6	0xbe94e518	-0.29081035
7	0xbca1a294	-0.019730844
8	0xbd2f0651	-0.042730633
9	0x3cbe4802	0.023227695
10	0xbea3d25d	-0.31996432
11	0xbe262d57	-0.16228233
12	0xbe920e38	-0.28526473
13	0xbd1f5f50	-0.038909256
14	0xbe504872	-0.20340136
15	0xbece8055	-0.40332285

conv2.weight f4 [32, 16, 3, 3]
0	0x3e2f895b	0.1714224
1	0xbdf02e4c	-0.117275804
2	0x3e06a77b	0.13149826
3	0x3e194002	0.14965823
4	0x3cf610dd	0.030037338
5	0x3e5a9180	0.21344566
6	0x3d21e5d7	0.039525833
7	0xbd2d28b7	-0.042275157
8	0x3e80a358	0.2512462
9	0x3d6663e3	0.056247603
10	0xbe886cf7	-0.26645634
11	0xbd17308b	-0.03691153
12	0xba3d61fb	-0.0007224378
13	0x3cf20cab	0.029547056
14	0x3dc19cf7	0.09453767
15	0x3ea55be3	0.32296667
16	0xbe75c9b8	-0.24002731
17	0x3eb34cf3	0.35019645
18	0x3e8a9105	0.27063766
19	0xbe10bfa7	-0.1413561
20	0x3eab959d	0.33512583
21	0x3da41270	0.08011329
22	0xbe876e86	-0.2645151
23	0xbd5fea73	-0.054666948
24	0x3e0d34d8	0.1378969
25	0xbe8ad5f8	-0.2711637
26	0x3dd9ce49	0.10635049
27	0x3a610aa3	0.0008584654
28	0x3ac6cee5	0.001516786
29	0x3c2f2bbe	0.010691581
30	0x3d569365	0.05238666
31	0x3e0b43fd	0.13600154
32	0x3e09f9f6	0.13474259
33	0x3df31fe7	0.11871319
34	0xbda9dd94	-0.08294216
35	0x3de7a299	0.1131031
36	0x3d7718fe	0.06032657
37	0xbc247a3a	-0.010038907
38	0x3e4ea9d4	0.20181972
39	0x3c8ed205	0.01743413
40	0x3c23d614	0.009999771
41	0xbda1bfde	-0.07897924
42	0x3d3fedb0	0.046857536
43	0xbd3cf433	-0.046131324
44	0xbd21817a	-0.03943012
45	0xbe84b17c	-0.2591666
46	0xbbc1be49	-0.0059125763
47	0xbedaccf4	-0.42734492
48	0xbe8222a1	-0.25417045
49	0x3c1aa9c1	0.009439887
50	0xbe8c8373	-0.27444038
51	0xbe56403d	-0.20922942
52	0x3db33009	0.08749396
53	0xbea3a8c9	-0.3196471
54	0xbd672175	-0.05642839
55	0x3bfeac95	0.007772038
56	0x3d85de95	0.06536595
57	0xbdac6503	-0.08417704
58	0xbd1379a0	-0.036004663
59	0xbb69c230	-0.0035668723
60	0xbc213c26	-0.009841001
61	0x3d760a32	0.060068317
62	0x3c0da928	0.008646287
63	0x3cdab0ed	0.026695693
64	0xbd87d00e	-0.0663148
65	0xbd4d721b	-0.050157648
66	0x3ddccb65	0.10780982
67	0xbd5eb34d	-0.054370213
68	0x3cef2fb3	0.02919755
69	0x3d534d1c	0.05158721
70	0xbe18fd47	-0.14940368
71	0x3de4dace	0.11174546
72	0x3cff71cc	0.031182192
73	0x3e9b9291	0.3038526
74	0xbd5c2f87	-0.053756263
75	0x3d9c3ea2	0.07629134
76	0x3e5c768b	0.21529596
77	0x3db89714	0.09013191
78	0x3e0fae87	0.1403142
79	0x3e0936a1	0.13399746
80	0x3dca7f54	0.09887567
81	0x3d35d00b	0.04438786
82	0x3d809055	0.06277529
83	0xbe2bad66	-0.16765365
84	0xbd0aa092	-0.033844538
85	0x3e0a2b10	0.1349299
86	0xbd9c78c0	-0.07640219
87	0x3dc90659	0.09815664
88	0x3d10f318	0.035388082
89	0xbdd2cf35	-0.10293428
90	0x3e2d30f2	0.16913202
91	0xbddaf07d	-0.10690401
92	0x3e1113f1	0.14167763
93	0x3e57895c	0.21048492
94	0xbe31b9b8	-0.17356002
95	0x3de8f84b	0.11375483
96	0x3e242468	0.16029513
97	0xbe31c17b	-0.17358963
98	0x3e6d5d6c	0.23180169
99	0x3d855485	0.065102614
100	0xbcbd59f7	-0.023114188
101	0x3dbb6125	0.09149388
102	0x3dec2d70	0.11532104
103	0x3d8463f4	0.06464377
104	0x3d76cdbd	0.0602548
105	0x3dfbbe9c	0.12292215
106	0xbdd30cb3	-0.103051566
107	0x3dc388af	0.09547555
108	0xbdc163f9	-0.094428964
109	0x3d5f8230	0.054567516
110	0x3c8a1968	0.016857818
111	0x3da68af1	0.0813197
112	0x3d990977	0.074725084
113	0x3ae3362d	0.0017334871
114	0xbd2aade4	-0.04166974
115	0x3daadd0f	0.08342945
116	0x3c5d188c	0.013494622
117	0x3d87c78a	0.06629856
118	0xbe6501a7	-0.22363912
119	0x3d626b1b	0.055277925
120	0x3e71b69c	0.23604816
121	0xbe8c4886	-0.2739908
122	0x3e413a58	0.18869913
123	0x3e84af9c	0.2591523
124	0xbe95ee25	-0.29283252
125	0x3eb492d2	0.35268265
126	0xbcbe496c	-0.02322837
127	0xbc90c63a	-0.017672647
128	0xbe14373c	-0.14474195
129	0xbd4c2494	-0.04983957
130	0x3d6a811b	0.05725203
131	0xbdd463ce	-0.10370599
132	0x3ce448bc	0.027866714
133	0xbcabad02	-0.02095652
134	0x3cd8fd04	0.026487835
135	0x3e11b04a	0.14227405
136	0xbee155c0	-0.44010735
137	0x3e9e8fa1	0.30968955
138	0x3e5fe403	0.21864323
139	0xbea549e8	-0.32282948
140	0x3eb5309f	0.35388657
141	0x3e69fa83	0.22849469
142	0xbe6b9dcb	-0.23009412
143	0x3ed01c14	0.40646422
144	0xbd2d1c8a	-0.042263545
145	0xbdb09a23	-0.08623149
146	0x3d034a04	0.03205301
147	0x3d403c14	0.046932295
148	0xbe35f262	-0.17768243
149	0x3e237461	0.15962364
150	0x3af911f2	0.001900254
151	0xbd883316	-0.06650369
152	0x3dd0308a	0.10165508
153	0x3e37229c	0.17884296
154	0xbe086eb2	-0.13323477
155	0x3ebb2aa4	0.3655597
156	0xbe4e7e75	-0.20165427
157	0xbda12693	-0.078686856
158	0x3e256df0	0.16155219
159	0x3de26d87	0.11056047
160	0xbe07cbfd	-0.13261409
161	0x3e2a3c8d	0.16624661
162	0x3cc99eab	0.024611792
163	0xbe05a40a	-0.13050857
164	0x3e12e14a	0.14343753
165	0x3e5f5c9e	0.21812674
166	0xbda29d27	-0.07940131
167	0x3ec419f4	0.3830105
168	0x3cb2b951	0.021816881
169	0xbe0a2853	-0.13491945
170	0x3c129bb2	0.0089482535
171	0x3d5609a2	0.05225528
172	0xbdbe74ee	-0.09299646
173	0xbc9add3b	-0.018904319
174	0xbda4dcd7	-0.08049934
175	0x3d499deb	0.049222868
176	0x3ce8242f	0.028337566
177	0x3d05bd2e	0.03265112
178	0xbd3a0156	-0.04541143
179	0x3ded6f5c	0.11593506
180	0x3ddd401f	0.10803246
181	0xbe2923b5	-0.16517527
182	0x3b6fd55e	0.0036595683
183	0x3e0a4b40	0.13505268
184	0xbd8ea41f	-0.06964897
185	0x3dabf841	0.0839696
186	0xbd4336ef	-0.04765981
187	0xbd9cd1f6	-0.07657234
188	0xbd516518	-0.0511218
189	0x3e3ea1be	0.18616387
190	0x3dbaa41a	0.09113331
191	0x3e0dae6f	0.13836072
192	0x3d067f29	0.032836113
193	0x3dc78698	0.097424686
194	0xbe0243f7	-0.12721239
195	0xbce36ecc	-0.027762793
196	0x3e383663	0.17989497
197	0xbd470110	-0.048584998
198	0x3d20a075	0.039215524
199	0x3ccc9309	0.024972456
200	0x3db92793	0.09040751
201	0x3d508686	0.05090954
202	0xbcbc339b	-0.022973826
203	0x3d486d22	0.048932202
204	0xbcce762c	-0.025202833
205	0x3d3ff70c	0.04686646
206	0xbcb02c6f	-0.021505563
207	0x3e151528	0.14558852
208	0xbdebe2b7	-0.11517852
209	0x3e160809	0.14651503
210	0x3e5ad7bb	0.21371357
211	0x3c29132a	0.0103195105
212	0x3c764cd5	0.015032967
213	0x3ddb31c8	0.107028544
214	0xbd815df2	-0.06316747
215	0x3cb4abe0	0.022054613
216	0xbd8496cd	-0.064740755
217	0x3e028c26	0.12748775
218	0x3b1deb90	0.0024096705
219	0xbcfd6a1e	-0.03093439
220	0x3d912311	0.070867665
221	0xbdd1fb2c	-0.10252985
222	0x3dfe739d	0.12424395
223	0x3cb50e6d	0.022101605
224	0xbdd8f340	-0.10593271
225	0xbc232c02	-0.009959223
226	0x3e160f93	0.14654379
227	0x3e0b6b26	0.13615093
228	0xbd8275a3	-0.06370094
229	0x3dbfc1db	0.09363147
230	0x3e2e88a8	0.17044318
231	0x3d0adfc5	0.03390481
232	0x3d843993	0.06456294
233	0xbdc7aedf	-0.09750151
234	0x3c73d662	0.014882656
235	0xbcdba418	-0.026811644
236	0x3dd0d259	0.10196371
237	0x3d5047cb	0.050849717
238	0x3d618db1	0.055066768
239	0x3da93a36	0.08263056
240	0x3d00c0d2	0.031433888
241	0xbbe9366e	-0.007117084
242	0x3e6f3830	0.23361278
243	0x3dc19edd	0.09454129
244	0xbd9d67e0	-0.07685828
245	0x3e6334fe	0.22188184
246	0x3db3ad55	0.08773295
247	0xbd0e5630	-0.034750164
248	0x3dd97865	0.106186666
249	0x3da1b578	0.078959405
250	0xbd400e33	-0.04688854
251	0x3dd87fbb	0.10571238
252	0x3d5d5139	0.054032538
253	0x3dc89355	0.09793726
254	0xbd733b87	-0.05938294
255	0xbd7825d2	-0.060582943

conv2.bias f4 [32]
0	0x3eafaf71	0.3431354
1	0x3e8a9bdf	0.27072045
2	0x3d12967e	0.03578805
3	0xbdc94b1c	-0.09828779
4	0x3b7d66de	0.003866605
5	0x3e11df36	0.14245304
6	0xbcc72284	-0.02430845
7	0x3dbaddcb	0.09124335
8	0xbd449277	-0.047991242
9	0x3e1c7484	0.15278822
10	0xbd4b8470	-0.04968685
11	0xbbfb99a9	-0.00767823
12	0x3c699b92	0.014258282
13	0x3e026ac5	0.12736042
14	0xbca6a0f1	-0.020340415
15	0xbd3ae9f3	-0.045633268
16	0x3ca64a96	0.020299237
17	0xbcab2528	-0.02089174
18	0x3d47affc	0.048751816
19	0xbe1b762d	-0.15181799
20	0x3c83a1a1	0.016068282
21	0x39c9bec6	0.00038479845
22	0xbe111710	-0.14168954
23	0xbe0dd4f7	-0.13850771
24	0xbdb98c69	-0.09059984
25	0x3d092f1c	0.033492193
26	0xbd8047ed	-0.06263719
27	0xbce22470	-0.027605265
28	0xbddd32c3	-0.10800698
29	0xbde2eb59	-0.11080045
30	0xbdd876b8	-0.10569519
31	0xbdb7571f	-0.08952164

fc1.weight f4 [256, 32]
0	0x3d0fdf5e	0.03512513
1	0x3da13115	0.0787069
2	0xbde80141	-0.11328364
3	0x3b7a2715	0.0038170267
4	0x3ccd1631	0.025034996
5	0x3d2e0a84	0.042490497
6	0x3d7c5688	0.06160596
7	0xbdb07824	-0.08616665
8	0x3d33435a	0.043765403
9	0xbe36567b	-0.17806427
10	0xbd07b6f4	-0.033133462
11	0x3e16402a	0.14672914
12	0x3dca82a0	0.09888196
13	0xbe1efec6	-0.15526876
14	0xbd9c299d	-0.076251246
15	0x3db6264b	0.088940226
16	0xbd95224a	-0.07281931
17	0x3e107f74	0.1411112
18	0x3d949a4e	0.07255994
19	0xbda788d0	-0.08180392
20	0xbd1e41cc	-0.038636968
21	0xbcf4f5bd	-0.029902333
22	0x3d8aa252	0.067692414
23	0xbd5e21ff	-0.05423164
24	0xbdd30267	-0.103031926
25	0xbca3054b	-0.019899985
26	0x3d9eedb5	0.07760183
27	0xbdb68eb1	-0.08913935
28	0xbe2edc76	-0.17076287
29	0x3b6c990b	0.0036101963
30	0xbdf3d822	-0.119064584
31	0x3cf67569	0.030085282
32	0x3dde6a7d	0.10860155
33	0xbe34aa85	-0.17643173
34	0xbde65603	-0.11246874
35	0xbd570ba7	-0.052501347
36	0x3d9bb00a	0.07601936
37	0x3df8cc13	0.12148299
38	0xbdd10800	-0.10206604
39	0xbddfa228	-0.10919601
40	0xbd1ea671	-0.03873295
41	0x3e1348e9	0.14383282
42	0xbe06d366	-0.1316658
43	0x3e0df60a	0.13863388
44	0xbdd4c524	-0.10389164
45	0x3dd3b329	0.103369065
46	0x3dee8759	0.11646909
47	0x3e206a62	0.15665582
48	0x3b8d1925	0.004305976
49	0x3deacc57	0.11464756
50	0xbdf06491	-0.117379315
51	0xbd59d0c0	-0.053177595
52	0xbda502f6	-0.080572054
53	0x3d932b34	0.07185975
54	0xbdd620bd	-0.10455463
55	0xbd9f1284	-0.077672035
56	0xbd83a37b	-0.06427666
57	0x3dac996f	0.08427703
58	0x3dd0f23e	0.10202454
59	0x3d6bb253	0.05754311
60	0x3e0a682e	0.13516304
61	0x3de46ba6	0.11153345
62	0x3d63c75a	0.05561004
63	0xbd99d6bb	-0.0751166
64	0xbd6ed9e5	-0.05831327
65	0xbd833454	-0.06406465
66	0xbe6f1d1f	-0.23350953
67	0x3d919bde	0.071098074
68	0x3de4b670	0.1116761
69	0x3d70c3f3	0.05878062
70	0x3d338729	0.04383007
71	0x3e0a990f	0.1353495
72	0xbb99615b	-0.004680795
73	0x3e270bf8	0.1631316
74	0x3e3bea31	0.18351056
75	0x3d18d547	0.037312772
76	0xbcb22161	-0.021744432
77	0xbe32c851	-0.17459227
78	0xbe0e35ad	-0.13887663
79	0xbc2e9155	-0.010654767
80	0xbe14a434	-0.14515764
81	0x3d248934	0.04016991
82	0x3e324705	0.17409904
83	0x3dc03bb3	0.09386387
84	0x3e095b7a	0.13413802
85	0xbe09eaab	-0.13468425
86	0xbd02f72f	-0.031974014
87	0x3def14c1	0.1167388
88	0x3dfce4f6	0.12348358
89	0xbcf27d1f	-0.029600678
90	0xbc94fa32	-0.018185709
91	0x3e3fbc6a	0.18724218
92	0xbcc1a6b8	-0.023639068
93	0xbe482113	-0.19543867
94	0x3d83a09b	0.064271174
95	0x3d0db1b4	0.0345933
96	0xbe12a702	-0.14321521
97	0xbe0051a0	-0.12531137
98	0x3cd3e108	0.02586414
99	0xbe236678	-0.15957057
100	0x3e25c37a	0.1618785
101	0xbe00e101	-0.12585832
102	0x3d2eeb72	0.042705007
103	0xbe2b8165	-0.16748579
104	0xbe139848	-0.1441356
105	0x3db098e3	0.08622911
106	0x3dce7d34	0.10082474
107	0xbdbf71ff	-0.09347915
108	0x3ddd7c2f	0.10814702
109	0xbe065e24	-0.1312185
110	0xbe0d3018	-0.13787878
111	0xbde38f00	-0.111112595
112	0xbd0087f2	-0.031379648
113	0x3dfe45e2	0.12415673
114	0x3c669853	0.014074403
115	0x3e0cb5e2	0.13741258
116	0x3dc234f5	0.09482757
117	0xbd3d9275	-0.04628225
118	0xbd0d7091	-0.03453118
119	0xbd99431f	-0.074835055
120	0xbcdf0b30	-0.027227014
121	0xbe323a3e	-0.1740503
122	0xbe171881	-0.14755441
123	0xbcc14f28	-0.023597315
124	0xbd7a9ac0	-0.061182737
125	0x3dcbaba4	0.09944847
126	0xbdd06042	-0.1017461
127	0x3d4e82b4	0.050417617
128	0x3bb439a5	0.005500036
129	0xbd3531a6	-0.0442368
130	0x3e0f90fb	0.1402015
131	0xbdea5c37	-0.1144337
132	0xbdf2efcb	-0.11862143
133	0xbe3d6068	-0.18493807
134	0xbe06afa4	-0.13152939
135	0x3dd907b4	0.105971724
136	0x3d32d19f	0.04365694
137	0x3dd71c4e	0.105034456
138	0x3d8efd0c	0.069818586
139	0x3e0687e3	0.13137774
140	0x3db75ed8	0.08953637
141	0x3d474e3f	0.048658606
142	0xbe1e0790	-0.15432572
143	0x3d409e06	0.047025703
144	0xbe225bee	-0.15855381
145	0x3ca20d18	0.019781634
146	0xbe2dc42b	-0.16969363
147	0x3d277ad2	0.040888615
148	0xbe0f2975	-0.13980658
149	0x3d087f7b	0.0333247
150	0xbe1dbf31	-0.15404965
151	0xbc6eabd8	-0.014567338
152	0xbdd687f1	-0.104751475
153	0xbdf2da79	-0.118580766
154	0x3ddacbf3	0.106834315
155	0x3e020d46	0.12700376
156	0x3e05f64e	0.13082239
157	0xbdb3bbe9	-0.087760754
158	0xbe2a5bbd	-0.16636558
159	0x3c415864	0.011800859
160	0xbe02fef1	-0.12792565
161	0x3ddf90f7	0.10916322
162	0xbde0107c	-0.10940644
163	0x3d1694f8	0.03676316
164	0xbb352b3b	-0.0027644176
165	0xbd17a601	-0.037023548
166	0x3dfd39f1	0.12364567
167	0x3d2395c1	0.03993774
168	0xbd47a9c6	-0.048745893
169	0xbce92c61	-0.028463544
170	0x3e0f2de2	0.13982347
171	0xbe2ee632	-0.1708
172	0xbe120bbc	-0.14262289
173	0x3e24023f	0.16016482
174	0x3db67cc8	0.08910519
175	0xbc042126	-0.008064544
176	0xbdba792f	-0.09105145
177	0xbccea9d8	-0.025227472
178	0x3d4f53b8	0.05061695
179	0x3d07dbde	0.033168666
180	0x3db4ae65	0.088223256
181	0xbe384415	-0.17994721
182	0x3d9888ad	0.07447944
183	0x3ba15dbc	0.004924504
184	0x3dc0ce7d	0.094143845
185	0x3d3b0def	0.045667585
186	0x3ca9ad1d	0.02071243
187	0xbe16bba7	-0.14720021
188	0xbd394d43	-0.0452397
189	0xbc88e413	-0.016710317
190	0x3c263375	0.010144104
191	0xbd926006	-0.07147221
192	0xbb9dfb95	-0.0048212507
193	0xbdb9af3b	-0.09066626
194	0xbdb09383	-0.08621886
195	0x3e160c15	0.14653046
196	0xbdb81c1b	-0.08989736
197	0xbbfdf45a	-0.0077500762
198	0x3d87141d	0.06595633
199	0x3cd0082f	0.025394527
200	0x3b81ed01	0.0039650206
201	0x3d18e466	0.037327193
202	0x3dd754b0	0.105142
203	0xbe2ae728	-0.16689742
204	0xba3a62c3	-0.00071100536
205	0x3e001478	0.12507808
206	0xbe0ee86d	-0.13955851
207	0x3d7af22e	0.061266117
208	0x3d8ee340	0.06976938
209	0x3de9d396	0.1141731
210	0xbd76d8df	-0.06026542
211	0xbdad801f	-0.08471703
212	0x3d6a57ea	0.057212748
213	0xbdb68f1c	-0.08914015
214	0x3e006ca4	0.12541443
215	0xbd4d7a18	-0.050165266
216	0xbe2f0393	-0.17091207
217	0x3d72a194	0.059236124
218	0x3e073db9	0.13207139
219	0x3e1495f0	0.14510322
220	0x3dba0a87	0.09084039
221	0xbcb58a07	-0.022160543
222	0xbd8dc076	-0.06921475
223	0xbe32a8f9	-0.1744727
224	0x3de0953a	0.10965963
225	0x3d856e39	0.06515164
226	0xbd4befc4	-0.049789205
227	0xbe35ce84	-0.1775456
228	0x3dc29431	0.095009215
229	0x3d287968	0.041131407
230	0x3e04b81a	0.12960854
231	0x3e39a65c	0.18129867
232	0xbe0e7554	-0.13911945
233	0xbcd4901d	-0.025947625
234	0xbdbb3dea	-0.091426685
235	0xbdb1bde5	-0.08678798
236	0xbc9e9b24	-0.019361086
237	0x3e3a5e87	0.18200122
238	0xbd8b111d	-0.067903735
239	0x3da405d7	0.08008926
240	0xbdb55ee9	-0.08855993
241	0xbd64a7e0	-0.05582416
242	0x3d608f21	0.054824
243	0xbd869e2c	-0.06573138
244	0x3d94101a	0.07229634
245	0xbe223358	-0.15839899
246	0x3c57000d	0.013122571
247	0xbdb91b78	-0.090384424
248	0x3dfd3fc4	0.12365678
249	0xbce87b6e	-0.028379168
250	0xbe173d9d	-0.14769597
251	0x3d05f419	0.032703493
252	0xbdc7d385	-0.09757141
253	0xbd99a23d	-0.075016476
254	0x3de61cda	0.11235972
255	0x3d92980f	0.07157909

fc1.bias f4 [256]
0	0xbe1a3d41	-0.15062429
1	0xbdda6245	-0.10663275
2	0xbca0ee9e	-0.019645032
3	0x3c732541	0.014840425
4	0xbdb5d01d	-0.08877585
5	0xbdba2ed6	-0.090909645
6	0xbd95d3b5	-0.073157705
7	0xbd24b699	-0.0402132
8	0xbe2eeb14	-0.17081863
9	0xbe0ec050	-0.13940549
10	0xbb915bcc	-0.004435992
11	0xbe0a6c94	-0.13517982
12	0xbd8d3f94	-0.06896892
13	0xbbb4f935	-0.005522872
14	0xbd256065	-0.040375132
15	0xbdd84e08	-0.10561758
16	0xbd6afded	-0.05737107
17	0xbe13d205	-0.14435585
18	0xbdcce4fb	-0.10004612
19	0xbdefd55d	-0.11710618
20	0xbe043c41	-0.1291361
21	0xbd99217d	-0.074770905
22	0xbe3d0ac2	-0.18461135
23	0x3c6bfe6c	0.014403921
24	0xbdb8073e	-0.08985756
25	0xbe2e589d	-0.17025991
26	0xbe0dc90a	-0.13846222
27	0xbd101fd6	-0.03518661
28	0x3d228d43	0.0396855
29	0xbc8a11ac	-0.01685413
30	0xbe2ce770	-0.16885161
31	0xbbf81c97	-0.0075717675
32	0xbe0d36cb	-0.13790433
33	0xb9b0729d	-0.0003365473
34	0xbde5060d	-0.11182795
35	0xbdeef3c9	-0.11667592
36	0x3c466a0c	0.0121102445
37	0xbdb871ed	-0.090061046
38	0xbe0940d8	-0.13403642
39	0xbd422382	-0.047397144
40	0xbdf53796	-0.11973493
41	0xbdd2911e	-0.10281585
42	0xbe05450f	-0.13014625
43	0xbd5c17f7	-0.053733792
44	0xbb6a82fb	-0.0035783637
45	0xbe095104	-0.13409811
46	0x3d91156f	0.07084166
47	0xbd98595e	-0.074389204
48	0xbd9b7bda	-0.07591982
49	0xbe39b8f2	-0.18136957
50	0xbc009d8d	-0.007850063
51	0xbdefa9e8	-0.11702329
52	0x3d0d0159	0.034425113
53	0xbdac556e	-0.08414732
54	0xbd0c39f2	-0.03423495
55	0xbde1cf42	-0.110258594
56	0xbb3ee6dc	-0.0029129302
57	0xbc0de191	-0.008659736
58	0xbd026c53	-0.031841587
59	0x3b1230ac	0.0022306843
60	0xbdc0cae5	-0.09413699
61	0xbe1fd37e	-0.15608022
62	0xbe2af28f	-0.16694091
63	0xbd2cc416	-0.04217919
64	0xbdd0d86b	-0.101975285
65	0xbe08d028	-0.13360655
66	0xbd769a4c	-0.060205743
67	0xbe0a0849	-0.13479723
68	0xbd323a43	-0.043512594
69	0xbd370a77	-0.044687714
70	0xbc27d86b	-0.010244469
71	0xbc6109f9	-0.013735288
72	0x3b937887	0.004500452
73	0xbd819c45	-0.06328634
74	0xbdb3e083	-0.087830566
75	0xbd766b3c	-0.06016086
76	0xbcb75c46	-0.022382867
77	0xbd7a0cf6	-0.061047517
78	0xbd287992	-0.041131563
79	0xbea8cf63	-0.32970724
80	0xbc4141d9	-0.011795484
81	0xbde55b45	-0.11199049
82	0x3d2def06	0.04246428
83	0xbe3976cc	-0.18111724
84	0xbe640489	-0.22267355
85	0xbdf25c29	-0.118339844
86	0xbe6aac42	-0.22917274
87	0xbc1546d1	-0.009111122
88	0xbe30be4f	-0.17260097
89	0xbca7baeb	-0.020474872
90	0xba8c7b25	-0.0010717852
91	0xbe1d97c0	-0.1538992
92	0xbcb449db	-0.022007873
93	0xbe27255e	-0.16322848
94	0xbdeb8920	-0.11500764
95	0xbd484861	-0.04889715
96	0xbd13216e	-0.035920553
97	0xbe070668	-0.13186038
98	0xbdb8c472	-0.09021844
99	0xbd0a960f	-0.033834513
100	0xbdd357c7	-0.103194766
101	0xbd724e92	-0.05915696
102	0xbd60d4ad	-0.054890323
103	0xbd7b2c84	-0.06132175
104	0xbe3ad864	-0.18246609
105	0xbe153794	-0.14571983
106	0xbdccf5b5	-0.100078024
107	0x3cf83a5e	0.03030127
108	0xbe1885e8	-0.14894831
109	0xbe25f90a	-0.16208282
110	0xbd38ee85	-0.045149345
111	0xbd9ea44e	-0.077461824
112	0xbbe8f6f8	-0.007109519
113	0xbd1a2aed	-0.037638593
114	0xbe08b6bb	-0.13350956
115	0xbb1b7fb9	-0.0023727252
116	0xbca60cc1	-0.020269753
117	0xbd4f09db	-0.05054651
118	0xbe007a6c	-0.125467
119	0xbde70069	-0.11279375
120	0xbb953a8c	-0.0045540985
121	0xbd6b0de2	-0.057386287
122	0xbbd3aa07	-0.006459478
123	0xbce0511a	-0.027382422
124	0xbd3a3417	-0.045459833
125	0xbe0ff68f	-0.14058898
126	0xbbab07cc	-0.0052194353
127	0xbd803ec3	-0.06261971
128	0xbdd19f6a	-0.10235484
129	0xbd27e714	-0.040991858
130	0xbd866193	-0.065615796
131	0xbdefba14	-0.117054135
132	0xbdc1d806	-0.09465031
133	0xbde8fdf6	-0.11376564
134	0xbd892a30	-0.066975
135	0xbd11c2f7	-0.035586324
136	0xbdaefe8f	-0.08544647
137	0xbe038480	-0.12843513
138	0xbe53ad23	-0.20671515
139	0xbe213082	-0.1574116
140	0xbe23ff84	-0.1601544
141	0x3cffc18b	0.031220218
142	0xbdd0a973	-0.1018857
143	0xbdc933fe	-0.0982437
144	0xbe199c6d	-0.15001078
145	0xbd55989b	-0.05214749
146	0xbe07d7f8	-0.1326598
147	0xbe4fce62	-0.20293573
148	0xbd193019	-0.037399385
149	0xbc06258c	-0.008187663
150	0xbdeb52a4	-0.11490372
151	0xba2f10fd	-0.00066782517
152	0xbe4eb0fe	-0.20184705
153	0xbe20e249	-0.15711321
154	0xbcce6108	-0.025192752
155	0xbdde31e7	-0.10849362
156	0xbda4ccf9	-0.08046908
157	0xbd81890b	-0.06324967
158	0xbde20a89	-0.11037166
159	0xbe200ba6	-0.15629444
160	0xbd5cba78	-0.053888768
161	0x3cc9619a	0.024582673
162	0xbcc764df	-0.024340091
163	0xbcf1789b	-0.029476454
164	0xbc09190f	-0.008367791
165	0xbdf1a067	-0.117981724
166	0xbcc4f09b	-0.02404051
167	0xbe1225c6	-0.14272222
168	0xbe13b1e8	-0.14423335
169	0xbd6878e3	-0.05675591
170	0xbd4b5df6	-0.049650155
171	0xbde88f4b	-0.11355456
172	0x3c58f59f	0.013242154
173	0xbe1ce547	-0.15321837
174	0xbd15426d	-0.0364403
175	0xbe06b1ab	-0.13153712
176	0xbdbac38d	-0.091193296
177	0xbe305a32	-0.17221907
178	0xbdbcccdf	-0.092187636
179	0xbccd1438	-0.025034055
180	0xbe0e57dd	-0.13900705
181	0x3a7d4820	0.00096619315
182	0xbd94e7f4	-0.07270804
183	0xbe346759	-0.17617549
184	0xbddd3d07	-0.10802656
185	0xbd854bcb	-0.06508597
186	0xbe11f7b6	-0.1425465
187	0xbe1e9247	-0.15485488
188	0xbd0a3966	-0.033746146
189	0xbe339cc8	-0.17540276
190	0xbe90b26c	-0.28261125
191	0x3c9c2156	0.019058865
192	0x3b8048b0	0.003914915
193	0xbdbc1678	-0.09183973
194	0xbe3412a4	-0.17585236
195	0x3d200edc	0.03907667
196	0x3d365009	0.04450992
197	0xbdf63558	-0.12021893
198	0xbd7721e8	-0.06033507
199	0xbdb414dc	-0.08793041
200	0xbdf11573	-0.11771669
201	0xbdb47a10	-0.08812344
202	0xbde4689f	-0.111527674
203	0xbdd1792d	-0.102281906
204	0xbcb20397	-0.021730227
205	0xbd0af00b	-0.03392033
206	0xbe1f189e	-0.15536734
207	0x3cf219c8	0.02955331
208	0xbddf6e1e	-0.10909675
209	0xbd3aa669	-0.045568857
210	0xbda62d11	-0.081140645
211	0xbd891d01	-0.06694985
212	0xbd6d8abe	-0.057993643
213	0xbe0c2f40	-0.136899
214	0xbdc72cde	-0.097253546
215	0xbe032167	-0.1280571
216	0xbdb76679	-0.08955092
217	0xbdf07514	-0.11741081
218	0xbe0fc467	-0.14039765
219	0xbd0d3968	-0.034478575
220	0xbcd3c30c	-0.025849842
221	0xbc9c1f3f	-0.019057868
222	0xbd4db162	-0.050217994
223	0xbda37227	-0.07980757
224	0xbe0946c2	-0.13405898
225	0xbe2fa778	-0.17153728
226	0xbdbfda71	-0.09367836
227	0xbda60688	-0.081067145
228	0xbdcdd369	-0.10050089
229	0xbd9968e7	-0.07490712
230	0xbe136d79	-0.14397229
231	0xbc9398fd	-0.018017286
232	0xbd9ad207	-0.07559591
233	0xbde1eebc	-0.11031863
234	0xbd0b28cd	-0.033974458
235	0xbe145a45	-0.1448756
236	0xbc1b7b8c	-0.009489905
237	0xbd852fa7	-0.065032296
238	0xbd35787d	-0.04430436
239	0xbdfac7da	-0.1224515
240	0xbd4e09aa	-0.050302185
241	0xbdc21184	-0.09475997
242	0xbe29b00f	-0.16571067
243	0xbe0abe6b	-0.13549201
244	0xbd460d62	-0.048352607
245	0xbde8a708	-0.11359984
246	0xbdc99cde	-0.09844373
247	0xbd871f87	-0.0659781
248	0xbe066ee0	-0.13128233
249	0xbca05f97	-0.01957683
250	0xbcb79dff	-0.022414206
251	0xbe54a4e4	-0.20766026
252	0xbd8860f8	-0.0665912
253	0xbe25a5b2	-0.16176489
254	0xbcca83e1	-0.024721088
255	0xbd36d645	-0.044637937

fc2.weight f4 [5, 256]
0	0x3d2c89e6	0.042123698
1	0xbd6452ca	-0.055743016
2	0x3d694f6c	0.05696051
3	0x3ab62000	0.0013895035
4	0xbd1e1dca	-0.038602628
5	0x3d0f3280	0.03496027
6	0x3d4b050c	0.04956536
7	0x3cdace64	0.026709743
8	0x3c348b80	0.0110195875
9	0x3d201bd8	0.039089054
10	0xbc153b50	-0.0091083795
11	0x3bcfd7f0	0.0063428804
12	0x3cffb3f4	0.031213738
13	0x3c415000	0.011798859
14	0xbd2d3a64	-0.042292014
15	0x3bf749e0	0.0075466484
16	0x3b815d30	0.0039478764
17	0x3c564b48	0.013079472
18	0xbd7e4542	-0.06207777
19	0x3d61670c	0.055029914
20	0xbd3ac8e0	-0.045601726
21	0x3d3dc4d6	0.046330296
22	0xbd6345ec	-0.055486605
23	0xbd50d442	-0.050983675
24	0xbccbf0b4	-0.02489505
25	0xbba7cff0	-0.0051212236
26	0x3c9065f4	0.01762674
27	0xbcba94c4	-0.022776015
28	0x3d49130e	0.049090438
29	0xbd21a41c	-0.039463148
30	0xbcfec6f8	-0.031100735
31	0x3d4a96b4	0.049460128
32	0xbd0fd806	-0.035118125
33	0x3d06600c	0.03280644
34	0xbccb3230	-0.024804205
35	0x3d565eec	0.05233662
36	0xbd6501c6	-0.055909894
37	0xbcd843d8	-0.026399538
38	0x3d7d6dca	0.06187228
39	0xbd0c7e6a	-0.034300245
40	0x3c1d9168	0.009617187
41	0x3c6636b0	0.014051124
42	0x3d2c73b0	0.042102516
43	0xbd5528a4	-0.05204071
44	0xbb56d800	-0.0032782555
45	0x3bc9def0	0.0061606094
46	0x3d50bc7c	0.050961003
47	0xbd3b2c1e	-0.04569637
48	0x3d4e984e	0.050438218
49	0xbd383886	-0.04497578
50	0xbd072fb8	-0.033004493
51	0xbae8c600	-0.0017759204
52	0xbbd3be50	-0.006461896
53	0x3c9043a4	0.017610379
54	0xbd7b7b24	-0.061396733
55	0xbc5c9658	-0.013463579
56	0xbd55da2c	-0.052210018
57	0xbd5bc346	-0.053653024
58	0xbcabd308	-0.020974651
59	0xbd57e4be	-0.05270838
60	0xbcac0c24	-0.021001883
61	0x3c0d5778	0.008626811
62	0x3d0b18c0	0.03395915
63	0x3d378ed2	0.04481394
64	0x3cfe9110	0.03107503
65	0xbd249934	-0.04018517
66	0x3d3fc438	0.04681799
67	0x3d393304	0.045214668
68	0xb9450e00	-0.000187926
69	0x3c5271f0	0.012844548
70	0x3ceb5ec4	0.028731711
71	0xbc6a6680	-0.0143066645
72	0xbcf116c4	-0.0294298
73	0x3c4389f0	0.011934742
74	0xbd6e1396	-0.058124147
75	0xbd26504a	-0.040603913
76	0x3d7cbcd6	0.061703525
77	0x3d7145b2	0.058904357
78	0xbaff1780	-0.001946196
79	0x3d0f90a4	0.03505005
80	0xbd5baa68	-0.05362931
81	0x3cafabd0	0.021444231
82	0xbd58ac86	-0.052898906
83	0x3d476c84	0.048687473
84	0xbd1283c2	-0.035770185
85	0xbd1006f2	-0.035162874
86	0x3cdb38ac	0.026760422
87	0xbd76e32e	-0.06027525
88	0xbc3fb710	-0.01170136
89	0x3d549762	0.051902182
90	0x3c8fb168	0.017540649
91	0xbc55e7e8	-0.013055779
92	0x3ca84b34	0.020543672
93	0x3cdf9830	0.027294248
94	0xbc68eda8	-0.014216818
95	0xbca6e470	-0.0203726
96	0x3d359068	0.04432717
97	0x3c811620	0.01575762
98	0x3d612d20	0.054974675
99	0xbc675f78	-0.014121883
100	0x3d07e120	0.03317368
101	0xbc2064b0	-0.009789631
102	0x3d185c6a	0.037197508
103	0xbd0b6e48	-0.03404072
104	0x3d1e918c	0.038713023
105	0xbd5d93fe	-0.054096214
106	0x3c1bb418	0.009503387
107	0x3aff6180	0.0019484013
108	0x3d22657c	0.039647564
109	0x3c948668	0.018130496
110	0x3c7898b8	0.01517313
111	0xbc1f5770	-0.009725437
112	0xbd5364fe	-0.051609986
113	0xbd468056	-0.048462234
114	0xbd71c6a0	-0.059027314
115	0xbb46bce0	-0.003032498
116	0xbcacd968	-0.021099761
117	0xbce63244	-0.02810014
118	0xbc779d58	-0.015113197
119	0x3c81eba0	0.015859425
120	0xbc64a528	-0.013955392
121	0xbc7a3f90	-0.015273944
122	0xbcda71bc	-0.02666556
123	0x3d2692e2	0.040667422
124	0x3a073980	0.00051584095
125	0x3ce0dc38	0.027448758
126	0x3d608cbe	0.054821722
127	0xbcb676d4	-0.022273459
128	0xbb382660	-0.0028099045
129	0xbd416de0	-0.047223926
130	0x3d2ed418	0.042682737
131	0x3c2b6528	0.010461129
132	0xbd6e235a	-0.058139183
133	0x3d142be4	0.03617467
134	0x3bda97b0	0.0066709146
135	0xbd26bbd4	-0.04070647
136	0xbc5ba3b8	-0.013405733
137	0x3d153794	0.036429957
138	0x3cf742e8	0.03018327
139	0x3c7dcaf8	0.015490286
140	0x3cea74f4	0.02862022
141	0x3cc69068	0.02423878
142	0xbc723288	-0.014782555
143	0xbca9532c	-0.020669542
144	0xbd4132ec	-0.047167704
145	0xbd2cebe4	-0.04221715
146	0xbbe1c200	-0.0068895817
147	0xbcd3d1e0	-0.025856912
148	0xbd73dec6	-0.059538625
149	0xbd5b5ed6	-0.05355724
150	0xbcc34fb4	-0.023841716
151	0xbd4c837c	-0.04993008
152	0xbd649d12	-0.055813856
153	0x3d3ca010	0.046051085
154	0x3cb49aa4	0.022046395
155	0x3b912ec0	0.004430622
156	0x3bdc9b70	0.006732397
157	0x3c9a0380	0.018800497
158	0x3d2f4ac6	0.04279592
159	0x3b974ca0	0.0046172887
160	0x3caf4a14	0.021397628
161	0x3d7aa428	0.061191708
162	0x3d0a999a	0.033837892
163	0x3ce9dec0	0.028548598
164	0x3d182a54	0.037149742
165	0xbd449058	-0.04798922
166	0xbd37bd7e	-0.04485845
167	0xbcef5584	-0.029215582
168	0xbd4a36a0	-0.0493685
169	0xbc93dd08	-0.018049732
170	0x3d4ef424	0.0505258
171	0xba4d8180	-0.00078394264
172	0xbd308f72	-0.04310555
173	0xbd49480a	-0.049140967
174	0xbd02b044	-0.03190638
175	0x3d738440	0.059452295
176	0x3c79bb80	0.015242457
177	0xbd0fa950	-0.03507358
178	0x3c319968	0.010839798
179	0xbd4c14d6	-0.04982456
180	0x3d4a8544	0.0494435
181	0xbd481896	-0.048851572
182	0x3d7b8c34	0.061413005
183	0xbcdc6a88	-0.026906267
184	0x3d660e72	0.05616612
185	0xbd295bcc	-0.04134731
186	0xbb92eb90	-0.0044836476
187	0xbd252fc6	-0.040328763
188	0xbbcf0fa0	-0.0063190013
189	0xbceec87c	-0.029148333
190	0xbd1024fe	-0.03519153
191	0xbd32c8d4	-0.043648556
192	0x3d43c7a6	0.04779782
193	0x3d149e5a	0.03628383
194	0xbd6b0868	-0.057381064
195	0x3d4fd680	0.050741673
196	0x3d031292	0.032000132
197	0xbcacc940	-0.021092057
198	0x3c223dc8	0.009902425
199	0xbd73b6ae	-0.05950039
200	0x3d29e7b8	0.04148075
201	0xbcdf00d8	-0.027222082
202	0x3ca239b4	0.019802906
203	0x3d1d0fcc	0.038345143
204	0xbd6b234c	-0.05740671
205	0x3d23cbbc	0.039989218
206	0xbd1e4fc6	-0.038650297
207	0x3b0b4080	0.0021248162
208	0x3d20ff5e	0.039306037
209	0x3d18af98	0.037276834
210	0x3b83ee50	0.004026212
211	0x3d4a18dc	0.049340114
212	0xbd387c9e	-0.04504072
213	0xbcecd674	-0.028910853
214	0x3c6fb968	0.014631607
215	0x3d0a3782	0.033744343
216	0x3d2adf94	0.041717127
217	0xbd6ce556	-0.0578359
218	0x3d4089f6	0.04700657
219	0x3d6d2f26	0.057906292
220	0xbd5bcdf0	-0.053663194
221	0x3d49eac8	0.04929617
222	0x3d6774ac	0.05650775
223	0xbc517358	-0.012783848
224	0x3bf6c020	0.0075302273
225	0xbd603fec	-0.05474846
226	0xbd594274	-0.05304189
227	0xbd4321e2	-0.047639735
228	0xbb854150	-0.0040666237
229	0xbd26a604	-0.04068567
230	0xbd6e3c10	-0.05816275
231	0x3d5b4870	0.05353588
232	0x3cf154d8	0.029459402
233	0x3c82b33c	0.015954606
234	0xbd1beef2	-0.038069673
235	0x3d516dc4	0.05113007
236	0x3ce92ed0	0.028464705
237	0xbd1cfda2	-0.03832782
238	0xbd70df20	-0.05880654
239	0xbcf75180	-0.03019023
240	0xbc62bc78	-0.01383888
241	0x3d7951d0	0.060869038
242	0x3ce3b674	0.027796961
243	0x3b691820	0.0035567358
244	0xbd6324ee	-0.05545514
245	0x3d5522a0	0.052034974
246	0xbc171c70	-0.009223089
247	0xbc85e414	-0.016344108
248	0x3cc70ca4	0.02429802
249	0xbc93b500	-0.018030643
250	0x3d76948a	0.06020025
251	0xbd77b248	-0.060472757
252	0xbbb29140	-0.005449444
253	0x3d6ab93a	0.057305552
254	0xbcebd244	-0.028786786
255	0xbd13f08c	-0.036118075

fc2.bias f4 [5]
0	0xbca8710c	-0.020561717
1	0x3d484860	0.048897147
2	0xbd01f7d4	-0.031730488
3	0xbd52fc0a	-0.051509894
4	0x3dcaf2df	0.09909605
