Models/Torch2/my_model47000.pth (torch_old, 60054 bytes, 8 tensors)

conv1.weight f4 [16, 2, 3, 3]
000000 ef 0f b2 3e ef 85 08 bf 53 e3 4c be 8c ff 8e 3e
       0.3477778 -0.53329366 -0.20008592 0.27929342
000010 4d 64 af bd 06 08 c0 be ff 35 44 be 76 ee 94 be
       -0.08564053 -0.3750612 -0.19161223 -0.2908818
000020 a4 0f 2f be a6 d9 2b be 42 c3 48 3f f2 19 4b 3f
       -0.1709581 -0.16782245 0.7842294 0.79336464
000030 e2 0b 9c bd 93 52 6b be 33 5e 7c 3c ee d0 a5 3d
       -0.07619454 -0.22980718 0.015403318 0.08096491
000040 d6 33 d0 bc f3 db 9d 3c 0d 09 cc be 07 36 c7 be
       -0.025415342 0.019269919 -0.39850655 -0.38908407
000050 4d 52 e6 bd b2 1a 76 3f d4 6f 87 3e 78 6b 3c 3f
       -0.112461664 0.96134484 0.26452506 0.73601484
000060 b4 70 14 3f 76 f1 52 3f b7 ce 46 3c 37 3d 72 3e
       0.5798447 0.8239969 0.012134246 0.23656164
000070 26 c6 2b bf 4a 3d 86 3e 16 38 00 3e 41 33 7f 3e
       -0.67099226 0.26218635 0.12521395 0.24921896
000080 cc 83 62 bf 00 c9 40 bb 0a 89 26 3e 33 b8 35 bf
       -0.88482356 -0.002941668 0.16263214 -0.7098419
000090 17 21 28 3f ca 72 36 3f 37 4e 26 3f ab 67 d1 be
       0.6567549 0.71268904 0.64963096 -0.40899405
0000a0 98 a8 da be b9 55 32 be 84 11 d7 3e 49 af 08 3f
       -0.42706752 -0.17415513 0.4200555 0.53392464
0000b0 40 3d 25 be 59 6f 88 3e bc 19 a3 3e ae 6f 35 bf
       -0.16136646 0.26647452 0.3185557 -0.70873535
0000c0 48 26 86 3e dc 1f e7 be a2 41 02 3e cd c8 2e bc
       0.2620108 -0.45141494 0.1272035 -0.010667992
0000d0 71 91 84 3e e6 dc f2 be fe 4f 81 3e 4b 82 5b be
       0.25892213 -0.47434157 0.25256342 -0.21436422
0000e0 c8 73 bf bd ea 63 21 3f e3 72 93 3e 33 9f cb bd
       -0.093482554 0.6304308 0.2879859 -0.09942474
0000f0 44 91 08 bd 0c ad 02 3f a3 af 04 3f 7b d2 c9 bd
       -0.03334166 0.510453 0.518305 -0.09854599
000100 f6 9b ef bd fc 15 12 3f 21 b4 d6 bd 39 01 22 3d
       -0.11699669 0.57064795 -0.104835756 0.039551947
000110 1e 54 16 3f 42 de 14 be e6 12 1b 3e ee 55 23 be
       0.587221 -0.1453791 0.15143928 -0.15950748
000120 d5 7c 2d be fa 9c 28 be 8f 8a 20 3f 2d 0e 35 be
       -0.16942151 -0.16466132 0.62711424 -0.17681189
000130 21 ef e4 3d c4 11 f7 bc 81 b3 27 be ee 37 d1 3e
       0.11178423 -0.030159838 -0.16377069 0.40862983
000140 70 e8 2f bd b3 2b f1 3c 6f 96 bc be 8e da 80 3e
       -0.04294628 0.029439783 -0.36833522 0.25166744
000150 aa 47 13 3d 41 18 ef 3d 08 30 36 be a5 c6 a0 3d
       0.035957016 0.11674548 -0.1779176 0.078503884
000160 6f 30 67 3c cb c9 9f be 90 3d 00 3f 3c ab 05 be
       0.014110669 -0.31208643 0.50093937 -0.13053602
000170 cf 0f f4 bd 2b 19 6e 3f 15 df ab 3e d9 68 13 3f
       -0.11917078 0.93007153 0.33568636 0.5758186
000180 f5 b4 5b be 7f e1 f5 3e 82 8a 6b be c0 30 0c bf
       -0.21455748 0.48023602 -0.23002055 -0.54761887
000190 f3 7a f5 be b2 74 c8 be 8c c5 84 bd 1a 6c 59 bf
       -0.47945365 -0.3915153 -0.064829916 -0.84930575
0001a0 33 47 f1 3d 1c f8 cc bd 01 ae 1a 3d 66 71 5f bc
       0.11781158 -0.100082606 0.0377636 -0.013637876
0001b0 61 1e ed 3d e6 38 ab bd fd 45 12 bd 54 1f b9 bd
       0.1157806 -0.08360462 -0.035711277 -0.090391785
0001c0 96 fb ab 3d 90 a8 2a be 90 73 fd 3d 13 68 8f 3e
       0.083975956 -0.16665864 0.123755574 0.2800909
0001d0 25 19 b9 3d 19 93 0d 3d 16 9b db bd 76 b8 cd 3d
       0.09037999 0.03456411 -0.1072294 0.10044949
0001e0 16 16 27 3e 10 35 88 3e 46 a8 57 be 59 a6 bd bd
       0.16317019 0.26602983 -0.21060285 -0.09260244
0001f0 3a 1b 40 be ef 20 1a be 8a 2e ad bd 0b 89 0f 3e
       -0.18760386 -0.15051626 -0.08456142 0.14017121
000200 dd 27 c0 bd 61 db 26 be 38 e1 db 3e e0 4a ba bd
       -0.09382603 -0.16294624 0.42945266 -0.090963125
000210 85 63 20 bd ed 3f e7 bd e7 23 07 3f df 79 f2 bc
       -0.03915741 -0.1129149 0.5278916 -0.029599128
000220 39 7c 8f be 2a 18 68 be 3d c3 3c bd 75 a7 42 be
       -0.28024462 -0.22665468 -0.04608463 -0.19009192
000230 fc 7c f6 be d8 d3 c0 bd b6 d3 40 be e9 e7 03 be
       -0.4814223 -0.09415406 -0.18830761 -0.12881435
000240 0a 01 e4 3c 7c 10 22 bc 66 64 aa bd 14 55 c6 be
       0.027832527 -0.0098916255 -0.08319931 -0.38736784
000250 6c b7 00 be af 4c c3 bd 0a 80 06 3e 2d 47 c5 be
       -0.1256997 -0.095361106 0.1313478 -0.38530865
000260 c7 35 6e be 45 a7 a3 bd 78 cf 18 be af c3 42 3f
       -0.23262702 -0.079908885 -0.14922893 0.7607984
000270 74 bb e9 3d 8d da 15 3f e3 28 fe 3e f3 99 89 3d
       0.11412707 0.5853661 0.4964057 0.067188166
000280 fd 87 09 3f 3f c6 28 bd e5 45 12 bf 4e d5 07 3e
       0.53723127 -0.041204687 -0.571379 0.13264963
000290 fa b5 41 3d a6 2b 18 3f e5 43 9a be c5 2f 03 3e
       0.047292687 0.594416 -0.30129924 0.12811191
0002a0 d3 c5 de be 97 ed d1 3e 9c ba 8d 3d d6 cb c2 bd
       -0.43510303 0.4100158 0.069203585 -0.09511535
0002b0 28 ec ca be 66 79 43 3f 37 25 cf 3d a0 95 e7 3d
       -0.39633298 0.76357114 0.1011452 0.113078356
0002c0 a0 f4 d1 be db 1d 58 3d a7 3d b7 bd 65 ff 15 3f
       -0.41006947 0.052762847 -0.08947306 0.58592826
0002d0 e3 d6 97 bd c7 64 e1 3d 13 bd 65 bd 38 cb 25 3f
       -0.07414033 0.1100555 -0.05608852 0.6476321
0002e0 df 99 1f bb d7 c4 6f be 6e f1 3b 3f 93 92 fe bd
       -0.002435319 -0.23414932 0.7341527 -0.124303006
0002f0 87 52 11 be e8 ab 17 3f fc 48 ff bd 19 e3 de bd
       -0.14191638 0.59246683 -0.124650925 -0.10883159
000300 3d db 39 3e d2 a5 33 3f 7b e7 d1 3e 07 f5 a6 3d
       0.18150039 0.70174897 0.40996918 0.08152204
000310 a0 84 27 3f 6e 13 24 3f 5a b1 44 3e f6 7f 25 3d
       0.65436745 0.6409215 0.19208279 0.040405236
000320 e4 af 12 3e d3 09 d2 3e 1a a9 b3 be 8e d1 b0 3e
       0.1432491 0.4102312 -0.35089952 0.34534878
000330 f2 1c 7e be 18 40 88 3e ee 2c 41 bb 6c 3d 7f 3e
       -0.2481573 0.266114 -0.0029476243 0.24925774
000340 52 1a 0e 3f bf 2a 82 bd 2c 63 7a bd c9 ac 7f 3e
       0.5550891 -0.063558094 -0.061129734 0.24968256
000350 63 0e 36 3f 54 08 b5 3d 81 76 03 be 6c ed 6f 3d
       0.711157 0.08839479 -0.12838174 0.058576033
000360 f7 a6 83 be 25 12 2d be 64 37 9b bb ea df db 3e
       -0.25713322 -0.16901453 -0.0047368277 0.4294427
000370 68 98 1a 3e 4b 05 34 be 14 76 07 3f 07 a2 b3 3e
       0.15097201 -0.17580144 0.5291455 0.35084555
000380 6b 69 b1 3d 95 79 ca bd a0 11 89 bd 35 a6 04 be
       0.08662685 -0.09886471 -0.06692815 -0.12954028
000390 0d 26 0c be f9 6a 12 be af f7 2b 3f ce b1 53 be
       -0.1368639 -0.1429862 0.6717481 -0.20673296
0003a0 a8 9e b2 bd 6f db c9 3e fc 89 f0 bd 82 0a 30 be
       -0.087216675 0.39425227 -0.117450684 -0.17191508
0003b0 5c fd 17 be ae ae b9 be 51 43 5c 3f 80 ab bd 3e
       -0.14842743 -0.36266083 0.86040217 0.37044907
0003c0 90 48 62 3f 80 c9 21 bf 10 12 12 3f 8e 7b b5 bd
       0.8839197 -0.6319809 0.5705881 -0.08861457
0003d0 7b 65 b9 bd 7a d7 04 bf 2e 42 ff bb db 1c aa 3c
       -0.09052559 -0.5189129 -0.0077898717 0.020765712
0003e0 13 0b 64 bf a7 c9 1d 3d 61 bf 96 3e 90 c0 3f 3f
       -0.890794 0.03852239 0.29442886 0.749032
0003f0 cd e6 64 bd 7c 55 64 be 54 32 c6 3d b0 fa 9e bd
       -0.05588417 -0.22298235 0.09677568 -0.077626586

conv1.bias f4 [16]
000000 2e 47 d0 be 99 61 83 be 5d 8e 47 bd 36 c4 0f bf
       -0.40679306 -0.256604 -0.048719753 -0.5615877
000010 8b ee 67 be 74 8e 3d be 97 ac 9e be 96 c4 62 bd
       -0.2264959 -0.18511373 -0.3099105 -0.05536326
000020 0e 3e 29 be cc 29 c3 be 1c 44 4c bf 6d f0 fc be
       -0.16527578 -0.38117826 -0.79791427 -0.4940218
000030 60 b5 eb be d7 08 8e be d4 6e a5 be bd 14 7a bf
       -0.46036816 -0.2774112 -0.32311118 -0.97687894

conv2.weight f4 [32, 16, 3, 3]
000000 3d 2b e3 3e 29 29 32 be d1 3a ae 3e d9 ea e9 3e
       0.44368926 -0.17398514 0.34029248 0.45686987
000010 15 16 9f bd 3d e4 c2 3e 30 da 9e bd 15 64 6c 3c
       -0.07767884 0.38064757 -0.0775646 0.014428158
000020 16 d3 08 3e 77 28 51 3e a7 eb 11 bf e9 04 5c bd
       0.13361773 0.20425592 -0.570002 -0.05371562
000030 f6 44 5c be be f2 89 3d 64 93 70 be f8 83 10 3f
       -0.21510682 0.067357525 -0.23493725 0.5645137
000040 81 eb f6 bd 5e ad 29 3f 14 47 25 3f 32 7f b8 bd
       -0.120566376 0.6628016 0.6456158 -0.090086356
000050 5b 27 9a 3e 7f d4 83 3e 16 83 83 be 13 c7 8a bd
       0.3010815 0.2574806 -0.25685948 -0.06776252
000060 fb 8d 03 3e 3c d5 04 bf 3a b3 4e 3e 37 9e 8e bd
       0.1284713 -0.5188787 0.20185557 -0.06963771
000070 20 44 2e 3e e1 ec 4d 3d 04 73 83 3d 2e dd 10 bc
       0.17018175 0.050274733 0.06418422 -0.008841796
000080 1e b6 42 3d cc c0 d5 3d c8 f4 6d 3d 5e 7b a9 3d
       0.04753696 0.10437164 0.05809477 0.082754835
000090 8f 2c 19 3e d6 fb 86 be 30 1e 9f 3e 56 ff ef 3d
       0.14958404 -0.2636401 0.3107772 0.11718623
0000a0 de 49 05 be 02 c8 33 be 1d d1 10 be 43 d0 5a bd
       -0.1301646 -0.17556766 -0.1414227 -0.05342127
0000b0 9e c7 5f 3d 41 7b bf be 9b 4d 2c 3e 1c 11 2f bf
       0.05463373 -0.37398723 0.16826479 -0.6838548
0000c0 89 8d 3a bf 25 a7 40 be 24 a3 42 be 84 46 69 bd
       -0.72872216 -0.1881376 -0.19007546 -0.056952015
0000d0 4e e9 be 3d b3 91 f8 be d3 c7 55 bd a8 0b 8e b9
       0.09321843 -0.4854866 -0.05219252 -0.00027093035
0000e0 ef bd bf 3d 9f 78 c4 bd 96 3d 5d bc e4 b4 f7 bc
       0.09362399 -0.09593319 -0.013503453 -0.030237623
0000f0 3b 2b 47 bd c8 f3 85 3d ac 3b 01 3c d6 fc 39 3b
       -0.048625212 0.06540638 0.007887762 0.0028379462
000100 96 60 8b bd bc 94 68 bd 26 72 f1 3d 0f ea 2e bd
       -0.06805532 -0.05678247 0.1178935 -0.042703684
000110 bf c5 35 bd f7 7d 29 3e 73 2a 67 be 06 7b 08 3e
       -0.04437804 0.16551958 -0.22574787 0.1332818
000120 e4 17 3f bd 11 63 36 3e 46 f1 aa be 43 c8 a5 bc
       -0.046653643 0.17811228 -0.33387202 -0.020237094
000130 9a 40 1e 3d d0 52 81 3e fd 66 ea 3d 34 09 37 bd
       0.038635828 0.25258493 0.11445425 -0.04468651
000140 21 34 88 3e 2f 27 18 3e eb 04 c3 bd d7 ac 53 be
       0.2660227 0.14858697 -0.095224224 -0.20671402
000150 48 d7 05 be 3b 86 9e 3e 1e 04 bb be ce da b4 3c
       -0.13070405 0.30961785 -0.3652658 0.02207699
000160 3a 11 41 3d bf 48 ba bd 0c d2 d9 3e 99 84 4c be
       0.04713557 -0.090959065 0.42543066 -0.19972457
000170 e8 a4 77 3d 50 ee 90 3e 28 5f 23 be ab 17 b2 3c
       0.06046 0.28306818 -0.15954268 0.021739801
000180 2a 0a 09 3f 6b 87 0f be 0b 1d 0e 3f da d5 7d 3e
       0.53531134 -0.14016502 0.55513066 0.24788609
000190 75 95 e9 bc 8a b9 bb 3d d4 4d 08 3e a1 22 bb 3d
       -0.02851365 0.09166248 0.13310939 0.09137464
0001a0 30 0f 43 bd 86 f3 0d 3e 68 63 1d be 3e 7f 81 3d
       -0.047621906 0.13862428 -0.15369952 0.06323098
0001b0 df fc 21 be 7a f8 ef 3d 4e 5b da bd cd 08 a7 3c
       -0.15819119 0.11717315 -0.10661946 0.020389939
0001c0 b4 3d 2b 3d 6e 64 09 bb ef 76 1f bd f1 9b 42 3e
       0.04180689 -0.0020964402 -0.038931783 0.190048
0001d0 1f d7 0c be 09 20 e0 bd 8c 07 52 be 45 0f fe be
       -0.13753937 -0.1094361 -0.20510691 -0.49621025
0001e0 ea 3b 10 3d 31 b4 39 bb b4 32 a1 3e a9 c7 12 3f
       0.03521339 -0.0028336162 0.31483996 0.5733591
0001f0 d9 a6 b4 bd d4 b5 f8 3e fc 54 f0 bd 23 dd c2 bd
       -0.08820886 0.48576224 -0.117349595 -0.09514835
000200 ec 3b ff bd 68 17 35 be a5 d9 18 3e 21 ca 7d be
       -0.12462601 -0.1768471 0.14926775 -0.24784137
000210 28 57 02 be 4d 76 5b 3e eb af 46 be 3a e6 f5 3e
       -0.1272856 0.21431847 -0.19403045 0.4802721
000220 96 6e 0e bf 3a eb b0 3e 24 c1 09 3f 9b bc 38 be
       -0.5563749 0.34554464 0.53810334 -0.18040697
000230 80 0d dc 3e 96 be 31 3e 9e 50 88 bd 02 cb e6 3d
       0.4297905 0.17357859 -0.066560015 0.112691894
000240 db 20 84 3e a2 12 9d bd 73 67 1b 3e 4d 8b 6d 3e
       0.25806317 -0.076695696 0.15176181 0.2319767
000250 e0 61 31 be 74 ca 6e 3e 14 f8 37 bc c9 13 7b bb
       -0.17322493 0.23319417 -0.01122858 -0.0038311353
000260 9c c6 15 3d 26 5d c6 3e 73 83 a9 bd 51 fa 93 3e
       0.03656636 0.38742942 -0.08277025 0.28901914
000270 6b 2c 52 be 75 99 9e bd 80 41 cb 3d ae e0 02 3e
       -0.20524757 -0.07744113 0.099246025 0.12781021
000280 ae 6f f5 bd 07 f1 7b 3e 25 f7 07 3e 8a a2 fe bd
       -0.11984192 0.24603663 0.13277872 -0.124333456
000290 d9 e1 10 3e 97 18 e0 3e 4f e2 c3 bb d1 c4 f8 3e
       0.14148654 0.4376876 -0.005977906 0.4858766
0002a0 96 ed ea 3c 14 e3 44 be 73 d6 e5 3d b3 25 62 bc
       0.028677743 -0.19227248 0.112225436 -0.0138029335
0002b0 0f dc 61 3d cf 91 0a be 0a a6 8f bd 89 0a b2 bc
       0.055141505 -0.13532184 -0.07014091 -0.02173354
0002c0 74 5a a9 3d ea 2a 9e 3c 37 e7 1b 3d 3a 77 93 3d
       0.08269206 0.019307572 0.0380623 0.07200475
0002d0 76 33 52 3e 28 12 42 be d9 aa c0 3c 74 aa 33 3e
       0.20527443 -0.18952239 0.023518967 0.17545491
0002e0 19 70 ad bd b9 94 71 3e 93 32 ab bd e4 98 cb bd
       -0.084686466 0.2359189 -0.08359256 -0.09941271
0002f0 56 34 3c 3d ca e9 7e 3e fd 08 5a 3e cc 3a 60 3d
       0.04594835 0.24893871 0.21292491 0.054743573
000300 13 df ba 3d 2d d2 c9 3d 88 2a 3e 3c cc 4a c2 3d
       0.09124579 0.09854541 0.01160682 0.094869226
000310 4d 9e 4d 3e 4d 6f b2 3c 31 a4 7b 3c dc c4 44 bc
       0.20079918 0.021781588 0.0153589705 -0.012009826
000320 d1 86 da 3d 58 35 1d 3c f3 63 af bc 03 69 f3 3c
       0.106702454 0.009595238 -0.021409964 0.02971316
000330 3b 88 8b bd 66 58 26 3d 84 d7 28 bd 30 7c 63 3e
       -0.06813093 0.040611647 -0.041221157 0.22215343
000340 78 32 63 be 9c 8d 97 3e 49 97 67 3e b4 a3 92 3d
       -0.22187221 0.29600227 0.22616304 0.0716013
000350 5b 73 c9 39 dc ca 81 3e 52 d3 6f bd 1c f9 70 3d
       0.00038423654 0.25350082 -0.05855114 0.05883132
000360 db 4e b9 bd e5 2d 34 3e 64 ce 7b bd 2e ed 13 bd
       -0.090482436 0.17595632 -0.061476126 -0.036114864
000370 a6 31 90 3d 78 69 7a bd 93 80 ca 3d 64 71 d1 3d
       0.0704072 -0.06113574 0.09887805 0.10226706
000380 92 e3 54 3d 89 58 0b 3e ca 51 23 3e 47 fb e3 3d
       0.05197484 0.13607992 0.15949169 0.11131912
000390 c5 6a db bd e0 be 03 3e 2b 10 76 bd 09 bd c7 bc
       -0.10713724 0.12865782 -0.060074013 -0.024382131
0003a0 48 87 04 3e 8c 72 d8 bd 50 7e 67 3e 8b 15 76 bd
       0.1294223 -0.10568723 0.22606778 -0.06007914
0003b0 7f b8 ee 3a fa dd 0d 3e cb 8f 94 bd 6c 09 69 bd
       0.0018212943 0.13854209 -0.07253989 -0.05689375
0003c0 7d 22 77 3e d6 6b 80 bd 4e b5 cd 3e 56 a3 46 3e
       0.2413425 -0.06270568 0.40177387 0.19398245
0003d0 9a c1 50 3d 94 92 8b 3e 13 65 12 3c 7b 2d 58 3d
       0.050965883 0.27260268 0.008935231 0.05277775
0003e0 e0 4c 50 3d bf 6f 23 3e ba 8e e2 bd 02 c6 07 3e
       0.050854564 0.15960597 -0.11062379 0.13259128
0003f0 4f cb a7 3c f7 1f 12 3e 48 bd 24 be ff 65 de bd
       0.020482687 0.14270006 -0.1608783 -0.10859298

conv2.bias f4 [32]
000000 81 b7 c2 3e cf 45 9a 3c fe b8 ca bc 71 fb 60 be
       0.38030627 0.018832115 -0.024746414 -0.21970917
000010 bb f4 ef bd ba dc 5f 3e de 64 99 bd ed e5 a1 bd
       -0.117166005 0.21861544 -0.07489942 -0.07905183
000020 c1 9d ba be e6 f0 7e bb 19 fb 41 3e 3b 41 eb 3c
       -0.36448482 -0.003890091 0.18943442 0.028717628
000030 df 40 76 3d 41 42 0c 3e 74 47 a8 bd 77 ca ff bd
       0.06012046 0.13697149 -0.082167536 -0.12489789
000040 21 b3 3d bd 06 0f 7d 3e 86 67 4d 3d 6e fc 18 be
       -0.04631341 0.24712762 0.050147556 -0.14940044
000050 f6 1d b4 3c 35 37 59 3d d4 6a e1 bd a8 4a 34 be
       0.021986943 0.053031165 -0.11006704 -0.17606604
000060 5d a8 2f 3e dc 58 4f be b7 62 00 be 10 e7 82 bd
       0.17154069 -0.20248741 -0.12537657 -0.06391728
000070 ae 02 5f bd c5 60 16 be 18 c1 53 bd 67 25 f8 bd
       -0.054445915 -0.14685352 -0.05169782 -0.12116509

fc1.weight f4 [256, 32]
000000 b5 25 d0 3c c5 0b 8b 3d f3 27 29 be 2b 6d c2 bb
       0.025408605 0.06789354 -0.16519146 -0.005933424
000010 95 05 c3 3c b9 92 0b 3d 25 e8 8c 3d b6 b3 a3 bd
       0.023806373 0.034075473 0.068802156 -0.079932615
000020 da 93 51 3d 92 51 48 be ba ae 27 bd 71 ba d5 3d
       0.051166393 -0.19562367 -0.040938117 0.104359515
000030 78 8e be 3d 30 4c 19 be f1 53 c3 bd 57 b3 cf 3d
       0.093045175 -0.1497047 -0.09537495 0.10141628
000040 ec a0 9d bd b7 1b 0a 3e 88 d5 67 3d 6d a9 9c bd
       -0.07696709 0.13487135 0.056600124 -0.07649503
000050 7e 11 55 bd e4 e8 05 bd 2e 82 d5 3d a3 2a 38 bd
       -0.052018635 -0.032692805 0.104252204 -0.044962537
000060 b1 bc e4 bd 64 92 a6 bc 0d 40 94 3d fa 30 92 bd
       -0.111688025 -0.020333476 0.07238779 -0.07138248
000070 6f 3f 28 be fe 2b 14 bc 53 0e 01 be 56 7d c9 3c
       -0.16430448 -0.009043692 -0.1260312 0.024595898
000080 a6 f2 b2 3d f3 06 4a be 8f 6b 21 be 7f af a0 bd
       0.08737688 -0.19729213 -0.15763687 -0.07845973
000090 87 9d 48 3d db b8 99 3d 17 a0 f3 bd 32 90 f5 bd
       0.048978355 0.075059615 -0.11895769 -0.11990394
0000a0 54 7e aa bd 34 c7 f8 3d b2 d7 21 be 6d 3a 82 3d
       -0.083248764 0.1214737 -0.15804937 0.063588
0000b0 c9 61 fd bd 5a ff 9c 3d 02 bf 9c 3d 8d b4 e0 3d
       -0.12372167 0.07665892 0.07653619 0.10971937
0000c0 ae 6e d4 bc 2e f2 a8 3d 86 b3 00 be 1d 07 78 bd
       -0.025931682 0.08249317 -0.12568483 -0.06055366
0000d0 9c 2c d1 bd a7 6a 83 3d e3 d9 e0 bd 77 e7 c6 bd
       -0.10213587 0.06416827 -0.109790586 -0.09712117
0000e0 0b 3b 94 bd 86 85 91 3d ce 15 93 3d 29 f8 64 3d
       -0.07237824 0.07105546 0.07181893 0.055900726
0000f0 75 54 d7 3d 5a ab 9a 3d 03 ea ce 3c d9 08 a7 bd
       0.10514156 0.07552214 0.02525807 -0.081559844
000100 6c aa 28 be 0e 61 ce bd 1b a6 8d be 37 67 33 3d
       -0.16471261 -0.100771055 -0.2766579 0.043799605
000110 b3 c6 eb 3d 40 8d a7 bc 9b bf db bd 7b 81 1a 3e
       0.11512508 -0.020453095 -0.10729905 0.15088455
000120 49 f4 f1 3d 8f 22 46 3e 9f e1 90 3e 16 ae 27 3d
       0.11814172 0.1934912 0.28297135 0.040937506
000130 a7 57 14 be a2 4a 9c be 93 e6 49 be f5 3e 98 bd
       -0.14486562 -0.3052569 -0.19716863 -0.07433883
000140 48 40 38 be 6a 8a ae 3c 1d 5a fd 3d 42 0a 1e 3e
       -0.17993271 0.021306235 0.12370703 0.154336
000150 ec 90 3c 3e 3a f4 f0 ba bc 5f 0f 3d cf e5 c3 3d
       0.18414658 -0.0018383332 0.03500341 0.09565317
000160 9e 71 f2 bc 93 08 13 3d ae cd 6c 3c 2b 30 57 3e
       -0.029595193 0.03589685 0.014453335 0.21014468
000170 73 18 b4 3b 35 69 93 be 75 39 fa bd 1b 8a a4 3c
       0.0054960786 -0.28791204 -0.1221799 0.020085385
000180 d1 b5 12 be 89 f1 15 be 73 ce 5b bb 15 19 2b be
       -0.1432717 -0.1464292 -0.0033539801 -0.16708787
000190 16 72 18 3e 8c 01 13 be a2 a9 01 3d 73 82 2e be
       0.1488727 -0.14356059 0.031655915 -0.1704195
0001a0 38 20 1a be fb 95 8c 3d a4 fe 7a 3d 39 97 bb bd
       -0.15051353 0.06864544 0.061278 -0.09159703
0001b0 f7 c9 c9 3d d7 01 17 be 9a 0b 17 be 3f 32 fb bd
       0.09852975 -0.14746796 -0.1475052 -0.12265443
0001c0 24 fa 31 bd f5 d1 76 3d 8b de 8a bb ff 46 cc 3d
       -0.043451443 0.060258824 -0.004237955 0.09974479
0001d0 1a a7 a5 3d 8a 3e 86 bd fd 7e 4d bd b3 ee cc bd
       0.08088513 -0.06554897 -0.050169934 -0.10006466
0001e0 5b c6 32 bd 8c b2 3c be 13 bc 20 be 8f 4b 27 bc
       -0.043646198 -0.18427485 -0.15696745 -0.010210886
0001f0 e9 86 84 bd ae 71 c2 3d 79 27 d1 bd 82 48 d6 3c
       -0.064710446 0.09494339 -0.10212607 0.026157621
000200 7e 2e 95 39 eb d6 4f bd c8 4f 09 3e 47 04 f2 bd
       0.00028454134 -0.05074207 0.1340934 -0.11817222
000210 d7 6c 15 be 00 19 5b be 54 b6 20 be 2f a0 ab 3d
       -0.145923 -0.21396255 -0.15694553 0.08380162
000220 89 cf d9 bc 92 cc 87 3c ff 79 be 3d 76 a7 cc 3c
       -0.026588218 0.016577039 0.09300613 0.024982195
000230 0f 24 ec 3d f2 6c 87 bc 3a f6 3a be bf bb 2e 3c
       0.11530315 -0.016531441 -0.1825799 0.010664879
000240 42 9a 4d be d1 bd b2 3b d5 49 34 be 65 a3 a4 3d
       -0.20078376 0.005454757 -0.1760629 0.080389775
000250 05 1b 1c be 35 fe 07 3e 5f 3c 2f be 1d ec 1c bc
       -0.15244682 0.13280566 -0.17112873 -0.009577778
000260 55 40 f0 bd 11 c6 ab bd c6 07 b6 3d 63 00 fc 3d
       -0.1173102 -0.083873875 0.088882014 0.12304761
000270 e3 21 0e 3e d7 05 06 bd a3 0e 47 be d9 4c b4 bb
       0.13880114 -0.032720413 -0.19439177 -0.005502325
000280 29 cc 33 be ec cb d4 3d e6 17 e8 bd f7 bb f6 bc
       -0.1755835 0.103904575 -0.11332683 -0.030118925
000290 99 e6 1e bd b6 01 67 bd 98 76 99 3d 9c fd 25 bb
       -0.038794134 -0.056398116 0.07493323 -0.0025328165
0002a0 37 67 84 bd 31 0a e8 bb 13 91 43 3e 2b 4a 16 be
       -0.06464999 -0.007081293 0.1909831 -0.1467673
0002b0 77 00 02 be 49 fc 04 3e 5a bb ce 3d 78 0b c6 bc
       -0.1269549 0.12986864 0.10094328 -0.02417539
0002c0 71 af fd bd 50 d3 76 bd e6 ac 5f 3c e3 b0 98 3d
       -0.123869784 -0.060260117 0.013652062 0.074556135
0002d0 e1 5a bd 3d 46 65 4e be c8 bf b2 3d 7d e1 9e bc
       0.092458494 -0.2015582 0.087279856 -0.01939463
0002e0 5d 5a 2d 3d cd b2 2d b6 04 a1 4c 3d 44 cc 1f be
       0.042322505 -2.5883085e-06 0.049958244 -0.15605265
0002f0 13 25 a8 3b 27 01 3a bd 82 43 e8 3c d0 3a df bd
       0.0051313727 -0.045411255 0.028352503 -0.108998895
000300 9e 90 4a bc 22 d3 10 be 18 48 ea bd 02 8b ea 3d
       -0.012363581 -0.14143041 -0.11439532 0.11452295
000310 77 d9 fb bd 06 6d 5a 3d 30 e8 e3 3d 85 c6 3b bd
       -0.122973375 0.05332663 0.111282706 -0.04584362
000320 5a c3 bc 39 2b 9a 9e 3d 1f c2 ca 3c a0 58 46 be
       0.00036003703 0.07744249 0.024750767 -0.19369745
000330 eb c6 0c 3d fc dc 22 3d e5 66 fc bd 33 89 5e 3d
       0.03436939 0.03976153 -0.12324313 0.054330062
000340 d9 8f 25 bc 78 42 ab 3d 07 c6 8e bd ec 78 00 be
       -0.010105097 0.08362287 -0.069713645 -0.12546128
000350 e3 57 7c 3c 67 e1 c0 bd a6 07 ff 3d ac d2 f3 bc
       0.015401813 -0.09417992 0.12452631 -0.029763542
000360 7b ff 2e be 80 ec af 3d f0 37 0a 3e 63 40 29 3e
       -0.17089646 0.08590031 0.13497901 0.16528468
000370 c1 c8 bc 3d 5c 28 84 bd 74 71 93 bd fd ca 3f be
       0.09217978 -0.064530104 -0.07199374 -0.18729778
000380 b9 64 e2 3c a0 4e 1f 3d 7a 37 e9 bd c8 e4 81 be
       0.027635919 0.038893342 -0.113875344 -0.2536986
000390 e2 ac 03 3e 09 e9 09 bd 3f e5 a4 3d 0d dc 10 3e
       0.12858918 -0.033669505 0.08051538 0.14146443
0003a0 45 23 09 be 66 0b 52 bd c5 4e 9c bd 81 e3 59 bd
       -0.1339236 -0.0512804 -0.076322116 -0.05319548
0003b0 90 9d 27 bd 1b b8 60 3e 58 7f d4 bd 68 9b 5a 3d
       -0.040921748 0.2194523 -0.103758514 0.053370863
0003c0 7f bf b8 bd c1 b1 f1 bd 00 65 35 3c b6 fc 98 bd
       -0.090209 -0.11801482 0.011071444 -0.07470076
0003d0 3c ad a2 3d 6d b2 37 be 4f 4f 3d 3c fe 9f 0e be
       0.07943198 -0.17939158 0.011554553 -0.1392822
0003e0 0c c0 9d 3d 1f 4c 85 bd 59 33 3a be 90 cb 85 3d
       0.07702646 -0.065086596 -0.1818365 0.06532967
0003f0 f0 ca a0 bd d4 01 be bd 8e 8c d9 3d 64 35 9a 3d
       -0.07851207 -0.092776924 0.10622512 0.07529715

fc1.bias f4 [256]
000000 ef 80 04 be 6e 43 2d be 33 21 6f bd 59 27 19 bd
       -0.1293981 -0.16920254 -0.05838127 -0.03739104
000010 4e 91 24 be 92 4d 2f be f9 2b cb bd 18 b7 a0 bd
       -0.16071054 -0.17119434 -0.099204965 -0.07847422
000020 90 12 2c be ed cd cf bd c9 d1 c7 3c dd be 46 be
       -0.16803956 -0.10146699 0.024392026 -0.19408746
000030 72 46 4c be 5d 51 73 bd 72 73 34 be 0a 7a 03 be
       -0.19948748 -0.059403766 -0.17622164 -0.12839523
000040 6c 0b 1e be 32 84 8b bd f9 f3 2b be 01 6a 29 be
       -0.15434045 -0.06812324 -0.16792287 -0.16544344
000050 4e f2 c5 bd 6d 5f 18 be 57 8f 30 be e4 b8 68 bc
       -0.096653566 -0.14880152 -0.1724218 -0.014204238
000060 83 27 7f be 48 b7 4a be 0c 72 35 be 0c f8 94 bd
       -0.24917416 -0.19796479 -0.17719287 -0.07273874
000070 a5 5d b8 3d ff bd 79 bd e8 11 7d be 37 5e 50 bd
       0.09002236 -0.06097221 -0.24713862 -0.0508711
000080 ea 7f 1c be 9b e4 f7 bd d9 ab 15 be 5e f8 14 be
       -0.1528317 -0.1210415 -0.14616336 -0.1454787
000090 31 e4 0e 3c be a6 51 be d6 2f 77 bd 30 cd 38 be
       0.008721397 -0.20473763 -0.060348354 -0.18047023
0000a0 9b c3 a1 bd 3a 54 0e be 83 4b f5 bd a1 c6 79 bd
       -0.07898637 -0.13899317 -0.11977293 -0.060980443
0000b0 56 1b ae bd 00 c1 c4 bd eb ab c9 bd fb e1 29 be
       -0.08501308 -0.09607124 -0.09847244 -0.16590111
0000c0 51 d7 08 bd 2d f0 68 be a8 11 1c bd a5 fb df bd
       -0.033408467 -0.2274787 -0.038102776 -0.10936669
0000d0 ca 31 d7 bd 44 50 fb bd 35 63 18 be f8 4e 16 be
       -0.105075434 -0.12271169 -0.14881594 -0.14678562
0000e0 05 dd b8 bd 66 ba a1 bd d3 5f 90 bd 6e ae 2b be
       -0.09026531 -0.07896881 -0.07049527 -0.16765758
0000f0 c5 a7 eb bd a3 98 08 be e4 13 73 be 84 51 0d be
       -0.11506609 -0.13339476 -0.23738056 -0.13800627
000100 9e 39 11 be 34 89 2b bd 8d 94 27 be 3e 62 8a be
       -0.14182135 -0.041878894 -0.16365261 -0.27028078
000110 ab f0 25 be ba a7 d6 bd 85 1d 66 bd 2b 90 6b 3d
       -0.16205089 -0.1048121 -0.056180496 0.057510536
000120 99 b0 05 3c bd dd ed bd 46 49 b3 bd 3a 36 f0 bd
       0.00815978 -0.11614559 -0.0875421 -0.11729093
000130 90 de f2 bd 74 79 87 bd 04 c7 b3 bd 8e 70 79 be
       -0.11858857 -0.06614962 -0.087781936 -0.24359342
000140 25 e6 b7 bd 1e 39 59 be 7f cf 35 be 2b dd 36 be
       -0.089794435 -0.21213195 -0.17754935 -0.17857806
000150 1b da 62 be 3a b2 92 bd 94 d2 96 be e9 13 ac bd
       -0.22153513 -0.071629 -0.29457533 -0.08402235
000160 fc 4f 4d be c3 d1 d6 bd 6e 52 08 3e 69 78 69 be
       -0.20050043 -0.104892276 0.13312694 -0.22799839
000170 ab f4 91 bd 89 9c 8f be c0 a8 66 be 85 54 17 be
       -0.07126745 -0.28049114 -0.2252531 -0.14778335
000180 76 f9 2e be e1 f3 37 be 4c af 09 be f0 02 04 be
       -0.1708735 -0.17964126 -0.13445777 -0.12891746
000190 5a 8f f0 bd 63 f2 31 bd d4 ef 02 be aa ac c5 bd
       -0.11746092 -0.04344405 -0.127868 -0.09652074
0001a0 1a 21 43 be 5a b2 27 be 28 a3 3b be cd 74 6b 3d
       -0.19055596 -0.1637663 -0.18323958 0.057484437
0001b0 cb 0b 33 be 5a ca f3 bd 45 a7 d2 bd ea a4 e7 bd
       -0.17484967 -0.1190383 -0.102858104 -0.11310752
0001c0 1c cd 11 be a0 78 32 bc 59 a2 3a be 88 59 83 bd
       -0.142384 -0.010893017 -0.18225993 -0.06413561
0001d0 77 c9 28 bd be 8a 0d be 0f d6 fd bd 00 c9 ed bd
       -0.041207757 -0.13822457 -0.12394344 -0.11610603
0001e0 0b 8c 30 be 5a 13 ca bd 5f 1c a3 bd 04 13 04 be
       -0.17240922 -0.09866972 -0.07964396 -0.12897879
0001f0 47 88 91 bd cc f9 09 be 4c b7 b9 bd ab 2a dc bd
       -0.07106071 -0.13474196 -0.09068164 -0.10750326
000200 53 0d 0f be ef 37 5e be e5 48 0a be d9 4e 48 be
       -0.13969927 -0.21701024 -0.1350437 -0.19561328
000210 9b ee 30 be 0f 3b 1f be 34 fd 0a be ba 53 f8 bd
       -0.17278521 -0.15549873 -0.13573152 -0.121253446
000220 65 d8 0e be 01 eb 3a be 56 ff 66 be 3b c0 35 be
       -0.13949735 -0.1825371 -0.2255834 -0.17749111
000230 8e 9c 27 be 5c b3 43 3e d1 5d 77 bd bd 0e 26 be
       -0.16368315 0.19111389 -0.060392205 -0.1621656
000240 8a eb 10 be 3b c8 f5 bd 3a 05 4a be a4 eb bf be
       -0.14152351 -0.120010816 -0.19728556 -0.37484467
000250 6b 00 aa bd b1 be 06 be c0 55 54 be e1 b3 93 bc
       -0.08300861 -0.1315868 -0.20735836 -0.018030109
000260 92 ce 81 be b2 b3 47 be 38 86 d0 bd 01 75 4b be
       -0.25352913 -0.19502142 -0.1018185 -0.19868852
000270 d0 fa 6b be c5 38 99 bd 1f d3 33 be 37 e8 09 be
       -0.23044896 -0.07481531 -0.17561005 -0.13467489
000280 20 90 02 be fa b4 8c bc 65 25 88 bd 46 38 e0 bd
       -0.12750292 -0.01717614 -0.066477574 -0.10948233
000290 83 ca 81 bd e4 55 35 be 67 b4 d0 bc a2 5c 03 be
       -0.06337454 -0.17708546 -0.025476648 -0.12828305
0002a0 1d 73 28 be 2e 51 20 be 4c 69 e9 bd 7a c0 f9 bd
       -0.16450162 -0.15655968 -0.11397037 -0.12194915
0002b0 20 0d 8b 3c a5 b3 37 be fa 0c a4 bd 2b 8c 4b be
       0.016974032 -0.17939623 -0.080102876 -0.19877689
0002c0 96 3f 19 be 3a 1a a5 bd 45 08 2f be 4e 17 9b bd
       -0.14965662 -0.08061643 -0.17092998 -0.075728044
0002d0 49 50 18 be c7 21 63 3b f5 ea e7 bd 7f c2 4f be
       -0.14874376 0.0034657584 -0.11324111 -0.20289038
0002e0 6f a9 37 be 0e 33 e8 bc 51 e8 04 be 8c 2a 42 be
       -0.17935728 -0.028344657 -0.12979247 -0.18961543
0002f0 a1 b4 90 bd 65 1b 87 be 2f c9 9e be 46 aa 8c bd
       -0.07065702 -0.26388088 -0.31012866 -0.068684146
000300 21 09 83 bc 18 cd 0a be 9f 4e 72 be 08 8a 1c bd
       -0.015995564 -0.135548 -0.23662804 -0.038217574
000310 96 99 21 bd 6f a5 26 be b9 a0 bb bd f7 3a 5e be
       -0.03945311 -0.16274045 -0.09161515 -0.21702181
000320 77 1d 72 bd a5 34 38 be 20 13 e6 bd 2e 35 54 be
       -0.05911013 -0.17988832 -0.112341166 -0.20723411
000330 c8 4e 7a bd cf 96 82 bd 90 14 2d be 00 76 7f bd
       -0.061110288 -0.06376421 -0.16902375 -0.062368393
000340 93 99 f7 bd f1 72 b4 3d 67 30 05 be 70 f7 10 be
       -0.12089839 0.08810986 -0.13006745 -0.1415689
000350 df 13 f2 bd 61 3f aa be a9 4c bb bd bb 2f 18 be
       -0.11820196 -0.3325148 -0.09145481 -0.14861958
000360 08 1d 2e be 2c 0e 1e be 89 10 44 be 51 98 8e bd
       -0.17003262 -0.15435094 -0.19146933 -0.06962646
000370 c3 c8 8e 3d 4e 63 5c bd 22 37 26 bd a1 9c d8 bd
       0.06971886 -0.05380564 -0.040579922 -0.105767496
000380 69 ba 1c be 9e ac 3b be 9a 02 9d 3c 92 35 08 be
       -0.15305485 -0.18327567 0.01916628 -0.13301685
000390 11 82 00 be 82 bc 04 be 5b 1b 45 be be e2 5e bd
       -0.12549616 -0.12962535 -0.19248717 -0.054415457
0003a0 f1 c8 f2 bd c5 9d 4a be c6 6b 39 be 4d 1e 3b be
       -0.11854733 -0.19786747 -0.18107519 -0.18273278
0003b0 8a f8 05 be 0c ce a9 bd 2e 5c bf bd f4 a0 20 be
       -0.13083091 -0.082912534 -0.09343754 -0.15686399
0003c0 10 a0 14 be df 22 d1 bd a7 3a 29 be 9c 6d 4a be
       -0.14514184 -0.10211729 -0.1652628 -0.19768375
0003d0 25 fa c2 bd 9a 26 20 be be 66 22 be 0e ee ee bd
       -0.095203675 -0.15639725 -0.15859506 -0.11666499
0003e0 ec ff 52 be 49 04 da bd 47 c1 0e be 9a 05 80 be
       -0.20605439 -0.106453486 -0.13940917 -0.25004274
0003f0 d1 29 04 be 37 2c 2c be b1 6d 3d be 5e fb 3f be
       -0.12906577 -0.16813742 -0.18498875 -0.18748233

fc2.weight f4 [5, 256]
000000 e6 89 2c 3d ca 52 64 bd 6c 4f 69 3d 00 20 b6 3a
       0.042123698 -0.055743016 0.05696051 0.0013895035
000010 ca 1d 1e bd 80 32 0f 3d 0c 05 4b 3d 64 ce da 3c
       -0.038602628 0.03496027 0.04956536 0.026709743
000020 80 8b 34 3c d8 1b 20 3d 50 3b 15 bc f0 d7 cf 3b
       0.0110195875 0.039089054 -0.0091083795 0.0063428804
000030 f4 b3 ff 3c 00 50 41 3c 64 3a 2d bd e0 49 f7 3b
       0.031213738 0.011798859 -0.042292014 0.0075466484
000040 30 5d 81 3b 48 4b 56 3c 42 45 7e bd 0c 67 61 3d
       0.0039478764 0.013079472 -0.06207777 0.055029914
000050 e0 c8 3a bd d6 c4 3d 3d ec 45 63 bd 42 d4 50 bd
       -0.045601726 0.046330296 -0.055486605 -0.050983675
000060 b4 f0 cb bc f0 cf a7 bb f4 65 90 3c c4 94 ba bc
       -0.02489505 -0.0051212236 0.01762674 -0.022776015
000070 0e 13 49 3d 1c a4 21 bd f8 c6 fe bc b4 96 4a 3d
       0.049090438 -0.039463148 -0.031100735 0.049460128
000080 06 d8 0f bd 0c 60 06 3d 30 32 cb bc ec 5e 56 3d
       -0.035118125 0.03280644 -0.024804205 0.05233662
000090 c6 01 65 bd d8 43 d8 bc ca 6d 7d 3d 6a 7e 0c bd
       -0.055909894 -0.026399538 0.06187228 -0.034300245
0000a0 68 91 1d 3c b0 36 66 3c b0 73 2c 3d a4 28 55 bd
       0.009617187 0.014051124 0.042102516 -0.05204071
0000b0 00 d8 56 bb f0 de c9 3b 7c bc 50 3d 1e 2c 3b bd
       -0.0032782555 0.0061606094 0.050961003 -0.04569637
0000c0 4e 98 4e 3d 86 38 38 bd b8 2f 07 bd 00 c6 e8 ba
       0.050438218 -0.04497578 -0.033004493 -0.0017759204
0000d0 50 be d3 bb a4 43 90 3c 24 7b 7b bd 58 96 5c bc
       -0.006461896 0.017610379 -0.061396733 -0.013463579
0000e0 2c da 55 bd 46 c3 5b bd 08 d3 ab bc be e4 57 bd
       -0.052210018 -0.053653024 -0.020974651 -0.05270838
0000f0 24 0c ac bc 78 57 0d 3c c0 18 0b 3d d2 8e 37 3d
       -0.021001883 0.008626811 0.03395915 0.04481394
000100 10 91 fe 3c 34 99 24 bd 38 c4 3f 3d 04 33 39 3d
       0.03107503 -0.04018517 0.04681799 0.045214668
000110 00 0e 45 b9 f0 71 52 3c c4 5e eb 3c 80 66 6a bc
       -0.000187926 0.012844548 0.028731711 -0.0143066645
000120 c4 16 f1 bc f0 89 43 3c 96 13 6e bd 4a 50 26 bd
       -0.0294298 0.011934742 -0.058124147 -0.040603913
000130 d6 bc 7c 3d b2 45 71 3d 80 17 ff ba a4 90 0f 3d
       0.061703525 0.058904357 -0.001946196 0.03505005
000140 68 aa 5b bd d0 ab af 3c 86 ac 58 bd 84 6c 47 3d
       -0.05362931 0.021444231 -0.052898906 0.048687473
000150 c2 83 12 bd f2 06 10 bd ac 38 db 3c 2e e3 76 bd
       -0.035770185 -0.035162874 0.026760422 -0.06027525
000160 10 b7 3f bc 62 97 54 3d 68 b1 8f 3c e8 e7 55 bc
       -0.01170136 0.051902182 0.017540649 -0.013055779
000170 34 4b a8 3c 30 98 df 3c a8 ed 68 bc 70 e4 a6 bc
       0.020543672 0.027294248 -0.014216818 -0.0203726
000180 68 90 35 3d 20 16 81 3c 20 2d 61 3d 78 5f 67 bc
       0.04432717 0.01575762 0.054974675 -0.014121883
000190 20 e1 07 3d b0 64 20 bc 6a 5c 18 3d 48 6e 0b bd
       0.03317368 -0.009789631 0.037197508 -0.03404072
0001a0 8c 91 1e 3d fe 93 5d bd 18 b4 1b 3c 80 61 ff 3a
       0.038713023 -0.054096214 0.009503387 0.0019484013
0001b0 7c 65 22 3d 68 86 94 3c b8 98 78 3c 70 57 1f bc
       0.039647564 0.018130496 0.01517313 -0.009725437
0001c0 fe 64 53 bd 56 80 46 bd a0 c6 71 bd e0 bc 46 bb
       -0.051609986 -0.048462234 -0.059027314 -0.003032498
0001d0 68 d9 ac bc 44 32 e6 bc 58 9d 77 bc a0 eb 81 3c
       -0.021099761 -0.02810014 -0.015113197 0.015859425
0001e0 28 a5 64 bc 90 3f 7a bc bc 71 da bc e2 92 26 3d
       -0.013955392 -0.015273944 -0.02666556 0.040667422
0001f0 80 39 07 3a 38 dc e0 3c be 8c 60 3d d4 76 b6 bc
       0.00051584095 0.027448758 0.054821722 -0.022273459
000200 60 26 38 bb e0 6d 41 bd 18 d4 2e 3d 28 65 2b 3c
       -0.0028099045 -0.047223926 0.042682737 0.010461129
000210 5a 23 6e bd e4 2b 14 3d b0 97 da 3b d4 bb 26 bd
       -0.058139183 0.03617467 0.0066709146 -0.04070647
000220 b8 a3 5b bc 94 37 15 3d e8 42 f7 3c f8 ca 7d 3c
       -0.013405733 0.036429957 0.03018327 0.015490286
000230 f4 74 ea 3c 68 90 c6 3c 88 32 72 bc 2c 53 a9 bc
       0.02862022 0.02423878 -0.014782555 -0.020669542
000240 ec 32 41 bd e4 eb 2c bd 00 c2 e1 bb e0 d1 d3 bc
       -0.047167704 -0.04221715 -0.0068895817 -0.025856912
000250 c6 de 73 bd d6 5e 5b bd b4 4f c3 bc 7c 83 4c bd
       -0.059538625 -0.05355724 -0.023841716 -0.04993008
000260 12 9d 64 bd 10 a0 3c 3d a4 9a b4 3c c0 2e 91 3b
       -0.055813856 0.046051085 0.022046395 0.004430622
000270 70 9b dc 3b 80 03 9a 3c c6 4a 2f 3d a0 4c 97 3b
       0.006732397 0.018800497 0.04279592 0.0046172887
000280 14 4a af 3c 28 a4 7a 3d 9a 99 0a 3d c0 de e9 3c
       0.021397628 0.061191708 0.033837892 0.028548598
000290 54 2a 18 3d 58 90 44 bd 7e bd 37 bd 84 55 ef bc
       0.037149742 -0.04798922 -0.04485845 -0.029215582
0002a0 a0 36 4a bd 08 dd 93 bc 24 f4 4e 3d 80 81 4d ba
       -0.0493685 -0.018049732 0.0505258 -0.00078394264
0002b0 72 8f 30 bd 0a 48 49 bd 44 b0 02 bd 40 84 73 3d
       -0.04310555 -0.049140967 -0.03190638 0.059452295
0002c0 80 bb 79 3c 50 a9 0f bd 68 99 31 3c d6 14 4c bd
       0.015242457 -0.03507358 0.010839798 -0.04982456
0002d0 44 85 4a 3d 96 18 48 bd 34 8c 7b 3d 88 6a dc bc
       0.0494435 -0.048851572 0.061413005 -0.026906267
0002e0 72 0e 66 3d cc 5b 29 bd 90 eb 92 bb c6 2f 25 bd
       0.05616612 -0.04134731 -0.0044836476 -0.040328763
0002f0 a0 0f cf bb 7c c8 ee bc fe 24 10 bd d4 c8 32 bd
       -0.0063190013 -0.029148333 -0.03519153 -0.043648556
000300 a6 c7 43 3d 5a 9e 14 3d 68 08 6b bd 80 d6 4f 3d
       0.04779782 0.03628383 -0.057381064 0.050741673
000310 92 12 03 3d 40 c9 ac bc c8 3d 22 3c ae b6 73 bd
       0.032000132 -0.021092057 0.009902425 -0.05950039
000320 b8 e7 29 3d d8 00 df bc b4 39 a2 3c cc 0f 1d 3d
       0.04148075 -0.027222082 0.019802906 0.038345143
000330 4c 23 6b bd bc cb 23 3d c6 4f 1e bd 80 40 0b 3b
       -0.05740671 0.039989218 -0.038650297 0.0021248162
000340 5e ff 20 3d 98 af 18 3d 50 ee 83 3b dc 18 4a 3d
       0.039306037 0.037276834 0.004026212 0.049340114
000350 9e 7c 38 bd 74 d6 ec bc 68 b9 6f 3c 82 37 0a 3d
       -0.04504072 -0.028910853 0.014631607 0.033744343
000360 94 df 2a 3d 56 e5 6c bd f6 89 40 3d 26 2f 6d 3d
       0.041717127 -0.0578359 0.04700657 0.057906292
000370 f0 cd 5b bd c8 ea 49 3d ac 74 67 3d 58 73 51 bc
       -0.053663194 0.04929617 0.05650775 -0.012783848
000380 20 c0 f6 3b ec 3f 60 bd 74 42 59 bd e2 21 43 bd
       0.0075302273 -0.05474846 -0.05304189 -0.047639735
000390 50 41 85 bb 04 a6 26 bd 10 3c 6e bd 70 48 5b 3d
       -0.0040666237 -0.04068567 -0.05816275 0.05353588
0003a0 d8 54 f1 3c 3c b3 82 3c f2 ee 1b bd c4 6d 51 3d
       0.029459402 0.015954606 -0.038069673 0.05113007
0003b0 d0 2e e9 3c a2 fd 1c bd 20 df 70 bd 80 51 f7 bc
       0.028464705 -0.03832782 -0.05880654 -0.03019023
0003c0 78 bc 62 bc d0 51 79 3d 74 b6 e3 3c 20 18 69 3b
       -0.01383888 0.060869038 0.027796961 0.0035567358
0003d0 ee 24 63 bd a0 22 55 3d 70 1c 17 bc 14 e4 85 bc
       -0.05545514 0.052034974 -0.009223089 -0.016344108
0003e0 a4 0c c7 3c 00 b5 93 bc 8a 94 76 3d 48 b2 77 bd
       0.02429802 -0.018030643 0.06020025 -0.060472757
0003f0 40 91 b2 bb 3a b9 6a 3d 44 d2 eb bc 8c f0 13 bd
       -0.005449444 0.057305552 -0.028786786 -0.036118075

fc2.bias f4 [5]
000000 0c 71 a8 bc 60 48 48 3d d4 f7 01 bd 0a fc 52 bd
       -0.020561717 0.048897147 -0.031730488 -0.051509894
000010 e7 00 d2 3d
       0.10254078
