Models/Torch2/my_model39000.pth (torch_old, 60054 bytes, 8 tensors)

conv1.weight f4 [16, 2, 3, 3]
0	0x3e8ef549	0.27921513
1	0xbef0e0df	-0.47046563
2	0xbe2c2917	-0.1681255
3	0x3e8ae1ac	0.271253
4	0xbd275231	-0.04084987
5	0xbea4b157	-0.3216655
6	0xbe561d43	-0.209096
7	0xbea6dd85	-0.3259088
8	0xbe1eb3be	-0.15498254
9	0xbe2bd9a6	-0.16782245
10	0x3f3c8f46	0.7365612
11	0x3f3d7559	0.74007183
12	0xbd7ad508	-0.06123832
13	0xbe6b5293	-0.22980718
14	0x3d543d9c	0.051816568
15	0x3d89de30	0.06731832
16	0xbb8a265d	-0.004215999
17	0x3ba7011c	0.005096568
18	0xbec4931a	-0.3839348
19	0xbec56cf7	-0.38559696
20	0xbdf1635e	-0.11786531
21	0x3f706f1f	0.9391956
22	0x3e8cabb5	0.27474752
23	0x3f0af6a1	0.54282576
24	0x3efc91f5	0.49330106
25	0x3f4a9f0e	0.7914895
26	0x3d9591a6	0.07303171
27	0x3eaa40ec	0.33252656
28	0xbeef76ad	-0.4677023
29	0x3ed82605	0.42216507
30	0x3d49bb20	0.049250722
31	0x3e3d443b	0.18483059
32	0xbf608ec4	-0.87717843
33	0x3d917f22	0.07104327
34	0x3e63bfe5	0.2224117
35	0xbf34a480	-0.7056351
36	0x3f3cb7de	0.7371806
37	0x3f4a165f	0.78940386
38	0x3f04d191	0.5188227
39	0xbec1e086	-0.3786661
40	0xbed95436	-0.4244706
41	0xbe2dc802	-0.16970828
42	0x3ef5dbb7	0.48019192
43	0x3edc94cd	0.43082276
44	0xbddc1c1e	-0.107475504
45	0xbc8d981e	-0.01728445
46	0x3edf358b	0.43595538
47	0xbf2858b5	-0.65760356
48	0x3e994cb4	0.29941332
49	0xbf04c56c	-0.5186374
50	0x3e4ccdc4	0.20000368
51	0x3d4275cd	0.047475625
52	0x3e1d7ae1	0.15378906
53	0xbef87a43	-0.48530778
54	0x3e85bc99	0.2612045
55	0xbe5b824b	-0.21436422
56	0xbdba86da	-0.09107752
57	0x3ef7bb1c	0.4838494
58	0x3e9b5dc1	0.30344966
59	0xbdba9544	-0.091105014
60	0xbcb5921f	-0.022164403
61	0x3ed337cf	0.41253516
62	0x3f129c39	0.57269627
63	0xbdb9d0d6	-0.090730354
64	0xbdd5946e	-0.10428701
65	0x3ee9440e	0.45559734
66	0xbdd69ce3	-0.104791425
67	0x3d884bc5	0.06655077
68	0x3eea85f7	0.45805332
69	0xbe16daa8	-0.14731848
70	0x3e42f3b5	0.1903828
71	0xbe22230a	-0.15833679
72	0xbe2eb65e	-0.17061755
73	0xbe2ee153	-0.17078142
74	0x3f22a6ab	0.63535565
75	0xbe2a81f3	-0.16651134
76	0x3dd6fdd9	0.10497636
77	0xbd62340f	-0.05522543
78	0xbe2634e4	-0.16231114
79	0x3ed23ad6	0.41060513
80	0xbd5634e3	-0.05229653
81	0x3c4c9b9a	0.01248827
82	0xbea9281f	-0.33038422
83	0x3e6b9a54	0.2300809
84	0x3d0fe53e	0.03513073
85	0x3dfde807	0.12397771
86	0xbe33fb5f	-0.17576359
87	0x3dc003b6	0.09375708
88	0x3ca0c909	0.019627111
89	0xbe8ba10e	-0.27271312
90	0x3f055b01	0.52091986
91	0xbe05ab3c	-0.13053602
92	0xbdf40fcf	-0.11917078
93	0x3f4532c0	0.77030563
94	0x3e6d1d95	0.23155816
95	0x3f2a2a0e	0.6647042
96	0xbe5bb4f5	-0.21455748
97	0x3f10d1ad	0.5656994
98	0xbe6b8a82	-0.23002055
99	0xbeff72c3	-0.49892244
100	0xbec139f6	-0.37739533
101	0xbed57dc1	-0.41697505
102	0xbd1343a7	-0.03595319
103	0xbf430f6e	-0.7619542
104	0x3dddde34	0.108333975
105	0xbda9bc5a	-0.08287878
106	0x3d604300	0.054751396
107	0xbc3fb22e	-0.011700196
108	0x3df47410	0.119362
109	0xbdab38e6	-0.08360462
110	0xbd180e98	-0.037123293
111	0xbdb91f54	-0.090391785
112	0x3da9675d	0.08271668
113	0xbe2aa890	-0.16665864
114	0x3df19e1b	0.11797734
115	0x3eabdbb1	0.3356605
116	0x3dd1600e	0.10223399
117	0x3d2048df	0.039131995
118	0xbddb9b16	-0.1072294
119	0x3dce3517	0.1006872
120	0x3e241e1f	0.16027115
121	0x3e87dfcb	0.26537928
122	0xbe57a846	-0.21060285
123	0xbdbdab53	-0.09261193
124	0xbe401b3a	-0.18760386
125	0xbe1a20ef	-0.15051626
126	0xbdad2e8a	-0.08456142
127	0x3e0867dc	0.13320869
128	0xbdc027dd	-0.09382603
129	0xbe26db61	-0.16294624
130	0x3eee9eaf	0.4660544
131	0xbdba4ae0	-0.090963125
132	0xbd204562	-0.03912867
133	0xbde73fed	-0.1129149
134	0x3f00ccc5	0.50312454
135	0xbd6dbf91	-0.05804402
136	0xbea35c73	-0.3190647
137	0xbe2b8804	-0.16751105
138	0xbba22649	-0.0049484116
139	0xbe468539	-0.19386758
140	0xbec94a68	-0.3931458
141	0xbd9728eb	-0.07380851
142	0xbe2c3cf1	-0.16820122
143	0xbe01bbf1	-0.1266935
144	0x3c84a34e	0.016191151
145	0xbd3bf3b3	-0.045886707
146	0xbde68a63	-0.11256864
147	0xbe80606d	-0.25073567
148	0xbd4c5560	-0.049886107
149	0xbddeadc6	-0.108729884
150	0x3df1d592	0.118083134
151	0xbe9701c2	-0.2949353
152	0xbe41544d	-0.18879814
153	0xbcd9b14e	-0.026573803
154	0xbe13bd44	-0.14427668
155	0x3f2ab38f	0.66680235
156	0x3e3898f8	0.18027103
157	0x3f05b895	0.52234775
158	0x3f0282e3	0.5098097
159	0x3c722f7a	0.014781827
160	0x3eba8dd1	0.36436322
161	0xbcf5ea08	-0.030018821
162	0xbf0fbe52	-0.5614978
163	0x3d8b3816	0.06797807
164	0x3d93b05a	0.07211371
165	0x3ef9ef43	0.48815355
166	0xbe7537d5	-0.2394708
167	0x3e33fd85	0.17577179
168	0xbedaaad7	-0.42708465
169	0x3ed29144	0.41126454
170	0x3dea371a	0.11436291
171	0xbdf6126b	-0.12015232
172	0xbebf369b	-0.37346348
173	0x3f28282a	0.65686285
174	0x3d60bf63	0.05487002
175	0x3e244c3f	0.1604471
176	0xbed1f4a0	-0.41006947
177	0x3d2dd535	0.04243966
178	0xbdccde83	-0.10003378
179	0x3f0fa85b	0.56116265
180	0xbd646795	-0.055762846
181	0x3da7209b	0.08160516
182	0xbd6cd829	-0.057823334
183	0x3f233730	0.63756084
184	0xbc24b505	-0.010052924
185	0xbe6fc4d7	-0.23414932
186	0x3f365449	0.7122236
187	0xbdfdc6f3	-0.12391462
188	0xbe115287	-0.14191638
189	0x3f2268bc	0.6344106
190	0xbe03f91f	-0.12888001
191	0xbda91ab3	-0.082570456
192	0x3e7b6b03	0.2455254
193	0x3f2341ac	0.6377208
194	0x3ed5d5e1	0.4176474
195	0x3db6401e	0.08898948
196	0x3f21c31c	0.6318834
197	0x3ed585ed	0.4170374
198	0x3e6acdce	0.22930071
199	0x3d9a3a44	0.075306445
200	0x3e18e7d9	0.14932193
201	0x3eb2f086	0.3494913
202	0xbeb227da	-0.3479603
203	0x3ee70ffd	0.45129386
204	0xbe820883	-0.2539712
205	0x3e3ed608	0.18636334
206	0xbc76a561	-0.015054078
207	0x3eb327e0	0.3499136
208	0x3f102276	0.56302583
209	0xbd49d607	-0.049276378
210	0xbd7e826d	-0.062136102
211	0x3e3e7fc7	0.1860343
212	0x3f0a110d	0.5393227
213	0x3ddf9acf	0.10918199
214	0xbdff3c5b	-0.12462684
215	0x3d8b19cd	0.067920305
216	0xbe7518f7	-0.23935305
217	0xbe182d5c	-0.14861053
218	0x3c1777ac	0.009244841
219	0x3eb6153d	0.3556308
220	0x3dd7036c	0.104986995
221	0xbe34054b	-0.17580144
222	0x3edf26ac	0.43584192
223	0x3eace333	0.3376709
224	0x3de9e1c0	0.114200115
225	0xbdcc2f7f	-0.09969997
226	0xbda3a73f	-0.07990884
227	0xbe0523b8	-0.13001907
228	0xbe1179be	-0.14206597
229	0xbe134506	-0.14381799
230	0x3f30a27d	0.6899794
231	0xbe53b1ce	-0.20673296
232	0xbd74b16e	-0.059739523
233	0x3eacf737	0.3378236
234	0xbd4df788	-0.050284892
235	0xbe1c148a	-0.1524221
236	0xbe3a9b0d	-0.1822321
237	0xbebb8613	-0.36625728
238	0x3f3ba41f	0.73297304
239	0x3eef502d	0.46740857
240	0x3f6b20ae	0.9184674
241	0xbf1e0d1e	-0.61738765
242	0x3f01ac8a	0.506539
243	0xbdd262ac	-0.102727264
244	0xbe33b2bd	-0.17548652
245	0xbe9f6e50	-0.3113885
246	0x3d937191	0.071993954
247	0x3daea44d	0.08527432
248	0xbf5e5ddf	-0.86861986
249	0x3e0080ac	0.12549084
250	0x3eabd50d	0.33560982
251	0x3f20329a	0.6257721
252	0xbd7ec124	-0.062195912
253	0xbe64557c	-0.22298235
254	0x3dad0c6d	0.08449636
255	0xbd77a8b8	-0.060463637

conv1.bias f4 [16]
0	0xbe902b12	-0.2815786
1	0xbdac98e6	-0.084276006
2	0xbdc776ff	-0.097394936
3	0xbf12d5e9	-0.5735765
4	0xbe3e4c96	-0.18583903
5	0xbdd8ef8a	-0.105925635
6	0xbe760ad0	-0.24027562
7	0xbc87b098	-0.016563699
8	0xbdcb6e7a	-0.09933181
9	0xbe5c6562	-0.2152305
10	0xbf3c4692	-0.7354518
11	0xbeee1e5d	-0.4650754
12	0xbec6f568	-0.38859105
13	0xbcc80412	-0.024416003
14	0xbe817f19	-0.2529228
15	0xbf2f60a4	-0.68506837

conv2.weight f4 [32, 16, 3, 3]
0	0x3eee83ff	0.4658508
1	0xbe32b298	-0.1745094
2	0x3e705dda	0.23473302
3	0x3edb55dd	0.42838946
4	0xbdad10b2	-0.0845045
5	0x3e97a19b	0.29615483
6	0xbdc60df3	-0.09670629
7	0x3d162aea	0.03666202
8	0x3e3049ad	0.17215605
9	0x3e4e7553	0.20161943
10	0xbf068bc6	-0.5255703
11	0xbdd08b04	-0.10182765
12	0xbe2267cf	-0.15859912
13	0x3d99422c	0.074833244
14	0xbe75c909	-0.2400247
15	0x3f1cbe59	0.6122795
16	0xbe29799d	-0.16550298
17	0x3f0d4f5a	0.55199206
18	0x3f21bcdd	0.6317881
19	0xbddf7846	-0.10911612
20	0x3e5d381f	0.2160344
21	0x3eb3936a	0.35073406
22	0xbe4ec6e5	-0.2019306
23	0xbe0ca58d	-0.13735028
24	0x3da5b272	0.08090676
25	0xbf0c2433	-0.54742736
26	0x3e2a2e0c	0.16619128
27	0xbd98b437	-0.07456248
28	0x3e159100	0.14606094
29	0x3dc09f7d	0.0940542
30	0x3da10af8	0.0786342
31	0x3bec3056	0.0072079105
32	0x3d1bb00c	0.03800969
33	0x3e0158fc	0.12631601
34	0x3c4ddbcd	0.012564612
35	0x3d9931c7	0.074801974
36	0x3d8e34a5	0.06943635
37	0xbe4030e1	-0.18768646
38	0x3e9b2ff0	0.3031001
39	0x3db24afc	0.087057084
40	0xbd96880a	-0.07350166
41	0xbe1ea7d0	-0.15493703
42	0xbde05234	-0.10953179
43	0xbca06d91	-0.019583495
44	0x3d895e0b	0.067073904
45	0xbecb4c55	-0.39706674
46	0x3e1923fb	0.14955132
47	0xbf1e4cab	-0.61835736
48	0xbf2ab695	-0.6668485
49	0xbe36efe6	-0.17864951
50	0xbe3827d0	-0.17983937
51	0xbd9dab0a	-0.07698639
52	0x3d685a9b	0.056727033
53	0xbef4c203	-0.4780427
54	0xbd81ea56	-0.06343524
55	0xb93224f9	-0.00016989176
56	0x3db9174a	0.09037645
57	0xbdd8b1ca	-0.105807856
58	0xbc3d7d2f	-0.011565491
59	0xbceadd75	-0.028670052
60	0xbd21ce60	-0.039503455
61	0x3d960e5a	0.07326956
62	0x3bf2d3fe	0.0074105253
63	0x3b8ae448	0.004238639
64	0xbd3e13ee	-0.046405725
65	0xbc9e073d	-0.01929056
66	0x3dcb3dd4	0.09923902
67	0xbccedc46	-0.025251519
68	0xbcbccf94	-0.0230482
69	0x3dcf1cfe	0.10112952
70	0xbe724600	-0.23659515
71	0x3ddfcbf8	0.10927576
72	0xbbe65a03	-0.007029773
73	0x3dda1994	0.1064941
74	0xbe842e01	-0.25816348
75	0x3c9f550b	0.019449731
76	0x3a90d036	0.001104838
77	0x3e78a322	0.2428098
78	0x3e35a2e3	0.17737918
79	0x3b43c675	0.0029872928
80	0x3e59c16a	0.21265188
81	0x3ded3d3c	0.11583945
82	0xbde8d58d	-0.113688566
83	0xbe33eaae	-0.17569992
84	0xbe0c6117	-0.13708912
85	0x3e789bfa	0.2427825
86	0xbe9669e3	-0.2937766
87	0x3cee845d	0.02911585
88	0x3b695dd4	0.0035608904
89	0xbe25d440	-0.16194248
90	0x3eeaf01f	0.45886323
91	0xbe54df30	-0.20788264
92	0x3d38594f	0.045007046
93	0x3eab8689	0.3350108
94	0xbe4a7bff	-0.19773863
95	0xbc8b4daa	-0.017004807
96	0x3f01900c	0.50610423
97	0xbe401aad	-0.18760176
98	0x3ecf4eac	0.4048971
99	0x3e8aa3b0	0.2707801
100	0xbd01555e	-0.031575553
101	0x3d09f762	0.03368319
102	0x3e322069	0.17395176
103	0x3db17b9f	0.08666157
104	0xbdd270f3	-0.102754496
105	0x3dfc8f65	0.12332038
106	0xbe16c458	-0.14723337
107	0x3d83b86f	0.06431662
108	0xbe2fe69e	-0.17177817
109	0x3de0f241	0.10983706
110	0xbd8bb138	-0.06820911
111	0x3cd7aa36	0.02632628
112	0x3d3213a8	0.043475777
113	0xbb907bcd	-0.0044092895
114	0xbd29c323	-0.041445863
115	0x3e12b63f	0.14327334
116	0xbdef9a25	-0.116993226
117	0xbd8391b3	-0.06424274
118	0xbe389634	-0.18026048
119	0xbeced332	-0.40395504
120	0x3da21a08	0.07915121
121	0xbd4bc752	-0.049750634
122	0x3e96f04a	0.294802
123	0x3f11895f	0.56850237
124	0xbe139c56	-0.14415106
125	0x3eaadc86	0.3337137
126	0xbdfce416	-0.123481914
127	0xbda12072	-0.078675166
128	0xbdf4c182	-0.11950971
129	0xbe2e9585	-0.17049225
130	0x3ddda8d4	0.10823217
131	0xbe41f673	-0.18941669
132	0xbde4bcb8	-0.11168808
133	0x3e059381	0.1304455
134	0xbe32da7a	-0.17466155
135	0x3eec60e4	0.46167672
136	0xbf09ce46	-0.53830373
137	0x3e89788c	0.26849782
138	0x3ee2104d	0.44153062
139	0xbe677a72	-0.22605303
140	0x3ee967ac	0.45586908
141	0x3e1d7a0e	0.15378591
142	0xbda69d38	-0.08135456
143	0x3de7ce93	0.11318698
144	0x3e368055	0.17822392
145	0xbd59edb3	-0.053205203
146	0x3dd08616	0.10181825
147	0x3e5a526a	0.21320501
148	0xbe3d7675	-0.18502219
149	0x3e6aa6b0	0.22915149
150	0xbcb1ca19	-0.021702813
151	0xbc83327c	-0.016015284
152	0x3df65f1e	0.12029861
153	0x3eb9a414	0.36257994
154	0xbe1d2bec	-0.15348786
155	0x3e944d58	0.2896526
156	0xbe3e5fee	-0.18591282
157	0xbd89b2c6	-0.067235515
158	0x3d80ca35	0.06288568
159	0x3e30683e	0.17227265
160	0xbe26b0ee	-0.16278431
161	0x3e4a48b2	0.19754294
162	0x3e3a808f	0.18213104
163	0xbe17f5c4	-0.14839846
164	0x3e0056a8	0.12533057
165	0x3ef457c8	0.47723222
166	0xbcafc29d	-0.021455104
167	0x3edd88f7	0.43268558
168	0x3d6092dc	0.054827556
169	0xbe993d2b	-0.2992948
170	0x3d62d408	0.05537799
171	0xbc269ebf	-0.010169684
172	0x3bbfcc25	0.0058531933
173	0xbe0fe7da	-0.14053288
174	0xbd8545b2	-0.06507434
175	0x3bd21a29	0.00641181
176	0x3d8db9f5	0.06920234
177	0x3cc5a381	0.024125816
178	0x3c0b9af3	0.0085208295
179	0x3d7097fb	0.05873869
180	0x3e3341f3	0.17505626
181	0xbe56f33b	-0.20991223
182	0x3ccc3561	0.024927797
183	0x3e0a89dc	0.13529152
184	0xbdef2f93	-0.11678996
185	0x3e747ec4	0.23876482
186	0xbd71aa40	-0.059000254
187	0xbdf4e15f	-0.119570486
188	0xbd00932c	-0.031390354
189	0x3e40d3a7	0.18830739
190	0x3e2e53f8	0.17024219
191	0x3d13233e	0.03592228
192	0x3dd6df33	0.104917906
193	0x3de5bf71	0.11218155
194	0xbd9502b6	-0.07275908
195	0x3dcd2878	0.100174844
196	0x3e254ac4	0.16141802
197	0xbc50d858	-0.012746893
198	0x3bd75e7a	0.006572542
199	0xbc98cd59	-0.018652605
200	0x3dc3fa59	0.095692344
201	0x3bfcbb18	0.007712733
202	0xbc8f1c33	-0.017469501
203	0x3d09f2f7	0.033678975
204	0xbd8778a0	-0.06614804
205	0x3d1f4d06	0.038891815
206	0xbd2edd62	-0.042691596
207	0x3e6e2b30	0.23258662
208	0xbe59f95d	-0.21286531
209	0x3e779256	0.24176916
210	0x3e6496fc	0.22323221
211	0x3d8a075a	0.067396834
212	0xbc1e7005	-0.009670262
213	0x3e55a5bc	0.20864004
214	0xbd8b4daf	-0.06801926
215	0x3da10343	0.0786195
216	0xbd439cb5	-0.04775687
217	0x3dd8697c	0.105669945
218	0xbd1d237b	-0.038363915
219	0xbd322ab3	-0.043497752
220	0x3dac3405	0.084083594
221	0xbdaec930	-0.08534467
222	0x3e115efa	0.14196387
223	0x3e28e685	0.16494186
224	0x3d71c389	0.059024367
225	0x3dd79caf	0.10527932
226	0x3e181d21	0.14854862
227	0x3db94510	0.09046376
228	0xbdc3cf37	-0.095610075
229	0x3dd4de32	0.10393943
230	0xbd3fa95e	-0.04679238
231	0xbcda7b50	-0.026670128
232	0x3e2061b4	0.15662271
233	0xbde89016	-0.11355607
234	0x3e74235a	0.2384161
235	0xbda151b5	-0.078769125
236	0x3ccf0f11	0.025275739
237	0x3e0a9a28	0.13535368
238	0xbda3f61d	-0.08005927
239	0xbd3ba3ca	-0.0458105
240	0x3e5ba87e	0.21450993
241	0xbd865d36	-0.06560747
242	0x3eab8dc2	0.3350659
243	0x3e4fa9c5	0.20279606
244	0x3d40c353	0.047061276
245	0x3e7fe50d	0.2498972
246	0x3d81b864	0.06333998
247	0x3ccf50ef	0.025307147
248	0x3d2da775	0.042396028
249	0x3e37171e	0.17879912
250	0xbdc7e56b	-0.09760555
251	0x3e14f968	0.14548266
252	0x3c603fb3	0.013687062
253	0x3e06457e	0.13112447
254	0xbe250f32	-0.16119078
255	0xbdc1e8aa	-0.09468205

conv2.bias f4 [32]
0	0x3edd036a	0.43166667
1	0x3cd0cc88	0.025488153
2	0xbce6f952	-0.028195057
3	0xbe907679	-0.28215387
4	0xbe083295	-0.13300546
5	0x3e6a5562	0.22884133
6	0xbde51a7a	-0.11186691
7	0x3e2cdbb9	0.16880693
8	0xbe3bfde6	-0.18358573
9	0x3d2812c9	0.04103354
10	0x3da6a1ad	0.08136306
11	0xbe25538c	-0.16145152
12	0xbbd4b00b	-0.0064907125
13	0x3e445380	0.19172478
14	0xbce67a67	-0.028134538
15	0xbde49795	-0.111617245
16	0xbd398982	-0.045297153
17	0x3dfb0e96	0.122586414
18	0x3dd1ff6c	0.10253796
19	0xbe1edbef	-0.15513586
20	0x3d133dbf	0.035947558
21	0x3d7b2bf0	0.0613212
22	0xbe00d3df	-0.12580822
23	0xbe344aa8	-0.17606604
24	0x3db5dfda	0.08880587
25	0xbe629728	-0.22127974
26	0xbd68aeec	-0.056807443
27	0x3de75d5d	0.112971045
28	0xbd7602b5	-0.060061175
29	0xbd919831	-0.07109106
30	0x3db83923	0.08995273
31	0xbde0ce0e	-0.10976802

fc1.weight f4 [256, 32]
0	0x3d02d97f	0.0319457
1	0x3d8b7805	0.06810001
2	0xbe18e145	-0.14929684
3	0xbb60daeb	-0.0034310173
4	0x3c6bfb9f	0.014403253
5	0x3cde8de6	0.027167272
6	0x3d805e50	0.06267989
7	0xbdb10d2e	-0.08645092
8	0x3d23c1a2	0.039979585
9	0xbe41e4d7	-0.18934952
10	0xbd0b9538	-0.034077853
11	0x3ddf5744	0.109053165
12	0x3dc7a1fa	0.097476915
13	0xbe1ea7dc	-0.15493721
14	0xbdbdc724	-0.09266499
15	0x3dba8ab5	0.091084875
16	0xbd9be78e	-0.07612525
17	0x3e101942	0.14072135
18	0x3d884cf9	0.06655306
19	0xbd9d5508	-0.07682234
20	0xbd49f8c2	-0.0493095
21	0xbcf8417d	-0.030304665
22	0x3dc8dd78	0.09807867
23	0xbd5df0cc	-0.05418472
24	0xbdd4baf7	-0.10387223
25	0xbcce408e	-0.025177266
26	0x3d99878d	0.074965574
27	0xbda2b73d	-0.07945106
28	0xbe2cc447	-0.16871749
29	0xbba2281e	-0.00494863
30	0xbdfd5317	-0.12369364
31	0x3cdc4c5c	0.02689188
32	0x3db87c27	0.09008055
33	0xbe49af9a	-0.19695893
34	0xbe1a3682	-0.15059856
35	0xbd9d59e3	-0.0768316
36	0x3d4abad4	0.04949458
37	0x3da09412	0.07840742
38	0xbdf0434b	-0.11731585
39	0xbdf5893b	-0.11989065
40	0xbda452e6	-0.08023624
41	0x3dfea6bf	0.12434148
42	0xbe21a7f6	-0.15786728
43	0x3d8b3d9f	0.06798863
44	0xbdfb6276	-0.12274639
45	0x3d9f1e91	0.07769502
46	0x3da4fc39	0.0805592
47	0x3de7c509	0.11316878
48	0xbccf0272	-0.02526972
49	0x3db51fd4	0.08843961
50	0xbe008acf	-0.12552951
51	0xbd77a006	-0.060455345
52	0xbdd08d74	-0.1018323
53	0x3d833907	0.064073615
54	0xbde09b45	-0.10967115
55	0xbdc44f7b	-0.09585472
56	0xbd94a181	-0.07257367
57	0x3d91961d	0.0710871
58	0x3d972ebf	0.07381963
59	0x3d65faca	0.056147374
60	0x3dd4a758	0.10383481
61	0x3d9e48a4	0.07728699
62	0x3cd4e995	0.025990287
63	0xbda5c9af	-0.08095109
64	0xbdcdaf69	-0.100432225
65	0xbe02a93e	-0.12759873
66	0xbe6cff04	-0.23144156
67	0x3d85ee44	0.06539586
68	0x3e8142dd	0.25246325
69	0x3cc91246	0.024544846
70	0xbcb51d5b	-0.022108724
71	0x3e1d24e4	0.15346104
72	0x3df5b6a1	0.11997724
73	0x3e34eaa7	0.17667638
74	0x3e86715d	0.26258364
75	0x3d3aca55	0.045603115
76	0xbdeab413	-0.11460128
77	0xbe58344b	-0.21113698
78	0xbe5f006b	-0.21777503
79	0xbcee9bc8	-0.029127017
80	0xbe1cde4d	-0.15319176
81	0x3cbd889d	0.023136431
82	0x3df59801	0.11991883
83	0x3e0fe9e8	0.14054072
84	0x3e4a8ce8	0.19780314
85	0xbc75e9b1	-0.01500933
86	0xbc8fd426	-0.017557215
87	0x3d2ad2b1	0.041704837
88	0xbc0409bc	-0.0080589615
89	0x3cbd0df0	0.023077935
90	0xbc978eaf	-0.018500654
91	0x3e7facdf	0.24968289
92	0xbd4bfa17	-0.04979905
93	0xbe8e9996	-0.27851552
94	0xbdce174f	-0.100630395
95	0xbd41ee3a	-0.04734633
96	0xbe12eaf3	-0.14347439
97	0xbe14c20a	-0.14527145
98	0xbae49bf2	-0.0017441495
99	0xbe2ad0cf	-0.16681217
100	0x3e1d28a5	0.15347536
101	0xbe115cc1	-0.14195539
102	0x3d053725	0.032523293
103	0xbe2db290	-0.16962647
104	0xbe19d4bc	-0.15022558
105	0x3d8f578e	0.069991216
106	0x3d80cf52	0.06289543
107	0xbdbd4225	-0.09241132
108	0x3dc70b09	0.09718902
109	0xbe153fd8	-0.14575136
110	0xbe16bc93	-0.14720373
111	0xbdfa33be	-0.122169
112	0xbd30c72c	-0.043158695
113	0x3d896b93	0.06709971
114	0xbb0f64c4	-0.002188013
115	0x3dd5e675	0.10444347
116	0x3da7bf00	0.08190727
117	0xbd873468	-0.066017926
118	0xbd493272	-0.049120374
119	0xbdca2e3a	-0.09872098
120	0xbd2fb23b	-0.042894583
121	0xbe3c985c	-0.18417495
122	0xbe2093d1	-0.15681387
123	0xbc1bf32f	-0.009518429
124	0xbd8429f3	-0.06453314
125	0x3dc1a5e1	0.09455467
126	0xbdd1314e	-0.10214482
127	0x3cdb028d	0.026734615
128	0x3c9970e3	0.018730586
129	0xbd271a7e	-0.04079675
130	0x3e1e9644	0.1548701
131	0xbde6e685	-0.11274437
132	0xbe071f94	-0.1319564
133	0xbe5870b7	-0.21136747
134	0xbe178731	-0.14797665
135	0x3da71d59	0.081598945
136	0xbcb8fb32	-0.022580717
137	0x3d0c781f	0.034294244
138	0x3dc11b9e	0.09429096
139	0x3d2af733	0.041739654
140	0x3ddbf36d	0.10739789
141	0x3c49b7db	0.012311901
142	0xbe29a564	-0.16566998
143	0x3c59e22d	0.013298553
144	0xbe44a957	-0.19205223
145	0x3d140478	0.036137074
146	0xbe26dfde	-0.16296336
147	0x3dc36241	0.09540225
148	0xbe14adc0	-0.14519405
149	0x3dbd8be0	0.09255195
150	0xbe25b918	-0.16183889
151	0xbc965292	-0.01834992
152	0xbdf7e25e	-0.12103723
153	0xbdc8dc59	-0.09807653
154	0x3da348b7	0.07972854
155	0x3e090454	0.13380557
156	0x3ddc406c	0.10754475
157	0xbdb74a11	-0.08949674
158	0xbe452b57	-0.19254814
159	0x3bbf2965	0.005833792
160	0xbe34fa9d	-0.17673726
161	0x3dbbd416	0.091713116
162	0xbde2df33	-0.11077728
163	0xbc92bba8	-0.017911747
164	0xbcb64c40	-0.022253156
165	0xbd86de85	-0.06585411
166	0x3d97db99	0.07414932
167	0x3c921a0b	0.017834684
168	0xbd8faa47	-0.070149
169	0xbb42bf85	-0.0029716205
170	0x3e539ed4	0.20666057
171	0xbe177667	-0.1479126
172	0xbe0bb877	-0.13644587
173	0x3e144384	0.1447888
174	0x3dbcb180	0.09213543
175	0xbcd6ddd8	-0.02622883
176	0xbdd12319	-0.102117725
177	0xbd601e1e	-0.054716222
178	0x3cf957a1	0.030437293
179	0x3d9667f2	0.07344045
180	0x3dae8840	0.085220814
181	0xbe4d9660	-0.20076895
182	0x3e03cb41	0.12870504
183	0xbc435d5c	-0.011924114
184	0x3d4127e2	0.047157176
185	0x3cc5f3c1	0.024164082
186	0x3d2a861f	0.041631814
187	0xbe1e5520	-0.1546216
188	0x3c0e9803	0.008703235
189	0xbd4e3b47	-0.0503495
190	0x3cfd0b02	0.030889038
191	0xbdd32e69	-0.103115864
192	0xbca04551	-0.019564303
193	0xbe081430	-0.13288951
194	0xbdd3f18b	-0.10348805
195	0x3df5da0c	0.1200448
196	0xbe1394d7	-0.14412247
197	0x3d29a4c8	0.041416913
198	0x3daf8897	0.08570974
199	0xbd47aea7	-0.048750546
200	0xbc734e1c	-0.014850166
201	0x3d8dd100	0.06924629
202	0x3d1ae98f	0.037820395
203	0xbe506c89	-0.20353903
204	0x3cee75da	0.02910893
205	0x3d0ba529	0.034093056
206	0xbdf777a0	-0.120833635
207	0x3d20d661	0.039266948
208	0xb99f4a5f	-0.00030382254
209	0x3db68fc6	0.08914141
210	0xbd8a84a1	-0.06763578
211	0xbdf47c9f	-0.11937832
212	0x3c9ba08d	0.018997455
213	0xbdb6d8cc	-0.089280695
214	0x3e1c2981	0.15250207
215	0xbd1d78cc	-0.03844528
216	0xbe2aaaa6	-0.1666666
217	0x3d9ea993	0.077471875
218	0x3e0f160a	0.13973251
219	0x3e299064	0.16558987
220	0x3db5abbb	0.088706456
221	0xbd4b24e9	-0.049595747
222	0xbd9aafd8	-0.07553071
223	0xbe4588e5	-0.19290502
224	0x3d8c49f4	0.06850043
225	0x3d5cbaf6	0.053889237
226	0xbdc91740	-0.09818888
227	0xbe6a7d99	-0.22899474
228	0x3df63071	0.12020958
229	0xbc5f0299	-0.013611459
230	0x3d97fe04	0.074214965
231	0x3e231a31	0.1592796
232	0xbe15d376	-0.14631447
233	0xbd401889	-0.0468984
234	0xbd909026	-0.07058744
235	0xbd795191	-0.060868803
236	0xbc1d4611	-0.009599225
237	0x3e5d68fa	0.21622077
238	0xbda6fb99	-0.08153457
239	0x3d831617	0.06400698
240	0xbd6fe2af	-0.05856579
241	0xbddcc2d5	-0.10779349
242	0x3bc681d1	0.006057956
243	0xbd975e4f	-0.07391035
244	0x3da67211	0.08127225
245	0xbe45b658	-0.1930784
246	0xbd06a684	-0.032873645
247	0xbe0a0b70	-0.13480926
248	0x3d94c283	0.07263663
249	0xbda0a068	-0.07843095
250	0xbe310d6a	-0.17290273
251	0x3d27a8a4	0.040932313
252	0xbd9730e5	-0.07382373
253	0xbdbf3ec6	-0.09338145
254	0x3e0d9d0a	0.13829437
255	0x3da45cdc	0.08025524

fc1.bias f4 [256]
0	0xbe0c1f6b	-0.1368386
1	0xbe2c761c	-0.1684193
2	0xbc35198d	-0.011053455
3	0xbcf57c0c	-0.029966377
4	0xbdfc96b8	-0.12333435
5	0xbe2d1a3f	-0.16904543
6	0xbd8feff6	-0.07028191
7	0xbd392492	-0.04520089
8	0xbe2d3cdb	-0.16917746
9	0xbe31017a	-0.1728572
10	0xbd006d4f	-0.031354245
11	0xbe1afa5a	-0.15134564
12	0xbe1d88a5	-0.15384157
13	0xbd2199f7	-0.039453473
14	0xbdcd2bda	-0.1001813
15	0xbdf228da	-0.11824198
16	0xbe1a419f	-0.15064095
17	0xbe4420fe	-0.1915321
18	0xbe326c91	-0.17424227
19	0xbe0a5b77	-0.13511454
20	0xbe2afb46	-0.16697416
21	0xbe089198	-0.1333679
22	0xbe412b3e	-0.18864152
23	0xbc31d066	-0.010852909
24	0xbe129843	-0.14315896
25	0xbe51fe76	-0.20507225
26	0xbe36e818	-0.17861974
27	0xbd9c8cc2	-0.07644035
28	0xbd25ed7e	-0.040509693
29	0xbccfd286	-0.02536894
30	0xbe821b6f	-0.25411555
31	0xbd1682ef	-0.03674596
32	0xbd7ad7df	-0.061241027
33	0xbd49acee	-0.049237184
34	0xbe29593e	-0.1653795
35	0xbe088cef	-0.13335012
36	0x3d0d8043	0.034546148
37	0xbe251af6	-0.16123566
38	0xbda88173	-0.082278155
39	0xbe38962c	-0.18026036
40	0xbe0b0587	-0.13576327
41	0xbde8c367	-0.11365395
42	0xbe08161a	-0.13289681
43	0xbd88b5b0	-0.06675279
44	0xbdcbc9d1	-0.09950603
45	0xbe23b328	-0.15986311
46	0xbdc7e04f	-0.0975958
47	0xbe22907b	-0.15875427
48	0xbdf6e1e4	-0.12054804
49	0xbe38bc9e	-0.18040702
50	0x3c433b22	0.011915954
51	0xbe05cf17	-0.1306728
52	0x3b9c26ee	0.004765383
53	0xbdfc2989	-0.1231261
54	0xbde98a01	-0.11403275
55	0xbe151459	-0.14558543
56	0xbd34022b	-0.04394738
57	0xbda2ca03	-0.07948687
58	0x3c96ba58	0.018399402
59	0xbd96c481	-0.07361699
60	0xbe2219a5	-0.15830095
61	0xbe1fc7b7	-0.15603529
62	0xbe6a84d8	-0.22902238
63	0xbe0939d3	-0.13400964
64	0xbdf1e103	-0.11810496
65	0xbc0065de	-0.007836787
66	0xbe0a1a9c	-0.13486713
67	0xbe57fc63	-0.21092372
68	0xbd01207c	-0.03152512
69	0xbdee256a	-0.1162823
70	0xbcde4816	-0.027133983
71	0xbdbe2e69	-0.09286196
72	0x3c82d5a4	0.015971012
73	0xbd5ae8fc	-0.053444847
74	0x3e01fafd	0.126934
75	0x3d509316	0.050921522
76	0xbbf09fba	-0.0073432596
77	0xbd7c0d2d	-0.061536003
78	0xbdbc4020	-0.091919184
79	0xbe83b4a0	-0.25723743
80	0xbdb2d135	-0.08731309
81	0xbe586347	-0.21131621
82	0xbddf9444	-0.10916951
83	0xbdf722a8	-0.12067157
84	0xbe2f1aff	-0.17100142
85	0xbdc7f130	-0.097628
86	0xbe907b6e	-0.2821917
87	0xbd56db14	-0.052455023
88	0xbe42c2e7	-0.19019662
89	0x3d749bff	0.059719082
90	0x3d4d0441	0.050052885
91	0xbe64a521	-0.22328617
92	0xbcb2edef	-0.021841971
93	0xbe859f79	-0.2609823
94	0xbe5e2f9e	-0.21697852
95	0xbe10a794	-0.14126426
96	0xbe0b1c45	-0.13585003
97	0xbe1bfd41	-0.15233327
98	0xbe1d5f25	-0.15368326
99	0xbdd6cb8b	-0.104880415
100	0xbe06c6ac	-0.13161725
101	0xbd75f329	-0.06004635
102	0xbdc4e393	-0.09613719
103	0xbd930e1f	-0.07180428
104	0xbe3fda71	-0.18735673
105	0xbe1e712b	-0.15472858
106	0xbe76566d	-0.24056406
107	0x3db891ff	0.090122215
108	0xbe283daf	-0.1642978
109	0xbdba7fb4	-0.09106389
110	0xbdd84a79	-0.105610795
111	0xbcdc0e79	-0.02686237
112	0xbda86df8	-0.082241
113	0xbd4bbb5f	-0.049739238
114	0xbda00076	-0.07812588
115	0xbd5737a6	-0.052543305
116	0xbd0ffe16	-0.035154425
117	0xbe233876	-0.15939507
118	0xbe069afc	-0.1314506
119	0xbde6a41c	-0.1126177
120	0xbdbeeb8e	-0.09322272
121	0xbda796a1	-0.08183027
122	0xbbf10297	-0.007355045
123	0x3d1fe045	0.03903224
124	0xbd778254	-0.060427025
125	0xbe182402	-0.14857486
126	0xbd87b67a	-0.066266015
127	0xbe1f3f21	-0.15551426
128	0xbe19b29c	-0.1500954
129	0xbe196a23	-0.14981894
130	0xbe05f6c6	-0.13082418
131	0xbe85ca56	-0.26130933
132	0xbdf8416a	-0.12121852
133	0xbe1efdaa	-0.15526453
134	0xbdddc1a1	-0.108279474
135	0xbe109551	-0.1411946
136	0xbde82816	-0.11335771
137	0xbe166c85	-0.14689834
138	0xbe525460	-0.20539999
139	0xbe173770	-0.14767241
140	0xbe248243	-0.16065316
141	0x3dd2c6a0	0.10291791
142	0xbd9032fb	-0.07040974
143	0xbdf8cb20	-0.12148118
144	0xbe24f563	-0.16109233
145	0xbe05f7fb	-0.13082878
146	0xbe3b43ce	-0.18287584
147	0xbeb433f8	-0.351959
148	0xbd708afa	-0.05872629
149	0xbdc95b89	-0.09831912
150	0xbe3fe43a	-0.18739405
151	0xbd108516	-0.03528317
152	0xbe5ba912	-0.21451214
153	0xbe373580	-0.17891502
154	0xbd527146	-0.051377557
155	0xbe423630	-0.18965983
156	0xbe3f8485	-0.18702896
157	0xbd7b4da6	-0.06135335
158	0xbe094355	-0.13404591
159	0xbe20f3be	-0.1571798
160	0xbdfc6694	-0.12324253
161	0xbd76098f	-0.06006771
162	0xbd4d685f	-0.050148364
163	0xbdbc8685	-0.09205345
164	0x3ca76f4b	0.02043881
165	0xbe427594	-0.18990165
166	0xbc4579ec	-0.012052994
167	0xbe1cf95c	-0.15329498
168	0xbe3a7c21	-0.18211414
169	0xbdfffd69	-0.12499506
170	0xbd3b39b8	-0.04570934
171	0xbdfb91fd	-0.122837044
172	0x3c9d0091	0.01916531
173	0xbe2f3e0d	-0.17113514
174	0xbe116a6a	-0.1420075
175	0xbe66d0c5	-0.22540577
176	0xbe0766b9	-0.1322278
177	0xbe39c0c7	-0.18139945
178	0xbe574ebd	-0.2102613
179	0xbd7e61a8	-0.06210485
180	0xbe1556f1	-0.14583947
181	0x3b9e2655	0.004826347
182	0x3ca16c40	0.019704938
183	0xbe364af9	-0.17802037
184	0xbe3d366d	-0.18477793
185	0xbe234f77	-0.15948282
186	0xbe0747cb	-0.1321098
187	0xbe52826a	-0.20557562
188	0xbd8b2411	-0.067939885
189	0xbe777db0	-0.2416904
190	0xbd6f747d	-0.0584607
191	0xbc9c9ef9	-0.019118773
192	0xbb0ac53a	-0.0021174685
193	0xbe04d221	-0.12970783
194	0xbe65f5ec	-0.22457093
195	0xbd0e416b	-0.034730356
196	0x3caadd71	0.020857545
197	0xbe2467d0	-0.16055226
198	0xbda5aa9f	-0.08089184
199	0xbe57008b	-0.20996301
200	0xbdd35a9d	-0.103200175
201	0xbdcaf0b6	-0.09909193
202	0xbdfe1f92	-0.12408365
203	0xbe3bd00a	-0.1834108
204	0xbcff1773	-0.031139111
205	0xbd7d6467	-0.06186333
206	0xbe22a804	-0.15884405
207	0xbd863169	-0.06552393
208	0xbdf4748c	-0.11936292
209	0x3db063d3	0.0861279
210	0xbdadf2e8	-0.08493596
211	0xbe1ea731	-0.15493466
212	0xbdb8b342	-0.09018566
213	0xbe96d658	-0.29460406
214	0xbdb1a0bf	-0.08673238
215	0xbe0eedd2	-0.13957909
216	0xbd9ed878	-0.07756132
217	0xbe1c1f9a	-0.1524643
218	0xbe35602d	-0.1771247
219	0xbd9ab970	-0.07554901
220	0xbb3803e7	-0.0028078498
221	0x3a0baa26	0.00053277833
222	0xbdc37444	-0.0954366
223	0xbd3d4682	-0.04620982
224	0xbe07695e	-0.13223788
225	0xbe502eca	-0.20330349
226	0x3d05c319	0.032656763
227	0xbddd9ea6	-0.108212754
228	0xbdfdf90f	-0.1240102
229	0xbe0906ec	-0.13381547
230	0xbe445b15	-0.1917537
231	0xbddc0283	-0.107426666
232	0xbe18680a	-0.14883438
233	0xbe29a116	-0.16565356
234	0xbe16e23d	-0.1473474
235	0xbdd4a7b1	-0.10383547
236	0xbdeee2e8	-0.11664373
237	0xbd9ed165	-0.077547826
238	0xbd5024f5	-0.050816495
239	0xbe139ed7	-0.14416061
240	0xbe0aa8c4	-0.13540941
241	0xbdaae7cb	-0.08344992
242	0xbe299270	-0.16559768
243	0xbe1fa1c5	-0.15589054
244	0xbdac6325	-0.08417348
245	0xbe189843	-0.14901833
246	0xbe2d4b14	-0.16923171
247	0xbde5eaec	-0.112264484
248	0xbe5006e3	-0.20315127
249	0xbda362b6	-0.07977812
250	0xbdbee01c	-0.09320089
251	0xbe701ce9	-0.23448528
252	0xbdf334e9	-0.11875326
253	0xbe1cd703	-0.15316395
254	0xbe244ada	-0.16044179
255	0xbe32bd74	-0.17455083

fc2.weight f4 [5, 256]
0	0x3d2c89e6	0.042123698
1	0xbd6452ca	-0.055743016
2	0x3d694f6c	0.05696051
3	0x3ab62000	0.0013895035
4	0xbd1e1dca	-0.038602628
5	0x3d0f3280	0.03496027
6	0x3d4b050c	0.04956536
7	0x3cdace64	0.026709743
8	0x3c348b80	0.0110195875
9	0x3d201bd8	0.039089054
10	0xbc153b50	-0.0091083795
11	0x3bcfd7f0	0.0063428804
12	0x3cffb3f4	0.031213738
13	0x3c415000	0.011798859
14	0xbd2d3a64	-0.042292014
15	0x3bf749e0	0.0075466484
16	0x3b815d30	0.0039478764
17	0x3c564b48	0.013079472
18	0xbd7e4542	-0.06207777
19	0x3d61670c	0.055029914
20	0xbd3ac8e0	-0.045601726
21	0x3d3dc4d6	0.046330296
22	0xbd6345ec	-0.055486605
23	0xbd50d442	-0.050983675
24	0xbccbf0b4	-0.02489505
25	0xbba7cff0	-0.0051212236
26	0x3c9065f4	0.01762674
27	0xbcba94c4	-0.022776015
28	0x3d49130e	0.049090438
29	0xbd21a41c	-0.039463148
30	0xbcfec6f8	-0.031100735
31	0x3d4a96b4	0.049460128
32	0xbd0fd806	-0.035118125
33	0x3d06600c	0.03280644
34	0xbccb3230	-0.024804205
35	0x3d565eec	0.05233662
36	0xbd6501c6	-0.055909894
37	0xbcd843d8	-0.026399538
38	0x3d7d6dca	0.06187228
39	0xbd0c7e6a	-0.034300245
40	0x3c1d9168	0.009617187
41	0x3c6636b0	0.014051124
42	0x3d2c73b0	0.042102516
43	0xbd5528a4	-0.05204071
44	0xbb56d800	-0.0032782555
45	0x3bc9def0	0.0061606094
46	0x3d50bc7c	0.050961003
47	0xbd3b2c1e	-0.04569637
48	0x3d4e984e	0.050438218
49	0xbd383886	-0.04497578
50	0xbd072fb8	-0.033004493
51	0xbae8c600	-0.0017759204
52	0xbbd3be50	-0.006461896
53	0x3c9043a4	0.017610379
54	0xbd7b7b24	-0.061396733
55	0xbc5c9658	-0.013463579
56	0xbd55da2c	-0.052210018
57	0xbd5bc346	-0.053653024
58	0xbcabd308	-0.020974651
59	0xbd57e4be	-0.05270838
60	0xbcac0c24	-0.021001883
61	0x3c0d5778	0.008626811
62	0x3d0b18c0	0.03395915
63	0x3d378ed2	0.04481394
64	0x3cfe9110	0.03107503
65	0xbd249934	-0.04018517
66	0x3d3fc438	0.04681799
67	0x3d393304	0.045214668
68	0xb9450e00	-0.000187926
69	0x3c5271f0	0.012844548
70	0x3ceb5ec4	0.028731711
71	0xbc6a6680	-0.0143066645
72	0xbcf116c4	-0.0294298
73	0x3c4389f0	0.011934742
74	0xbd6e1396	-0.058124147
75	0xbd26504a	-0.040603913
76	0x3d7cbcd6	0.061703525
77	0x3d7145b2	0.058904357
78	0xbaff1780	-0.001946196
79	0x3d0f90a4	0.03505005
80	0xbd5baa68	-0.05362931
81	0x3cafabd0	0.021444231
82	0xbd58ac86	-0.052898906
83	0x3d476c84	0.048687473
84	0xbd1283c2	-0.035770185
85	0xbd1006f2	-0.035162874
86	0x3cdb38ac	0.026760422
87	0xbd76e32e	-0.06027525
88	0xbc3fb710	-0.01170136
89	0x3d549762	0.051902182
90	0x3c8fb168	0.017540649
91	0xbc55e7e8	-0.013055779
92	0x3ca84b34	0.020543672
93	0x3cdf9830	0.027294248
94	0xbc68eda8	-0.014216818
95	0xbca6e470	-0.0203726
96	0x3d359068	0.04432717
97	0x3c811620	0.01575762
98	0x3d612d20	0.054974675
99	0xbc675f78	-0.014121883
100	0x3d07e120	0.03317368
101	0xbc2064b0	-0.009789631
102	0x3d185c6a	0.037197508
103	0xbd0b6e48	-0.03404072
104	0x3d1e918c	0.038713023
105	0xbd5d93fe	-0.054096214
106	0x3c1bb418	0.009503387
107	0x3aff6180	0.0019484013
108	0x3d22657c	0.039647564
109	0x3c948668	0.018130496
110	0x3c7898b8	0.01517313
111	0xbc1f5770	-0.009725437
112	0xbd5364fe	-0.051609986
113	0xbd468056	-0.048462234
114	0xbd71c6a0	-0.059027314
115	0xbb46bce0	-0.003032498
116	0xbcacd968	-0.021099761
117	0xbce63244	-0.02810014
118	0xbc779d58	-0.015113197
119	0x3c81eba0	0.015859425
120	0xbc64a528	-0.013955392
121	0xbc7a3f90	-0.015273944
122	0xbcda71bc	-0.02666556
123	0x3d2692e2	0.040667422
124	0x3a073980	0.00051584095
125	0x3ce0dc38	0.027448758
126	0x3d608cbe	0.054821722
127	0xbcb676d4	-0.022273459
128	0xbb382660	-0.0028099045
129	0xbd416de0	-0.047223926
130	0x3d2ed418	0.042682737
131	0x3c2b6528	0.010461129
132	0xbd6e235a	-0.058139183
133	0x3d142be4	0.03617467
134	0x3bda97b0	0.0066709146
135	0xbd26bbd4	-0.04070647
136	0xbc5ba3b8	-0.013405733
137	0x3d153794	0.036429957
138	0x3cf742e8	0.03018327
139	0x3c7dcaf8	0.015490286
140	0x3cea74f4	0.02862022
141	0x3cc69068	0.02423878
142	0xbc723288	-0.014782555
143	0xbca9532c	-0.020669542
144	0xbd4132ec	-0.047167704
145	0xbd2cebe4	-0.04221715
146	0xbbe1c200	-0.0068895817
147	0xbcd3d1e0	-0.025856912
148	0xbd73dec6	-0.059538625
149	0xbd5b5ed6	-0.05355724
150	0xbcc34fb4	-0.023841716
151	0xbd4c837c	-0.04993008
152	0xbd649d12	-0.055813856
153	0x3d3ca010	0.046051085
154	0x3cb49aa4	0.022046395
155	0x3b912ec0	0.004430622
156	0x3bdc9b70	0.006732397
157	0x3c9a0380	0.018800497
158	0x3d2f4ac6	0.04279592
159	0x3b974ca0	0.0046172887
160	0x3caf4a14	0.021397628
161	0x3d7aa428	0.061191708
162	0x3d0a999a	0.033837892
163	0x3ce9dec0	0.028548598
164	0x3d182a54	0.037149742
165	0xbd449058	-0.04798922
166	0xbd37bd7e	-0.04485845
167	0xbcef5584	-0.029215582
168	0xbd4a36a0	-0.0493685
169	0xbc93dd08	-0.018049732
170	0x3d4ef424	0.0505258
171	0xba4d8180	-0.00078394264
172	0xbd308f72	-0.04310555
173	0xbd49480a	-0.049140967
174	0xbd02b044	-0.03190638
175	0x3d738440	0.059452295
176	0x3c79bb80	0.015242457
177	0xbd0fa950	-0.03507358
178	0x3c319968	0.010839798
179	0xbd4c14d6	-0.04982456
180	0x3d4a8544	0.0494435
181	0xbd481896	-0.048851572
182	0x3d7b8c34	0.061413005
183	0xbcdc6a88	-0.026906267
184	0x3d660e72	0.05616612
185	0xbd295bcc	-0.04134731
186	0xbb92eb90	-0.0044836476
187	0xbd252fc6	-0.040328763
188	0xbbcf0fa0	-0.0063190013
189	0xbceec87c	-0.029148333
190	0xbd1024fe	-0.03519153
191	0xbd32c8d4	-0.043648556
192	0x3d43c7a6	0.04779782
193	0x3d149e5a	0.03628383
194	0xbd6b0868	-0.057381064
195	0x3d4fd680	0.050741673
196	0x3d031292	0.032000132
197	0xbcacc940	-0.021092057
198	0x3c223dc8	0.009902425
199	0xbd73b6ae	-0.05950039
200	0x3d29e7b8	0.04148075
201	0xbcdf00d8	-0.027222082
202	0x3ca239b4	0.019802906
203	0x3d1d0fcc	0.038345143
204	0xbd6b234c	-0.05740671
205	0x3d23cbbc	0.039989218
206	0xbd1e4fc6	-0.038650297
207	0x3b0b4080	0.0021248162
208	0x3d20ff5e	0.039306037
209	0x3d18af98	0.037276834
210	0x3b83ee50	0.004026212
211	0x3d4a18dc	0.049340114
212	0xbd387c9e	-0.04504072
213	0xbcecd674	-0.028910853
214	0x3c6fb968	0.014631607
215	0x3d0a3782	0.033744343
216	0x3d2adf94	0.041717127
217	0xbd6ce556	-0.0578359
218	0x3d4089f6	0.04700657
219	0x3d6d2f26	0.057906292
220	0xbd5bcdf0	-0.053663194
221	0x3d49eac8	0.04929617
222	0x3d6774ac	0.05650775
223	0xbc517358	-0.012783848
224	0x3bf6c020	0.0075302273
225	0xbd603fec	-0.05474846
226	0xbd594274	-0.05304189
227	0xbd4321e2	-0.047639735
228	0xbb854150	-0.0040666237
229	0xbd26a604	-0.04068567
230	0xbd6e3c10	-0.05816275
231	0x3d5b4870	0.05353588
232	0x3cf154d8	0.029459402
233	0x3c82b33c	0.015954606
234	0xbd1beef2	-0.038069673
235	0x3d516dc4	0.05113007
236	0x3ce92ed0	0.028464705
237	0xbd1cfda2	-0.03832782
238	0xbd70df20	-0.05880654
239	0xbcf75180	-0.03019023
240	0xbc62bc78	-0.01383888
241	0x3d7951d0	0.060869038
242	0x3ce3b674	0.027796961
243	0x3b691820	0.0035567358
244	0xbd6324ee	-0.05545514
245	0x3d5522a0	0.052034974
246	0xbc171c70	-0.009223089
247	0xbc85e414	-0.016344108
248	0x3cc70ca4	0.02429802
249	0xbc93b500	-0.018030643
250	0x3d76948a	0.06020025
251	0xbd77b248	-0.060472757
252	0xbbb29140	-0.005449444
253	0x3d6ab93a	0.057305552
254	0xbcebd244	-0.028786786
255	0xbd13f08c	-0.036118075

fc2.bias f4 [5]
0	0xbca8710c	-0.020561717
1	0x3d484860	0.048897147
2	0xbd01f7d4	-0.031730488
3	0xbd52fc0a	-0.051509894
4	0xbc6d8a3f	-0.0144982925
