Models/Torch2/my_model4800.pth (torch_old, 60054 bytes, 8 tensors)

conv1.weight f4 [16, 2, 3, 3]
00000000: 6676 da3c 1abd 5dbe e1fc 293c 4121 b8bd
00000010: 8ab2 f7bc c813 57be 2275 28be 9928 35be
00000020: e5c1 44be a6d9 2bbe 97a5 6c3e 2096 cc3d
00000030: 8821 8abc 9352 6bbe 57eb 203e e25b 303e
00000040: 1053 513d 10a4 30bd fc26 babd ae95 56bd
00000050: 0685 8c3e 5fc9 093e e310 f3bd a0bc a43e
00000060: 82a8 cc3d 3b8c 043e fbad 323e d250 8e3d
00000070: 2dfb cf3b 4f54 913d c853 f3bd 536a 783e
00000080: 8c66 75be 7dbb f3bd 6718 603e 0b4f 82bd
00000090: fe5e 7e3e ca01 39be 1832 9c3e d922 57be
000000a0: d719 b0bd 92d9 69bc 4c89 4cbe f2e3 82bc
000000b0: 0c28 4b3e 28b6 67bd ac77 4ebe 90ee 6ebe
000000c0: d399 d53c 42fb 7dbd 673e 52bc 8996 97bc
000000d0: 34ec f33d a8cf 3dbe cfda 09bc 28ce 1fbe
000000e0: fc6d 2ebc 1f18 3a3e b85c 593e 77a8 503d
000000f0: 377a 0cbe 67eb 723e 5ca9 763e 0386 fcbd
00000100: e4dd 9cbc 7267 243e b419 4b3a a5a5 d53d
00000110: 0965 513e 6411 08be 3856 223e 0f71 a53c
00000120: ab77 15be cb5f 49bd 30f1 773e 9849 31be
00000130: 44b9 6d3e 5ed6 a0bd bbb6 1ebe f816 923e
00000140: 114d 1bbd a9bf 393d cedf 2cbe 0565 fd3d
00000150: 8c0e e33c 744b 3e3d 44ef 993a 3a20 c83d
00000160: 1040 473e 4848 28be 066a 783d 1162 6a3c
00000170: 82fc 4abd 099d 213e 0a7a 053e 36e5 a33e
00000180: a86b 6abe c5cb 5b3e 064b 68be a53c 4abe
00000190: f868 35be f787 84be 69c3 85bc 8152 0dbe
000001a0: 81a5 85bd 106d 1cbe 4b78 0bbe ac80 393e
000001b0: 858c 083e e638 abbd 10ee 00bd 541f b9bd
000001c0: 5dd4 a33d 90a8 2abe 511a 013e 1aa6 623e
000001d0: d671 023e 80b1 303d 169b dbbd 33cc 8c3d
000001e0: c602 4a3e 19d3 4e3e 46a8 57be ea5c bdbd
000001f0: 3a1b 40be ef20 1abe 2521 e0bc 396f 8dbd
00000200: ad0e 32bd 61db 26be 76c8 f63d 4d7c 603c
00000210: 42b9 70bd 9403 d9bd bea7 a43d 139e 30bd
00000220: 6bef 2abe 3c64 4bbe d3da 583e 920b 49be
00000230: 3392 19be 65c1 dcbc d014 d8bd a68d 25be
00000240: 6f64 c4bd d416 303e 5099 babd a1fc 3abe
00000250: d1b1 43be e4c6 b3bd e801 cdbc 01b1 70be
00000260: 4e32 343c 37bb 27bc f895 11be b2c9 7a3e
00000270: 8a05 433d 7fd0 c83d 3a56 003e e7d6 833e
00000280: bf8d 543e 18d3 383c 6ca7 57be 574a 313e
00000290: ecd1 143e d11e db3d 07c1 653d f5b2 4d3e
000002a0: 3deb 21be f6c7 f83d 4c13 6f3d 6d2e fcbd
000002b0: 6e80 b3bd 9ad8 8c3d 365f b13d 44e3 3a3e
000002c0: b562 78bd 53ce 5f3d 6d36 a5bb 1a33 573e
000002d0: 5bb8 8a3d 6131 653d b39a 923d 3a37 283e
000002e0: 761e 523d d7c4 6fbe bf49 2b3e 5626 8dbd
000002f0: 2676 afbd fb8a 2c3e 44cd 51bd b3b8 393b
00000300: 879c 18bc faee a83d ab69 8c3d 2f23 0d3e
00000310: 9eb8 513d 5703 ab3d b4f0 cebd b6f6 19be
00000320: 2d24 573e 8fdb 1b3d 4226 96bd b29c 5e3e
00000330: 5dd9 3fbe 76a3 8f3b 3c66 113e f2ef 453e
00000340: 09a3 3a3e 189d 04be 647e 823d e548 b83d
00000350: c719 a53d 8f73 2e3e fe04 ef3d 5088 ef3d
00000360: cc40 9abd 43f0 d6bc 5f68 383d cf13 453e
00000370: 3e57 5dbd 4b05 34be 26f7 1e3e aa61 48be
00000380: b11a 9e3d 3254 e1bd 6278 89bd 9093 68bd
00000390: 0be4 0fbe 9da5 a1bb e57a 853e ceb1 53be
000003a0: b0eb c93d 46cb 163d 44d1 0ebe db85 9cbc
000003b0: 4bc8 65be d4b8 2abe dc0a d13d 04c1 253e
000003c0: 1923 5d3e 6067 3ebd 699c 4f3e 45d7 7d3c
000003d0: e3b8 263e dd34 fbbd c8d7 32be 4959 533e
000003e0: dd83 13be 5323 2bbe df38 06ba 8b52 873d
000003f0: 991a 083e 320c 64be dcdd 133e 7db2 9e3d
0.026667785 -0.21654168 0.010375232 -0.08990718 -0.030236501 -0.2100364 -0.16450933 -0.17691268
-0.1921459 -0.16782245 0.23110043 0.099895716 -0.016861692 -0.22980718 0.15714775 0.1722255
0.051104605 -0.043125212 -0.09089467 -0.05238884 0.2744524 0.13455723 -0.11868455 0.3217516
0.09993078 0.12944119 0.17449181 0.06949009 0.006347081 0.07096159 -0.118812144 0.2425931
-0.239649 -0.11900995 0.21884309 -0.063627325 0.24840924 -0.18067089 0.30506968 -0.21009387
-0.085986786 -0.014273064 -0.1997425 -0.015977833 0.19839495 -0.056570202 -0.20162839 -0.23333192
0.026074326 -0.062007196 -0.012832261 -0.018504398 0.119102865 -0.18536246 -0.008413984 -0.15605986
-0.0106463395 0.18173264 0.21226776 0.05094191 -0.13718496 0.23722611 0.24088043 -0.12330248
-0.019148774 0.16055086 0.00077476655 0.10431985 0.20448698 -0.13287884 0.15853202 0.020195512
-0.14596431 -0.04916362 0.242131 -0.1731323 0.23215204 -0.07853387 -0.15499394 0.2853315
-0.037915293 0.045348797 -0.1688225 0.123727836 0.027716897 0.046458676 0.001174428 0.09771772
0.19458032 -0.16433823 0.060647987 0.014305607 -0.049557216 0.1578256 0.13034835 0.32010812
-0.2289263 0.2146445 -0.22684869 -0.19749697 -0.17715824 -0.25884983 -0.01632853 -0.13801004
-0.06525708 -0.15275979 -0.13620107 0.1811549 0.13334854 -0.08360462 -0.031477034 -0.090391785
0.079994895 -0.16665864 0.12607695 0.22133675 0.12738737 0.043138027 -0.1072294 0.068748854
0.1972762 0.20197715 -0.21060285 -0.092462376 -0.18760386 -0.15051626 -0.027359555 -0.0690598
-0.043471027 -0.16294624 0.12049954 0.013701511 -0.058770426 -0.105963856 0.08039807 -0.0431195
-0.16692893 -0.19862455 0.21177225 -0.1963332 -0.14997177 -0.026947686 -0.10550845 -0.16167316
-0.09589469 0.17196208 -0.09111273 -0.18260433 -0.191108 -0.0877817 -0.025025323 -0.23505022
0.010998322 -0.010237507 -0.14217365 0.24491003 0.047612704 0.098053925 0.12532893 0.25749895
0.20757197 0.011280797 -0.2105996 0.17313515 0.14533204 0.10699237 0.05609229 0.20087798
-0.15812393 0.121475145 0.058368012 -0.123135425 -0.087647304 0.06877251 0.08660738 0.18250757
-0.06064101 0.054640125 -0.0050418884 0.21015587 0.06773444 0.055955295 0.07158413 0.16427317
0.05129858 -0.23414932 0.1672735 -0.068920776 -0.08567457 0.16849892 -0.051221147 0.002833885
-0.009314663 0.08248706 0.06856092 0.13782953 0.051201455 0.083502464 -0.10104504 -0.15035519
0.21009894 0.038051184 -0.07331516 0.21739462 -0.18735261 0.0043834997 0.14199156 0.19329813
0.18226255 -0.12950552 0.06371763 0.089982785 0.08061557 0.1703627 0.11670874 0.116959214
-0.0753189 -0.026237613 0.04502141 0.19245838 -0.05403828 -0.17580144 0.15523967 -0.19568506
0.07719935 -0.11002387 -0.06712414 -0.05678135 -0.14051835 -0.0049330727 0.26070324 -0.20673296
0.09859407 0.03681495 -0.13947016 -0.019106796 -0.22439687 -0.16672069 0.102071494 0.16186911
0.2159542 -0.046485305 0.2027451 0.015493219 0.16281466 -0.12265942 -0.17465127 0.20639528
-0.1440577 -0.16712694 -0.0005120169 0.06607541 0.13291396 -0.22270277 0.14440101 0.07748888

conv1.bias f4 [16]
00000000: eb76 3fbd 3138 ed3d 5624 353e f349 083e
00000010: 88e4 52bc c1bb 4e3e 867b 81be e49e d53c
00000020: cecf ad3d fb16 91bd f4b5 3dbe 41de aa3d
00000030: 036c 2bbe 97ca 54bc 432f 17be d6f4 f23d
-0.04674427 0.11582983 0.17689642 0.1330946 -0.012871869 0.2018881 -0.25289553 0.026076742
0.08486901 -0.07084461 -0.18526441 0.08343173 -0.16740422 -0.012987754 -0.14764123 0.11863105

conv2.weight f4 [32, 16, 3, 3]
00000000: 178b c73b 1882 84bd 7ba7 e2bc 156e 3bba
00000010: a7b6 0d3d b2c5 3a3d cac8 e6bc 12ec 82bd
00000020: 97da 8d3d 32cc c93d ea65 edbd a0e2 113d
00000030: bb9b 83bc b991 9f3d aa23 a83d 42a3 f63c
00000040: cf50 4b3d bd6a 723c 345c d03d dab6 43bd
00000050: 1c8d 2b3e fbe9 7fbd 949a 8bbd d29e 07bd
00000060: 56f2 e5bc 16b4 723d 0160 773c f9d1 6d39
00000070: 0e0e b53c ffae d93d 3dfc f4bc 9ee1 8e3d
00000080: 62b6 013e 07ed 9b3d 383c 363d 82d4 bf3b
00000090: 696d 913d d0af ac3b 67a7 ab3d c703 5a3d
000000a0: c3cc 533c 71a2 c0bd b1ca 743d 6a3a 8c3d
000000b0: d1d3 b7bc 5414 b7bd 346d 5cbd 321e e9bd
000000c0: 0eeb 053c 5a1c 80bc bf75 d6bc 524a 163b
000000d0: 827a 2dbd 1657 63bd 9523 74bd b80f 943c
000000e0: 7569 1a3d bbe0 92bd a2ae 32bd f7f1 c2bc
000000f0: 7f6d 96bc f483 813d 3ce0 3538 d09d 76bd
00000100: 46ff 473c 7598 7cbd 1e75 7f3d d89e 23bb
00000110: 52de 7bbd 0929 c73c fa62 80bd c872 4d3d
00000120: 94b8 253d e7d8 8a3d 564e b3bd 223b 8f3d
00000130: e9bb 883c 72c9 6e3d cf11 313d 4d6b 18bd
00000140: 48a4 5f3d d9c3 413d 7b4a f63c ab91 4bbd
00000150: 1158 143d 6b64 753c 67cb 573d fcdd 43bb
00000160: dad0 6ebd a958 37bc 253b aebc 2191 e23c
00000170: 626a c73c d9b4 eb3c 6848 8dbd 5d3d 65bd
00000180: 91ce 253a 238c f2bc 8ef4 b7bc 8e2e b6bc
00000190: b9c1 26bd 923d 243d 11b0 2a3d 20ef 60bb
000001a0: 180e 873d 09d6 3e3d a0f9 80bd 1a12 9a3d
000001b0: 707d 5bbd b8fc edbc 4c1f 853d 602d 753d
000001c0: 7eb3 1a3d db56 6abc 2c8c 44bd fe0d 0c3d
000001d0: c037 a73d f630 ccbb 0e7b bfbd 4782 c63b
000001e0: 9e79 c03d aca6 8cbc 6c3d 38bc be2e c03c
000001f0: 66f5 40bd 0f95 933d a951 683d f863 dd3b
00000200: 6d0b 83bd 3a8e e13b e8e5 453d 97b0 7dbd
00000210: 2a0d 823d 379f 66bd 7880 0d3d 97a5 60bd
00000220: 1600 53bd 23a4 3d3d 9656 4b3d 06d7 f13c
00000230: 884c a33d 5b82 113d 8b71 8e3d 1bbb df3c
00000240: f327 7ebd acf7 653d abdc 61bd 4e56 403c
00000250: 96fa babd be04 423d 0e9c 99bc 23b3 0bbd
00000260: ab94 9a3d 4e44 353e 0620 16be d90e b03e
00000270: a794 7cbd c19a 12bd dc3b 363d 6c22 903c
00000280: d8e3 5abd b782 013c ea17 c8bc 16f1 5dbc
00000290: c1cc e73d c962 c33d e939 98bd 0fac 5b3e
000002a0: 0136 143b 93ee cb3d ccfd 0abb 5de4 e23c
000002b0: 5e92 b9bc 3237 d53c 06c3 80bd 0ec2 be3c
000002c0: 14ce b83d c485 05bc 0ff0 a3bb a0f9 b53d
000002d0: ea6d 2b3d 540b 51bd e286 ddbc 1a98 7e3d
000002e0: 3579 a7bc 1e4a ba3c bbc8 21bd c840 17b9
000002f0: a501 20bc 6b9d b73d 34e3 babd 462d 4c3e
00000300: 3536 403d 5107 b0bc c450 733d 3d60 073d
00000310: e291 55bb 2ae5 1cbd 92a4 603d bef7 5e3d
00000320: 0526 973d 3bd8 863d 9fbc a6bb 2b98 183d
00000330: 145e 0cbc 0816 703d 173c 26bb 4895 8e3d
00000340: 02af 923c 5007 2e3d f0eb b13d 13eb 153d
00000350: 8b99 5bbd da18 073d 6eaf 86ba d0d6 5abd
00000360: 125a db3c d7bb 9e3d 80ad 29bc 3c02 c1bd
00000370: e7ff 6a3d 79fb 09be e52f 273d 8a5d 003d
00000380: 0a0f 43bd df65 0dbd 79d1 1e3d aaa8 023e
00000390: a5bf a4bd 756e b3bc 8d25 c93d 7cd2 fe3c
000003a0: 40a3 80bd ab92 7ebc ae9c 9fbd 4c49 493c
000003b0: 6bb6 bbbc d39d b03b 7c9e ae3d b1a0 48bd
000003c0: 0826 4cbd 0257 653d 31bb 4a3d 9728 b23d
000003d0: f835 ddbc 134d 353e 0f92 d03d 3bb8 013d
000003e0: 5cb2 df3d ea96 3f3d d220 0ebd 4746 b73d
000003f0: cde1 823d 3c37 9f3c e490 9cbd 7633 5dbd
0.006089579 -0.06470126 -0.027667752 -0.00071498874 0.03459802 0.045598693 -0.028171916 -0.06392683
0.06926458 0.098534 -0.11591704 0.035616517 -0.016065469 0.07791466 0.082099274 0.030107144
0.049637612 0.014795956 0.10173836 -0.047781803 0.16753048 -0.062479 -0.06816593 -0.033110447
-0.028069656 0.059253775 0.015098573 0.00022680302 0.022101428 0.10629081 -0.029905433 0.06976627
0.1266723 0.07613569 0.044491023 0.0058541903 0.071009465 0.005269982 0.08381539 0.05322626
0.012927237 -0.09405983 0.059763614 0.06847079 -0.02243987 -0.08939424 -0.05381508 -0.113827124
0.008173717 -0.01563852 -0.026179193 0.0022932482 -0.04235316 -0.055502973 -0.059604246 0.018073902
0.037698228 -0.0717177 -0.043623574 -0.023797018 -0.018362759 0.06323996 4.3362597e-05 -0.060209095
0.012206858 -0.06166883 0.06236755 -0.0024966504 -0.061491318 0.02431156 -0.06268878 0.050158292
0.04045923 0.06779652 -0.08755176 0.069937006 0.016691165 0.058297582 0.043229874 -0.037211705
0.05460003 0.047305916 0.030064812 -0.049699467 0.0362168 0.014977555 0.052684214 -0.0029886952
-0.058304645 -0.011190572 -0.021268437 0.027657093 0.02434272 0.028772758 -0.06898576 -0.055966724
0.0006325031 -0.029607838 -0.02245548 -0.022238996 -0.040712092 0.04009778 0.041671816 -0.0034322217
0.06594485 0.04659084 -0.06297612 0.07522984 -0.053586423 -0.02905117 0.0650011 0.059857726
0.037768833 -0.0143029345 -0.04798524 0.03419303 0.0816493 -0.0062314225 -0.09349643 0.0060580107
0.09398197 -0.01716932 -0.011245113 0.023459788 -0.04710903 0.07206165 0.056718502 0.006756302
-0.06398664 0.00688341 0.04831496 -0.061935987 0.06350167 -0.056304183 0.034546345 -0.05484542
-0.051513754 0.04629911 0.04964312 0.029521476 0.079735816 0.035524707 0.0695525 0.027310899
-0.062049817 0.0561444 -0.055142086 0.011739327 -0.09129827 0.047367804 -0.01875117 -0.034106385
0.075478874 0.17701837 -0.14660653 0.34386328 -0.061665203 -0.035792116 0.04449068 0.017594539
-0.053439945 0.0079047 -0.024425466 -0.013546249 0.113183506 0.09540326 -0.074329205 0.21452354
0.0022615197 0.09957614 -0.0021208404 0.027696783 -0.022652801 0.026027296 -0.06287198 0.023285892
0.09023681 -0.008149568 -0.0050029824 0.08885503 0.04185287 -0.051036194 -0.027041856 0.062156774
-0.020443538 0.02274042 -0.039498072 -0.00014424615 -0.009766017 0.08965572 -0.09125367 0.19939145
0.046926696 -0.021487864 0.059403196 0.033050764 -0.0032588174 -0.038304485 0.054844446 0.054435484
0.073802985 0.065842114 -0.0050884034 0.037254494 -0.008567352 0.05861476 -0.0025365406 0.06962067
0.017905716 0.042487442 0.0868758 0.036601137 -0.053613227 0.032982685 -0.0010275671 -0.053427517
0.026776347 0.07750671 -0.010356307 -0.09424254 0.057372954 -0.13474835 0.04081716 0.031339206
-0.047621764 -0.03452098 0.038773987 0.12759653 -0.08044366 -0.021903256 0.09821615 0.031106226
-0.062811375 -0.015537898 -0.07793556 0.012285542 -0.022914132 0.005389908 0.08526322 -0.048981372
-0.049840957 0.05599118 0.049494926 0.08699148 -0.027003273 0.17705183 0.101841085 0.031669836
0.10922691 0.046774782 -0.03469927 0.08948951 0.06390724 0.019435517 -0.07644823 -0.054004155

conv2.bias f4 [32]
00000000: 014a 783d 43d7 9e3d 9a80 a53a bf15 693d
00000010: ffef 0a3e ee1c bf3d df4d c73b 0c95 2abd
00000020: 4c38 4a3d 66cc b33d 19ad 0f3d 4cea 1d3d
00000030: 8853 e3bc 7ab2 37bc 304f 103d ae9f 7d3d
00000040: 009e 353d 0229 08bd cfe5 7a3c 4c10 afbc
00000050: 679d 8abc 2576 a0bd 2c2c 04be 99b1 c2bd
00000060: 1b46 4dbd 2ebd 51bd a4f3 1fbd 9bbc 09bc
00000070: 6142 5b3d 6ac0 b8bb a38e 94bd c64a 3bbd
0.06061745 0.07755902 0.0012626827 0.056905504 0.13568114 0.0933169 0.006082281 -0.04164605
0.049370095 0.0877922 0.03507719 0.03855352 -0.027749792 -0.011211986 0.03523177 0.06191986
0.044340134 -0.033242233 0.01531358 -0.021370076 -0.016920758 -0.07835034 -0.12907475 -0.0950653
-0.050115686 -0.051205806 -0.039050713 -0.008406783 0.0535301 -0.005638172 -0.07253768 -0.045725606

fc1.weight f4 [256, 32]
00000000: b6f3 663d a83e ba3d 881d c6bd e7d0 0c3c
00000010: f7da 233d 17ce 4c3d 3881 763d faeb 8cbd
00000020: 7052 2f3d e515 20be 4f3f e0bc 44c7 293e
00000030: dfb5 f13d d18f 18be 006c 65bd 66f7 be3d
00000040: 681d 79bd a1c6 1a3e b7d9 9a3d 52a8 aabd
00000050: 0884 0fbd dc88 d8bc a04f 893d 6b0f 47bd
00000060: 748e cfbd e0d0 94bc 16c2 9d3d 426d b7bd
00000070: 0285 2cbe ced1 fd3b 3c64 f5bd eb0b f93c
00000080: b876 143e e332 1abe e702 00be 91ba bbbc
00000090: 837f e13d 2670 e93d b58a bfbd 301a 65bd
000000a0: fd6d 17bd c157 323e 4bea b0bd d975 233e
000000b0: 31fd b8bd a1d2 fa3d f9da 063e 21b3 203e
000000c0: 63d8 1a3d c22c 023e 0b23 f7bd 0d16 32bd
000000d0: b0ea bbbd b511 933d af2b dbbd 645a 83bd
000000e0: 60f0 19bd 4de2 b33d b615 e83d 1dba 8a3d
000000f0: bec3 163e 973e fd3d cf07 793d e31b 78bd
00000100: 7320 0bbd 172f 28bd 2525 2fbe 3c61 3b3d
00000110: 0343 ca3d 97b7 e93d 2e1c be3d f930 dc3d
00000120: 3626 9d3b bf1f 1a3e 9907 223e d1ff b03c
00000130: d031 a43a 8a9a 2fbe c812 1bbe ec70 8dbc
00000140: c20e 03be 97ce ae3c 7a84 283e 8514 883d
00000150: 86fa da3d 3077 0abe 9569 96bc cb9a 073e
00000160: d6f5 eb3d 48f4 8dbc d889 25bd 9e62 1e3e
00000170: 7cbd a7bc 855b 38be dcd3 563d d024 f33c
00000180: af1f 18be 23be efbd 20fd 103d 2e29 20be
00000190: 3855 f23d 1d48 f1bd 8a3f 2f3d 7ccf 23be
000001a0: ce28 19be 294e ce3d 81da e33d 16e9 babd
000001b0: e467 e03d 179e 0bbe 8f9d 0ebe d9f6 e9bd
000001c0: d224 1ebd f028 063e b793 883c 3cc9 093e
000001d0: 1a48 c53d 6ccd 43bd 99fb 11bd 3266 a2bd
000001e0: 56f9 bebc 74d0 2bbe 08f1 16be 2f31 10bd
000001f0: fc1b 43bd ff8c c33d d075 d3bd a4d8 3a3d
00000200: 512b 153c 4c8b 3dbd 5aa8 0e3e eb85 dabd
00000210: fd8a e1bd f39a 30be 4ca4 03be 972d 113e
00000220: 1dc0 5c3d 39cb 053e c7d5 943d a8ea 0d3e
00000230: ec0c b53d 49a8 643d 60b5 1abe c110 4e3d
00000240: f88c 1abe f8fd b23c 2673 2ebe f2bd 193d
00000250: 8630 08be 9c70 0e3d 9e64 1bbe 99b5 15bc
00000260: e3b5 b6bd b880 fabd 4929 f53d 61c7 0c3e
00000270: 3610 f43d f985 bebd ddaf 23be d2e7 853c
00000280: f5bf edbd 9d16 d03d 87cf cabd 6348 933d
00000290: 3290 b7bc ff8e 0abd e0d3 f73d 594b d13c
000002a0: f78d 51bd b1d9 d4bc bffc 023e 5d92 26be
000002b0: 33b5 13be 8479 0f3e 374f a93d 10e9 05bc
000002c0: c0fe e8bd 4c82 52bc f02c 883d b190 393d
000002d0: 4998 cf3d 2ac0 33be 8d08 723d fbc9 83bb
000002e0: dc01 d53d d974 063d ab43 a63c effc 18be
000002f0: 1864 4bbd 72b6 a4bc 239a 263c 364b 98bd
00000300: 9c62 ab3a bf97 c2bd 22ae 93bd ee0b 2a3e
00000310: 32c7 c7bd 732b 813c 1af2 a43d 606f f03c
00000320: d978 263c 3567 1a3d d15d d33d 5e4f 1fbe
00000330: ef46 6fbb 1308 063e dce5 16be 63d4 903d
00000340: 42bd 773d e8b4 f83d ad86 4dbd 705e 9cbd
00000350: 9e2f 9d3d a8ef abbd 3e32 013e 08c4 1ebd
00000360: 81d4 2abe 37e2 823d dc5d 133e dc1f 133e
00000370: 9e47 c23d f136 f8bb 8706 7bbd 0bd8 2ebe
00000380: 71de ee3d 28a2 033d 9cb2 d1bc 772f 10be
00000390: b2a4 00ba 6ede 053d 827a 083e 5b13 fe3d
000003a0: 8955 f1bd 588c 1abb b83b e4bd 49f6 8dbd
000003b0: 9899 063c a4ca 013e 506f 16bd 132d b13d
000003c0: 0373 fbbd 366e f8bc c3bb 8e3d ecb1 50bd
000003d0: 9873 b93d f986 14be f6ad b3bc 8acd c5bd
000003e0: f09b f03d 785e 17bd dd52 04be b003 093d
000003f0: c5be b3bd f1ce 8ebd 2f66 f83d 0ff9 933d
0.056384765 0.09093982 -0.096736014 0.008594728 0.040003743 0.05000123 0.060181826 -0.068809465
0.042803228 -0.15633352 -0.027373938 0.1657992 0.11802267 -0.14898612 -0.0560112 0.09324531
-0.06081906 0.15114833 0.07561057 -0.08332886 -0.035038024 -0.026432447 0.067046404 -0.048598688
-0.10134593 -0.018166006 0.077030346 -0.08956386 -0.16847613 0.007745958 -0.11982009 0.03040119
0.14498413 -0.15058474 -0.12501107 -0.02291611 0.11010649 0.11398344 -0.09352628 -0.055933177
-0.036970127 0.17416288 -0.08638438 0.15962924 -0.090326674 0.122472055 0.13169469 0.15693332
0.03780402 0.12712386 -0.12067231 -0.04347806 -0.091756225 0.07181112 -0.10701691 -0.06413725
-0.037582755 0.08783398 0.11332266 0.067737795 0.14723107 0.12365454 0.060798462 -0.06057347
-0.033966493 -0.041060533 -0.17104013 0.045747027 0.09876063 0.1141197 0.092827186 0.10751528
0.004795815 0.15051173 0.15823211 0.021606358 0.0012527052 -0.17148796 -0.15143883 -0.01726576
-0.12798598 0.021338744 0.16456786 0.06644539 0.10692315 -0.13522029 -0.018360892 0.13242643
0.11521499 -0.017328396 -0.04041466 0.15467307 -0.020476095 -0.18003662 0.05244814 0.02968064
-0.14855836 -0.117061876 0.03539765 -0.15640709 0.118326604 -0.11781333 0.042785205 -0.15997118
-0.14956972 0.100735016 0.11125661 -0.09126489 0.109573156 -0.13634525 -0.13927291 -0.114240356
-0.038609333 0.13101554 0.016671998 0.13455671 0.09632893 -0.047803327 -0.035640333 -0.079296485
-0.023312252 -0.16778737 -0.14740384 -0.035203155 -0.04763411 0.09548377 -0.10325205 0.04561676
0.009104566 -0.046275422 0.13931409 -0.10670074 -0.11012838 -0.17246608 -0.12855643 0.14177547
0.05389415 0.13065805 0.07267337 0.13859046 0.08840355 0.05582455 -0.15108252 0.050308947
-0.15092838 0.021849617 -0.17036113 0.03753466 -0.1329976 0.03477536 -0.15175101 -0.009137535
-0.08921411 -0.122315824 0.11970765 0.13747932 0.119171545 -0.09302897 -0.15985055 0.016345892
-0.116088785 0.10160563 -0.09902864 0.07191541 -0.022407625 -0.033827778 0.12100959 0.025548624
-0.05116078 -0.02598271 0.12791727 -0.1626677 -0.14424591 0.14011198 0.08267062 -0.008173242
-0.11376715 -0.012848448 0.06649196 0.045304004 0.10136468 -0.17553774 0.059090186 -0.0040218807
0.10400745 0.03282628 0.020295938 -0.14940237 -0.049656004 -0.020106528 0.010168585 -0.0743622
0.0013075653 -0.095015995 -0.072109476 0.16606113 -0.0975479 0.015767789 0.0805399 0.029349983
0.010160648 0.037696082 0.103206284 -0.1555762 -0.0036510786 0.13089018 -0.14736122 0.070717596
0.060483225 0.1214388 -0.050177265 -0.076352 0.07675098 -0.0839532 0.12616822 -0.03876117
-0.16682626 0.06390803 0.14391273 0.14367622 0.09486316 -0.007574909 -0.06128552 -0.17074601
0.11663521 0.032137066 -0.025597863 -0.14080606 -0.0004907354 0.03268283 0.13327983 0.124060355
-0.11783893 -0.0023582187 -0.11144203 -0.06931741 0.008215331 0.12674958 -0.03672725 0.08651175
-0.12277796 -0.03032599 0.069694065 -0.05095093 0.09055251 -0.14504613 -0.021933537 -0.09658344
0.11748493 -0.036955327 -0.12922235 0.033450782 -0.08776621 -0.06973065 0.12128865 0.072252385

fc1.bias f4 [256]
00000000: fa85 10be 9ccb 80bd deff 973c b473 413d
00000010: cf59 17bd 898c 95bd aacb bb3b 8058 103d
00000020: 14eb 2ebe d405 2bbc abc1 323c 15c4 d7bd
00000030: 2763 3b3c 7850 863d d4f8 b13b 2b10 6fbd
00000040: 5001 b03a 3325 f5bd daab 34bd 236a debd
00000050: cae0 c23c 3a62 b3bc 7f6f bfbd da5c 8d3d
00000060: 25c0 0e3c 0837 dfbd e892 e3bd 598b b8bc
00000070: e10e 133d ef11 783c ef1d 05be f709 113d
00000080: 4c5c 00be 6033 da3c 3f6a 8fbc ce67 00be
00000090: ec01 d03c 34b7 dcbd ff1c a73c e558 a13c
000000a0: afe0 6bbd acba 90bc b7f2 03be 6402 05bd
000000b0: 279a 42bc e43c da3c c7c6 f93c 3de6 07bd
000000c0: 76ab 30bd 9253 2dbe 236e 94bc 05a4 d6bd
000000d0: 55aa bb3c 1d1b 693c 5ca1 87ba fad9 d9bd
000000e0: d5f7 513d d005 23bc dac6 403c 8253 2abd
000000f0: 83a8 0bbd 7557 19be fb5a b8bd 4cad 40bd
00000100: d817 673d 65dc a8bd 3631 3b3d 08f5 8fbd
00000110: d693 f83b a10f 30bc 4ddb a93c 93a6 103d
00000120: afab 05bc 92e9 103d 75a3 383c ae5e 8e3d
00000130: cbc8 be3c ed79 4a3d 56fd 07bd a01c 26be
00000140: ebe6 263b 3bb8 f2bd 5f3d 023d b82c dc3c
00000150: bfcb 1ebe 8ba6 05be 9260 41be d104 b5bc
00000160: 0b48 b8bd 3695 7a3d 3cdb 283c 0e69 17be
00000170: ee6b 263d df1a 1cbe aff4 abbd 22ac ddbc
00000180: ebb1 223c ea5e 05be a5a2 253c 7b5a 5c3c
00000190: 895a dcbd 508d 17bd 25fc 5fbd cdf6 6b3c
000001a0: 74c1 0abe 5a6b 15be 94c1 e83b fd88 df3c
000001b0: e885 18be c16f f3bd c0a8 d33b e3b9 75bd
000001c0: 717e c83c fb1f ec3b 6711 49bd a790 2f3d
000001d0: eac6 c53c a713 6cbc a23b efbd 6900 e7bd
000001e0: b67c 823c 51a4 af3d 4c90 023d 3930 af3d
000001f0: ed50 1fbd d363 843d 1958 183d a18a 273c
00000200: 971e 89bc 37d2 01bd 952b 4cbc b38d b93c
00000210: af3e 4e3c 5378 babd e4ad 813d f105 84bc
00000220: b569 b53c f563 34bc 6de4 2cbe 8ee4 f8bc
00000230: d87f 25be 0d43 b93c 8f3d bcbd 6758 90bc
00000240: b8e8 18be 4b7b 1a3d d373 f6bc 76d1 c83b
00000250: 1158 a43c ffb4 8bbb 4210 c4bc 93dd 8b3d
00000260: b374 e3bd d48d 04be 8cc6 40bc 4b17 07bd
00000270: e31f 11bd e184 81bd 44c5 babd e6f2 29be
00000280: 3ee0 893c b926 c53c 546e b93c 78fe dabc
00000290: ab60 ff3c cdcc 04bc 4f30 093d 8419 12be
000002a0: c6e9 16be 5ccb db3c 7552 7f3d 2b33 c5bd
000002b0: 235a bc3c 76e8 1abe 565f 133b 015a 11be
000002c0: 51ee 473d b18d 1fbe 7d7f 56bb fd5e 253b
000002d0: 384b 0dbe 6daa 4c3c b5da e5bc 34f4 1bbe
000002e0: ccee 833d 04bb ca3b e280 11be 06f5 24be
000002f0: 1a92 bb3d 2c88 0ebe 1f21 7ebc ada8 ea3c
00000300: 6ba5 8e3d d5f0 bcbd 7425 06be 24b2 9f3d
00000310: cbe5 553d 6440 e6bd f35b ea3c 4009 c7bc
00000320: 3bfd ecbd 9b44 2a3d 5407 85bd 69fa efbb
00000330: 2ea6 b73d 6dc3 aabc 4b8e 1cbe 147d 7c3d
00000340: 18e4 c4bd 46fc e5bb c75b 853c f4e3 a63c
00000350: 2f9e afbc f917 9bbd 084e 8fbd 4cde ddbd
00000360: 98ea 2cbd d8b8 26bd dcf0 01be 068a acbc
00000370: 76d3 81bc b500 58bb be25 c1bc 0f25 84bd
00000380: 9809 0cbe 2dbc 32be 72c1 81bd 81bb 913b
00000390: 82c7 863b 6c2f a13c ec84 91bc d489 38bc
000003a0: 22bc 9bbd 221d 89bb db7a 6a3c c8a6 d13d
000003b0: a459 6ebb e781 b43c bd6a 5abc 687c d8bd
000003c0: 4176 24bd 121b 293c 0fb0 29be 2c79 a2bd
000003d0: bbb3 e73b 64d8 febd 49d0 17bd 8211 a8bc
000003e0: 7cbf cdb9 38eb f63c a249 48bc e9fe 1abd
000003f0: 628a 69ba da1b 24be df84 3c3b 6520 693c
-0.14113608 -0.062888354 0.018554624 0.047229484 -0.036950883 -0.073021956 0.0057310658 0.03524065
-0.17081863 -0.010438401 0.010910432 -0.105354466 0.011437214 0.06558317 0.005431274 -0.05836503
0.0013428126 -0.11969986 -0.044109203 -0.10860088 0.023788828 -0.021897424 -0.09347438 0.06902476
0.008712803 -0.10899168 -0.111120045 -0.022527384 0.03590286 0.015140994 -0.129997 0.035409894
-0.12535208 0.026635826 -0.017506717 -0.12539598 0.025391541 -0.10777131 0.020399569 0.019695709
-0.05758732 -0.017667137 -0.12885557 -0.032472983 -0.011877573 0.026640363 0.030490292 -0.033178557
-0.043132268 -0.16926411 -0.018118924 -0.10480503 0.02290837 0.014227656 -0.0010347771 -0.10637279
0.05126174 -0.009950116 0.01176616 -0.041583546 -0.034096252 -0.14974768 -0.09001728 -0.04704027
0.056419224 -0.08245162 0.045701228 -0.07029158 0.007585983 -0.010745914 0.020734454 0.035315108
-0.008158608 0.035379 0.01126944 0.069516525 0.023289105 0.049432684 -0.033200584 -0.16221857
0.0025467228 -0.118515454 0.03179681 0.026876792 -0.1550741 -0.13051812 -0.18884495 -0.022097023
-0.08998116 0.061177455 0.010306176 -0.14786169 0.040630274 -0.15244626 -0.08396279 -0.027059618
0.009930114 -0.13024488 0.010109578 0.013449307 -0.10759456 -0.037 -0.054683823 0.014402104
-0.13550359 -0.14591733 0.0071031544 0.027287 -0.14894831 -0.1188655 0.0064593256 -0.05999173
0.024474354 0.007205961 -0.04908886 0.04286256 0.024142701 -0.014408982 -0.11681296 -0.11279375
0.015928607 0.08576263 0.031875893 0.085541196 -0.038895536 0.064643525 0.03719339 0.010225923
-0.01673822 -0.031694617 -0.012461563 0.022650575 0.012588187 -0.09104981 0.06331995 -0.016116114
0.022145132 -0.01101016 -0.16884013 -0.03038242 -0.1616205 0.02261498 -0.09191429 -0.017620279
-0.14932525 0.037715238 -0.030084526 0.0061284853 0.020061525 -0.00426352 -0.023933534 0.06829371
-0.11106243 -0.12944728 -0.011766087 -0.0329812 -0.0354308 -0.06324173 -0.09119657 -0.16596565
0.01683056 0.024066316 0.022635616 -0.026732668 0.031174025 -0.008105469 0.033493336 -0.14267546
-0.14737615 0.026830368 0.062334497 -0.096289 0.0229922 -0.1512774 0.0022487245 -0.1419449
0.04881126 -0.15581395 -0.0032729798 0.002523362 -0.13798225 0.012491805 -0.02805839 -0.15229875
0.06442031 0.006186845 -0.14209321 -0.16109094 0.09158726 -0.13919133 -0.015510826 0.028644884
0.06965145 -0.092256226 -0.13100225 0.077976495 0.0522211 -0.1124275 0.028608298 -0.024296403
-0.115717374 0.041569334 -0.06495538 -0.0073235524 0.08967243 -0.02084514 -0.15288655 0.06164272
-0.09613818 -0.0070185987 0.016279114 0.020372368 -0.021437733 -0.07572932 -0.06997305 -0.108334154
-0.042215914 -0.040703624 -0.12689537 -0.021061908 -0.015847903 -0.0032959406 -0.023577567 -0.06452381
-0.13675535 -0.17454596 -0.06335725 0.004447401 0.0041131387 0.019675933 -0.017763577 -0.01126333
-0.07604243 -0.004184381 0.014311518 0.10236889 -0.0036369348 0.022034599 -0.013331112 -0.105706036
-0.04015184 0.0103213955 -0.16571067 -0.07933268 0.007070986 -0.12443617 -0.03706387 -0.02051616
-0.00039243314 0.030141458 -0.012224587 -0.037840758 -0.0008908865 -0.1602625 0.002876572 0.014228915

fc2.weight f4 [5, 256]
00000000: e689 2c3d ca52 64bd 6c4f 693d 0020 b63a
00000010: ca1d 1ebd 8032 0f3d 0c05 4b3d 64ce da3c
00000020: 808b 343c d81b 203d 503b 15bc f0d7 cf3b
00000030: f4b3 ff3c 0050 413c 643a 2dbd e049 f73b
00000040: 305d 813b 484b 563c 4245 7ebd 0c67 613d
00000050: e0c8 3abd d6c4 3d3d ec45 63bd 42d4 50bd
00000060: b4f0 cbbc f0cf a7bb f465 903c c494 babc
00000070: 0e13 493d 1ca4 21bd f8c6 febc b496 4a3d
00000080: 06d8 0fbd 0c60 063d 3032 cbbc ec5e 563d
00000090: c601 65bd d843 d8bc ca6d 7d3d 6a7e 0cbd
000000a0: 6891 1d3c b036 663c b073 2c3d a428 55bd
000000b0: 00d8 56bb f0de c93b 7cbc 503d 1e2c 3bbd
000000c0: 4e98 4e3d 8638 38bd b82f 07bd 00c6 e8ba
000000d0: 50be d3bb a443 903c 247b 7bbd 5896 5cbc
000000e0: 2cda 55bd 46c3 5bbd 08d3 abbc bee4 57bd
000000f0: 240c acbc 7857 0d3c c018 0b3d d28e 373d
00000100: 1091 fe3c 3499 24bd 38c4 3f3d 0433 393d
00000110: 000e 45b9 f071 523c c45e eb3c 8066 6abc
00000120: c416 f1bc f089 433c 9613 6ebd 4a50 26bd
00000130: d6bc 7c3d b245 713d 8017 ffba a490 0f3d
00000140: 68aa 5bbd d0ab af3c 86ac 58bd 846c 473d
00000150: c283 12bd f206 10bd ac38 db3c 2ee3 76bd
00000160: 10b7 3fbc 6297 543d 68b1 8f3c e8e7 55bc
00000170: 344b a83c 3098 df3c a8ed 68bc 70e4 a6bc
00000180: 6890 353d 2016 813c 202d 613d 785f 67bc
00000190: 20e1 073d b064 20bc 6a5c 183d 486e 0bbd
000001a0: 8c91 1e3d fe93 5dbd 18b4 1b3c 8061 ff3a
000001b0: 7c65 223d 6886 943c b898 783c 7057 1fbc
000001c0: fe64 53bd 5680 46bd a0c6 71bd e0bc 46bb
000001d0: 68d9 acbc 4432 e6bc 589d 77bc a0eb 813c
000001e0: 28a5 64bc 903f 7abc bc71 dabc e292 263d
000001f0: 8039 073a 38dc e03c be8c 603d d476 b6bc
00000200: 6026 38bb e06d 41bd 18d4 2e3d 2865 2b3c
00000210: 5a23 6ebd e42b 143d b097 da3b d4bb 26bd
00000220: b8a3 5bbc 9437 153d e842 f73c f8ca 7d3c
00000230: f474 ea3c 6890 c63c 8832 72bc 2c53 a9bc
00000240: ec32 41bd e4eb 2cbd 00c2 e1bb e0d1 d3bc
00000250: c6de 73bd d65e 5bbd b44f c3bc 7c83 4cbd
00000260: 129d 64bd 10a0 3c3d a49a b43c c02e 913b
00000270: 709b dc3b 8003 9a3c c64a 2f3d a04c 973b
00000280: 144a af3c 28a4 7a3d 9a99 0a3d c0de e93c
00000290: 542a 183d 5890 44bd 7ebd 37bd 8455 efbc
000002a0: a036 4abd 08dd 93bc 24f4 4e3d 8081 4dba
000002b0: 728f 30bd 0a48 49bd 44b0 02bd 4084 733d
000002c0: 80bb 793c 50a9 0fbd 6899 313c d614 4cbd
000002d0: 4485 4a3d 9618 48bd 348c 7b3d 886a dcbc
000002e0: 720e 663d cc5b 29bd 90eb 92bb c62f 25bd
000002f0: a00f cfbb 7cc8 eebc fe24 10bd d4c8 32bd
00000300: a6c7 433d 5a9e 143d 6808 6bbd 80d6 4f3d
00000310: 9212 033d 40c9 acbc c83d 223c aeb6 73bd
00000320: b8e7 293d d800 dfbc b439 a23c cc0f 1d3d
00000330: 4c23 6bbd bccb 233d c64f 1ebd 8040 0b3b
00000340: 5eff 203d 98af 183d 50ee 833b dc18 4a3d
00000350: 9e7c 38bd 74d6 ecbc 68b9 6f3c 8237 0a3d
00000360: 94df 2a3d 56e5 6cbd f689 403d 262f 6d3d
00000370: f0cd 5bbd c8ea 493d ac74 673d 5873 51bc
00000380: 20c0 f63b ec3f 60bd 7442 59bd e221 43bd
00000390: 5041 85bb 04a6 26bd 103c 6ebd 7048 5b3d
000003a0: d854 f13c 3cb3 823c f2ee 1bbd c46d 513d
000003b0: d02e e93c a2fd 1cbd 20df 70bd 8051 f7bc
000003c0: 78bc 62bc d051 793d 74b6 e33c 2018 693b
000003d0: ee24 63bd a022 553d 701c 17bc 14e4 85bc
000003e0: a40c c73c 00b5 93bc 8a94 763d 48b2 77bd
000003f0: 4091 b2bb 3ab9 6a3d 44d2 ebbc 8cf0 13bd
0.042123698 -0.055743016 0.05696051 0.0013895035 -0.038602628 0.03496027 0.04956536 0.026709743
0.0110195875 0.039089054 -0.0091083795 0.0063428804 0.031213738 0.011798859 -0.042292014 0.0075466484
0.0039478764 0.013079472 -0.06207777 0.055029914 -0.045601726 0.046330296 -0.055486605 -0.050983675
-0.02489505 -0.0051212236 0.01762674 -0.022776015 0.049090438 -0.039463148 -0.031100735 0.049460128
-0.035118125 0.03280644 -0.024804205 0.05233662 -0.055909894 -0.026399538 0.06187228 -0.034300245
0.009617187 0.014051124 0.042102516 -0.05204071 -0.0032782555 0.0061606094 0.050961003 -0.04569637
0.050438218 -0.04497578 -0.033004493 -0.0017759204 -0.006461896 0.017610379 -0.061396733 -0.013463579
-0.052210018 -0.053653024 -0.020974651 -0.05270838 -0.021001883 0.008626811 0.03395915 0.04481394
0.03107503 -0.04018517 0.04681799 0.045214668 -0.000187926 0.012844548 0.028731711 -0.0143066645
-0.0294298 0.011934742 -0.058124147 -0.040603913 0.061703525 0.058904357 -0.001946196 0.03505005
-0.05362931 0.021444231 -0.052898906 0.048687473 -0.035770185 -0.035162874 0.026760422 -0.06027525
-0.01170136 0.051902182 0.017540649 -0.013055779 0.020543672 0.027294248 -0.014216818 -0.0203726
0.04432717 0.01575762 0.054974675 -0.014121883 0.03317368 -0.009789631 0.037197508 -0.03404072
0.038713023 -0.054096214 0.009503387 0.0019484013 0.039647564 0.018130496 0.01517313 -0.009725437
-0.051609986 -0.048462234 -0.059027314 -0.003032498 -0.021099761 -0.02810014 -0.015113197 0.015859425
-0.013955392 -0.015273944 -0.02666556 0.040667422 0.00051584095 0.027448758 0.054821722 -0.022273459
-0.0028099045 -0.047223926 0.042682737 0.010461129 -0.058139183 0.03617467 0.0066709146 -0.04070647
-0.013405733 0.036429957 0.03018327 0.015490286 0.02862022 0.02423878 -0.014782555 -0.020669542
-0.047167704 -0.04221715 -0.0068895817 -0.025856912 -0.059538625 -0.05355724 -0.023841716 -0.04993008
-0.055813856 0.046051085 0.022046395 0.004430622 0.006732397 0.018800497 0.04279592 0.0046172887
0.021397628 0.061191708 0.033837892 0.028548598 0.037149742 -0.04798922 -0.04485845 -0.029215582
-0.0493685 -0.018049732 0.0505258 -0.00078394264 -0.04310555 -0.049140967 -0.03190638 0.059452295
0.015242457 -0.03507358 0.010839798 -0.04982456 0.0494435 -0.048851572 0.061413005 -0.026906267
0.05616612 -0.04134731 -0.0044836476 -0.040328763 -0.0063190013 -0.029148333 -0.03519153 -0.043648556
0.04779782 0.03628383 -0.057381064 0.050741673 0.032000132 -0.021092057 0.009902425 -0.05950039
0.04148075 -0.027222082 0.019802906 0.038345143 -0.05740671 0.039989218 -0.038650297 0.0021248162
0.039306037 0.037276834 0.004026212 0.049340114 -0.04504072 -0.028910853 0.014631607 0.033744343
0.041717127 -0.0578359 0.04700657 0.057906292 -0.053663194 0.04929617 0.05650775 -0.012783848
0.0075302273 -0.05474846 -0.05304189 -0.047639735 -0.0040666237 -0.04068567 -0.05816275 0.05353588
0.029459402 0.015954606 -0.038069673 0.05113007 0.028464705 -0.03832782 -0.05880654 -0.03019023
-0.01383888 0.060869038 0.027796961 0.0035567358 -0.05545514 0.052034974 -0.009223089 -0.016344108
0.02429802 -0.018030643 0.06020025 -0.060472757 -0.005449444 0.057305552 -0.028786786 -0.036118075

fc2.bias f4 [5]
00000000: 0c71 a8bc 6048 483d d4f7 01bd 0afc 52bd
00000010: 2f27 073e
-0.020561717 0.048897147 -0.031730488 -0.051509894 0.13198541
