Models/Torch2/my_model6400.pth (torch_old, 60054 bytes, 8 tensors)

conv1.weight f4 [16, 2, 3, 3]
0.025438804 -0.21654168 0.0065231742 -0.09536773 -0.036366478 -0.20672424 -0.16954838 -0.18262374
-0.19689968 -0.16782245 0.19511776 0.13370398 -0.016861692 -0.22980718 0.1449503 0.18225108
0.04033561 -0.043125212 -0.087618686 -0.03271638 0.2812118 0.09308076 -0.103375964 0.4032506
0.13446383 0.14383535 0.19639921 0.06965245 -0.015790926 0.10844979 -0.035961114 0.17005304
-0.2749677 -0.07700801 0.20365553 -0.111655094 0.256735 -0.17831768 0.4217077 -0.22046022
-0.11513124 -0.046933826 -0.14541854 0.0015613859 0.23462035 -0.019410312 -0.25572833 -0.22369124
0.07002916 -0.07503731 -0.017207108 0.021264791 0.11558679 -0.20242435 -0.024578221 -0.17048463
-0.033502378 0.15744145 0.2446062 0.041479994 -0.15306194 0.2635155 0.27235287 -0.101757795
0.021307439 0.14625593 -0.023548245 0.15203518 0.16051963 -0.14893217 0.17281517 0.021320611
-0.14672484 -0.039831016 0.3168437 -0.17278986 0.23393063 -0.09273929 -0.14318973 0.32207072
-0.055614162 0.039629925 -0.17956862 0.16326492 0.062223386 0.047118373 0.029032117 0.0843616
0.22989409 -0.16229843 0.067682736 4.9451563e-05 -0.07660613 0.18447386 0.14566779 0.42815334
-0.215483 0.25752333 -0.22996505 -0.19733417 -0.17451964 -0.24841493 -0.020103442 -0.15640427
-0.022808759 -0.093451686 -0.15479921 0.17099062 0.14098518 -0.08360462 -0.031477034 -0.090391785
0.077991374 -0.16665864 0.11270305 0.2459827 0.11652316 0.04285485 -0.1072294 0.06580706
0.20580038 0.2055684 -0.21060285 -0.092462376 -0.18760386 -0.15051626 -0.023077173 -0.07618159
-0.060192306 -0.16294624 0.13107985 0.0137009965 -0.04884409 -0.109655656 0.10446248 -0.033718944
-0.17566161 -0.1984991 0.22689004 -0.1963332 -0.15187225 -0.03171168 -0.10552558 -0.16198458
-0.106364906 0.13877435 -0.124268346 -0.15954389 -0.20614146 -0.10851087 -0.0596653 -0.24135146
0.00020522557 -0.01336204 -0.13525788 0.25137132 0.014302823 0.121913165 0.14365357 0.24208827
0.19452491 0.0075343293 -0.2116464 0.19036326 0.15322192 0.15130986 0.034010902 0.22122698
-0.16226387 0.1429756 0.07093624 -0.11783698 -0.08841057 0.074434325 0.11079562 0.18682167
-0.058473088 0.04640218 -0.00033451658 0.18396862 0.07768269 0.058856294 0.061338726 0.17695871
0.044642672 -0.23414932 0.16304955 -0.068920776 -0.08567457 0.14229313 -0.051221147 0.003553192
-0.009128784 0.096321315 0.069459185 0.14653115 0.0465572 0.09618771 -0.10909988 -0.13814612
0.23378174 0.018520424 -0.07480427 0.2558243 -0.19338661 -0.028567081 0.1949063 0.21478787
0.12116897 -0.15254155 0.05198159 0.021739345 0.13213587 0.21510309 0.052811332 0.13078889
-0.07510828 -0.02742026 0.039591525 0.23291156 -0.046280213 -0.17580144 0.14740236 -0.19568506
0.06883924 -0.11002387 -0.066462435 -0.057758994 -0.14051835 -0.021303521 0.24564976 -0.20673296
0.0976432 0.03784954 -0.14735799 -0.021071577 -0.2245263 -0.16733402 0.12527941 0.20628251
0.25561973 -0.054723345 0.25508672 -0.0017445709 0.12818508 -0.14447287 -0.110134386 0.1860192
-0.17531261 -0.1481601 0.012052637 0.055450425 0.13271488 -0.22270277 0.119757205 0.089636184
00000000: 0a65 d03c 1abd 5dbe 5ac0 d53b 2850 c3bd
00000010: 04f5 14bd 85af 53be 179e 2dbe b801 3bbe
00000020: 12a0 49be a6d9 2bbe f3cc 473e b2e9 083e
00000030: 8821 8abc 9352 6bbe da6d 143e 07a0 3a3e
00000040: f436 253d 10a4 30bd 6d71 b3bd 9c01 06bd
00000050: fefa 8f3e 20a1 be3d c7b6 d3bd dd76 ce3e
00000060: e3b0 093e 9349 133e e01c 493e f2a5 8e3d
00000070: f95b 81bc ec1a de3d f64b 13bd 6222 2e3e
00000080: 91c8 8cbe 60b6 9dbd 138b 503e 6dab e4bd
00000090: c572 833e e998 36be 12ea d73e 53c0 61be
000000a0: edc9 ebbd af3d 40bd 99e8 14be 6ba7 cc3a
000000b0: 5140 703e 6002 9fbc d3ee 82be 510f 65be
000000c0: 736b 8f3d 29ad 99bd ecf5 8cbc 8033 ae3c
000000d0: c4b8 ec3d 5448 4fbe 4458 c9bc 8693 2ebe
000000e0: ca39 09bd 5538 213e 0c7a 7a3e ede6 293d
000000f0: 45bc 1cbe 81eb 863e d671 8b3e 6466 d0bd
00000100: f08c ae3c 1dc4 153e 40e8 c0bc 1caf 1b3e
00000110: 425f 243e ad81 18be 76f6 303e 90a8 ae3c
00000120: 093f 16be d925 23bd 5639 a23e d3ef 30be
00000130: 838b 6f3e 19ee bdbd 54a0 12be 74e6 a43e
00000140: adcb 63bd fd52 223d d6e0 37be eb2e 273e
00000150: f3dd 7e3d 32ff 403d c3d4 ed3c c6c5 ac3d
00000160: 5b69 6b3e 8f31 26be 3f9d 8a3d 366a 4f38
00000170: ade3 9cbd b7e6 3c3e f029 153e ea36 db3e
00000180: 93a7 5cbe 19da 833e f57b 6bbe f811 4abe
00000190: 47b5 32be 7c60 7ebe f9af a4bc 7128 20be
000001a0: 6fd9 babc 9963 bfbd af83 1ebe 2a18 2f3e
000001b0: 6b5e 103e e638 abbd 10ee 00bd 541f b9bd
000001c0: f1b9 9f3d 90a8 2abe dbd0 e63d e4e2 7b3e
000001d0: b2a3 ee3d 9188 2f3d 169b dbbd dac5 863d
000001e0: 56bd 523e 8680 523e 46a8 57be ea5c bdbd
000001f0: 3a1b 40be ef20 1abe 570c bdbc 1805 9cbd
00000200: 358c 76bd 61db 26be cc39 063e 257a 603c
00000210: be10 48bd 2593 e0bd 6df0 d53d e01c 0abd
00000220: a3e0 33be 5943 4bbe dd55 683e 920b 49be
00000230: 6684 1bbe 1be4 01bd cc1d d8bd 49df 25be
00000240: d8d5 d9bd dd1a 0e3e 6780 febd 795f 23be
00000250: bf16 53be f23a debd 9a63 74bd d624 77be
00000260: d231 5739 75ec 5abc 0b81 0abe beb3 803e
00000270: 6356 6a3c 9cad f93d ec19 133e fde5 773e
00000280: 8a31 473e 89e2 f63b d5b9 58be 96ee 423e
00000290: 35e6 1c3e f9f0 1a3e 044f 0b3d 5389 623e
000002a0: 8028 26be 3268 123e 0547 913d 8454 f1bd
000002b0: 9a10 b5bd 0671 983d d0e8 e23d 2e4e 3f3e
000002c0: 7a81 6fbd 3610 3e3d 0e62 afb9 4562 3c3e
000002d0: 1a18 9f3d 4c13 713d 513e 7b3d aa34 353e
000002e0: 3cdb 363d d7c4 6fbe 76f6 263e 5626 8dbd
000002f0: 2676 afbd 4ab5 113e 44cd 51bd abdc 683b
00000300: e590 15bc 1c44 c53d 9e40 8e3d 430c 163e
00000310: c3b2 3e3d 10fe c43d c26f dfbd 2d76 0dbe
00000320: 7b64 6f3e 25b8 973c fb32 99bd 67fb 823e
00000330: 2407 46be 8305 eabc 8495 473e 5af1 5b3e
00000340: 7027 f83d da33 1cbe a6ea 543d b616 b23c
00000350: a04e 073e fc43 5c3e b250 583d 86ed 053e
00000360: 5fd2 99bd 74a0 e0bc b92a 223d 5e80 6e3e
00000370: 5290 3dbd 4b05 34be a5f0 163e aa61 48be
00000380: 96fb 8c3d 3254 e1bd 751d 88bd b294 6cbd
00000390: 0be4 0fbe b984 aebc 9c8b 7b3e ceb1 53be
000003a0: 28f9 c73d 1f08 1b3d 03e5 16be 4d9e acbc
000003b0: 39ea 65be 9c59 2bbe 3f49 003e b93b 533e
000003c0: 97e0 823e 9625 60bd ba9a 823e 16aa e4ba
000003d0: f342 033e b2f0 13be 238e e1bd d17b 3e3e
000003e0: 2685 33be 48b7 17be 6c78 453c fc1f 633d
000003f0: 69e6 073e 320c 64be 4443 f53d 2d93 b73d

conv1.bias f4 [16]
-0.06930666 -0.006094311 0.1342818 0.11358072 0.019781945 0.12812914 -0.24685368 -0.0035334013
0.13866714 -0.021066608 -0.18449388 0.021101901 -0.15467404 -0.020214345 -0.13171093 0.07656376
00000000: a6f0 8dbd c9b2 c7bb 2b81 093e 029d e83d
00000010: bf0d a23c 4934 033e 36c7 7cbe a390 67bb
00000020: c2fe 0d3e e193 acbc f7eb 3cbe e5dd ac3c
00000030: df62 1ebe 8e98 a5bc 3bdf 06be 76cd 9c3d

conv2.weight f4 [32, 16, 3, 3]
0.022917107 -0.078884445 -0.021636657 -0.0027693165 0.040248387 0.039267153 -0.030480286 -0.057503935
0.07843043 0.02896286 -0.14413637 0.05147003 -0.07553204 0.035751067 0.09401984 0.028789943
0.0021067474 0.0718964 0.043617595 -0.02221963 0.24731031 -0.10058117 -0.11887762 0.0042548897
-0.032100234 0.010391139 0.05104519 -0.021231588 0.027057048 0.04722938 -0.057131886 0.08824629
0.1628753 0.06952416 -0.020915853 -0.020868449 0.051978465 -0.015776217 0.1180828 0.007972401
-0.02523118 -0.104819216 0.058545295 0.03084785 -0.06206941 -0.123193525 -0.09021664 -0.16548571
-0.011179014 -0.025240133 -0.03971433 -0.005599189 -0.051661983 -0.08178034 -0.057156876 0.021705426
0.061629534 -0.0720296 -0.037153553 -0.016319023 -0.023170296 0.065821216 0.0015196943 -0.06478993
-0.013015434 -0.04673145 0.0713797 -0.02222191 -0.029248165 0.016717136 -0.09050518 0.07222135
0.06604821 0.04741118 -0.04675318 0.113394305 0.024682695 0.061264776 0.06490116 -0.01869001
0.074623115 0.021723043 0.014317658 -0.06604746 0.009860629 -0.0011625562 0.020516645 0.012694688
-0.07030503 -0.019852677 -0.017058676 0.024312261 0.022811636 0.036148053 -0.072117135 -0.053646054
0.009288375 -0.028579194 -0.014056139 -0.027281838 -0.056310542 0.05274744 0.01603344 -0.026265385
0.0903214 0.034011252 -0.09198513 0.11089165 -0.048862223 -0.024664499 0.054579474 0.068539605
0.04009063 -0.005983029 -0.043708883 0.040790405 0.08404652 -0.035616573 -0.09994723 -0.018802866
0.055538334 -0.025867993 0.01624282 -0.009661577 -0.060037002 0.10688745 0.053543206 0.008122614
-0.08704976 0.0045984434 0.053178146 -0.08559964 0.06202054 -0.052277748 0.028210584 -0.036290888
-0.11674346 0.06753391 0.05915913 0.0031031207 0.13147415 0.049381766 -0.00084037 0.028332874
-0.053185023 0.026176665 -0.03655326 0.00976829 -0.10761779 0.061900478 -0.027789282 -0.020928819
0.07484508 0.08872668 -0.093535416 0.3419562 -0.12989579 -0.015325457 0.086306006 -0.00645711
-0.037388835 0.011419328 -0.062033765 0.03840826 0.14931068 0.035230856 -0.041841 0.25873032
-0.01565442 0.08655911 0.041604407 0.02231448 -0.028303744 -0.013628431 -0.08131453 0.06798819
0.06203429 -0.015809234 0.0058038128 0.089017436 0.032090608 -0.06011664 -0.005862371 0.054201048
-0.04429076 0.068292685 -0.057592943 0.004620016 -0.050276585 0.09780536 -0.10480653 0.22697426
0.03203842 0.00781858 0.045075875 0.031473026 0.013384862 -0.050399616 0.0513573 0.0607245
0.087820046 0.0601557 -0.0039948486 0.053926937 -0.012372201 0.06647716 -0.009828974 0.07436078
-0.0068567535 0.07505872 0.095006235 0.0130961845 -0.015776906 0.04111344 -0.032465335 -0.014048462
0.047312733 0.039976206 0.0034061458 -0.049344316 0.003700377 -0.09989148 0.082328886 0.0036538106
-0.034567043 -0.046571374 0.0502381 0.119194165 -0.094177336 -0.0017535156 0.09554258 0.04001784
-0.039806608 -0.028241893 -0.080341354 0.013593364 -0.020212272 0.010339711 0.08352364 -0.042796772
-0.040447284 0.049771134 0.059947338 0.08108818 -0.043892246 0.20087613 0.09546053 0.02746914
0.116582625 0.051653013 -0.061019324 0.11779629 0.06509993 0.017148754 -0.07747235 -0.047208756
00000000: a8bc bb3c 2b8e a1bd 5c3f b1bc 6c7d 35bb
00000010: 7edb 243d 98d6 203d cbb1 f9bc 3f89 6bbd
00000020: 22a0 a03d 8543 ed3c 7c98 13be 3dd2 523d
00000030: 8bb0 9abd b66f 123d 798d c03d e3d8 eb3c
00000040: 5b11 0a3b 6b3e 933d 5da8 323d f105 b6bc
00000050: ea3e 7d3e 80fd cdbd 1c76 f3bd 9a6c 8b3b
00000060: 897b 03bd 993f 2a3c c314 513d deed adbc
00000070: bea6 dd3c 9873 413d 2003 6abd 79ba b43d
00000080: c8c8 263e af62 8e3d b957 abbc 4ff4 aabc
00000090: 5fe7 543d 203d 81bc 65d5 f13d ac9e 023c
000000a0: 9fb1 cebc 75ab d6bd 31cd 6f3d a1b4 fc3c
000000b0: 7e3c 7ebd e34c fcbd 80c3 b8bd 1675 29be
000000c0: 2f28 37bc 65c4 cebc 7eab 22bd 6779 b7bb
000000d0: 849b 53bd 737c a7bd 541d 6abd 94cf b13c
000000e0: 406f 7c3d 4184 93bd 532e 18bd 79af 85bc
000000f0: a2cf bdbc 46cd 863d 7b30 c73a 95b0 84bd
00000100: b03e 55bc 7a69 3fbd 852f 923d b90a b6bc
00000110: d999 efbc 60f2 883c c85a b9bd cae8 933d
00000120: 4944 873d 3a32 423d 4380 3fbd 463b e83d
00000130: 5d33 ca3c c6f0 7a3d e6ea 843d cb1b 99bc
00000140: 01d4 983d 86f4 b13c 9c94 6a3c e443 87bd
00000150: 7a8e 213c ea60 98ba 8612 a83c 61fd 4f3c
00000160: 15fc 8fbd 15a2 a2bc a3be 8bbc 822a c73c
00000170: 78df ba3c fb0f 143d 26b2 93bd f7bb 5bbd
00000180: 452e 183c ea1e eabc b84b 66bc 297e dfbc
00000190: e2a5 66bd b30d 583d 9058 833c 812a d7bc
000001a0: 6dfa b83d 624f 0b3d b362 bcbd 291b e33d
000001b0: c123 48bd 340d cabc ba8e 5f3d 7e5e 8c3d
000001c0: 1336 243d 490d c4bb 1608 33bd d713 273d
000001d0: 9520 ac3d afe2 11bd 22b1 ccbd 7808 9abc
000001e0: 2a7c 633d 1de9 d3bc aa0f 853c 974b 1ebc
000001f0: 5ce9 75bd cfe7 da3d 1f50 5b3d b614 053c
00000200: 2547 b2bd 8aae 963b 54d1 593d dd4e afbd
00000210: 4009 7e3d 3121 56bd e219 e73c c1a5 14bd
00000220: 3217 efbd 384f 8a3d d850 723d ba5d 4b3b
00000230: 29a1 063e 8944 4a3d 474c 5cba 581a e83c
00000240: 8ad8 59bd 7270 d63c dfb8 15bd 2e0b 203c
00000250: b766 dcbd 5b8b 7d3d 59a6 e3bc ea72 abbc
00000260: 6148 993d 55b6 b53d 7f8f bfbd e214 af3e
00000270: 6703 05be a017 7bbc 34c1 b03d 2a96 d3bb
00000280: 0925 19bd 2218 3b3c 1e17 7ebd fb51 1d3d
00000290: e6e4 183e 3b4e 103d 7861 2bbd 4d78 843e
000002a0: b33d 80bc e745 b13d 6269 2a3d dbcc b63c
000002b0: 41dd e7bc c849 5fbc 3b88 a6bd 643d 8b3d
000002c0: ab17 7e3d 5e82 81bc e92d be3b c64e b63d
000002d0: 7171 033d de3c 76bd 2219 c0bb eb01 5e3d
000002e0: 3a6a 35bd 09dd 8b3d 94e6 6bbd 8163 973b
000002f0: d2ee 4dbd 2d4e c83d cea4 d6bd f16b 683e
00000300: b83a 033d 8019 003c 7ba1 383d dce9 003d
00000310: 2e4c 5b3c d46f 4ebd 085c 523d 41ba 783d
00000320: ffda b33d d365 763d 38e7 82bb 7ee2 5c3d
00000330: c6b4 4abc 2d25 883d b409 21bc 774a 983d
00000340: 9eae e0bb 63b8 993d a192 c23d 6191 563c
00000350: 923e 81bc 9166 283d 5ffa 04bd 852b 66bc
00000360: ffca 413d 17be 233d a539 5f3b 441d 4abd
00000370: 0682 723b e793 ccbd 0c9c a83d c574 6f3b
00000380: 2c96 0dbd a0c1 3ebd 77c6 4d3d 121c f43d
00000390: 0ce0 c0bd 38d6 e5ba d4ab c33d bfe9 233d
000003a0: 410c 23bd 8b5b e7bc 028a a4bd b3b6 5e3c
000003b0: 3594 a5bc e467 293c 710e ab3d ab4b 2fbd
000003c0: 0dac 25bd d1dc 4b3d 578b 753d 8f11 a63d
000003d0: 5bc8 33bd 79b2 4d3e cf80 c33d f606 e13c
000003e0: dfc2 ee3d 1c92 533d 66ef 79bd 2e3f f13d
000003f0: 1d53 853d 8b7b 8c3c d3a9 9ebd f85d 41bd

conv2.bias f4 [32]
0.08666326 0.0986522 0.05240727 0.038048975 0.21578239 0.11782742 0.034130093 0.01364423
0.06335986 0.07738675 -0.013816081 0.039477285 -0.015608397 0.028168034 0.01495998 0.04432653
0.033845056 -0.050384432 0.0065928395 -0.019438442 -0.030906351 -0.08365129 -0.035073623 -0.09847221
-0.034647137 -0.0579824 -0.036971644 -0.007680425 -0.048406303 -0.04612788 -0.059823617 -0.061288968
00000000: 827c b13d 2a0a ca3d 01a9 563d 3ed9 1b3d
00000010: 0ff6 5c3e 814f f13d ffcb 0b3d 0c8c 5f3c
00000020: d0c2 813d f27c 9e3d d85c 62bc efb2 213d
00000030: 5dba 7fbc a6c0 e63c b41a 753c bc8f 353d
00000040: 1da1 0a3d e85f 4ebd bf08 d83b 5e3d 9fbc
00000050: 512f fdbc 5e51 abbd 5ca9 0fbd ccab c9bd
00000060: 28ea 0dbd f47e 6dbd 946f 17bd 13ac fbbb
00000070: b045 46bd 97f0 3cbd 9c09 75bd 240a 7bbd

fc1.weight f4 [256, 32]
0.055290688 0.08997675 -0.09727767 0.008049269 0.039329596 0.05052028 0.058992926 -0.06856764
0.042336326 -0.15738536 -0.028233934 0.1655268 0.1158496 -0.14895082 -0.05677307 0.09135645
-0.061154082 0.15029252 0.075564936 -0.08335959 -0.035086405 -0.026466345 0.06703001 -0.048648264
-0.101372264 -0.018201629 0.07676221 -0.08950529 -0.16850968 0.007560057 -0.11987449 0.030403582
0.14238676 -0.15150501 -0.12171566 -0.029542318 0.11028241 0.120282024 -0.09572183 -0.057944156
-0.037629902 0.16690537 -0.09028302 0.16313423 -0.09633242 0.12147267 0.13347015 0.15688449
0.037553813 0.119644254 -0.12046534 -0.04269711 -0.092333145 0.07001391 -0.106442206 -0.064928755
-0.038838048 0.086851634 0.10980186 0.064397514 0.14629987 0.12135988 0.06395814 -0.05694513
-0.032685705 -0.041163184 -0.17388627 0.046588246 0.102160364 0.10520106 0.08980205 0.10402894
0.0032894972 0.1488441 0.16048552 0.01634769 -0.0022621967 -0.17151764 -0.15161721 -0.01759565
-0.1276268 0.022823263 0.16364703 0.06622321 0.10372306 -0.13219887 -0.022863632 0.13305973
0.114097044 -0.017000314 -0.041595444 0.15746397 -0.021034291 -0.1810225 0.050226133 0.027921086
-0.1480708 -0.11718407 0.034748282 -0.15626794 0.11956316 -0.12004622 0.04233474 -0.16068587
-0.14956094 0.099842764 0.11231441 -0.0917181 0.108452365 -0.13572486 -0.13877194 -0.11363466
-0.037510347 0.13182172 0.01637945 0.13490982 0.096152775 -0.04781995 -0.03684125 -0.078490324
-0.024537027 -0.16807145 -0.14782164 -0.035203382 -0.047154807 0.09453134 -0.10352335 0.04565363
0.009632692 -0.043543775 0.1431495 -0.1117006 -0.116908014 -0.17596412 -0.13066064 0.13263817
0.04939943 0.12187766 0.063811444 0.1344897 0.08143375 0.05488553 -0.15177803 0.04508918
-0.15512706 0.016758576 -0.17108727 0.037214603 -0.13303705 0.033131726 -0.15413104 -0.010572819
-0.09147627 -0.124526024 0.11458543 0.13085403 0.11700211 -0.09476772 -0.16086063 0.015748264
-0.11650548 0.10123774 -0.099174835 0.07161258 -0.022873387 -0.033869382 0.12083151 0.025480295
-0.051476087 -0.026262185 0.12675487 -0.16267796 -0.14440742 0.13956407 0.08237389 -0.008533993
-0.11392036 -0.0133941565 0.06637823 0.045419358 0.10138573 -0.17565778 0.05913271 -0.0040708384
0.10384746 0.032730572 0.020304361 -0.14938831 -0.049680047 -0.020063309 0.010193797 -0.07437841
0.0039199274 -0.09849275 -0.07723381 0.16531605 -0.090945065 0.010164382 0.07205172 0.031259857
0.011953959 0.045880005 0.11121533 -0.15436843 0.0030363011 0.12880203 -0.13824604 0.071566716
0.06930971 0.12662047 -0.05518555 -0.0783304 0.07114207 -0.08405088 0.11806042 -0.04264844
-0.16480705 0.06490194 0.14568217 0.1498699 0.09518119 -0.008713314 -0.063048534 -0.17252554
0.11547951 0.031012606 -0.022178158 -0.14039947 -0.0060759634 0.045279525 0.13639799 0.12604594
-0.11563096 0.003585135 -0.10489377 -0.060662888 0.013590827 0.13665783 -0.032730054 0.09170662
-0.120572396 -0.028012943 0.070145994 -0.051071364 0.09480218 -0.1510422 -0.019308401 -0.09925516
0.11519847 -0.03986318 -0.12969601 0.030129746 -0.08703237 -0.068058945 0.12410361 0.07645832
00000000: 7d78 623d bb45 b83d 8439 c7bd 15e1 033c
00000010: 1218 213d 5aee 4e3d 91a2 713d 316d 8cbd
00000020: db68 2d3d a129 21be da4a e7bc dc7f 293e
00000030: 8e42 ed3d 9086 18be e18a 68bd 1719 bb3d
00000040: b47c 7abd 48e6 193e cac1 9a3d 6fb8 aabd
00000050: c3b6 0fbd f3cf d8bc 0847 893d 6743 47bd
00000060: 439c cfbd 951b 95bc 8135 9d3d 8d4e b7bd
00000070: cd8d 2cbe 5bba f73b c280 f5bd ef10 f93c
00000080: d6cd 113e 2124 1bbe 0f46 f9bd bb02 f2bc
00000090: bfdb e13d 6c56 f63d cf09 c4bd da56 6dbd
000000a0: d021 1abd 3ee9 2a3e 4ee6 b8bd a90c 273e
000000b0: ef49 c5bd aac6 f83d 66ac 083e 54a6 203e
000000c0: 07d2 193d 0c08 f53d 88b6 f6bd 2ae3 2ebd
000000d0: 2919 bdbd 7463 8f3d 5ffe d9bd 5ef9 84bd
000000e0: a514 1fbd 45df b13d ccdf e03d d8e2 833d
000000f0: a2cf 153e 878b f83d 7cfc 823d 4c3f 69bd
00000100: 72e1 05bd ba9a 28bd 3e0f 32be 51d3 3e3d
00000110: 7439 d13d a773 d73d 23ea b73d 200d d53d
00000120: 9b94 573b 966a 183e 5156 243e 97eb 853c
00000130: 5d41 14bb 52a2 2fbe 8b41 1bbe c124 90bc
00000140: 9ab0 02be daf7 ba3c 1693 273e 09a0 873d
00000150: c16c d43d 245f 07be 834c bbbc cf40 083e
00000160: b6ab e93d 3e44 8bbc fc5f 2abd 3c3e 213e
00000170: 1b50 acbc f65d 39be ebb9 4d3d c3ba e43c
00000180: df9f 17be 34fe efbd 3754 0e3d b404 20be
00000190: 88dd f43d cbda f5bd 3167 2d3d d68a 24be
000001a0: 8126 19be 5d7a cc3d 1905 e63d b3d6 bbbd
000001b0: 461c de3d 75fb 0abe 3b1a 0ebe 4ab9 e8bd
000001c0: 73a4 19bd 46fc 063e 322e 863c cd25 0a3e
000001d0: bfeb c43d dade 43bd dae6 16bd 89bf a0bd
000001e0: e001 c9bc ec1a 2cbe 8e5e 17be 6c31 10bd
000001f0: 6625 41bd a699 c13d 0d04 d4bd 4dff 3a3d
00000200: 70d2 1d3c f55a 32bd c895 123e 49c3 e4bd
00000210: 786d efbd f02f 34be e7cb 05be 4dd2 073e
00000220: 0f57 4a3d ff9a f93d 93af 823d abb7 093e
00000230: bdc6 a63d a6cf 603d b36b 1bbe 6faf 383d
00000240: a1d9 1ebe 4849 893c 8031 2fbe 576e 183d
00000250: dd3a 08be 22b5 073d 87d4 1dbe 9e39 2dbc
00000260: e957 bbbd 8007 ffbd c4ab ea3d 99fe 053e
00000270: cd9e ef3d 9415 c2bd a6b8 24be 8102 813c
00000280: 6d9a eebd bb55 cf3d 2d1c cbbd 9ea9 923d
00000290: f860 bbbc 9fba 0abd 8376 f73d 0dbc d03c
000002a0: 97d8 52bd cb23 d7bc 07cc 013e 0d95 26be
000002b0: 8adf 13be e2e9 0e3e a4b3 a83d 29d2 0bbc
000002c0: 144f e9bd 2a73 5bbc 4ff1 873d a609 3a3d
000002d0: 52a3 cf3d a2df 33be 2435 723d ab64 85bb
000002e0: faad d43d 7e10 063d 5555 a63c 40f9 18be
000002f0: 4e7d 4bbd cf5b a4bc e203 273c b553 98bd
00000300: bc72 803b 91b6 c9bd c32c 9ebd 9c48 293e
00000310: 6841 babd 8288 263c da8f 933d 560a 003d
00000320: 8ada 433c acec 3b3d ddc4 e33d c212 1ebe
00000330: aefc 463b aee4 033e 5f90 0dbe 9291 923d
00000340: 40f2 8d3d cca8 013e 3e0a 62bd b06b a0bd
00000350: efb2 913d de22 acbd a9c9 f13d 21b0 2ebd
00000360: 2ec3 28be 4feb 843d b52d 153e 7f77 193e
00000370: 5bee c23d 4ac2 0ebc 971f 81bd 89aa 30be
00000380: 8580 ec3d 260e fe3c f8ae b5bc e1c4 0fbe
00000390: e018 c7bb 0677 393d eaab 0b3e 3012 013e
000003a0: edcf ecbd 96f4 6a3b 8bd2 d6bd a679 78bd
000003b0: 0fac 5e3c 08f0 0b3e f30f 06bd aed0 bb3d
000003c0: a9ee f6bd 667b e5bc b4a8 8f3d 3530 51bd
000003d0: a527 c23d ceaa 1abe a72c 9ebc 4a46 cbbd
000003e0: 2ded eb3d 9347 23bd 08cf 04be a8d2 f63c
000003f0: 073e b2bd 7d62 8bbd 092a fe3d 2e96 9c3d

fc1.bias f4 [256]
-0.1441135 -0.054572776 -0.005859385 0.034108028 -0.064085536 -0.0750953 0.004072365 0.040511858
-0.17081863 -0.017176867 -0.04085727 -0.10753649 0.003059316 0.052513134 -0.0019194018 -0.063665435
-0.01495144 -0.11747803 -0.06088365 -0.10860679 0.0135982735 -0.022033967 -0.10723361 0.046996977
-0.0070311604 -0.11292155 -0.110307455 -0.020244488 0.025179606 -0.008714381 -0.11446395 0.037529826
-0.12608016 0.022211438 -0.019135812 -0.12539598 0.019909812 -0.10641016 0.028668806 0.0036702547
-0.053071793 -0.01750173 -0.12900601 -0.037970684 -0.014825309 -0.029348953 0.023332095 -0.02817281
-0.04333996 -0.16946281 -0.025748763 -0.10332631 0.01944049 -0.012658782 0.010469282 -0.10694307
0.03612823 -0.008214908 -0.01567831 -0.040046573 -0.041400217 -0.14924313 -0.101713695 -0.045920648
0.029637646 -0.08852357 0.03177949 -0.07542849 0.003794219 -0.0075756228 0.011365965 0.0130368415
-0.01761465 0.012980113 0.008990809 0.06392785 0.010320992 0.046850733 -0.033858143 -0.1444075
-0.0010805492 -0.12101456 0.01648241 0.0019674464 -0.15508261 -0.13051812 -0.193413 0.016363217
-0.057527877 0.07633938 0.0016356499 -0.14770462 0.027218955 -0.1475208 -0.09005611 -0.032181643
0.0020055207 -0.13294643 0.006167566 -0.0018105396 -0.10750899 -0.04145446 -0.055375583 -0.0005645226
-0.1371833 -0.14591739 0.0021324845 0.016443055 -0.14894831 -0.11783616 0.029935962 -0.064235665
0.019339653 0.017948888 -0.044149432 0.047094747 0.016051447 -0.027323939 -0.11806458 -0.11279375
0.0025602228 -0.00015957007 0.013180902 0.07211963 -0.040465392 0.07168436 0.023049805 -0.031656213
-0.043441884 -0.054133125 -0.03165658 0.007936057 0.026358182 -0.09077754 0.0808011 -0.026225746
0.012164394 -0.045881674 -0.16707072 -0.041233353 -0.1616205 0.028268043 -0.09180465 -0.044523127
-0.1501307 0.022942955 -0.057246275 -0.007843054 0.01082349 -0.007192289 -0.026635008 0.066154785
-0.11477317 -0.131897 -0.010650112 -0.057165913 -0.016238559 -0.06324173 -0.09022566 -0.1653528
0.017841602 0.0071907546 0.041011743 -0.027511777 0.04216471 -0.016594658 0.013794244 -0.14267546
-0.1474123 0.019128919 0.05824524 -0.09786255 0.024353892 -0.15158565 -0.045173112 -0.13862734
-0.006287767 -0.15741438 -0.017986747 -0.007085733 -0.13798225 0.007779113 -0.021327145 -0.15285124
0.0452121 0.0035909568 -0.14209321 -0.16100958 0.09151318 -0.14418843 0.01041468 0.041619144
0.04614923 -0.093368456 -0.13012394 0.08555947 0.032135908 -0.11439959 0.020737708 -0.027417753
-0.115717374 0.017207572 -0.07839189 -0.025575388 0.08500483 -0.02464651 -0.15288572 0.09566988
-0.09746124 -0.0050949026 -0.005620274 0.0021807426 -0.02864129 -0.084374286 -0.079392 -0.11140093
-0.0485492 -0.041136682 -0.12799868 -0.020310894 -0.012962202 -0.012614634 -0.048687655 -0.07053821
-0.1370919 -0.17121074 -0.066214375 -0.026969105 0.0029233494 -0.030191414 -0.056000374 -0.03079974
-0.07422848 -0.04217281 0.008447399 0.0834439 -0.005485332 0.009483585 -0.07070586 -0.10578597
-0.036182933 0.001878271 -0.16571067 -0.081711605 -0.00036755478 -0.12443617 -0.04300005 -0.029375527
-0.033418737 0.014045223 -0.01527085 0.00830346 -0.0027629086 -0.1602625 0.001971135 0.013573875
00000000: 7d92 13be b487 5fbd 1500 c0bb dcb4 0b3d
00000010: 473f 83bd 91cb 99bd 7971 853b c3ef 253d
00000020: 14eb 2ebe 80b6 8cbc f459 27bd 173c dcbd
00000030: ce7e 483b 0318 573d 7094 fbba 0663 82bd
00000040: e2f6 74bc 5298 f0bd 2261 79bd 3d6d debd
00000050: 4bcb 5e3c 9480 b4bc 4b9d dbbd e77f 403d
00000060: a665 e6bb 6a43 e7bd e0e8 e1bd c5d7 a5bc
00000070: 7645 ce3c c3c6 0ebc 136c eabd e0b8 193d
00000080: 281b 01be c3f4 b53c b5c2 9cbc ce67 00be
00000090: e719 a33c 92ed d9bd d8da ea3c a888 703b
000000a0: cf61 59bd ca5f 8fbc 271a 04be 2687 1bbd
000000b0: dae5 72bc 376d f0bc f322 bf3c aaca e6bc
000000c0: 3e85 31bd a987 2dbe 12ef d2bc bf9c d3bd
000000d0: aa41 9f3c c866 4fbc 5a87 2b3c f804 dbbd
000000e0: 32fb 133d d297 06bc cd6f 80bc e007 24bd
000000f0: 4693 29bd 31d3 18be 454f d0bd 4a17 3cbd
00000100: a6ca f23c d84b b5bd 362b 023d 417a 9abd
00000110: 6fa8 783b ee3c f8bb 5038 3a3c 7a98 553c
00000120: 994c 90bc 8aaa 543c 304e 133c 9bec 823d
00000130: 6119 293c 8ee6 3f3d d6ae 0abd 8fdf 13be
00000140: 37a1 8dba 7bd6 f7bd 1e06 873c 46f0 003b
00000150: facd 1ebe 8ba6 05be 0f0e 46be 270c 863c
00000160: 5aa2 6bbd d257 9c3d 4e63 d63a e13f 17be
00000170: 49fa de3c b10f 17be 566f b8bd e6d0 03bd
00000180: 0e6f 033b 1c23 08be 4b19 ca3b a14f edba
00000190: ac2d dcbd 27cc 29bd 82d1 62bd 78fc 13ba
000001a0: c779 0cbe 5e6b 15be 27c1 0b3b 96b3 863c
000001b0: e885 18be 1654 f1bd 433c f53c fd8d 83bd
000001c0: 316e 9e3c 8c09 933c 09d6 34bd 6ce6 403d
000001d0: 537e 833c 74d6 dfbc d8cb f1bd 6900 e7bd
000001e0: 69c9 273b 4452 27b9 b6f4 573c 75b3 933d
000001f0: 0abf 25bd 40cf 923d f2d2 bc3c f2a9 01bd
00000200: 1ef0 31bd b2ba 5dbd 54aa 01bd 3c06 023c
00000210: 1ded d73c 93e9 b9bd 0c7b a53d 60d7 d6bc
00000220: 2b4d 473c 6cee 3bbd 9614 2bbe 4ee4 28bd
00000230: d87f 25be 6292 e73c 1404 bcbd e25d 36bd
00000240: ddbb 19be ddf2 bb3c 127b 6abd 2780 00bc
00000250: 0255 313c 4bad ebbb a931 dabc 297c 873d
00000260: 320e ebbd 0210 07be cf7d 2ebc ce26 6abd
00000270: ba06 85bc e184 81bd 3bc8 b8bd 3f52 29be
00000280: 8d28 923c 6ca0 eb3b eefb 273d 6160 e1bc
00000290: e7b4 2c3d 85f1 87bc 4101 623c 8419 12be
000002a0: 40f3 16be 40b4 9c3c 9092 6e3d 296c c8bd
000002b0: d081 c73c 4539 1bbe 7107 39bd 53f4 0dbe
000002c0: 9d09 cebb 3c31 21be f158 93bc 702f e8bb
000002d0: 384b 0dbe eee7 fe3b 44b6 aebc 0985 1cbe
000002e0: 5330 393d 4256 6b3b e280 11be b2df 24be
000002f0: 436b bb3d 22a6 13be 55a2 2a3c d678 2a3d
00000300: fa06 3d3d f637 bfbd 363f 05be ce39 af3d
00000310: f1a0 033d 554a eabd 20e2 a93c 329b e0bc
00000320: 3bfd ecbd e5f6 8c3c ed8b a0bd 7a83 d1bc
00000330: 0317 ae3d 7ae7 c9bc 138e 1cbe 92ee c33d
00000340: c299 c7bd 24f3 a6bb 472a b8bb caea 0e3b
00000350: 23a1 eabc 6dcc acbd 4698 a2bd 2c26 e4bd
00000360: 87db 46bd f07e 28bd 1612 03be 0863 a6bc
00000370: 6a5f 54bc 9cad 4ebc b56c 47bd 5676 90bd
00000380: d261 0cbe de51 2fbe 679b 87bd 50ee dcbc
00000390: aa95 3f3b fc53 f7bc a660 65bd bd4f fcbc
000003a0: 1a05 98bd 65bd 2cbd f666 0a3c a3e4 aa3d
000003b0: 4dbe b3bb 0a61 1b3c 3cce 90bd 51a6 d8bd
000003c0: 8e34 14bd 5130 f63a 0fb0 29be 6a58 a7bd
000003d0: 5eb4 c0b9 64d8 febd d220 30bd f2a4 f0bc
000003e0: 16e2 08bd ef1d 663c 9632 7abc 3c0b 083c
000003f0: ea11 35bb da1b 24be 282e 013b f564 5e3c

fc2.weight f4 [5, 256]
0.042123698 -0.055743016 0.05696051 0.0013895035 -0.038602628 0.03496027 0.04956536 0.026709743
0.0110195875 0.039089054 -0.0091083795 0.0063428804 0.031213738 0.011798859 -0.042292014 0.0075466484
0.0039478764 0.013079472 -0.06207777 0.055029914 -0.045601726 0.046330296 -0.055486605 -0.050983675
-0.02489505 -0.0051212236 0.01762674 -0.022776015 0.049090438 -0.039463148 -0.031100735 0.049460128
-0.035118125 0.03280644 -0.024804205 0.05233662 -0.055909894 -0.026399538 0.06187228 -0.034300245
0.009617187 0.014051124 0.042102516 -0.05204071 -0.0032782555 0.0061606094 0.050961003 -0.04569637
0.050438218 -0.04497578 -0.033004493 -0.0017759204 -0.006461896 0.017610379 -0.061396733 -0.013463579
-0.052210018 -0.053653024 -0.020974651 -0.05270838 -0.021001883 0.008626811 0.03395915 0.04481394
0.03107503 -0.04018517 0.04681799 0.045214668 -0.000187926 0.012844548 0.028731711 -0.0143066645
-0.0294298 0.011934742 -0.058124147 -0.040603913 0.061703525 0.058904357 -0.001946196 0.03505005
-0.05362931 0.021444231 -0.052898906 0.048687473 -0.035770185 -0.035162874 0.026760422 -0.06027525
-0.01170136 0.051902182 0.017540649 -0.013055779 0.020543672 0.027294248 -0.014216818 -0.0203726
0.04432717 0.01575762 0.054974675 -0.014121883 0.03317368 -0.009789631 0.037197508 -0.03404072
0.038713023 -0.054096214 0.009503387 0.0019484013 0.039647564 0.018130496 0.01517313 -0.009725437
-0.051609986 -0.048462234 -0.059027314 -0.003032498 -0.021099761 -0.02810014 -0.015113197 0.015859425
-0.013955392 -0.015273944 -0.02666556 0.040667422 0.00051584095 0.027448758 0.054821722 -0.022273459
-0.0028099045 -0.047223926 0.042682737 0.010461129 -0.058139183 0.03617467 0.0066709146 -0.04070647
-0.013405733 0.036429957 0.03018327 0.015490286 0.02862022 0.02423878 -0.014782555 -0.020669542
-0.047167704 -0.04221715 -0.0068895817 -0.025856912 -0.059538625 -0.05355724 -0.023841716 -0.04993008
-0.055813856 0.046051085 0.022046395 0.004430622 0.006732397 0.018800497 0.04279592 0.0046172887
0.021397628 0.061191708 0.033837892 0.028548598 0.037149742 -0.04798922 -0.04485845 -0.029215582
-0.0493685 -0.018049732 0.0505258 -0.00078394264 -0.04310555 -0.049140967 -0.03190638 0.059452295
0.015242457 -0.03507358 0.010839798 -0.04982456 0.0494435 -0.048851572 0.061413005 -0.026906267
0.05616612 -0.04134731 -0.0044836476 -0.040328763 -0.0063190013 -0.029148333 -0.03519153 -0.043648556
0.04779782 0.03628383 -0.057381064 0.050741673 0.032000132 -0.021092057 0.009902425 -0.05950039
0.04148075 -0.027222082 0.019802906 0.038345143 -0.05740671 0.039989218 -0.038650297 0.0021248162
0.039306037 0.037276834 0.004026212 0.049340114 -0.04504072 -0.028910853 0.014631607 0.033744343
0.041717127 -0.0578359 0.04700657 0.057906292 -0.053663194 0.04929617 0.05650775 -0.012783848
0.0075302273 -0.05474846 -0.05304189 -0.047639735 -0.0040666237 -0.04068567 -0.05816275 0.05353588
0.029459402 0.015954606 -0.038069673 0.05113007 0.028464705 -0.03832782 -0.05880654 -0.03019023
-0.01383888 0.060869038 0.027796961 0.0035567358 -0.05545514 0.052034974 -0.009223089 -0.016344108
0.02429802 -0.018030643 0.06020025 -0.060472757 -0.005449444 0.057305552 -0.028786786 -0.036118075
00000000: e689 2c3d ca52 64bd 6c4f 693d 0020 b63a
00000010: ca1d 1ebd 8032 0f3d 0c05 4b3d 64ce da3c
00000020: 808b 343c d81b 203d 503b 15bc f0d7 cf3b
00000030: f4b3 ff3c 0050 413c 643a 2dbd e049 f73b
00000040: 305d 813b 484b 563c 4245 7ebd 0c67 613d
00000050: e0c8 3abd d6c4 3d3d ec45 63bd 42d4 50bd
00000060: b4f0 cbbc f0cf a7bb f465 903c c494 babc
00000070: 0e13 493d 1ca4 21bd f8c6 febc b496 4a3d
00000080: 06d8 0fbd 0c60 063d 3032 cbbc ec5e 563d
00000090: c601 65bd d843 d8bc ca6d 7d3d 6a7e 0cbd
000000a0: 6891 1d3c b036 663c b073 2c3d a428 55bd
000000b0: 00d8 56bb f0de c93b 7cbc 503d 1e2c 3bbd
000000c0: 4e98 4e3d 8638 38bd b82f 07bd 00c6 e8ba
000000d0: 50be d3bb a443 903c 247b 7bbd 5896 5cbc
000000e0: 2cda 55bd 46c3 5bbd 08d3 abbc bee4 57bd
000000f0: 240c acbc 7857 0d3c c018 0b3d d28e 373d
00000100: 1091 fe3c 3499 24bd 38c4 3f3d 0433 393d
00000110: 000e 45b9 f071 523c c45e eb3c 8066 6abc
00000120: c416 f1bc f089 433c 9613 6ebd 4a50 26bd
00000130: d6bc 7c3d b245 713d 8017 ffba a490 0f3d
00000140: 68aa 5bbd d0ab af3c 86ac 58bd 846c 473d
00000150: c283 12bd f206 10bd ac38 db3c 2ee3 76bd
00000160: 10b7 3fbc 6297 543d 68b1 8f3c e8e7 55bc
00000170: 344b a83c 3098 df3c a8ed 68bc 70e4 a6bc
00000180: 6890 353d 2016 813c 202d 613d 785f 67bc
00000190: 20e1 073d b064 20bc 6a5c 183d 486e 0bbd
000001a0: 8c91 1e3d fe93 5dbd 18b4 1b3c 8061 ff3a
000001b0: 7c65 223d 6886 943c b898 783c 7057 1fbc
000001c0: fe64 53bd 5680 46bd a0c6 71bd e0bc 46bb
000001d0: 68d9 acbc 4432 e6bc 589d 77bc a0eb 813c
000001e0: 28a5 64bc 903f 7abc bc71 dabc e292 263d
000001f0: 8039 073a 38dc e03c be8c 603d d476 b6bc
00000200: 6026 38bb e06d 41bd 18d4 2e3d 2865 2b3c
00000210: 5a23 6ebd e42b 143d b097 da3b d4bb 26bd
00000220: b8a3 5bbc 9437 153d e842 f73c f8ca 7d3c
00000230: f474 ea3c 6890 c63c 8832 72bc 2c53 a9bc
00000240: ec32 41bd e4eb 2cbd 00c2 e1bb e0d1 d3bc
00000250: c6de 73bd d65e 5bbd b44f c3bc 7c83 4cbd
00000260: 129d 64bd 10a0 3c3d a49a b43c c02e 913b
00000270: 709b dc3b 8003 9a3c c64a 2f3d a04c 973b
00000280: 144a af3c 28a4 7a3d 9a99 0a3d c0de e93c
00000290: 542a 183d 5890 44bd 7ebd 37bd 8455 efbc
000002a0: a036 4abd 08dd 93bc 24f4 4e3d 8081 4dba
000002b0: 728f 30bd 0a48 49bd 44b0 02bd 4084 733d
000002c0: 80bb 793c 50a9 0fbd 6899 313c d614 4cbd
000002d0: 4485 4a3d 9618 48bd 348c 7b3d 886a dcbc
000002e0: 720e 663d cc5b 29bd 90eb 92bb c62f 25bd
000002f0: a00f cfbb 7cc8 eebc fe24 10bd d4c8 32bd
00000300: a6c7 433d 5a9e 143d 6808 6bbd 80d6 4f3d
00000310: 9212 033d 40c9 acbc c83d 223c aeb6 73bd
00000320: b8e7 293d d800 dfbc b439 a23c cc0f 1d3d
00000330: 4c23 6bbd bccb 233d c64f 1ebd 8040 0b3b
00000340: 5eff 203d 98af 183d 50ee 833b dc18 4a3d
00000350: 9e7c 38bd 74d6 ecbc 68b9 6f3c 8237 0a3d
00000360: 94df 2a3d 56e5 6cbd f689 403d 262f 6d3d
00000370: f0cd 5bbd c8ea 493d ac74 673d 5873 51bc
00000380: 20c0 f63b ec3f 60bd 7442 59bd e221 43bd
00000390: 5041 85bb 04a6 26bd 103c 6ebd 7048 5b3d
000003a0: d854 f13c 3cb3 823c f2ee 1bbd c46d 513d
000003b0: d02e e93c a2fd 1cbd 20df 70bd 8051 f7bc
000003c0: 78bc 62bc d051 793d 74b6 e33c 2018 693b
000003d0: ee24 63bd a022 553d 701c 17bc 14e4 85bc
000003e0: a40c c73c 00b5 93bc 8a94 763d 48b2 77bd
000003f0: 4091 b2bb 3ab9 6a3d 44d2 ebbc 8cf0 13bd

fc2.bias f4 [5]
-0.020561717 0.048897147 -0.031730488 -0.051509894 0.094607905
00000000: 0c71 a8bc 6048 483d d4f7 01bd 0afc 52bd
00000010: cac1 c13d
