Models/Torch2/my_model48600.pth (torch_old, 60054 bytes, 8 tensors)

conv1.weight f4 [16, 2, 3, 3]
0.33558178 -0.5417024 -0.20742376 0.36189446 -0.077404134 -0.38993296 -0.20965335 -0.28278473
-0.15974067 -0.16782245 0.787823 0.8505898 -0.07619454 -0.22980718 0.012562145 0.077838846
-0.02722195 0.01033903 -0.39850655 -0.38908407 -0.11993505 0.8371543 0.26439136 0.7085419
0.6232545 0.9109472 0.020770712 0.23149884 -0.74952495 0.28554124 0.13150145 0.19464087
-0.88482356 0.008487637 0.15859304 -0.7116915 0.6492533 0.80156493 0.6290701 -0.40899405
-0.42706752 -0.17772143 0.4883414 0.52838117 -0.16901498 0.18458271 0.28219315 -0.64967346
0.14482762 -0.4607172 0.10734632 -0.019239234 0.24950236 -0.49349836 0.22730263 -0.21436422
-0.09358432 0.6820277 0.27389726 -0.107353754 -0.034190014 0.5222271 0.52739316 -0.09656198
-0.12050064 0.6671477 -0.104835756 0.04966063 0.5451526 -0.14415494 0.15338206 -0.16145279
-0.16942151 -0.16466132 0.69853646 -0.17681189 0.12377757 -0.030132795 -0.16377069 0.4269037
-0.042955082 0.017392797 -0.36978218 0.23465715 0.04197988 0.10640995 -0.19272645 0.08619179
0.01445343 -0.2963893 0.49472877 -0.13053602 -0.11917078 0.90169954 0.351683 0.61854327
-0.21455748 0.50873965 -0.23002055 -0.5581583 -0.44245884 -0.38959327 -0.07214755 -0.8529439
0.100260414 -0.101767614 0.011472759 -0.034576096 0.117305614 -0.08360462 -0.035711277 -0.090391785
0.083975956 -0.16665864 0.14864287 0.27756128 0.08968662 0.038333435 -0.1072294 0.09847647
0.16717497 0.2792023 -0.21060285 -0.09260244 -0.18760386 -0.15051626 -0.08456142 0.13647607
-0.09382603 -0.16294624 0.437579 -0.090963125 -0.03824571 -0.1129149 0.5683894 -0.02877406
-0.29847768 -0.22285178 -0.045139313 -0.19138445 -0.4768288 -0.099154 -0.19476031 -0.12741506
-0.004062378 -0.0009001445 -0.08846192 -0.47128758 -0.081405856 -0.10455223 0.15196522 -0.39329377
-0.25904235 -0.0809909 -0.14922893 0.77732134 0.121364385 0.5668409 0.56385523 0.067228176
0.51182246 -0.029822022 -0.5892725 0.16579251 0.042478267 0.57610935 -0.3378545 0.12323369
-0.43240803 0.39999607 0.04310906 -0.09249564 -0.39633298 0.89834064 0.1142998 0.048317503
-0.41006947 0.050304964 -0.087436244 0.6336629 -0.07908249 0.11054529 -0.054135013 0.64623487
-0.0013962719 -0.23414932 0.80495256 -0.12401471 -0.14180836 0.58391637 -0.12813427 -0.10769533
0.16122414 0.78258735 0.42974234 0.080691725 0.6659013 0.6282067 0.16280317 0.022059584
0.13680315 0.44403192 -0.35089952 0.34278095 -0.24853311 0.31024018 -0.03322972 0.23521766
0.59630007 -0.063112654 -0.061129734 0.30018482 0.67041546 0.09883902 -0.12838174 0.056379307
-0.25720295 -0.174832 -0.01412366 0.40112713 0.129212 -0.17580144 0.5386055 0.34780842
0.089981526 -0.09920228 -0.07375174 -0.12954028 -0.1368639 -0.1429862 0.6801349 -0.20673296
-0.08950389 0.37014887 -0.11119627 -0.17068915 -0.14946584 -0.35645238 0.9928679 0.3179503
0.827231 -0.6319809 0.5666403 -0.07801599 -0.11454381 -0.5226551 -0.036774177 0.04180547
-0.890794 0.048306454 0.29932424 0.7312965 -0.05132266 -0.22298235 0.08000496 -0.07729427
00000000: 60d1 ab3e 02ad 0abf e566 54be 3b4a b93e
00000010: 0f86 9ebd 4ba5 c7be 5eaf 56be 29c9 90be
00000020: 0f93 23be a6d9 2bbe c5ae 493f 41c0 593f
00000030: e20b 9cbd 9352 6bbe 74d1 4d3c f969 9f3d
00000040: 9100 dfbc 0965 293c 0d09 ccbe 0736 c7be
00000050: 82a0 f5bd bf4f 563f 4e5e 873e 0163 353f
00000060: 9b8d 1f3f d633 693f 5727 aa3c 080e 6d3e
00000070: dee0 3fbf 7632 923e 51a8 063e f04f 473e
00000080: cc83 62bf bb0f 0b3c 3766 223e 6a31 36bf
00000090: 7735 263f 5c33 4d3f bd0a 213f ab67 d1be
000000a0: 98a8 dabe 9bfc 35be e207 fa3e fd43 073f
000000b0: 4312 2dbe 4003 3d3e 9f7b 903e 0051 26bf
000000c0: b14d 143e 20e3 ebbe 63d8 db3d 999b 9dbc
000000d0: 8c7d 7f3e d1ab fcbe 05c2 683e 4b82 5bbe
000000e0: 23a9 bfbd 5e99 2e3f 433c 8c3e 49dc dbbd
000000f0: d40a 0cbd adb0 053f 3d03 073f 4ac2 c5bd
00000100: 0ac9 f6bd 31ca 2a3f 21b4 d6bd f268 4b3d
00000110: 1f8f 0b3f 5a9d 13be 3010 1d3e e153 25be
00000120: d57c 2dbe fa9c 28be 49d3 323f 2d0e 35be
00000130: 187f fd3d 0dd9 f6bc 81b3 27be 1f93 da3e
00000140: abf1 2fbd 577b 8e3c 1754 bdbe f749 703e
00000150: 18f3 2b3d 76ed d93d 155a 45be 5285 b03d
00000160: 14ce 6c3c 57c0 97be 174d fd3e 3cab 05be
00000170: cf0f f4bd c8d5 663f cb0f b43e da58 1e3f
00000180: f5b4 5bbe c33c 023f 828a 6bbe 76e3 0ebf
00000190: f789 e2be c578 c7be 18c2 93bd 885a 5abf
000001a0: 5555 cd3d 8a6b d0bd 3df8 3b3c aa9f 0dbd
000001b0: ed3d f03d e638 abbd fd45 12bd 541f b9bd
000001c0: 96fb ab3d 90a8 2abe d635 183e 831c 8e3e
000001d0: 9ead b73d 8503 1d3d 169b dbbd 08ae c93d
000001e0: ea2f 2b3e 9bf3 8e3e 46a8 57be 59a6 bdbd
000001f0: 3a1b 40be ef20 1abe 8a2e adbd 62c0 0b3e
00000200: dd27 c0bd 61db 26be 5b0a e03e e04a babd
00000210: 89a7 1cbd ed3f e7bd f881 113f 94b7 ebbc
00000220: 11d2 98be 4233 64be 00e4 38bd 49fa 43be
00000230: e822 f4be 4111 cbbd 3f6f 47be 1879 02be
00000240: b21d 85bb adf7 6bba 862b b5bd 9b4c f1be
00000250: 1db8 a6bd 7b1f d6bd c59c 1b3e cd5d c9be
00000260: 33a1 84be 8fde a5bd 78cf 18be 88fe 463f
00000270: e48d f83d 7c1c 113f d158 103f edae 893d
00000280: cc06 033f 504d f4bc 90da 16bf 83c5 293e
00000290: b1fd 2d3d e77b 133f 44fb acbe f261 fc3d
000002a0: 9664 ddbe 49cc cc3e 2093 303d 5b6e bdbd
000002b0: 28ec cabe a7f9 653f 0316 ea3d 93e8 453d
000002c0: a0f4 d1be 940c 4e3d c611 b3bd bb37 223f
000002d0: 00f6 a1bd 9265 e23d adbc 5dbd a66f 253f
000002e0: 1c03 b7ba d7c4 6fbe 5f11 4e3f 6dfb fdbd
000002f0: 3636 11be 8b7b 153f a135 03be 5f8f dcbd
00000300: f117 253e a557 483f 3007 dc3e b441 a53d
00000310: 8278 2a3f 27d2 203f e0b5 263e 4db6 b43c
00000320: 2016 0c3e 2758 e33e 1aa9 b3be fc80 af3e
00000330: 777f 7ebe cdd7 9e3e e31b 08bd e6dc 703e
00000340: 1fa7 183f 3541 81bd 2c63 7abd d3b1 993e
00000350: 59a0 2b3f 1d6c ca3d 8176 03be fded 663d
00000360: 1bb0 83be 2907 33be ec66 67bc 8960 cd3e
00000370: 2750 043e 4b05 34be 0de2 093f f213 b23e
00000380: 3c48 b83d 912a cbbd 270b 97bd 35a6 04be
00000390: 0d26 0cbe f96a 12be 521d 2e3f ceb1 53be
000003a0: d14d b7bd 2784 bd3e dfba e3bd 23c9 2ebe
000003b0: 930d 19be ed80 b6be 972c 7e3f 62ca a23e
000003c0: 69c5 533f 80c9 21bf 570f 113f d9c6 9fbd
000003d0: f295 eabd bacc 05bf 85a0 16bd 363c 2b3d
000003e0: 130b 64bf fddc 453d 0741 993e 3f36 3b3f
000003f0: b637 52bd 7c55 64be a4d9 a33d 754c 9ebd

conv1.bias f4 [16]
-0.36747286 -0.2520751 -0.17627856 -0.5547252 -0.15236534 -0.14851072 -0.29491574 -0.050386775
-0.12820266 -0.31248462 -0.7703577 -0.49425974 -0.5319882 -0.21945411 -0.35920107 -0.8510362
00000000: 6725 bcbe fd0f 81be 5e82 34be 7902 0ebf
00000010: a905 1cbe 3213 18be 32ff 96be 5d62 4ebd
00000020: 8f47 03be fcfd 9fbe 2a36 45bf 9d0f fdbe
00000030: 6130 08bf 94b8 60be 34e9 b7be 82dd 59bf

conv2.weight f4 [32, 16, 3, 3]
0.3931743 -0.17718959 0.3380921 0.45252115 -0.075533085 0.40797955 -0.019469181 0.026266612
0.13511397 0.24431041 -0.58739835 -0.007855949 -0.1390376 0.06802201 -0.25096685 0.55419093
-0.104374066 0.62527615 0.60867715 -0.11558107 0.27091205 0.28917965 -0.2404755 -0.019062847
0.18777147 -0.5034388 0.18940462 -0.072127864 0.19196802 0.05022619 0.07105197 -7.6424156e-05
0.044266008 0.10836891 0.067121476 0.084945396 0.13921341 -0.27011788 0.29965395 0.1452302
-0.13845569 -0.17377321 -0.13710812 -0.053173892 0.052145034 -0.3424925 0.1791974 -0.70057654
-0.7257705 -0.17858738 -0.18240687 -0.052293543 0.090629816 -0.50930053 -0.054270275 -0.0009399384
0.09676987 -0.09385743 -0.013979835 -0.028907206 -0.04603465 0.065604925 0.009168091 0.0038575144
-0.07403232 -0.05267018 0.11823547 -0.043406405 -0.04930271 0.15388927 -0.25428137 0.13124666
-0.0028066626 0.20200394 -0.35282096 0.0061683 0.09997687 0.23201944 0.12545034 -0.0034579507
0.22768347 0.15310828 -0.08935028 -0.1998647 -0.09690293 0.3586115 -0.36515778 0.027801352
0.03391968 -0.09971122 0.46829426 -0.19292049 0.09951399 0.32055125 -0.14030285 0.026875762
0.5263533 -0.12797435 0.54154474 0.22676829 -0.031269744 0.08412287 0.1498989 0.102723636
-0.036600012 0.16344543 -0.14134313 0.056271035 -0.15894297 0.14559188 -0.11424461 0.019236188
0.045082808 0.0014136378 -0.03373846 0.17537867 -0.13285053 -0.024504164 -0.20671947 -0.51008916
0.050391603 0.02662926 0.29239684 0.540354 -0.10598428 0.44532943 -0.118569225 -0.09522262
-0.12559539 -0.17219765 0.14981264 -0.24816512 -0.12830545 0.19857031 -0.20148563 0.40462127
-0.5599981 0.32763103 0.5335908 -0.18136215 0.46531075 0.25665426 -0.07782322 0.10754483
0.25068608 -0.08718846 0.15336056 0.2264117 -0.18931232 0.24377665 0.009686859 0.00041462475
0.027319565 0.3873297 -0.047586154 0.30455333 -0.19161408 -0.07186352 0.1257285 0.12955973
-0.12412471 0.27261257 0.14816552 -0.12038679 0.1279087 0.4269716 0.018782387 0.52474076
0.056889452 -0.1628913 0.09879473 -0.017638285 0.06425449 -0.1416363 -0.06089577 -0.009897793
0.08472084 0.021779323 0.04761962 0.057265986 0.20070632 -0.18821618 0.01646998 0.15906182
-0.053550426 0.24815482 -0.075536996 -0.09764142 0.033274535 0.24722387 0.23422752 0.06960694
0.09534774 0.10495519 0.007849104 0.10638464 0.17499253 0.03025895 0.014399467 -0.008708971
0.109893486 0.009178087 -0.017407231 0.029239606 -0.06862134 0.040360015 -0.040256735 0.22555533
-0.2236775 0.3112466 0.24171875 0.07123258 0.019245258 0.22755891 -0.07448432 0.062427673
-0.09152449 0.1522508 -0.04128454 -0.05022422 0.07672017 -0.07632035 0.11596241 0.08652392
-0.040780425 0.1322895 0.14214762 0.1017512 -0.12142959 0.15008792 -0.07074753 -0.017509457
0.11610349 -0.11979159 0.24485414 -0.064923584 0.0076928413 0.15261455 -0.06328873 -0.0432523
0.2319164 -0.061545 0.39543417 0.18544637 0.052161638 0.267592 0.022024995 0.044766694
0.04889818 0.16064714 -0.12054683 0.1255453 0.016585067 0.15058544 -0.16447042 -0.106705524
00000000: 244e c93e 3071 35be 681a ad3e dab0 e73e
00000010: 17b1 9abd b2e2 d03e d57d 9fbc 142d d73c
00000020: 515b 0a3e 822c 7a3e bd5f 16bf 3db6 00bc
00000030: df5f 0ebe 204f 8b3d ba7e 80be 75df 0d3f
00000040: 12c2 d5bd 1912 203f 44d2 1b3f c5b5 ecbd
00000050: fcb4 8a3e 5b0f 943e 363f 76be b029 9cbc
00000060: 2a47 403e 5de1 00bf 49f3 413e c6b7 93bd
00000070: 4493 443e fab9 4d3d b283 913d e845 a0b8
00000080: 4650 353d 85f0 dd3d fc76 893d daf7 ad3d
00000090: f68d 0e3e e44c 8abe 3e6c 993e 3ab7 143e
000000a0: 54c7 0dbe 9bf1 31be 1266 0cbe decc 59bd
000000b0: 0896 553d 2d5b afbe 867f 373e fc58 33bf
000000c0: 18cc 39bf 9cdf 36be dec8 3abe c131 56bd
000000d0: 209c b93d 8561 02bf 824a 5ebd 3366 76ba
000000e0: 482f c63d 5338 c0bd ae0b 65bc cece ecbc
000000f0: d48e 3cbd e05b 863d c335 163c 5ace 7c3b
00000100: 429e 97bd b0bc 57bd 7025 f23d eaca 31bd
00000110: a3f1 49bd 2695 1d3e 2b31 82be 8665 063e
00000120: fcef 37bb 1fda 4e3e f3a4 b4be 731f ca3b
00000130: acc0 cc3d 8196 6d3e 0e76 003e c99e 62bb
00000140: db25 693e 6bc8 1c3e 48fd b6bd 55a9 4cbe
00000150: 0b75 c6bd ed9b b73e f6f5 babe a9bf e33c
00000160: 5def 0a3d 6535 ccbd 44c4 ef3e f38c 45be
00000170: fecd cb3d 4b1f a43e 8dab 0fbe 8f2a dc3c
00000180: 17bf 063f b50b 03be ada2 0a3f f235 683e
00000190: b414 00bd 9c48 ac3d 197f 193e c560 d23d
000001a0: e5e9 15bd 3d5e 273e 41bc 10be 757c 663d
000001b0: f2c1 22be 0a16 153e 14f9 e9bd 3695 9d3c
000001c0: c0a8 383d d049 b93a 5731 0abd 7796 333e
000001d0: f809 08be f5bc c8bc 45ae 53be 3495 02bf
000001e0: 6d67 4e3d 9b25 da3c 0ab5 953e a454 0a3f
000001f0: 490e d9bd 3802 e43e 6cd4 f2bd 1404 c3bd
00000200: 149c 00be 9554 30be 7c68 193e ff1e 7ebe
00000210: 8162 03be 0456 4b3e 4052 4ebe 852a cf3e
00000220: 095c 0fbf 41bf a73e 6899 083f 00b7 39be
00000230: 363d ee3e 3068 833e c861 9fbd 7740 dc3d
00000240: ed59 803e dd8f b2bd 8d0a 1d3e 78d8 673e
00000250: 17db 41be 96a0 793e a2b5 1e3c fe61 d939
00000260: 48cd df3c 1450 c63e b3e9 42bd 6aee 9b3e
00000270: 7b36 44be 2e2d 93bd f9be 003e 4eab 043e
00000280: 1935 febd e093 8b3e b4b8 173e 598d f6bd
00000290: 80fa 023e 069c da3e 85dd 993c 6955 063f
000002a0: ea04 693d facc 26be e454 ca3d 2a7e 90bc
000002b0: dc97 833d 1b09 11be d86d 79bd 5a2a 22bc
000002c0: 1f82 ad3d 8d6a b23c ca0c 433d bd8f 6a3d
000002d0: f585 4d3e bebb 40be 0dec 863c 1ae1 223e
000002e0: b157 5bbd 4c1c 7e3e 24b3 9abd 3af8 c7bd
000002f0: e14a 083d 4128 7d3e 57d9 6f3e 158e 8e3d
00000300: ad45 c33d bff2 d63d 8799 003c 31e0 d93d
00000310: 3e31 333e 9ee1 f73c beeb 6b3c 12b0 0ebc
00000320: d60f e13d b05f 163c 9c99 8ebc e687 ef3c
00000330: 5889 8cbd 8b50 253d 3fe4 24bd faf7 663e
00000340: b70b 65be b75b 9f3e 1f85 773e 63e2 913d
00000350: 3ba8 9d3c 3405 693e 3c8b 98bd 29b4 7f3d
00000360: 3171 bbbd a2e7 1b3e fa19 29bd e9b7 4dbd
00000370: 771f 9d3d d84d 9cbd b37d ed3d 7433 b13d
00000380: 6009 27bd e676 073e 258f 113e ef62 d03d
00000390: 14b0 f8bd a6b0 193e 15e4 90bd fe6f 8fbc
000003a0: abc7 ed3d 4b55 f5bd 0bbb 7a3e a8f6 84bd
000003b0: 3b14 fc3b fd46 1c3e 869d 81bd 5329 31bd
000003c0: 7e7b 6d3e 9c16 7cbd 5976 ca3e a7e5 3d3e
000003d0: 71a7 553d d201 893e c36d b43c 485d 373d
000003e0: 7549 483d af80 243e 42e1 f6bd f28e 003e
000003f0: 68dd 873c 1233 1a3e ef6a 28be 6d88 dabd

conv2.bias f4 [32]
0.36195737 0.112153575 -0.10832133 -0.20318928 0.037549935 0.054669686 -0.05110923 0.09179061
-0.36220282 0.05161736 0.1786129 -0.04870176 -0.008339068 0.16955255 -0.08586778 -0.12648477
-0.036107246 0.26598215 0.089479074 -0.15969606 0.08147446 -0.09983536 -0.115777254 -0.17606604
0.17524055 -0.1085361 -0.13117073 -0.050556365 -0.07052547 -0.100036755 -0.082250886 -0.12134664
00000000: 7a52 b93e c6b0 e53d 93d7 ddbd da10 50be
00000010: f6cd 193d 52ed 5f3d e957 51bd b7fc bb3d
00000020: a672 b9be ba6c 533d 4de6 363e 7f7b 47bd
00000030: 96a0 08bc 2f9f 2d3e 72db afbd 3985 01be
00000040: 31e5 13bd d02e 883e ce40 b73d 5d87 23be
00000050: 15dc a63d 7b76 ccbd a01c edbd a84a 34be
00000060: 4272 333e 2d48 debd 9f51 06be 3114 4fbd
00000070: a86f 90bd 12e0 ccbd 2773 a8bd 9684 f8bd

fc1.weight f4 [256, 32]
0.027185857 0.067679115 -0.15660933 -0.0043246374 0.021237602 0.03412106 0.06422292 -0.080862686
0.054609127 -0.19579832 -0.04117044 0.11015289 0.09125904 -0.15047723 -0.09277857 0.10570913
-0.07569949 0.1462396 0.059219096 -0.07588515 -0.051418018 -0.03127198 0.10754956 -0.04739295
-0.111655824 -0.021701712 0.078418255 -0.070884906 -0.16274934 -0.007037749 -0.12601715 0.025000926
0.08723043 -0.19738236 -0.15824771 -0.07842869 0.048997816 0.074531265 -0.119238086 -0.11994451
-0.083251856 0.1208322 -0.15805222 0.06323899 -0.12378822 0.076732926 0.07618113 0.110143386
-0.025993995 0.08211525 -0.12566324 -0.060494475 -0.102103986 0.06363598 -0.10981807 -0.09688614
-0.072564244 0.07076517 0.07156419 0.05573321 0.10502217 0.07524061 0.025231205 -0.0814882
-0.17026468 -0.09903245 -0.2716741 0.049183674 0.12651502 -0.017850146 -0.10876167 0.15334098
0.107123025 0.20845068 0.2758455 0.04078421 -0.14003503 -0.30509913 -0.19025922 -0.068959564
-0.19181545 0.030029932 0.1182653 0.15845445 0.17347468 0.01009438 0.009994383 0.11297784
-0.03859804 0.04064902 0.020665644 0.23130234 0.004983183 -0.27368024 -0.12436828 0.033015408
-0.14330201 -0.1466757 -0.0036274968 -0.16709307 0.14859205 -0.14371003 0.03166701 -0.17044118
-0.15056108 0.06840903 0.061171196 -0.09160449 0.09857079 -0.1475628 -0.14751837 -0.12268094
-0.04346643 0.059758592 -0.0042936653 0.099272355 0.08093432 -0.06553944 -0.050118115 -0.100134514
-0.043616176 -0.18426865 -0.15698017 -0.010221108 -0.06473924 0.094993375 -0.10212326 0.026105383
0.017126406 -0.04625201 0.16259725 -0.11360433 -0.14430961 -0.21413986 -0.15842555 0.08302134
-0.012173788 0.0049821907 0.09924698 0.0412191 0.1281003 -0.012539718 -0.17009914 0.01833781
-0.20006505 0.03082863 -0.17513768 0.08373943 -0.15309818 0.1320278 -0.17120107 -0.012445641
-0.11751098 -0.0803506 0.10454709 0.12165595 0.14183903 -0.020985786 -0.19513375 -0.008698245
-0.17506039 0.095814414 -0.11308554 -0.030782409 -0.045899313 -0.053257164 0.07679637 -0.0014983233
-0.062851034 -0.008966422 0.18824938 -0.14745209 -0.12631962 0.12878369 0.10004054 -0.023080813
-0.12638542 -0.05854884 0.011681578 0.07594073 0.09261837 -0.20057815 0.09589951 -0.016622307
0.042029668 -0.0010038815 0.05221024 -0.1561345 0.006489085 -0.044210404 0.025526749 -0.113029376
-0.016638372 -0.14173496 -0.124543734 0.10373871 -0.13071142 0.054918695 0.10952739 -0.049868632
-0.0039927536 0.06851947 0.022883872 -0.19824569 0.016382849 0.027932424 -0.124284014 0.053712856
-0.014188236 0.07637608 -0.06978114 -0.12637831 0.023568507 -0.097155966 0.12750936 -0.03064308
-0.17571622 0.07431133 0.12705742 0.15203175 0.087256335 -0.06593167 -0.07841587 -0.19135119
0.054152504 0.03792512 -0.112181224 -0.2512626 0.12579279 -0.039049827 0.10001878 0.16479729
-0.12004278 -0.042102717 -0.074639484 -0.046491932 -0.034319386 0.23244415 -0.09905876 0.0619044
-0.07437507 -0.111245476 0.018464833 -0.06882942 0.09203212 -0.18664114 0.022438763 -0.13490936
0.089836456 -0.051408418 -0.18239631 0.06406643 -0.06089393 -0.08605743 0.10336485 0.07482896
00000000: e0b4 de3c 599b 8a3d 325e 20be b0b5 8dbb
00000010: 7bfa ad3c 86c2 0b3d 4e87 833d 569b a5bd
00000020: d2ad 5f3d 5b7f 48be 56a2 28bd d797 e13d
00000030: 05e6 ba3d b416 1abe b102 bebd 077e d83d
00000040: 5608 9bbd d5bf 153e b98f 723d ac69 9bbd
00000050: b39b 52bd 0c17 00bd f242 dc3d 1c1f 42bd
00000060: cfab e4bd cac7 b1bc c099 a03d 1b2c 91bd
00000070: c3a7 26be eb9c e6bb a40a 01be bece cc3c
00000080: dea5 b23d 9a1e 4abe b00b 22be 399f a0bd
00000090: efb1 483d d9a3 983d 1933 f4bd 78a5 f5bd
000000a0: f37f aabd df76 f73d 71d8 21be 7283 813d
000000b0: ae84 fdbd 2726 9d3d da04 9c3d db92 e13d
000000c0: 5cf1 d4bc 0a2c a83d ddad 00be 0ec9 77bd
000000d0: e51b d1bd 9553 823d 4ce8 e0bd 3e6c c6bd
000000e0: 909c 94bd 54ed 903d 3f90 923d 8248 643d
000000f0: dd15 d73d c017 9a3d acb1 ce3c 49e3 a6bd
00000100: dd59 2ebe 86d1 cabd de18 8bbe d274 493d
00000110: 278d 013e 783a 92bc 70be debd 6b05 1d3e
00000120: 5163 db3d 1874 553e 9f3b 8d3e 580d 273d
00000130: 5865 0fbe f435 9cbe 50d3 42be ac3a 8dbd
00000140: 456b 44be 5501 f63c 1435 f23d e241 223e
00000150: 59a3 313e e662 253c 7bbf 233c ed60 e73d
00000160: fa18 1ebd 967f 263d ff4a a93c 85da 6c3e
00000170: f849 a33b d11f 8cbe ccb4 febd 2a3b 073d
00000180: c3bd 12be 2832 16be 4cbb 6dbb 721a 2bbe
00000190: 8428 183e b928 13be 44b5 013d 2288 2ebe
000001a0: af2c 1abe 091a 8c3d a68e 7a3d 239b bbbd
000001b0: 7bdf c93d b41a 17be 0e0f 17be 2540 fbbd
000001c0: db09 32bd 6dc5 743d e0b1 8cbb 4e4f cb3d
000001d0: e5c0 a53d 8b39 86bd a748 4dbd 5313 cdbd
000001e0: e0a6 32bd ecb0 3cbe 69bf 20be 6f76 27bc
000001f0: 0296 84bd e38b c23d 0026 d1bd f5da d53c
00000200: ad4c 8c3c bf72 3dbd e57f 263e 63a9 e8bd
00000210: e6c5 13be 7b47 5bbe 4f3a 22be 1807 aa3d
00000220: 9174 47bc a541 a33b 0042 cb3d 5cd5 283d
00000230: ba2c 033e 6473 4dbc 782e 2ebe 2d39 963c
00000240: dadd 4cbe 538c fc3c 4b57 33be 947f ab3d
00000250: c5c5 1cbe 4c32 073e 554f 2fbe cde8 4bbc
00000260: 99a9 f0bd db8e a4bd c91c d63d c126 f93d
00000270: 403e 113e 62ea abbc 24d1 47be 1583 0ebc
00000280: 0843 33be 593a c43d 6499 e7bd 642b fcbc
00000290: eb00 3cbd 2f24 5abd 6a47 9d3d 6363 c4ba
000002a0: 0bb8 80bd e6e7 12bc 72c4 403e aefd 16be
000002b0: ee59 01be dfdf 033e 0ee2 cc3d f913 bdbc
000002c0: 2e6b 01be e9d0 6fbd 1764 3f3c d086 9b3d
000002d0: b3ae bd3d 5c64 4dbe f666 c43d 812b 88bc
000002e0: 4d27 2c3d ac94 83ba 68da 553d b9e1 1fbe
000002f0: 64a2 d43b f815 35bd 791d d13c f27b e7bd
00000300: 324d 88bc f822 11be c910 ffbd f674 d43d
00000310: 37d9 05be 6df2 603d e54f e03d 0d43 4cbd
00000320: a5d5 82bb f053 8c3d f576 bb3c eb00 4bbe
00000330: 5335 863c 8ad2 e43c 9e88 febd 0302 5c3d
00000340: c675 68bc 106b 9c3d 6ae9 8ebd 5169 01be
00000350: be12 c13c b5f9 c6bd d091 023e 3207 fbbc
00000360: f4ee 33be 8a30 983d 571b 023e 36ae 1b3e
00000370: 73b3 b23d 2f07 87bd 8098 a0bd 91f1 43be
00000380: 04cf 5d3d 5f57 1b3d 45bf e5bd 7ea5 80be
00000390: d3cf 003e b6f2 1fbd a5d6 cc3d 9fc0 283e
000003a0: fdd8 f5bd e673 2cbd 96dc 98bd 536e 3ebd
000003b0: 7c92 0cbd d705 6e3e 52df cabd 788f 7d3d
000003c0: f551 98bd abd4 e3bd 9043 973c 70f6 8cbd
000003d0: 567b bc3d db1e 3fbe 7fd1 b73c ae25 0abe
000003e0: 2dfc b73d a291 52bd 19c6 3abe 4335 833d
000003f0: ea6b 79bd e13e b0bd f3b0 d33d ed3f 993d

fc1.bias f4 [256]
-0.12120161 -0.16981179 0.01528082 -0.037846595 -0.14936106 -0.16773155 -0.12384316 -0.04289566
-0.1697485 0.053824797 0.04623146 -0.19681665 -0.19437392 -0.059237838 -0.16529529 -0.13627402
-0.15551393 -0.08193858 -0.16621308 -0.13971609 -0.13527678 -0.14901026 -0.16494514 -0.01386913
-0.26641744 -0.20164216 -0.16647731 -0.09999756 0.090428755 0.0018081488 -0.252598 -0.054978654
-0.14165543 -0.14051227 -0.14976577 -0.14541936 0.0092135705 -0.19292474 -0.022196716 -0.18367985
-0.19651951 -0.16705856 -0.10846348 -0.061868243 -0.11337272 -0.11768317 -0.1320725 -0.1634129
-0.04156819 -0.22308989 -0.032718625 -0.09539453 -0.1394219 -0.13286632 -0.15344791 -0.15417424
-0.093297325 -0.08895685 -0.05549887 -0.14785749 -0.13264865 -0.14271306 -0.23590262 -0.14230812
-0.1379077 0.06953143 -0.1791664 -0.2468839 -0.16407304 -0.11027486 -0.041569047 0.026167566
0.040906243 -0.044618186 -0.03221222 -0.09792219 -0.1387705 -0.06542454 -0.09025501 -0.23216693
-0.09102593 -0.21196023 -0.19121715 -0.17604843 -0.21422979 -0.13902418 -0.294222 -0.08890606
-0.20630911 -0.017529704 0.08077294 -0.24369407 -0.060508497 -0.2853695 -0.22607222 -0.13670777
-0.17358094 -0.16532223 -0.10446991 -0.12872945 -0.093680814 -0.013728511 -0.13371727 -0.09479123
-0.19625404 -0.16412434 -0.25306046 0.08145922 -0.1741257 -0.12677102 -0.108157136 -0.044744663
-0.15315345 0.097795226 -0.16667971 -0.07129201 -0.057438318 -0.13224906 -0.11625525 -0.11821329
-0.17641447 -0.09820873 -0.06541534 -0.12518303 -0.06716038 -0.18525635 -0.11857859 -0.05823905
-0.12582241 -0.21057908 -0.13608412 -0.18955085 -0.15581734 -0.17338441 -0.12974025 -0.122886695
-0.113734305 -0.18639453 -0.22622408 -0.16790892 -0.16417189 0.16285445 -0.04409119 -0.13734357
-0.15937361 -0.11339736 -0.2039169 -0.3689741 -0.102204755 -0.12953544 -0.19271359 -0.015314397
-0.21785432 -0.19578248 -0.0991961 -0.22728829 -0.24133886 -0.07484626 -0.17496163 -0.14143275
-0.120917626 0.0013790708 -0.07322458 -0.114625186 -0.025534522 -0.1883683 -0.03705506 -0.1292953
-0.16914907 -0.1602288 -0.12504998 -0.124945164 0.03610047 -0.19194116 -0.1085676 -0.21589765
-0.11028022 -0.09415855 -0.17823108 -0.056783333 -0.1512472 0.0027544019 -0.11495416 -0.20287035
-0.18951851 -0.05333826 -0.13635546 -0.19328666 -0.047674373 -0.26276347 -0.2529038 -0.04363997
-0.0025020665 -0.1350397 -0.2369069 -0.04097101 0.066683784 -0.16409232 -0.09389866 -0.20512126
-0.09611631 -0.17213342 -0.10086789 -0.19868256 -0.06006356 -0.0649231 -0.16510166 -0.068829656
-0.123828605 0.074246824 -0.13282679 -0.11949292 -0.11217882 -0.3501843 -0.09350367 -0.14715198
-0.1531207 -0.15461619 -0.19307283 -0.057492975 0.0082697 -0.054324687 -0.04035548 -0.08098547
-0.16396269 -0.1813871 0.061635792 -0.11058805 -0.126182 -0.1255448 -0.19435742 0.018004352
-0.16876918 -0.21574885 -0.16645744 -0.04980756 -0.13081408 -0.0671919 -0.08088591 -0.1585997
-0.15085436 -0.09181691 -0.16506344 -0.19152158 -0.09284543 -0.15689641 -0.14684524 -0.12578328
-0.20133334 -0.121945776 -0.13598298 -0.24941786 -0.12917444 -0.18215764 -0.18494946 -0.19233713
00000000: 8d38 f8bd 24e3 2dbe 685c 7a3c 0805 1bbd
00000010: 1bf2 18be d2c1 2bbe 7ca1 fdbd 5cb3 2fbd
00000020: 8dd2 2dbe 6477 5c3d 335d 3d3d 4e8a 49be
00000030: f509 47be 60a3 72bd 2b43 29be 6b8b 0bbe
00000040: 0b3f 1fbe 6acf a7bd c333 2abe bc11 0fbe
00000050: ff85 0abe 2596 18be 61e7 28be 593b 63bc
00000060: de67 88be 487b 4ebe 0779 2abe 85cb ccbd
00000070: b632 b93d 68ff ec3a 8654 81be 4c31 61bd
00000080: 1f0e 11be 73e2 0fbe 335c 19be d0e8 14be
00000090: 84f4 163c 108e 45be e3d5 b5bc 9216 3cbe
000000a0: 693c 49be 6611 2bbe 1a22 debd 8e69 7dbd
000000b0: f52f e8bd e003 f1bd 033e 07be b655 27be
000000c0: 6843 2abd ad71 64be f703 06bd 355e c3bd
000000d0: 9dc4 0ebe 1c0e 08be 7321 1dbe dadf 1dbe
000000e0: ab12 bfbd 022f b6bd c852 63bd f467 17be
000000f0: 0cd5 07be 5f23 12be 7590 71be 38b9 11be
00000100: ad37 0dbe 7f66 8e3d 6677 37be 22cf 7cbe
00000110: c302 28be c9d7 e1bd 4e44 2abd 5d5d d63c
00000120: 4e8d 273d 8fc1 36bd f6f0 03bd 6e8b c8bd
00000130: db19 0ebe 4dfd 85bd 9ed7 b8bd 2bbd 6dbe
00000140: ce6b babd 1a0c 59be 6ece 43be 0a46 34be
00000150: 0e5f 5bbe 5b5c 0ebe 44a4 96be 6114 b6bd
00000160: b242 53be 749a 8fbc 486c a53d f08a 79be
00000170: c2d7 77bd f31b 92be 7a7f 67be 1ffd 0bbe
00000180: 34bf 31be 3b4a 29be 52f4 d5bd a7d1 03be
00000190: badb bfbd 8ced 60bc 2eed 08be e821 c2bd
000001a0: d2f6 48be 3610 28be 2491 81be 17d4 a63d
000001b0: 024e 32be 43d0 01be 7d81 ddbd 2e46 37bd
000001c0: 42d4 1cbe dd48 c83d 16ae 2abe 8c01 92bd
000001d0: 7144 6bbd 4c6c 07be 3c17 eebd cf19 f2bd
000001e0: ffa5 34be a921 c9bd 7af8 85bd fb2f 00be
000001f0: 628b 89bd d7b3 3dbe 55d9 f2bd 128c 6ebd
00000200: 97d7 00be 0ba2 57be a359 0bbe 9e19 42be
00000210: 958e 1fbe af8b 31be a1da 04be 05ac fbbd
00000220: 88ed e8bd 35de 3ebe 49a7 67be 51f0 2bbe
00000230: ad1c 28be 51c3 263e f798 34bd cba3 0cbe
00000240: d632 23be e03c e8bd 98cf 50be 2cea bcbe
00000250: ba50 d1bd f0a4 04be b656 45be 3de9 7abc
00000260: 3415 5fbe 347b 48be 5327 cbbd 43be 68be
00000270: 8921 77be ff48 99bd 2429 33be bfd3 10be
00000280: a9a3 f7bd f0c1 b43a c5f6 95bd 9cc0 eabd
00000290: c62d d1bc 9fe3 40be 0cc7 17bd fd65 04be
000002a0: 6a35 2dbe 0513 24be 1a0d 00be 40e3 ffbd
000002b0: 16de 133d 398c 44be b158 debd 4614 5dbe
000002c0: 99da e1bd 33d6 c0bd 3582 36be a495 68bd
000002d0: 8ce0 1abe 3283 343b 166d ebbd 3fbd 4fbe
000002e0: 2411 42be 3879 5abd c4a0 0bbe f0ec 45be
000002f0: 3446 43bd ef88 86be 9b7c 81be d3bf 32bd
00000300: b6f9 23bb d947 0abe b997 72be 38d1 27bd
00000310: 8291 883d d107 28be f14d c0bd 4f0b 52be
00000320: a1d8 c4bd be43 30be d393 cebd 7173 4bbe
00000330: 3505 76bd 67f6 84bd 6910 29be 90f6 8cbd
00000340: da99 fdbd b80e 983d bf03 08be b4b8 f4bd
00000350: 02be e5bd 5b4b b3be da7e bfbd 02af 16be
00000360: accb 1cbe b553 1ebe e2b4 45be c17d 6bbd
00000370: a37d 073c 9083 5ebd ca4b 25bd b6db a5bd
00000380: d6e5 27be 8abd 39be d075 7c3d fd7b e2bd
00000390: db35 01be d18e 00be a205 47be dd7d 933c
000003a0: d4d1 2cbe 44ed 5cbe d273 2abe 0303 4cbd
000003b0: 20f4 05be e89b 89bd 83a7 a5bd f667 22be
000003c0: 9179 1abe 810a bcbd 6406 29be 3c1e 44be
000003d0: bf25 bebd 74a9 20be 995e 16be 55cd 00be
000003e0: 542a 4ebe b5be f9bd 1f3f 0bbe 6567 7fbe
000003f0: 4e46 04be 8887 3abe 6463 3dbe 06f4 44be

fc2.weight f4 [5, 256]
0.042123698 -0.055743016 0.05696051 0.0013895035 -0.038602628 0.03496027 0.04956536 0.026709743
0.0110195875 0.039089054 -0.0091083795 0.0063428804 0.031213738 0.011798859 -0.042292014 0.0075466484
0.0039478764 0.013079472 -0.06207777 0.055029914 -0.045601726 0.046330296 -0.055486605 -0.050983675
-0.02489505 -0.0051212236 0.01762674 -0.022776015 0.049090438 -0.039463148 -0.031100735 0.049460128
-0.035118125 0.03280644 -0.024804205 0.05233662 -0.055909894 -0.026399538 0.06187228 -0.034300245
0.009617187 0.014051124 0.042102516 -0.05204071 -0.0032782555 0.0061606094 0.050961003 -0.04569637
0.050438218 -0.04497578 -0.033004493 -0.0017759204 -0.006461896 0.017610379 -0.061396733 -0.013463579
-0.052210018 -0.053653024 -0.020974651 -0.05270838 -0.021001883 0.008626811 0.03395915 0.04481394
0.03107503 -0.04018517 0.04681799 0.045214668 -0.000187926 0.012844548 0.028731711 -0.0143066645
-0.0294298 0.011934742 -0.058124147 -0.040603913 0.061703525 0.058904357 -0.001946196 0.03505005
-0.05362931 0.021444231 -0.052898906 0.048687473 -0.035770185 -0.035162874 0.026760422 -0.06027525
-0.01170136 0.051902182 0.017540649 -0.013055779 0.020543672 0.027294248 -0.014216818 -0.0203726
0.04432717 0.01575762 0.054974675 -0.014121883 0.03317368 -0.009789631 0.037197508 -0.03404072
0.038713023 -0.054096214 0.009503387 0.0019484013 0.039647564 0.018130496 0.01517313 -0.009725437
-0.051609986 -0.048462234 -0.059027314 -0.003032498 -0.021099761 -0.02810014 -0.015113197 0.015859425
-0.013955392 -0.015273944 -0.02666556 0.040667422 0.00051584095 0.027448758 0.054821722 -0.022273459
-0.0028099045 -0.047223926 0.042682737 0.010461129 -0.058139183 0.03617467 0.0066709146 -0.04070647
-0.013405733 0.036429957 0.03018327 0.015490286 0.02862022 0.02423878 -0.014782555 -0.020669542
-0.047167704 -0.04221715 -0.0068895817 -0.025856912 -0.059538625 -0.05355724 -0.023841716 -0.04993008
-0.055813856 0.046051085 0.022046395 0.004430622 0.006732397 0.018800497 0.04279592 0.0046172887
0.021397628 0.061191708 0.033837892 0.028548598 0.037149742 -0.04798922 -0.04485845 -0.029215582
-0.0493685 -0.018049732 0.0505258 -0.00078394264 -0.04310555 -0.049140967 -0.03190638 0.059452295
0.015242457 -0.03507358 0.010839798 -0.04982456 0.0494435 -0.048851572 0.061413005 -0.026906267
0.05616612 -0.04134731 -0.0044836476 -0.040328763 -0.0063190013 -0.029148333 -0.03519153 -0.043648556
0.04779782 0.03628383 -0.057381064 0.050741673 0.032000132 -0.021092057 0.009902425 -0.05950039
0.04148075 -0.027222082 0.019802906 0.038345143 -0.05740671 0.039989218 -0.038650297 0.0021248162
0.039306037 0.037276834 0.004026212 0.049340114 -0.04504072 -0.028910853 0.014631607 0.033744343
0.041717127 -0.0578359 0.04700657 0.057906292 -0.053663194 0.04929617 0.05650775 -0.012783848
0.0075302273 -0.05474846 -0.05304189 -0.047639735 -0.0040666237 -0.04068567 -0.05816275 0.05353588
0.029459402 0.015954606 -0.038069673 0.05113007 0.028464705 -0.03832782 -0.05880654 -0.03019023
-0.01383888 0.060869038 0.027796961 0.0035567358 -0.05545514 0.052034974 -0.009223089 -0.016344108
0.02429802 -0.018030643 0.06020025 -0.060472757 -0.005449444 0.057305552 -0.028786786 -0.036118075
00000000: e689 2c3d ca52 64bd 6c4f 693d 0020 b63a
00000010: ca1d 1ebd 8032 0f3d 0c05 4b3d 64ce da3c
00000020: 808b 343c d81b 203d 503b 15bc f0d7 cf3b
00000030: f4b3 ff3c 0050 413c 643a 2dbd e049 f73b
00000040: 305d 813b 484b 563c 4245 7ebd 0c67 613d
00000050: e0c8 3abd d6c4 3d3d ec45 63bd 42d4 50bd
00000060: b4f0 cbbc f0cf a7bb f465 903c c494 babc
00000070: 0e13 493d 1ca4 21bd f8c6 febc b496 4a3d
00000080: 06d8 0fbd 0c60 063d 3032 cbbc ec5e 563d
00000090: c601 65bd d843 d8bc ca6d 7d3d 6a7e 0cbd
000000a0: 6891 1d3c b036 663c b073 2c3d a428 55bd
000000b0: 00d8 56bb f0de c93b 7cbc 503d 1e2c 3bbd
000000c0: 4e98 4e3d 8638 38bd b82f 07bd 00c6 e8ba
000000d0: 50be d3bb a443 903c 247b 7bbd 5896 5cbc
000000e0: 2cda 55bd 46c3 5bbd 08d3 abbc bee4 57bd
000000f0: 240c acbc 7857 0d3c c018 0b3d d28e 373d
00000100: 1091 fe3c 3499 24bd 38c4 3f3d 0433 393d
00000110: 000e 45b9 f071 523c c45e eb3c 8066 6abc
00000120: c416 f1bc f089 433c 9613 6ebd 4a50 26bd
00000130: d6bc 7c3d b245 713d 8017 ffba a490 0f3d
00000140: 68aa 5bbd d0ab af3c 86ac 58bd 846c 473d
00000150: c283 12bd f206 10bd ac38 db3c 2ee3 76bd
00000160: 10b7 3fbc 6297 543d 68b1 8f3c e8e7 55bc
00000170: 344b a83c 3098 df3c a8ed 68bc 70e4 a6bc
00000180: 6890 353d 2016 813c 202d 613d 785f 67bc
00000190: 20e1 073d b064 20bc 6a5c 183d 486e 0bbd
000001a0: 8c91 1e3d fe93 5dbd 18b4 1b3c 8061 ff3a
000001b0: 7c65 223d 6886 943c b898 783c 7057 1fbc
000001c0: fe64 53bd 5680 46bd a0c6 71bd e0bc 46bb
000001d0: 68d9 acbc 4432 e6bc 589d 77bc a0eb 813c
000001e0: 28a5 64bc 903f 7abc bc71 dabc e292 263d
000001f0: 8039 073a 38dc e03c be8c 603d d476 b6bc
00000200: 6026 38bb e06d 41bd 18d4 2e3d 2865 2b3c
00000210: 5a23 6ebd e42b 143d b097 da3b d4bb 26bd
00000220: b8a3 5bbc 9437 153d e842 f73c f8ca 7d3c
00000230: f474 ea3c 6890 c63c 8832 72bc 2c53 a9bc
00000240: ec32 41bd e4eb 2cbd 00c2 e1bb e0d1 d3bc
00000250: c6de 73bd d65e 5bbd b44f c3bc 7c83 4cbd
00000260: 129d 64bd 10a0 3c3d a49a b43c c02e 913b
00000270: 709b dc3b 8003 9a3c c64a 2f3d a04c 973b
00000280: 144a af3c 28a4 7a3d 9a99 0a3d c0de e93c
00000290: 542a 183d 5890 44bd 7ebd 37bd 8455 efbc
000002a0: a036 4abd 08dd 93bc 24f4 4e3d 8081 4dba
000002b0: 728f 30bd 0a48 49bd 44b0 02bd 4084 733d
000002c0: 80bb 793c 50a9 0fbd 6899 313c d614 4cbd
000002d0: 4485 4a3d 9618 48bd 348c 7b3d 886a dcbc
000002e0: 720e 663d cc5b 29bd 90eb 92bb c62f 25bd
000002f0: a00f cfbb 7cc8 eebc fe24 10bd d4c8 32bd
00000300: a6c7 433d 5a9e 143d 6808 6bbd 80d6 4f3d
00000310: 9212 033d 40c9 acbc c83d 223c aeb6 73bd
00000320: b8e7 293d d800 dfbc b439 a23c cc0f 1d3d
00000330: 4c23 6bbd bccb 233d c64f 1ebd 8040 0b3b
00000340: 5eff 203d 98af 183d 50ee 833b dc18 4a3d
00000350: 9e7c 38bd 74d6 ecbc 68b9 6f3c 8237 0a3d
00000360: 94df 2a3d 56e5 6cbd f689 403d 262f 6d3d
00000370: f0cd 5bbd c8ea 493d ac74 673d 5873 51bc
00000380: 20c0 f63b ec3f 60bd 7442 59bd e221 43bd
00000390: 5041 85bb 04a6 26bd 103c 6ebd 7048 5b3d
000003a0: d854 f13c 3cb3 823c f2ee 1bbd c46d 513d
000003b0: d02e e93c a2fd 1cbd 20df 70bd 8051 f7bc
000003c0: 78bc 62bc d051 793d 74b6 e33c 2018 693b
000003d0: ee24 63bd a022 553d 701c 17bc 14e4 85bc
000003e0: a40c c73c 00b5 93bc 8a94 763d 48b2 77bd
000003f0: 4091 b2bb 3ab9 6a3d 44d2 ebbc 8cf0 13bd

fc2.bias f4 [5]
-0.020561717 0.048897147 -0.031730488 -0.051509894 -0.02493694
00000000: 0c71 a8bc 6048 483d d4f7 01bd 0afc 52bd
00000010: 8e48 ccbc
