Models/Torch2/my_model7400.pth (torch_old, 60054 bytes, 8 tensors)

conv1.weight f4 [16, 2, 3, 3]
0.042782508 -0.21654168 0.004017923 -0.09043925 -0.071443714 -0.20672424 -0.16954838 -0.18262374
-0.19689968 -0.16782245 0.21544825 0.14242788 -0.016861692 -0.22980718 0.15699126 0.14753237
0.038480517 -0.043125212 -0.10617919 -0.036209308 0.32583213 0.14223416 -0.118709095 0.43858808
0.15893665 0.121889465 0.20085719 0.041587345 -0.036565546 0.11353963 -0.03589019 0.16648766
-0.27178904 -0.09028369 0.1800868 -0.109342605 0.24436063 -0.1670637 0.44007674 -0.22406936
-0.13362715 -0.03318858 -0.081220314 0.029009862 0.19306397 -0.059301887 -0.28260824 -0.22139777
0.067396745 -0.11478099 0.015785892 0.0056906743 0.031167464 -0.21453501 -0.003852369 -0.19309922
-0.023200478 0.18656172 0.2407625 0.03770447 -0.10482703 0.28835073 0.2973453 -0.09611277
0.01117614 0.14243922 -0.037210297 0.10183236 0.11627859 -0.13124037 0.14610408 0.011390927
-0.15914862 -0.028488219 0.36489135 -0.16617596 0.23455542 -0.10769719 -0.14129835 0.32056317
-0.082569495 0.024447247 -0.16441174 0.12496897 0.032946907 0.04923452 0.07678807 0.12882337
0.14604627 -0.18562019 0.096062504 -0.03529996 -0.11096804 0.24363908 0.15673949 0.48288628
-0.21273823 0.27859724 -0.22996505 -0.2108583 -0.17718604 -0.24713695 -0.06514659 -0.1705575
-0.026996177 -0.10197072 -0.151531 0.16325699 0.14252318 -0.08360462 -0.031477034 -0.090391785
0.07979885 -0.16665864 0.10049635 0.26314527 0.11013886 0.044479985 -0.1072294 0.06666353
0.1971368 0.22246374 -0.21060285 -0.092462376 -0.18760386 -0.15051626 -0.022689367 -0.077067465
-0.06367934 -0.16294624 0.15365684 0.012206812 -0.037926342 -0.1093387 0.123482436 -0.03696531
-0.17558551 -0.1984991 0.18524288 -0.1963332 -0.15373333 -0.03589662 -0.10360968 -0.16116868
-0.11613584 0.14601345 -0.14469002 -0.14135389 -0.20260602 -0.12057842 -0.07432902 -0.24917872
0.03495965 -0.0014324541 -0.14033596 0.25154328 0.0154629 0.14538111 0.12811539 0.23903564
0.25765413 -0.030638015 -0.2116464 0.2024481 0.16532288 0.16747044 0.03415687 0.24216947
-0.16697477 0.11601038 0.066859044 -0.12392989 -0.10083148 0.10871341 0.076876305 0.19172406
-0.06357811 0.040771537 0.029594058 0.17541578 0.08462862 0.054995973 0.044906132 0.19132464
0.052977473 -0.23414932 0.17016627 -0.068920776 -0.08567457 0.13472086 -0.051221147 0.006278907
-0.009128784 0.11068648 0.08724593 0.14897247 0.04241146 0.10755108 -0.064736255 -0.13582994
0.25103298 0.03478521 -0.11695347 0.30686632 -0.19530813 -0.09275989 0.20701726 0.18158197
0.14701933 -0.14771818 -0.010759383 0.08516902 0.13805816 0.20961347 0.046373706 0.09891808
-0.07374052 -0.02544993 0.030026162 0.22616759 -0.024767438 -0.17580144 0.14222574 -0.19568506
0.053646978 -0.11002387 -0.066483974 -0.056940332 -0.14051835 -0.043069247 0.26661476 -0.20673296
0.08690464 0.049351774 -0.16001192 -0.036846902 -0.22422951 -0.13974483 0.1645921 0.22785401
0.31920493 -0.1012336 0.2788935 -0.013794464 0.10279608 -0.14844215 -0.09279673 0.13460377
-0.1758265 -0.15448327 0.017093573 0.115963295 0.14740853 -0.22270277 0.123492144 0.08330805
00000000: b63c 2f3d 1abd 5dbe c8a8 833b 3738 b9bd
00000010: 1551 92bd 85af 53be 179e 2dbe b801 3bbe
00000020: 12a0 49be a6d9 2bbe 779e 5c3e 9dd8 113e
00000030: 8821 8abc 9352 6bbe 51c2 203e ba12 173e
00000040: bf9d 1d3d 10a4 30bd 7a74 d9bd 3650 14bd
00000050: 78d3 a63e d5a5 113e c11d f3bd 9e8e e03e
00000060: 4ac0 223e 2fa1 f93d 82ad 4d3e 7e57 2a3d
00000070: c1c5 15bd 7787 e83d 9801 13bd be7b 2a3e
00000080: ef27 8bbe a8e6 b8bd ad68 383e 04ef dfbd
00000090: ac39 7a3e bf12 2bbe bd51 e13e 7072 65be
000000a0: 8ed5 08be c0f0 07bd d656 a6bd 17a6 ed3c
000000b0: 90b2 453e 89e6 72bd 07b2 90be 19b6 62be
000000c0: 4e07 8a3d 4c12 ebbd 6a51 813c d678 ba3b
000000d0: e952 ff3c 11af 5bbe 0778 7cbb cdbb 45be
000000e0: ee0e bebc 090a 3f3e 728a 763e 0170 1a3d
000000f0: 8eaf d6bd b5a2 933e a53d 983e c6d6 c4bd
00000100: 211c 373c 96db 113e d369 18bd 7c8d d03d
00000110: 7823 ee3d e063 06be 4f9c 153e 03a1 3a3c
00000120: dbf7 22be 2060 e9bc 0ad3 ba3e 082a 2abe
00000130: 4c2f 703e 5890 dcbd 84b0 10be db20 a43e
00000140: 321a a9bd 9845 c83c 8d5b 28be bbef ff3d
00000150: 56f3 063d 23aa 493d 1043 9d3d 46ea 033e
00000160: 278d 153e 3813 3ebe 6bbc c43d b196 10bd
00000170: 3643 e3bd 867c 793e 5180 203e df3c f73e
00000180: 0dd8 59be 4ca4 8e3e f57b 6bbe 3deb 57be
00000190: 4270 35be 7811 7dbe 936b 85bd a0a6 2ebe
000001a0: 1627 ddbc 06d6 d0bd f12a 1bbe d72c 273e
000001b0: 99f1 113e e638 abbd 10ee 00bd 541f b9bd
000001c0: 946d a33d 90a8 2abe 08d1 cd3d faba 863e
000001d0: 7c90 e13d a530 363d 169b dbbd e486 883d
000001e0: 3bde 493e 89cd 633e 46a8 57be ea5c bdbd
000001f0: 3a1b 40be ef20 1abe 0ddf b9bc 8cd5 9dbd
00000200: 506a 82bd 61db 26be 3858 1d3e 15ff 473c
00000210: a758 1bbd f8ec dfbd 5ce4 fc3d f068 17bd
00000220: b0cc 33be 5943 4bbe 4fb0 3d3e 920b 49be
00000230: 456c 1dbe 5608 13bd 5031 d4bd 6709 25be
00000240: a1d8 edbd 8d84 153e 9f29 14be 13bf 10be
00000250: f477 4fbe d2f1 f6bd d039 98bd b528 7fbe
00000260: da31 0f3d 2fc1 bbba 3bb4 0fbe 48ca 803e
00000270: 1a58 7d3c c9de 143e ae30 033e c2c5 743e
00000280: 3eeb 833e 93fc fabc d5b9 58be 8e4e 4f3e
00000290: 674a 293e 5f7d 2b3e 13e8 0b3d 46fb 773e
000002a0: 6ffb 2abe da96 ed3d 65ed 883d f4ce fdbd
000002b0: bc80 cebd 23a5 de3d 5371 9d3d 5053 443e
000002c0: 3d35 82bd 0e00 273d 3d6f f23c 32a0 333e
000002d0: c551 ad3d 7543 613d 7eef 373d 9bea 433e
000002e0: e8fe 583d d7c4 6fbe 1140 2e3e 5626 8dbd
000002f0: 2676 afbd 44f4 093e 44cd 51bd 4abf cd3b
00000300: e590 15bc 98af e23d ffad b23d 3d8c 183e
00000310: a4b7 2d3d be43 dc3d 7194 84bd 0117 0bbe
00000320: 6587 803e f07a 0e3d 4d85 efbd 951d 9d3e
00000330: dbfe 47be e6f8 bdbd 55fc 533e a0f0 393e
00000340: 3c8c 163e 6f43 17be 2048 30bc 186d ae3d
00000350: 1e5f 0d3e eaa4 563e 5bf2 3d3d 9095 ca3d
00000360: 4505 97bd 5f7c d0bc 6df9 f53c 7a98 673e
00000370: 15e5 cabc 4b05 34be a0a3 113e aa61 48be
00000380: efbc 5b3d 3254 e1bd c028 88bd 443a 69bd
00000390: 0be4 0fbe 6169 30bd bb81 883e ceb1 53be
000003a0: 0ffb b13d 1625 4a3d 2ada 23be c7ec 16bd
000003b0: 6c9c 65be 4519 0fbe d58a 283e 9052 693e
000003c0: d46e a33e 9053 cfbd 21cb 8e3e 2d02 62bc
000003d0: c086 d23d 3801 18be 360c bebd 92d5 093e
000003e0: dd0b 34be dd30 1ebe d207 8c3c 2a7e ed3d
000003f0: 43f2 163e 320c 64be 73e9 fc3d 699d aa3d

conv1.bias f4 [16]
-0.06478528 0.023716837 0.14015695 0.028780794 0.030539906 0.06386469 -0.24493702 0.015546213
0.12639557 -0.010465227 -0.168023 0.009861316 -0.15259022 -0.021442436 -0.13523376 0.063914
00000000: 25ae 84bd d049 c23c 4e85 0f3e b3c5 eb3c
00000010: d32e fa3c 7ecb 823d c5d0 7abe 8bb5 7e3c
00000020: d76d 013e 5876 2bbc 390e 2cbe 5b91 213c
00000030: 9c40 1cbe 0ca8 afbc b87a 0abe 58e5 823d

conv2.weight f4 [32, 16, 3, 3]
0.03572256 -0.08151466 -0.02458778 0.0055132722 0.039721616 0.036897514 -0.016980836 -0.056864142
0.07390131 0.038553026 -0.15940556 0.040604528 -0.050111074 0.06043131 0.104128554 0.07578263
-0.03507148 0.13650726 0.028665474 -0.022288201 0.29100814 -0.11141047 -0.12351652 0.026675528
-0.002252647 0.0027149695 0.07259582 0.009267659 0.022466272 0.014837869 -0.040808517 0.12850289
0.18426323 0.057942323 -0.054198135 0.008607674 0.05301198 -0.039500643 0.14107713 -0.016989887
-0.011261896 -0.09133359 0.04239566 0.05021513 -0.07771413 -0.14648032 -0.097107686 -0.16476887
-0.008022681 0.007828327 -0.026205754 -0.063190766 0.004239622 -0.09884765 -0.06393561 0.013187025
0.07409265 -0.08010141 -0.041780043 -0.02001525 -0.024969319 0.070002496 0.0055049984 -0.06296547
-0.013612886 -0.043199614 0.07521708 -0.015653517 -0.00797211 0.013398558 -0.097584836 0.10014346
0.076829545 0.07256117 -0.05609127 0.14059322 0.019505551 0.08430444 0.10835853 -0.025622297
0.08587198 0.025466738 -0.0033588158 -0.103837825 0.019705374 0.04688784 0.014316244 0.015395267
-0.03474612 -0.016580807 -0.010708114 0.025885774 0.024921456 0.042187385 -0.07734153 -0.034914512
0.017971046 -0.043219507 0.008173874 -0.00853503 -0.052597057 0.0432536 0.042203963 0.0016649892
0.08061346 0.07127645 -0.058102045 0.10663196 -0.04202515 -0.030966884 0.06571868 0.08043512
0.022175055 0.004678203 -0.033290386 0.03541891 0.08316801 -0.024867427 -0.11312903 -0.021251112
0.079741925 -0.03289222 0.014434948 0.013080842 -0.0985458 0.13859566 0.06408793 0.00500453
-0.10770011 0.012190105 0.059263583 -0.10571135 0.071662426 -0.0441604 0.037089817 -0.023644933
-0.124789365 0.10368809 0.05223728 -0.016888704 0.2009245 0.0442992 -0.064872876 0.06025989
-0.0565062 0.01701008 -0.035985466 0.013239877 -0.11673647 0.06400891 -0.0274359 -0.031335324
0.07638249 0.115840256 -0.11772188 0.35024086 -0.10905902 -0.06118027 0.09779529 0.019948479
-0.067534894 0.012369208 -0.047625612 0.042782832 0.15112108 0.04611591 -0.035017278 0.29617098
-0.0010665159 0.07965009 0.021737317 0.019761452 -0.05806843 -0.018240958 -0.07345705 0.040650506
0.042725302 -0.0022789282 0.0135084605 0.080868356 0.042857807 -0.06683699 -0.010457701 0.065473445
-0.04804397 0.07747939 -0.085128754 0.023401609 -0.09302464 0.102387436 -0.08280857 0.27014998
0.011283101 0.017160451 -0.010921356 0.026209978 0.017462682 -0.02524365 0.048028037 0.06080537
0.089587666 0.060339093 -0.008015036 0.059269648 -0.01865672 0.07205704 -0.011836395 0.072501995
-0.0051847864 0.06207386 0.09993158 0.007448052 -0.015886966 0.04464131 -0.037609007 -0.01677519
0.037978426 0.033164345 -0.0053871344 -0.057569925 0.006311242 -0.07774533 0.08117362 -0.0001312465
-0.03547527 -0.043183934 0.053372957 0.1303718 -0.0871056 -0.0040534786 0.079254344 0.040335037
-0.035865206 -0.042811435 -0.07978705 0.013751341 -0.011091852 0.015166668 0.080069646 -0.03171377
-0.035447527 0.04465942 0.081945755 0.07997137 -0.06566841 0.19799234 0.1044748 0.0025791603
0.095500335 0.06623694 -0.08688751 0.08669932 0.059833474 0.014813229 -0.061736442 -0.04369799
00000000: d251 123d 28f1 a6bd 506c c9bc aea8 b43b
00000010: 22b3 223d d921 173d 651b 8bbc 60ea 68bd
00000020: 9259 973d c7e9 1d3d 363b 23be ef50 263d
00000030: 4541 4dbd d286 773d 5a41 d53d ec33 9b3d
00000040: 1da7 0fbd 8fc8 0b3e dbd3 ea3c bf95 b6bc
00000050: 05ff 943e 2c2b e4bd 3bf6 fcbd a386 da3c
00000060: 25a1 13bb a1ed 313b 1ead 943d 61d7 173c
00000070: 300b b83c 891a 733c d526 27bd 4396 033e
00000080: 80af 3c3e ee54 6d3d ddfe 5dbd 3407 0d3c
00000090: 1723 593d 6dcb 21bd 8676 103e 602e 8bbc
000000a0: d183 38bc 1b0d bbbd 12a7 2d3d 61ae 4d3d
000000b0: 9628 9fbd f0fe 15be 65e0 c6bd 2cb9 28be
000000c0: 9071 03bc 6242 003c 73ad d6bc 296a 81bd
000000d0: 87ec 8a3b a370 cabd acf0 82bd 640e 583c
000000e0: e3bd 973d 350c a4bd 8d21 2bbd 06f7 a3bc
000000f0: 758c ccbc 785d 8f3d 4663 b43b 0af4 80bd
00000100: 9508 5fbc 14f2 30bd 6a0b 9a3d ce3b 80bc
00000110: 749d 02bc a085 5b3c 8fda c7bd 0418 cd3d
00000120: cf58 9d3d f39a 943d f6bf 65bd abf7 0f3e
00000130: 1bca 9f3c cea7 ac3d 14eb dd3d dae5 d1bc
00000140: a6dd af3d 9f9f d03c 941f 5cbb eda8 d4bd
00000150: 2a6d a13c 770d 403d ae8e 6a3c 6e3c 7c3c
00000160: f351 0ebd 79d4 87bc 1671 2fbc 670e d43c
00000170: 1528 cc3c aecc 2c3d 3c65 9ebd 8502 0fbd
00000180: 0438 933c f006 31bd b6eb 053c 83d6 0bbc
00000190: 0370 57bd b02a 313d 10de 2c3d c43b da3a
000001a0: ab18 a53d 63f9 913d 69fc 6dbd db61 da3d
000001b0: 9022 2cbd 43ae fdbc 8497 863d 2bbb a43d
000001c0: 76a8 b53c 9c4b 993b 805b 08bd 6b13 113d
000001d0: fd53 aa3d c6b6 cbbc 31b0 e7bd d016 aebc
000001e0: bc4f a33d feb9 06bd 8f80 6c3c 0751 563c
000001f0: 61d2 c9bd 05ec 0d3e 8840 833d 0afd a33b
00000200: e091 dcbd 02b9 473c 5fbe 723d 317f d8bd
00000210: c0c3 923d 89e1 34bd 7eeb 173d 05b3 c1bc
00000220: 9191 ffbd 6c5a d43d c2f6 553d 2e5a 8abc
00000230: 27bf 4d3e 1473 353d 12dc 84bd 13d3 763d
00000240: 0c73 67bd b958 8b3c 7f65 13bd 12ec 583c
00000250: 8813 efbd 1a17 833d 41c1 e0bc 7859 00bd
00000260: 6c6e 9c3d a83d ed3d 2b18 f1bd c552 b33e
00000270: 565a dfbd 2a98 7abd e648 c83d fe6a a33c
00000280: bc4f 8abd 38a8 4a3c 1313 43bd 0d3d 2f3d
00000290: 7cbf 1a3e 09e4 3c3d 476e 0fbd b9a3 973e
000002a0: 56ca 8bba 961f a33d 7512 b23c c5e2 a13c
000002b0: 29d9 6dbd 106e 95bc a670 96bd 2581 263d
000002c0: ba00 2f3d 125a 15bb 9752 5d3c 4f9e a53d
000002d0: ab8b 2f3d d5e1 88bd c756 2bbc f116 863d
000002e0: c1c9 44bd 84ad 9e3d fc57 aebd bbb4 bf3c
000002f0: b483 bebd 81b0 d13d 8a97 a9bd 1951 8a3e
00000300: c1dc 383c 1394 8c3c 7def 32bc 4fb6 d63c
00000310: e60d 8f3c c5cb cebc 0cb9 443d 0d0f 793d
00000320: bd79 b73d 2026 773d 7f51 03bc bbc4 723d
00000330: fad5 98bc a492 933d 70ed 41bc ed7b 943d
00000340: 24e5 a9bb 2941 7e3d eea8 cc3d ca0e f43b
00000350: 6225 82bc ced9 363d e70b 1abd 206c 89bc
00000360: 448f 1b3d 56d7 073d 8f86 b0bb 71ce 6bbd
00000370: 89ce ce3b f238 9fbd 5b3e a63d 379f 09b9
00000380: 844e 11bd a3e1 30bd 9a9d 5a3d 2f80 053e
00000390: 6c64 b2bd 0bd3 84bb 1a50 a23d 5a36 253d
000003a0: 65e7 12bd 0b5b 2fbd 6567 a3bd 4e4d 613c
000003b0: 99ba 35bc 9e7d 783c 8efb a33d 4ce6 01bd
000003c0: 6d31 11bd ccec 363d 2dd3 a73d 08c8 a33d
000003d0: 297d 86bd 81be 4a3e e2f6 d53d 2107 293b
000003e0: ae95 c33d 3ca7 873d 14f2 b1bd 6a8f b13d
000003f0: f213 753d 30b3 723c 5adf 7cbd aafc 32bd

conv2.bias f4 [32]
0.14052723 0.118701585 0.09594955 0.0530488 0.22262909 0.08167243 0.10341456 -0.012124995
0.09048627 0.090326615 -0.01027512 0.07607109 -0.030921264 0.05420122 -0.003460067 0.038841974
0.02879078 -0.060035694 0.009909895 -0.07359928 -0.002429491 -0.10318723 -0.1351192 -0.0987727
-0.081096955 -0.061204318 -0.06440737 -0.013728705 -0.089583755 0.006465684 0.013853531 -0.04988616
00000000: 5fe6 0f3e d119 f33d 3381 c43d b349 593d
00000010: e1f8 633e e043 a73d 03cb d33d eaa7 46bc
00000020: de50 b93d 29fd b83d fa58 28bc 29cb 9b3d
00000030: 974e fdbc 1902 5e3d 4bc2 62bb c318 1f3d
00000040: a4da eb3c fde7 75bd 1d5d 223c 38bb 96bd
00000050: 1838 1fbb d453 d3bd b05c 0abe 5749 cabd
00000060: 2916 a6bd 61b1 7abd 03e8 83bd 5dee 60bc
00000070: b077 b7bd 17de d33b ecf9 623c 6e55 4cbd

fc1.weight f4 [256, 32]
0.05469118 0.08925948 -0.09691557 0.0075140693 0.038340215 0.051280037 0.05865625 -0.068543606
0.042430546 -0.15783232 -0.028847318 0.16581556 0.11576349 -0.14920491 -0.056211352 0.0906281
-0.061424397 0.14925763 0.075371064 -0.083498165 -0.035229858 -0.026755935 0.06690708 -0.048812274
-0.10160914 -0.018296393 0.0765235 -0.08955434 -0.16862243 0.0073435763 -0.11990491 0.030353269
0.143484 -0.1512768 -0.11864406 -0.030753989 0.10419138 0.12423924 -0.092859685 -0.06219337
-0.03339841 0.16505311 -0.09317333 0.15967217 -0.0919568 0.12129259 0.13288215 0.15905148
0.035959695 0.118503526 -0.12096997 -0.044972878 -0.0916168 0.07134033 -0.10749166 -0.0629125
-0.03881907 0.09161146 0.1106951 0.062630445 0.14900021 0.121387325 0.06111218 -0.059120834
-0.029824343 -0.03873471 -0.17116435 0.050755516 0.1076194 0.10278266 0.08863149 0.11235736
-0.0059489985 0.15359892 0.1681449 0.023781694 -0.0031591186 -0.16547462 -0.14862703 -0.010342725
-0.12330838 0.026463522 0.16121762 0.06762885 0.10305309 -0.13381228 -0.022761205 0.13347755
0.11181605 -0.024192303 -0.044330873 0.1621962 -0.020017061 -0.18142943 0.05169799 0.026821582
-0.14792672 -0.11711297 0.034333948 -0.15560877 0.12190541 -0.11973062 0.04394086 -0.15947928
-0.14805426 0.099885456 0.113596745 -0.09102121 0.10990144 -0.1352858 -0.13826793 -0.1140335
-0.036866825 0.13221249 0.016062131 0.13579987 0.096694715 -0.04623095 -0.03662092 -0.07733316
-0.024128608 -0.16788754 -0.14793715 -0.034480236 -0.046495464 0.09509181 -0.103165455 0.045934405
0.011858602 -0.0438117 0.1473456 -0.110960774 -0.11800153 -0.17520802 -0.12702358 0.13216782
0.04597977 0.12084917 0.06412142 0.13577248 0.08746376 0.057190362 -0.1517476 0.049548782
-0.15246949 0.017576722 -0.170778 0.03760386 -0.13296054 0.03323509 -0.15452687 -0.010174927
-0.09196098 -0.1236969 0.11528694 0.12899022 0.119088314 -0.09513043 -0.16099708 0.014905567
-0.116720386 0.10101188 -0.09915342 0.07116611 -0.02367858 -0.033830162 0.12046743 0.025177795
-0.052007534 -0.026883507 0.12507984 -0.16283017 -0.14486128 0.138611 0.08187909 -0.009093094
-0.114377126 -0.013769891 0.06620564 0.045272 0.10156058 -0.17587648 0.058852512 -0.004263745
0.10370848 0.032503 0.020201527 -0.14930825 -0.049684703 -0.01990042 0.0101612285 -0.07438197
0.0015714965 -0.09840342 -0.080051094 0.16251568 -0.09084454 0.0062436378 0.07046683 0.03096346
0.008560593 0.043336157 0.11013435 -0.15818897 -0.001414895 0.12563236 -0.14047025 0.06638858
0.06751515 0.124529496 -0.055652585 -0.07772575 0.07009821 -0.08472766 0.11818749 -0.046017196
-0.16495065 0.06068809 0.1427773 0.1492729 0.09435788 -0.011027025 -0.06430848 -0.17308982
0.119768426 0.025660155 -0.021940917 -0.14478149 -0.009272968 0.04830411 0.13125248 0.12269442
-0.12171443 0.00052360655 -0.1102092 -0.07091218 0.013242759 0.1352695 -0.034246907 0.09456701
-0.12413903 -0.030366598 0.07205191 -0.055295 0.09359329 -0.15218803 -0.02611244 -0.102939285
0.11488485 -0.042690333 -0.13023667 0.024768991 -0.090732105 -0.06663648 0.119487986 0.07205808
00000000: dc03 603d adcd b63d ac7b c6bd 9538 f63b
00000010: a10a 1d3d 040b 523d 8941 703d 9760 8cbd
00000020: a7cb 2d3d cc9e 21be 3651 ecbc 8ecb 293e
00000030: 6915 ed3d 2cc9 18be e03d 66bd 3a9b b93d
00000040: 2698 7bbd fed6 183e 255c 9a3d 1601 abbd
00000050: 2f4d 10bd 432f dbbc 9406 893d 61ef 47bd
00000060: 7418 d0bd 51e2 95bc 5ab8 9c3d 4468 b7bd
00000070: 5cab 2cbe 62a2 f03b b590 f5bd 6ba7 f83c
00000080: 78ed 123e 4ee8 1abe a8fb f2bd caef fbbc
00000090: 4a62 d53d 2571 fe3d 382d bebd 7abe 7ebd
000000a0: c5cc 08bd af03 293e a9d1 bebd 1a81 233e
000000b0: d953 bcbd 4068 f83d 4212 083e 64de 223e
000000c0: 794a 133d fab1 f23d 1bbf f7bd 7b35 38bd
000000d0: 97a1 bbbd e11a 923d 9624 dcbd 45d8 80bd
000000e0: bf00 1fbd ca9e bb3d 1db4 e23d 6444 803d
000000f0: 8393 183e eb99 f83d c450 7a3d b028 72bd
00000100: 2e52 f4bc 4aa8 1ebd b545 2fbe 04e5 4f3d
00000110: 8f67 dc3d b77f d23d 6d84 b53d 9e1b e63d
00000120: d1ef c2bb 0949 1d3e 2d2e 2c3e d4d1 c23c
00000130: 3709 4fbb 2e72 29be af31 18be 8874 29bc
00000140: 1b89 fcbd 07ca d83c 3b16 253e ff80 8a3d
00000150: 800d d33d 1606 09be b575 babc 57ae 083e
00000160: d0ff e43d f02e c6bc 4a94 35bd c316 263e
00000170: d2fa a3bc a3c8 39be 46c1 533d efb8 db3c
00000180: 1a7a 17be edd8 efbd c1a1 0c3d e857 1fbe
00000190: 8ba9 f93d 5435 f5bd 55fb 333d 894e 23be
000001a0: 899b 17be bf90 cc3d 69a5 e83d 5469 babd
000001b0: 0214 e13d 5c88 0abe 1c96 0dbe 658a e9bd
000001c0: ab01 17bd b662 073e bb94 833c 1f0f 0b3e
000001d0: e107 c63d aa5c 3dbd d1ff 15bd d960 9ebd
000001e0: 5ca9 c5bc b6ea 2bbe d67c 17be 263b 0dbd
000001f0: 0772 3ebd 7fbf c23d 6948 d3bd b725 3c3d
00000200: 954a 423c e673 33bd c4e1 163e 673f e3bd
00000210: c9aa f1bd bb69 33be 7812 02be 0057 073e
00000220: 4955 3c3d c57f f73d 1752 833d f107 0b3e
00000230: 3320 b33d 7140 6a3d b963 1bbe aaf3 4a3d
00000240: f620 1cbe 0ffd 8f3c 6ee0 2ebe 8106 1a3d
00000250: cf26 08be 8521 083d 4b3c 1ebe bdb4 26bc
00000260: 0a56 bcbd cd54 fdbd 8f1b ec3d 0316 043e
00000270: 93e4 f33d bed3 c2bd 6bdc 24be 7b36 743c
00000280: 190b efbd 51df ce3d f310 cbbd 8abf 913d
00000290: 95f9 c1bc 7f91 0abd a1b7 f63d aa41 ce3c
000002a0: da05 55bd cd3a dcbc ee14 003e f4bc 26be
000002b0: 8456 14be 0bf0 0d3e 39b0 a73d 33fb 14bc
000002c0: 8e3e eabd 1c9b 61bc d396 873d 226f 393d
000002d0: fefe cf3d f718 34be 550f 713d e3b6 8bbb
000002e0: 1d65 d43d de21 053d ac7d a53c 43e4 18be
000002f0: 3082 4bbd 3506 a3bc 487b 263c 9355 98bd
00000300: acfa cd3a bb87 c9bd d4f1 a3bd 836a 263e
00000310: b40c babd 6e97 cc3b ea50 903d 15a7 fd3c
00000320: bb41 0c3c 4181 313d 1e8e e13d 4afc 21be
00000330: 0074 b9ba c5a5 003e 6fd7 0fbe bcf6 873d
00000340: 6245 8a3d 5209 ff3d f7f3 63bd ae2e 9fbd
00000350: a68f 8f3d b285 adbd 480c f23d 877c 3cbd
00000360: d3e8 28be 1394 783d 3634 123e ffda 183e
00000370: b43e c13d b2aa 34bc 2ab4 83bd 753e 31be
00000380: 2649 f53d 3f35 d23c 70bd b3bc 9941 14be
00000390: a6ed 17bc 88da 453d 0d67 063e 3647 fb3d
000003a0: 6a45 f9bd a442 093a 5cb5 e1bd 683a 91bd
000003b0: 28f8 583c 1684 0a3e 7c46 0cbd 59ac c13d
000003c0: 9b3c febd 5fc3 f8bc f48f 933d 037d 62bd
000003d0: d7ad bf3d 2ed7 1bbe c1e9 d5bc d5d1 d2bd
000003e0: c048 eb3d 0fdc 2ebd c35c 05be 57e8 ca3c
000003f0: c1d1 b9bd b578 88bd 1eb6 f43d 3093 933d

fc1.bias f4 [256]
-0.14440705 -0.036241774 -0.014002582 0.045192994 -0.061164062 -0.077339046 -0.0146924695 -0.012418205
-0.17081863 -0.010109148 -0.05627036 -0.0970907 -0.027816702 0.043697417 -0.0016837141 -0.0696923
-0.021735026 -0.12065563 -0.06395548 -0.10864866 -0.004893025 -0.016459532 -0.107607305 0.039782744
-0.014733175 -0.114428386 -0.106291264 -0.01473158 0.022659063 -0.030953828 -0.1245169 0.03604859
-0.12613846 0.016959332 -0.033643227 -0.12547337 0.015215731 -0.10734776 0.012743301 0.0023120402
-0.065656446 -0.02050951 -0.12911014 -0.042396307 -0.015514648 0.005188376 0.027924925 -0.03291446
-0.043033432 -0.1702854 -0.028701233 -0.096027 0.009702906 -0.014750882 0.0091483 -0.11011673
0.02824113 -0.006956881 -0.007978693 -0.03690166 -0.046556436 -0.1506155 -0.105780184 -0.021705091
0.01923128 -0.08052025 0.017894806 -0.08091661 0.0016722197 -0.013172065 0.0076944 0.00076541345
-0.021776946 -0.024755837 0.007348348 0.09596841 -0.0027401259 0.042626534 -0.035260335 -0.12524809
0.002823671 -0.121705666 0.016577907 0.014877164 -0.1575874 -0.13051812 -0.19529554 -0.0043656398
-0.061645832 0.04891448 0.008109823 -0.1480359 0.02142162 -0.1428891 -0.10138624 -0.035249043
-0.0016345602 -0.1391308 -0.00853508 -0.0046412167 -0.10725298 -0.049067184 -0.0480572 -0.0024266455
-0.14425401 -0.14591905 -0.0024851433 0.016835915 -0.14894831 -0.11466843 0.041885465 -0.06215524
0.027412247 -0.0041599255 -0.03641811 0.0555827 0.025416521 -0.032879867 -0.118380584 -0.11279375
0.04908986 0.019225482 0.055719256 0.07132493 -0.040446043 0.043918744 0.017216945 -0.02710584
-0.032878835 -0.06599293 -0.02934119 0.0045675347 0.0182958 -0.09108105 0.05799882 -0.025914744
-0.013141 -0.051641587 -0.17940196 -0.030670669 -0.16163503 0.019366767 -0.09187524 -0.060172793
-0.15442437 0.009503607 -0.07270852 0.015742408 0.013774568 -0.00776992 -0.026222935 0.048877135
-0.11347174 -0.13123257 -0.035742868 -0.049568355 0.010345462 -0.063241914 -0.08844933 -0.16506732
0.009474787 0.029601136 0.054548923 -0.020253042 0.04343523 -0.04037696 0.0138709 -0.14262986
-0.14743868 0.0072824685 0.060295757 -0.10385049 0.026451072 -0.15153983 -0.061464276 -0.14852694
0.026157802 -0.15352708 -0.028923243 -0.010129159 -0.13798225 0.0072516915 -0.016119834 -0.15518034
0.006242341 0.034616407 -0.14209321 -0.1611799 0.10253198 -0.14826392 -0.005457508 -0.0022514516
0.059103034 -0.095583476 -0.13032614 0.09861368 0.052174374 -0.11547818 0.018687963 -0.026118679
-0.11571769 0.02211886 -0.084601864 -0.033174694 0.069017306 -0.027193991 -0.15323867 0.11503234
-0.09838676 -0.019200562 -0.0075215832 -0.0015566504 -0.023598684 -0.06629703 -0.06736214 -0.123828955
-0.0033795568 -0.046232004 -0.12806216 -0.031394698 -0.053127434 -0.016243342 -0.020568183 -0.06410522
-0.13713326 -0.16920444 -0.082924 -0.040523548 0.010483495 -0.035853047 -0.05315539 -0.048893895
-0.07822678 -0.03242929 -0.0050438796 0.08337206 -0.0059412476 -0.0009793737 -0.07606678 -0.10251154
-0.06476234 -0.0006155899 -0.16571067 -0.08946454 -0.0067171827 -0.124375194 -0.042954788 -0.026317207
-0.05042518 0.0064615915 -0.021970257 -0.029948758 -0.02111712 -0.1602625 0.011810472 0.0023658262
00000000: 71df 13be 4172 14bd 166b 65bc 4a1c 393d
00000010: 2b87 7abd ef63 9ebd afb8 70bc ba75 4bbc
00000020: 14eb 2ebe d7a0 25bc c07b 66bd 7dd7 c6bd
00000030: dadf e3bc 10fc 323d 12b0 dcba d6ba 8ebd
00000040: a70d b2bc 4d1a f7bd 17fb 82bd 3083 debd
00000050: ab55 a0bb 24d6 86bc 3861 dcbd 3bf3 223d
00000060: 6a63 71bc 6e59 eabd 3caf d9bd ba5c 71bc
00000070: 809f b93c e292 fdbc b702 ffbd b0a7 133d
00000080: 712a 01be 4cee 8a3c 7bcd 09bd 177c 00be
00000090: 674b 793c 24d9 dbbd 47c9 503c 9985 173b
000000a0: e376 86bd 8f03 a8bc 7335 04be c0a7 2dbd
000000b0: 2631 7ebc 4103 aa3b d0c2 e43c 50d1 06bd
000000c0: d343 30bd 4c5f 2ebe d91e ebbc cea9 c4bd
000000d0: f0f8 1e3c afad 71bc c0e2 153c e184 e1bd
000000e0: f159 e73c 8cf6 e3bb 10b9 02bc 3226 17bd
000000f0: f6b1 3ebd f33a 1abe 48a3 d8bd e0ce b1bc
00000100: eb8a 9d3c cde7 a4bd 2198 923c 9cb7 a5bd
00000110: 622e db3a a5cf 57bc 4e21 fc3b 07a6 483a
00000120: 9165 b2bc c1cc cabc 69ca f03b 168b c43d
00000130: af93 33bb 2999 2e3d 246d 10bd 0941 00be
00000140: 570d 393b d240 f9bd 64ce 873c 59bf 733c
00000150: 975e 21be 8ba6 05be 8efb 47be a40d 8fbb
00000160: 5780 7cbd 8d5a 483d 10df 043c b996 17be
00000170: 657c af3c 8551 12be 97a3 cfbd 4d61 10bd
00000180: bd3e d6ba 4e78 0ebe b8d6 0bbc 5915 98bb
00000190: 73a7 dbbd acfa 48bd a0d7 44bd 5b08 1fbb
000001a0: 53b7 13be ce6b 15be c9dd 22bb 79eb 893c
000001b0: e885 18be 48d7 eabd 1890 2b3d 7e96 7ebd
000001c0: a68f e03c fc4f 88bb 282b 15bd afaa 633d
000001d0: 4f36 d03c 0aad 06bd 8571 f2bd 6900 e7bd
000001e0: 7312 493d c27e 9d3c e039 643d ce12 923d
000001f0: c0aa 25bd 24e4 333d 8d0a 8d3c 110d debc
00000200: f5ab 06bd 4d27 87bd ef5c f0bc 42ab 953b
00000210: 13e1 953c b488 babd 2c90 6d3d 284b d4bc
00000220: 594d 57bc 2186 53bd 26b5 37be 0e41 fbbc
00000230: a783 25be 0ea7 9e3c 1629 bcbd bf77 76bd
00000240: 6c21 1ebe 04b5 1b3c 34e8 94bd 39f6 803c
00000250: baae 613c d09a febb 7bd1 d6bc 6433 483d
00000260: df63 e8bd d561 06be 1d67 12bd 3008 4bbd
00000270: 0380 293c fa84 81bd ec24 b5bd 6807 29be
00000280: 233c 1b3c 157e f23c b16e 5f3d b5e9 a5bc
00000290: 24e9 313d 5062 25bd c542 633c 900d 12be
000002a0: 2afa 16be c6a1 ee3b aff8 763d 91af d4bd
000002b0: ebaf d83c 422d 1bbe f7c1 7bbd 7217 18be
000002c0: e348 d63c 3436 1dbe 70f0 ecbc c6f4 25bc
000002d0: 384b 0dbe 999f ed3b be0d 84bc 98e7 1ebe
000002e0: 8d8c cc3b efc9 0d3d e280 11be 580c 25be
000002f0: 49fc d13d 7fd2 17be e5d4 b2bb 178d 13bb
00000300: 0616 723d 45c1 c3bd 3774 05be f8f5 c93d
00000310: ccb4 553d d37f ecbd 8017 993c d7f6 d5bc
00000320: 65fd ecbd 9d32 b53c be43 adbd 30e2 07bd
00000330: f258 8d3d efc5 debc 99ea 1cbe 1396 eb3d
00000340: ff7e c9bd 7f4a 9dbc 9d77 f6bb 8508 ccba
00000350: 0752 c1bc bdc6 87bd 29f5 89bd 099a fdbd
00000360: 8e7b 5dbb c55d 3dbd ba22 03be ba97 00bd
00000370: 279c 59bd c210 85bc 9b7e a8bc 9949 83bd
00000380: a96c 0cbe ee43 2dbe 0fd4 a9bd 05fc 25bd
00000390: f7c2 2b3c a5da 12bd 77b9 59bd f744 48bd
000003a0: 5d35 a0bd 93d4 04bd 2147 a5bb f8be aa3d
000003b0: ccae c2bb 545e 80ba e6c8 9bbd 92f1 d1bd
000003c0: 1ea2 84bd 8a5f 21ba 0fb0 29be 2f39 b7bd
000003d0: d01b dcbb 6cb8 febd 5cf1 2fbd 2f97 d7bc
000003e0: a28a 4ebd c2bb d33b f8fa b3bc 1957 f5bc
000003f0: cffd acbc da1b 24be b680 413c fa0b 1b3b

fc2.weight f4 [5, 256]
0.042123698 -0.055743016 0.05696051 0.0013895035 -0.038602628 0.03496027 0.04956536 0.026709743
0.0110195875 0.039089054 -0.0091083795 0.0063428804 0.031213738 0.011798859 -0.042292014 0.0075466484
0.0039478764 0.013079472 -0.06207777 0.055029914 -0.045601726 0.046330296 -0.055486605 -0.050983675
-0.02489505 -0.0051212236 0.01762674 -0.022776015 0.049090438 -0.039463148 -0.031100735 0.049460128
-0.035118125 0.03280644 -0.024804205 0.05233662 -0.055909894 -0.026399538 0.06187228 -0.034300245
0.009617187 0.014051124 0.042102516 -0.05204071 -0.0032782555 0.0061606094 0.050961003 -0.04569637
0.050438218 -0.04497578 -0.033004493 -0.0017759204 -0.006461896 0.017610379 -0.061396733 -0.013463579
-0.052210018 -0.053653024 -0.020974651 -0.05270838 -0.021001883 0.008626811 0.03395915 0.04481394
0.03107503 -0.04018517 0.04681799 0.045214668 -0.000187926 0.012844548 0.028731711 -0.0143066645
-0.0294298 0.011934742 -0.058124147 -0.040603913 0.061703525 0.058904357 -0.001946196 0.03505005
-0.05362931 0.021444231 -0.052898906 0.048687473 -0.035770185 -0.035162874 0.026760422 -0.06027525
-0.01170136 0.051902182 0.017540649 -0.013055779 0.020543672 0.027294248 -0.014216818 -0.0203726
0.04432717 0.01575762 0.054974675 -0.014121883 0.03317368 -0.009789631 0.037197508 -0.03404072
0.038713023 -0.054096214 0.009503387 0.0019484013 0.039647564 0.018130496 0.01517313 -0.009725437
-0.051609986 -0.048462234 -0.059027314 -0.003032498 -0.021099761 -0.02810014 -0.015113197 0.015859425
-0.013955392 -0.015273944 -0.02666556 0.040667422 0.00051584095 0.027448758 0.054821722 -0.022273459
-0.0028099045 -0.047223926 0.042682737 0.010461129 -0.058139183 0.03617467 0.0066709146 -0.04070647
-0.013405733 0.036429957 0.03018327 0.015490286 0.02862022 0.02423878 -0.014782555 -0.020669542
-0.047167704 -0.04221715 -0.0068895817 -0.025856912 -0.059538625 -0.05355724 -0.023841716 -0.04993008
-0.055813856 0.046051085 0.022046395 0.004430622 0.006732397 0.018800497 0.04279592 0.0046172887
0.021397628 0.061191708 0.033837892 0.028548598 0.037149742 -0.04798922 -0.04485845 -0.029215582
-0.0493685 -0.018049732 0.0505258 -0.00078394264 -0.04310555 -0.049140967 -0.03190638 0.059452295
0.015242457 -0.03507358 0.010839798 -0.04982456 0.0494435 -0.048851572 0.061413005 -0.026906267
0.05616612 -0.04134731 -0.0044836476 -0.040328763 -0.0063190013 -0.029148333 -0.03519153 -0.043648556
0.04779782 0.03628383 -0.057381064 0.050741673 0.032000132 -0.021092057 0.009902425 -0.05950039
0.04148075 -0.027222082 0.019802906 0.038345143 -0.05740671 0.039989218 -0.038650297 0.0021248162
0.039306037 0.037276834 0.004026212 0.049340114 -0.04504072 -0.028910853 0.014631607 0.033744343
0.041717127 -0.0578359 0.04700657 0.057906292 -0.053663194 0.04929617 0.05650775 -0.012783848
0.0075302273 -0.05474846 -0.05304189 -0.047639735 -0.0040666237 -0.04068567 -0.05816275 0.05353588
0.029459402 0.015954606 -0.038069673 0.05113007 0.028464705 -0.03832782 -0.05880654 -0.03019023
-0.01383888 0.060869038 0.027796961 0.0035567358 -0.05545514 0.052034974 -0.009223089 -0.016344108
0.02429802 -0.018030643 0.06020025 -0.060472757 -0.005449444 0.057305552 -0.028786786 -0.036118075
00000000: e689 2c3d ca52 64bd 6c4f 693d 0020 b63a
00000010: ca1d 1ebd 8032 0f3d 0c05 4b3d 64ce da3c
00000020: 808b 343c d81b 203d 503b 15bc f0d7 cf3b
00000030: f4b3 ff3c 0050 413c 643a 2dbd e049 f73b
00000040: 305d 813b 484b 563c 4245 7ebd 0c67 613d
00000050: e0c8 3abd d6c4 3d3d ec45 63bd 42d4 50bd
00000060: b4f0 cbbc f0cf a7bb f465 903c c494 babc
00000070: 0e13 493d 1ca4 21bd f8c6 febc b496 4a3d
00000080: 06d8 0fbd 0c60 063d 3032 cbbc ec5e 563d
00000090: c601 65bd d843 d8bc ca6d 7d3d 6a7e 0cbd
000000a0: 6891 1d3c b036 663c b073 2c3d a428 55bd
000000b0: 00d8 56bb f0de c93b 7cbc 503d 1e2c 3bbd
000000c0: 4e98 4e3d 8638 38bd b82f 07bd 00c6 e8ba
000000d0: 50be d3bb a443 903c 247b 7bbd 5896 5cbc
000000e0: 2cda 55bd 46c3 5bbd 08d3 abbc bee4 57bd
000000f0: 240c acbc 7857 0d3c c018 0b3d d28e 373d
00000100: 1091 fe3c 3499 24bd 38c4 3f3d 0433 393d
00000110: 000e 45b9 f071 523c c45e eb3c 8066 6abc
00000120: c416 f1bc f089 433c 9613 6ebd 4a50 26bd
00000130: d6bc 7c3d b245 713d 8017 ffba a490 0f3d
00000140: 68aa 5bbd d0ab af3c 86ac 58bd 846c 473d
00000150: c283 12bd f206 10bd ac38 db3c 2ee3 76bd
00000160: 10b7 3fbc 6297 543d 68b1 8f3c e8e7 55bc
00000170: 344b a83c 3098 df3c a8ed 68bc 70e4 a6bc
00000180: 6890 353d 2016 813c 202d 613d 785f 67bc
00000190: 20e1 073d b064 20bc 6a5c 183d 486e 0bbd
000001a0: 8c91 1e3d fe93 5dbd 18b4 1b3c 8061 ff3a
000001b0: 7c65 223d 6886 943c b898 783c 7057 1fbc
000001c0: fe64 53bd 5680 46bd a0c6 71bd e0bc 46bb
000001d0: 68d9 acbc 4432 e6bc 589d 77bc a0eb 813c
000001e0: 28a5 64bc 903f 7abc bc71 dabc e292 263d
000001f0: 8039 073a 38dc e03c be8c 603d d476 b6bc
00000200: 6026 38bb e06d 41bd 18d4 2e3d 2865 2b3c
00000210: 5a23 6ebd e42b 143d b097 da3b d4bb 26bd
00000220: b8a3 5bbc 9437 153d e842 f73c f8ca 7d3c
00000230: f474 ea3c 6890 c63c 8832 72bc 2c53 a9bc
00000240: ec32 41bd e4eb 2cbd 00c2 e1bb e0d1 d3bc
00000250: c6de 73bd d65e 5bbd b44f c3bc 7c83 4cbd
00000260: 129d 64bd 10a0 3c3d a49a b43c c02e 913b
00000270: 709b dc3b 8003 9a3c c64a 2f3d a04c 973b
00000280: 144a af3c 28a4 7a3d 9a99 0a3d c0de e93c
00000290: 542a 183d 5890 44bd 7ebd 37bd 8455 efbc
000002a0: a036 4abd 08dd 93bc 24f4 4e3d 8081 4dba
000002b0: 728f 30bd 0a48 49bd 44b0 02bd 4084 733d
000002c0: 80bb 793c 50a9 0fbd 6899 313c d614 4cbd
000002d0: 4485 4a3d 9618 48bd 348c 7b3d 886a dcbc
000002e0: 720e 663d cc5b 29bd 90eb 92bb c62f 25bd
000002f0: a00f cfbb 7cc8 eebc fe24 10bd d4c8 32bd
00000300: a6c7 433d 5a9e 143d 6808 6bbd 80d6 4f3d
00000310: 9212 033d 40c9 acbc c83d 223c aeb6 73bd
00000320: b8e7 293d d800 dfbc b439 a23c cc0f 1d3d
00000330: 4c23 6bbd bccb 233d c64f 1ebd 8040 0b3b
00000340: 5eff 203d 98af 183d 50ee 833b dc18 4a3d
00000350: 9e7c 38bd 74d6 ecbc 68b9 6f3c 8237 0a3d
00000360: 94df 2a3d 56e5 6cbd f689 403d 262f 6d3d
00000370: f0cd 5bbd c8ea 493d ac74 673d 5873 51bc
00000380: 20c0 f63b ec3f 60bd 7442 59bd e221 43bd
00000390: 5041 85bb 04a6 26bd 103c 6ebd 7048 5b3d
000003a0: d854 f13c 3cb3 823c f2ee 1bbd c46d 513d
000003b0: d02e e93c a2fd 1cbd 20df 70bd 8051 f7bc
000003c0: 78bc 62bc d051 793d 74b6 e33c 2018 693b
000003d0: ee24 63bd a022 553d 701c 17bc 14e4 85bc
000003e0: a40c c73c 00b5 93bc 8a94 763d 48b2 77bd
000003f0: 4091 b2bb 3ab9 6a3d 44d2 ebbc 8cf0 13bd

fc2.bias f4 [5]
-0.020561717 0.048897147 -0.031730488 -0.051509894 0.046851516
00000000: 0c71 a8bc 6048 483d d4f7 01bd 0afc 52bd
00000010: 60e7 3f3d
