Models/Torch2/my_model20900.pth (torch_old, 60054 bytes, 8 tensors)

conv1.weight f4 [16, 2, 3, 3]
00000000: 5d52 3b3e 44f6 a0be 44da 8cbd 8014 013d
00000010: d59e a2bc e261 66be f725 4abe 9c31 97be
00000020: 6bad 05be a6d9 2bbe da89 193f 5268 e43e
00000030: 7afb 5bbd 9352 6bbe ee62 413d baa0 e53d
00000040: 073e f23c 4b0c d0bc a017 b6be fb7d aebe
00000050: ec35 efbd ac72 083f dc84 ac3e cd6a ec3e
00000060: 4b04 063f 2bc0 2e3f a165 ac3d c8ee b53d
00000070: 7c41 debe e421 843e eca5 75bd 6c9a f63d
00000080: 9155 2cbf b730 923d 8f5d 833e 8218 00bf
00000090: 1007 033f e35d e53e badf cc3e 5140 bcbe
000000a0: 4ae9 bdbe 7ccb 41be 508e 9a3e b370 973e
000000b0: 0674 603e 8ccf febd db77 b13e 319f 13bf
000000c0: 2709 643d 36e8 eebe 8d95 3c3e c5ae 993c
000000d0: b096 343e d649 dcbe e2bc 883e 4b82 5bbe
000000e0: 9307 b6bd 1be0 c53e 7c84 133e 14c2 b7bd
000000f0: 04ee eb3c 1cec ba3e 3982 e93e f697 c9bd
00000100: db6d e4bd d333 b53e 3d6a c4bd 4756 9f3d
00000110: e357 9a3e 8dcd 15be 45e2 943e 0a23 22be
00000120: ec49 29be 8a4c ffbd bcc3 f83e 3288 2abe
00000130: 7c0e 483e 6d57 92bd 75d7 27be 82b0 b23e
00000140: e1b6 8cbd ba05 273c 0ec2 48be 3d95 443e
00000150: 3efd b2bc 1e20 383d d0cd 2dbe 1be8 d93d
00000160: c8ee 333c b376 85be 5ef3 e23e fde9 06be
00000170: 80ca f4bd bb0a 1e3f 5f8a ba3e 8a89 153f
00000180: f5b4 5bbe bc4a f93e 828a 6bbe f25e cdbe
00000190: b5b6 cbbe 2321 93be 38c0 f63a 3e16 1abf
000001a0: 39a1 ba3d c56f 00be 8165 53bd 6243 b03b
000001b0: 1541 093e e638 abbd c414 00bd 541f b9bd
000001c0: 2f1c a03d 90a8 2abe ed35 bb3d 398e 883e
000001d0: 66e3 103e f899 e93c 169b dbbd 6fee b53d
000001e0: 3436 4f3e 52aa 703e 46a8 57be c6b8 bcbd
000001f0: 3a1b 40be ef20 1abe a13f a3bd 62e9 e83d
00000200: 0574 65bd 61db 26be a3ba ac3e 8b27 61bc
00000210: b7ed d5bc 8c90 debd b0ba 813e 6a10 9fbd
00000220: dffb 91be 2ac1 10be 290e c83d 4a7f 5bbe
00000230: ed21 b1be 4873 4dbd aa5b 09be d0ee 09be
00000240: bfc1 7cbd 5f9e 3d3d a67f c3bd 3cef 74bd
00000250: 3e6c 53bd fc9f dfbd 4eec 043e d18c 8dbe
00000260: 8936 90bd c626 973c 633e 0ebe 82ca 1a3f
00000270: 34c4 8c3e d36e 9e3e 3454 eb3e dcfb 2b3e
00000280: 8211 e83e 0941 e3bc 6866 c8be 499c 093e
00000290: b82b 973d d27e 9b3e de05 87bd 834f 863e
000002a0: c8c3 b4be f1a0 9c3e 0b5b 4e3d 7c26 33be
000002b0: 6522 89be c138 063f 892b 2c3e 5769 333e
000002c0: 4ef5 a5be 973b d23d ed92 53bd 68b5 c03e
000002d0: 3a9b 093c a5e0 073e 5940 4cbd 3bfd db3e
000002e0: b8b1 efbc d7c4 6fbe 5741 e93e 7a65 33be
000002f0: 2d5e efbd 0b70 ba3e 8c58 00be a8c4 61bd
00000300: ca12 223e 3fa5 223f c4d5 9b3e 5b0e df3d
00000310: 143f d23e fb35 aa3e 6511 223e f01a e83a
00000320: eb20 843e 0872 943e 580e 8fbe 1431 b23e
00000330: 89f1 73be 3061 16bc cbec 903d 2275 463e
00000340: af76 e73e a10c c8bd c84c 9ebd c5cf a43e
00000350: 245e ec3e 1c32 123e a595 efbd 1e66 3b3d
00000360: b9b7 49be 8d6e c2bd fd78 cd3c 64e7 bd3e
00000370: c415 293d 4b05 34be a29f b53e 40fe fe3c
00000380: 439d 663d d5a2 d1bd e65c 53bd 0e54 05be
00000390: 0be4 0fbe 0645 13be 10c5 0c3f ceb1 53be
000003a0: bd81 35bd 4c31 823e 43f1 b5bd fa72 95bc
000003b0: 3d90 f7bd 1585 9cbe 9185 173f 6b6c 7f3e
000003c0: 4fcb 4d3f 483c 17bf a3f8 983e aee1 c8bd
000003d0: e86a 3bbe ac0f 94be a991 553d 3148 86bd
000003e0: 595b 38bf 4a2d aebb ce4b a13e 0b91 f13e
000003f0: 2fb9 12bc 320c 64be dc9c ed3d 2d28 e0bb
0.18293138 -0.31437886 -0.06877568 0.03151369 -0.019851128 -0.22498277 -0.19741045 -0.29530036
-0.13054435 -0.16782245 0.5997597 0.4461084 -0.053706624 -0.22980718 0.047213487 0.11212297
0.029570593 -0.025396487 -0.355649 -0.3408049 -0.11680207 0.53299975 0.33695114 0.46175233
0.523503 0.68261975 0.08417822 0.088834345 -0.43409336 0.25807106 -0.05997269 0.120411724
-0.67318064 0.07138198 0.25657317 -0.50037396 0.5118265 0.44798192 0.4001444 -0.3676782
-0.37092048 -0.1892528 0.301867 0.2957817 0.2191926 -0.1244193 0.34661755 -0.5766478
0.05567279 -0.46661538 0.18416424 0.018760094 0.17635608 -0.43025082 0.26706606 -0.21436422
-0.088881634 0.3864754 0.14406008 -0.08972564 0.028800018 0.36508262 0.45607165 -0.098434374
-0.11153766 0.353911 -0.09590576 0.07780128 0.30145177 -0.14629193 0.2907888 -0.15833679
-0.16532105 -0.124657705 0.48586833 -0.16653517 0.19536775 -0.071455814 -0.16390784 0.3490029
-0.06870819 0.010194236 -0.19605276 0.19197555 -0.02184927 0.044952504 -0.16973042 0.10639974
0.010982223 -0.26067123 0.443263 -0.13175197 -0.11952686 0.61735123 0.36433694 0.5841299
-0.21455748 0.4868983 -0.23002055 -0.401115 -0.39787832 -0.2873622 0.0018825596 -0.6019019
0.09112782 -0.12542637 -0.051610474 0.0053791264 0.13403733 -0.08360462 -0.031269804 -0.090391785
0.078178756 -0.16665864 0.09141145 0.26671007 0.14149246 0.0285158 -0.1072294 0.08883368
0.2023552 0.23502472 -0.21060285 -0.0921493 -0.18760386 -0.15051626 -0.079711206 0.11372639
-0.056018848 -0.16294624 0.33736143 -0.013742338 -0.026114328 -0.10867414 0.25337744 -0.077668026
-0.28512475 -0.14136186 0.09768326 -0.21435276 -0.34596196 -0.05015877 -0.13413873 -0.13470006
-0.06170821 0.046293613 -0.095458314 -0.059798464 -0.0516169 -0.109191865 0.12980768 -0.27646497
-0.07041652 0.018451106 -0.13890986 0.6046525 0.2749344 0.30943927 0.4596268 0.16795295
0.45325857 -0.027740972 -0.3914063 0.13438524 0.073813856 0.30370194 -0.06592916 0.26232538
-0.3530562 0.3059154 0.050379794 -0.1749515 -0.26784053 0.5243035 0.16813482 0.17520653
-0.32413715 0.10265272 -0.05165379 0.37638402 0.008398825 0.13269289 -0.049866054 0.42966637
-0.029259548 -0.23414932 0.45557663 -0.17519179 -0.116878845 0.36413607 -0.12533778 -0.055119187
0.1582748 0.63533396 0.30436528 0.1089141 0.4106375 0.3324431 0.15826948 0.0017708223
0.25806364 0.2899325 -0.2794063 0.3480307 -0.23822607 -0.009178445 0.07076415 0.1938062
0.45207736 -0.09768034 -0.077294886 0.32189766 0.46165574 0.14276928 -0.11698464 0.045751683
-0.19698991 -0.09493742 0.025082106 0.370906 0.041280523 -0.17580144 0.35473353 0.031127095
0.05630232 -0.10236136 -0.051602267 -0.13020346 -0.14051835 -0.14381799 0.54988194 -0.20673296
-0.04431318 0.25428236 -0.08883908 -0.018243302 -0.12088058 -0.30570284 0.5918818 0.24943702
0.8038835 -0.59076357 0.29877195 -0.0980867 -0.183025 -0.28918207 0.052140865 -0.06556738
-0.72014385 -0.0053154575 0.31503147 0.47180972 -0.008955284 -0.22270277 0.11602184 -0.006840727

conv1.bias f4 [16]
00000000: 758e 60be 0ad8 e0bd e011 babc 1292 02bf
00000010: 98d7 58be 6f3d 49bd cb2f 77be 7696 1cbd
00000020: 641a 7bbd 5ff2 27bd 6f5e e7be 50cb 1ebe
00000030: d5b1 e1be 0b07 b1bc 57be 32be bac3 bdbe
-0.21929343 -0.10978706 -0.022713602 -0.51004136 -0.21175992 -0.049130853 -0.24139325 -0.03822943
-0.061304465 -0.041002627 -0.45189235 -0.15507245 -0.44080988 -0.021609804 -0.17455421 -0.3706339

conv2.weight f4 [32, 16, 3, 3]
00000000: f30f 843e eb67 29be b8a9 4c3e 23d3 8e3e
00000010: 810c 2e3c 1a18 9a3e d327 9c3d 720e 88bc
00000020: b4e5 d73d feb5 8e3e 5246 c1be 4a87 e5bd
00000030: 49c6 2abd 902d c83d 0bff 38be 1c7f ed3e
00000040: 2799 58be d3f5 ef3e 98e8 d03e 20da 15be
00000050: 6517 883e 3a14 8d3e 88ef 21be f3a7 9cbc
00000060: 35d2 033e 9357 eabe 749c 9dbc 60e8 c4bc
00000070: e86f 243d b508 ef3c efda 0c3e 72a4 273d
00000080: 4184 a23d eecc 2a3e d0da c7bd 4835 ba3d
00000090: 175c c03d 6fe3 7bbd ff26 3f3e b52f bf3d
000000a0: 6bdd 6a3c 25ed 0abe baa0 43bd 366a 17bd
000000b0: f988 56bd 64e8 8bbe b44a 4ebc cafd 00bf
000000c0: 246a fcbe 7e17 04be 9212 5ebe e89f 03be
000000d0: 7f88 733d c310 bcbe 84bc 83bd b74f ae3b
000000e0: 6692 893d dec0 c6bd de25 01bc 6d9f ffbc
000000f0: bf4f 91bc a6f0 b93d cb64 70bc 36f1 22bb
00000100: 1997 8fbd e3f8 adbc 1ed0 ed3d aafd c5bc
00000110: ccea c6bb c454 8a3d 6523 40be ae05 863d
00000120: 29dc 8b3d 49ba 8e3e d9b0 6bbe 0df3 9d3d
00000130: a3b1 093e d2d2 923d b2a8 d13d f591 35bd
00000140: 2f27 323e 5bec ff3d 3c1f a0bd 3f44 3abe
00000150: b918 a0bc 1e4d 853e 0daf 74be 7453 863d
00000160: 7b30 c1bd 62f8 2abe a3bf bf3e 4bd9 efbd
00000170: 38fc ac3d 66e0 b13e 3ae1 5ebe ede8 9e3c
00000180: 1619 8c3e 157f 69be ef35 c53e 6a11 3a3e
00000190: 7494 4bbd 4dd1 3d3d 5f27 3e3e a27e 763d
000001a0: 86ff abbd 0baf 3e3e 35f0 05be 813a 433d
000001b0: 9da7 f6bd 855b ed3d 0069 44bd 35ae 833d
000001c0: ada2 173d b528 aabc 5add cbbc cf3c eb3d
000001d0: 3758 b3bc e849 863d 1642 56be 534c 85be
000001e0: 69f1 b93d 246a 48be 3a00 983e afcc a43e
000001f0: 20e2 70be 8a00 b23e b640 81bd ae77 23bd
00000200: 913d 1bbe 16ba bcbd 58a3 b93d b941 10be
00000210: f4bf 8abc 1247 bc3c 2165 37bd ed24 7b3e
00000220: 95df f6be 358f b63e 6ac6 ac3e cc4e a3be
00000230: 176b d03e 7c1a 9d3e a4bc 1ebe 854b c03d
00000240: d4e6 0e3d f166 84bd 0274 ae3d b05c 153e
00000250: 88aa 3abe ee10 653e 1e07 0d3c e59b 47bd
00000260: 4412 d43d 0835 9f3e eb09 97bd 4e8a c63e
00000270: 6e0b 35be a30e 87bd 33f4 ab3d f0b2 023e
00000280: b725 16be 371b 2a3e 1d57 db3d 6444 20be
00000290: 7a6d 183e cb8f b33e db2f 0abd 3ba4 b03e
000002a0: b96a b13d 9c3d 64be 7fc9 0539 cb2e a03d
000002b0: 3615 85bd 81f9 99bd 08d1 50bd 18ac 973b
000002c0: 6723 313d f5cc 0e3d d8c0 08bd 11a0 a13d
000002d0: 5f46 243e 4fd7 3ebe 0032 843b 48a8 273e
000002e0: f377 b5bd f6f5 af3d d117 ddbc 8a0e acbd
000002f0: f1d6 debd 59ea 263e de3d 1f3e c169 ff3d
00000300: 49ed d53c 66cd be3d df3d 27be c118 663c
00000310: aeea d83d c35b 81bd fbab 173d df82 c83c
00000320: 9484 b93d 230c 113d 13cd 5cbc ee56 1e3d
00000330: c1fa 3ebd 2cd7 4b3d ce7e efbc 05ae 443e
00000340: b4d6 ffbd 7a58 1f3e e52e 513e dbf3 903c
00000350: 23af 66bc 0a11 213e 3b98 96bd 8feb 083c
00000360: a7f5 d1bb b696 373e 9e13 03bd bc05 b7bc
00000370: 3c24 d13d 8a76 b3bd 7f45 c93d 9be6 d93d
00000380: 1657 5fbd 28b1 833d 7d1d 483e afcc 823d
00000390: 86eb 22bd c044 be3d 60e3 ee3c 5fa8 b53c
000003a0: b619 903d 3a84 55be d420 0d3e 019a 4abd
000003b0: 9ff5 9c3d 6814 cd3d cc07 7f3c eaaa 423d
000003c0: 491a d23d 8aab 26bd 02f1 893e 635a 403e
000003d0: f93d 28bc 70e5 813e 09b2 fa3d e046 aebb
000003e0: 167b 993d 7d46 f43d e59e afbd f36d db3d
000003f0: 1a1a 1a3d f062 113e 5e6a e2bd 9c21 99bd
0.25793418 -0.16543548 0.19986618 0.2789546 0.010623098 0.30096513 0.07624783 -0.01660845
0.10541859 0.27873224 -0.37748963 -0.11207445 -0.041693006 0.09774315 -0.18066041 0.4638604
-0.21152173 0.46867236 0.40802455 -0.1463399 0.2658035 0.27554494 -0.1581403 -0.019123053
0.12873156 -0.4576994 -0.019239642 -0.024036586 0.040145785 0.029178957 0.13755392 0.04092831
0.07935382 0.16679737 -0.09758532 0.09092194 0.09392565 -0.061496194 0.1866722 0.09335271
0.014335017 -0.13567026 -0.047760703 -0.036966525 -0.05237672 -0.27325737 -0.012591053 -0.5038725
-0.4929973 -0.12899587 -0.21686772 -0.12853968 0.059456345 -0.36731538 -0.06432441 0.0053195613
0.067173764 -0.09704755 -0.007882563 -0.03120395 -0.017738221 0.09079103 -0.014672468 -0.0024863011
-0.070112415 -0.021236842 0.11611961 -0.024168808 -0.0060704704 0.06754449 -0.18763502 0.06544052
0.068291016 0.278765 -0.23016681 0.07712374 0.1344667 0.07169117 0.10237254 -0.04432865
0.1739776 0.12496253 -0.078184575 -0.18190096 -0.019543039 0.26035398 -0.23894902 0.06558886
-0.09433075 -0.16696313 0.37450895 -0.11711367 0.084465444 0.34741515 -0.21765605 0.019398177
0.2736289 -0.22802384 0.3851771 0.18170705 -0.049702123 0.046342183 0.18569706 0.06017936
-0.083983466 0.18621461 -0.13079913 0.047663216 -0.120436884 0.115897216 -0.0479517 0.06429712
0.037020374 -0.020771364 -0.024885822 0.11486208 -0.02189265 0.06557065 -0.20923647 -0.26034793
0.090792485 -0.1957174 0.29687673 0.3218741 -0.2352376 0.34766036 -0.06311171 -0.039909057
-0.15160204 -0.092151806 0.090643585 -0.14087571 -0.016937234 0.022983108 -0.04477418 0.24525805
-0.48217455 0.35656133 0.33745128 -0.31896055 0.40706703 0.30684268 -0.15501648 0.09389404
0.034888104 -0.06464947 0.085182205 0.14586139 -0.18229115 0.2236974 0.008607654 -0.048732657
0.103550464 0.31095147 -0.073749386 0.38777393 -0.17680141 -0.065945886 0.08396187 0.12763572
-0.14662825 0.16611944 0.10709975 -0.15651089 0.14885512 0.35070643 -0.033737045 0.34500298
0.08662934 -0.22289127 0.00012758932 0.07821425 -0.06498186 -0.07518292 -0.050980598 0.0046286695
0.043246653 0.03486343 -0.033387035 0.07891858 0.1604247 -0.18636821 0.004034281 0.16372788
-0.08860769 0.08591835 -0.026988896 -0.084012106 -0.108808406 0.16300334 0.15550944 0.12471343
0.026114123 0.093165204 -0.16332196 0.014043988 0.105916366 -0.0631633 0.037029248 0.024476467
0.090584904 0.035411965 -0.013476628 0.03865712 -0.046625856 0.04976575 -0.02923527 0.19207008
-0.12492123 0.15561095 0.20428045 0.017694404 -0.014079842 0.15729156 -0.073532544 0.008356943
-0.006407458 0.17928585 -0.03200113 -0.022341602 0.10211989 -0.08762844 0.098277085 0.10639688
-0.05452641 0.06430274 0.19542499 0.063866965 -0.039775394 0.09290457 0.029161155 0.022175012
0.07036154 -0.20851222 0.13782054 -0.049463276 0.07664036 0.10013658 0.015565824 0.047526278
0.1025892 -0.040690936 0.26941687 0.1878448 -0.010268682 0.2537036 0.12240989 -0.0053185076
0.0749418 0.11927507 -0.085752286 0.107143305 0.03762255 0.14197898 -0.11055444 -0.074771136

conv2.bias f4 [32]
00000000: cdc7 d23e 9d00 3e3e 57e0 323e 15fe 53be
00000010: f4bf 953d f211 473e 4d54 52bc bfb4 c43b
00000020: 2cc1 11bd e14e 103e fc36 ccbc 8154 f3bc
00000030: d464 9c3c f742 ee3b e555 47bd ac88 77bd
00000040: eabe 9e39 efdc 00bb 32c6 313e 94a2 23be
00000050: 4249 74bd 961a c23d 2918 15be d718 1ebe
00000060: 7d92 c4bd b479 34bc 2ab1 d2bc 5ddd 913c
00000070: 0e32 ddbd 44ab d7bd bb10 dabd 2652 babd
0.4116806 0.18554921 0.17468391 -0.20702393 0.07312003 0.1944044 -0.012837482 0.006002992
-0.035584614 0.1409259 -0.024928562 -0.02970338 0.019091047 0.0072711664 -0.0486659 -0.060433075
0.0003027835 -0.0019662937 0.17360762 -0.15979987 -0.059640177 0.09477727 -0.14559998 -0.15439163
-0.09598253 -0.011015344 -0.025719244 0.01780575 -0.10800563 -0.10530713 -0.10647722 -0.090977

fc1.weight f4 [256, 32]
00000000: a564 183d db65 a63d ff45 03be bcd9 b2bb
00000010: 1b0a e83c 491e e03c a55f 8b3d abaf b2bd
00000020: d251 433d 59fb 36be 4bf5 01bd c095 103e
00000030: 4bd3 c43d 4b02 1dbe 5e05 b6bd 9763 ba3d
00000040: 399f 98bd 4bd7 0f3e b436 943d 707b a5bd
00000050: 375a 27bd 9445 f1bc 2d55 8c3d d82a 4fbd
00000060: 07fb c8bd 6db9 a6bc f56c ac3d caca a7bd
00000070: 6a2c 29be b82b 513c 7906 eebd 135b 073d
00000080: fbd2 d53d 7fa4 3dbe 9089 f7bd 7813 64bd
00000090: 24fa 883d 4ff9 d83d ad14 dcbd a38f eebd
000000a0: 8c8a 49bd 2e9d 073e 7691 0ebe 2ed5 fa3d
000000b0: 753c dcbd bbdd bc3d 7c69 d93d 359f 153e
000000c0: bf24 9abb ca42 dc3d 8be1 eebd e6fc 6abd
000000d0: 3873 acbd f878 933d 7e00 d6bd 297d 9dbd
000000e0: 0237 8ebd 6639 a53d 8462 cb3d 4351 783d
000000f0: 65ce ff3d 9858 e33d 7c62 323d c985 93bd
00000100: bdf2 74bd 084b 02be e2d7 81be f68a 7f3d
00000110: 6273 e23d bf3b 483c 2347 743d 6cc1 153e
00000120: c926 0cbd 56f7 373e f73d 4d3e e65b cf3d
00000130: 9d4b 0dbd a61d 22be 55f9 2cbe 6040 bbbc
00000140: e6d1 20be 2d05 243c 3bff 293e 1b72 993d
00000150: 8acb bf3d 189c e7bd 605f d9bc d885 bf3d
00000160: ad63 103e fe9d d3bb 7082 9cbb b534 5c3e
00000170: 3de6 2cbd f918 63be 7546 623c 3249 123c
00000180: 4092 0bbe 401a 12be 8ed9 c53c c244 23be
00000190: 9328 273e b523 01be 148d 243d 1714 2cbe
000001a0: 8191 17be 746a ac3d 995f a03d 9198 c4bd
000001b0: 4cb3 cd3d ba5d 13be 896a 13be 4f55 f2bd
000001c0: 52ff 23bd ace6 cf3d 36e0 d53b d03d ef3d
000001d0: 0fa1 ae3d d37c 44bd 0704 24bd cc4a b5bd
000001e0: 923f f7bc 0cd9 37be 198e 1dbe ca87 4bbc
000001f0: ee0e 7dbd 1f5f de3d b505 cabd 7db5 223d
00000200: dc89 8c3b 8274 4bbd 098a 003e 5dc0 e9bd
00000210: dc9a 02be f386 4fbe 156b 11be 1e10 b63d
00000220: 07b8 583c 8bd0 9f3d 47cb 8c3d 084f b93d
00000230: 69d0 ac3d 3dcf 123d b34e 38be ed81 f03c
00000240: cdff 30be 4848 b139 6ee7 29be 25f7 683d
00000250: fe69 13be 7faa 5b3d 4154 1fbe aa20 52bc
00000260: 389e e8bd 94e1 e8bd 3a52 c73d c004 1f3e
00000270: 4111 073e 87f3 b0bd 359a 2dbe 0f33 e73b
00000280: be95 11be 89f6 033e 59ae cfbd dd1a ca3c
00000290: 6b46 ce3c cc9c 20bd 7abf 043e 5d7a 223d
000002a0: 8034 16bd 2a9d e0bc bb5a 3b3e e05f 26be
000002b0: a01f 11be a649 1d3e 7521 b13d 464e 00bc
000002c0: 9114 c2bd cb9a 07bd 5873 633d 57ac 423d
000002d0: 7b8f bd3d 6b18 40be 6c36 a63d f282 863b
000002e0: fbcb b33d 3bbc 783d 1047 ee3c b360 14be
000002f0: 5163 17bd f307 a7bc e8b8 a93c 678b 8abd
00000300: 2446 ebb9 82e4 bcbd 0d37 c1bd 3fcd 173e
00000310: 8232 dfbd ca3b 09bc a0c2 893d 3be8 cdba
00000320: 5e05 1b3b fc67 233d 5e98 d43d fdd1 2cbe
00000330: 31d5 063b 50fc da3d 9fd3 09be 08ea 7c3d
00000340: 96ff 843d 514d 033e 2eb2 63bd d0d6 a0bd
00000350: 33aa 763d 0741 a1bd 8ebb 023e 02f8 45bd
00000360: 508d 2ebe 02ac 873d 9ece 023e 201d 1e3e
00000370: e564 b43d e3c7 c5bc 8ef1 9ebd c79d 35be
00000380: 13a5 a63d 7101 a43d c28b 6abd 02b9 4dbe
00000390: a7ea f03d 4e91 2f3c 7358 b43d 4fe6 283e
000003a0: ba52 14be 6571 52bd 1c52 92bd 3167 a6bd
000003b0: 03f6 a5bc ffaf 3d3e e25d a0bd 13ba 983d
000003c0: 5370 abbd 9b35 b7bd ad5d fa3c f232 95bd
000003d0: a31e 5f3d 0d78 35be 4f74 48bc e358 e7bd
000003e0: fa2c cc3d cc53 33bd 6969 1dbe 169a 213d
000003f0: 1c87 cdbd 9acb 99bd 30e2 013e 3b12 bf3d
0.037205357 0.08124896 -0.1281967 -0.005458085 0.028325131 0.027358191 0.06805352 -0.08724912
0.04768545 -0.17869319 -0.03172807 0.14119625 0.096106134 -0.15332906 -0.088877425 0.091010265
-0.07452244 0.14046971 0.07236996 -0.080801845 -0.04085752 -0.029452123 0.068521835 -0.05057797
-0.09813505 -0.02035209 0.084192194 -0.08192976 -0.16520849 0.012766771 -0.11622328 0.03304584
0.10440632 -0.18519782 -0.12086785 -0.05568263 0.066883355 0.10594427 -0.10746131 -0.1164849
-0.049204394 0.13243553 -0.13922676 0.12247692 -0.10753719 0.09221979 0.10615823 0.14611514
-0.0047040875 0.107549265 -0.11664113 -0.05737009 -0.08420414 0.07200807 -0.104493126 -0.07689888
-0.06944086 0.080675885 0.099309 0.060624372 0.124905385 0.11100882 0.043550953 -0.07203252
-0.059801806 -0.12723935 -0.25360018 0.062388383 0.11057164 0.012221276 0.059638154 0.14624566
-0.034216676 0.17965445 0.20043169 0.1012495 -0.03449594 -0.15831622 -0.16891988 -0.022857845
-0.1570507 0.010011 0.16601269 0.07492467 0.09364994 -0.113090694 -0.026534736 0.093517005
0.14100523 -0.006458043 -0.0047762915 0.21504481 -0.04221176 -0.22177495 0.013810744 0.008928584
-0.13630009 -0.14267826 0.02415159 -0.15944198 0.16324072 -0.12611277 0.040173605 -0.16804539
-0.14801599 0.08418742 0.07830734 -0.09599412 0.10043964 -0.14391223 -0.14396109 -0.118326776
-0.040038414 0.10151419 0.006526972 0.11681712 0.08526813 -0.047970604 -0.040042903 -0.08852157
-0.03018168 -0.1795389 -0.15386237 -0.012422511 -0.061781816 0.10857987 -0.0986437 0.039723862
0.004288895 -0.049671657 0.12552656 -0.114136435 -0.12754387 -0.20266323 -0.14201005 0.08889793
0.013227469 0.07803448 0.068747096 0.09048277 0.084381886 0.03584217 -0.17998771 0.029358828
-0.1728508 0.00033813925 -0.1659219 0.05687632 -0.14395902 0.053629395 -0.15559484 -0.0128251705
-0.11358303 -0.113711506 0.0973248 0.15529156 0.13190176 -0.08640199 -0.16953357 0.007055647
-0.14217278 0.12887014 -0.10140676 0.024671013 0.025180062 -0.039212033 0.12963668 0.039667476
-0.03667116 -0.027418692 0.1829633 -0.16247511 -0.1417222 0.15360126 0.086489595 -0.007831162
-0.09476579 -0.033106606 0.055529922 0.047527637 0.09255882 -0.18759315 0.08115849 0.0041049654
0.087791406 0.060726386 0.02908662 -0.14490013 -0.03695995 -0.020389533 0.020718053 -0.0676487
-0.00044874952 -0.09223272 -0.09434328 0.14824389 -0.108983055 -0.008376071 0.06726575 -0.0015709469
0.0023654322 0.03989409 0.10380624 -0.16876979 0.002057385 0.10692656 -0.13459633 0.061746627
0.06494062 0.12822463 -0.055589847 -0.07853472 0.06022091 -0.07873731 0.12766859 -0.04833222
-0.17046094 0.06624605 0.1277413 0.15440798 0.088083066 -0.024143165 -0.07760917 -0.17735969
0.08136954 0.080080874 -0.05726219 -0.20090106 0.117635064 0.010715796 0.08805933 0.16494106
-0.14484683 -0.051377673 -0.07144567 -0.08125151 -0.02025891 0.18524168 -0.07830407 0.07457366
-0.083710335 -0.08945771 0.030562246 -0.07285108 0.054472577 -0.17721577 -0.012234761 -0.11296251
0.09969516 -0.043781087 -0.15372242 0.03945359 -0.10035536 -0.07509537 0.1268394 0.09329649

fc1.bias f4 [256]
00000000: b0ee 11be d7ff 03be b86d d6bd 309c df3c
00000010: 0aac c5bd 0625 a5bd b29c 64bd 8ee7 aabd
00000020: e688 2fbe 564e e7bd 1110 7abd 1c36 17be
00000030: cbd3 ffbd f1c3 5bbc 93d1 8abd 10cb eabd
00000040: 8db9 c9bd 4d6a f9bd d7f5 bcbd 02a2 edbd
00000050: aa2a 3ebe bfee 0abe 54f1 3dbe 2a60 4a3c
00000060: a430 e0bd b3fc 3cbe 93d3 c5bd 184f 07bd
00000070: 8bf3 1c3d d98c 6abd 0c13 54be 5edc 83bc
00000080: 97ff 0dbe 9b57 a6bc c3bd 20be 2b3d f8bd
00000090: 99d2 99bb 49d0 04be 91e7 05be 6dc4 39be
000000a0: 76db d1bd c611 38be d4bf 07be 37aa 71bd
000000b0: 6a8b 093d 0364 11be 3781 97bc 4a0a c9bd
000000c0: 12e3 a4bd 3ab1 39be 5639 6dbd c1b2 efbd
000000d0: 85b6 643d 47fa cabd 3586 b6bd 874b ddbd
000000e0: 06fb a4ba 111d cbbc 3859 40bd f45a 63bd
000000f0: 6837 d3bd 78d7 1bbe 27cc 33be 7e58 98bd
00000100: 3f4a 18be 19ed f4bd 8cc1 4ebc 2da6 46be
00000110: cc6c 3dbd 3ee2 9cbd cd26 30bc 0473 c2bd
00000120: 8565 2abd 87c2 dbbd 3a00 d2bd 765a cfbd
00000130: dc26 2ebd c8cc 7ebd 6063 29bd 3f28 7dbe
00000140: b2f3 79bc 8d7d 3fbe bd98 2dbd d373 1abe
00000150: dfd6 83be 00b0 fbbd 8fca 7bbe de3b 9abc
00000160: 99c1 3ebe 4355 a8bc 14e0 39bc 4627 20be
00000170: 2821 dabc fea0 32be a823 e2bd cf99 47bd
00000180: bf89 87bd e4b0 14be 0842 d0bd 1fb5 0ebd
00000190: 4e81 cbbd fdef 76bd a51e 50bd 389f 25bd
000001a0: 9542 39be a328 17be f034 86bd c3dc cb3d
000001b0: e885 18be 092a 4abe 0357 3dbd 92bb b7bd
000001c0: 8d51 45bd 664a 7dbd a2b7 74be 36fc 32bd
000001d0: 1968 30bd e2c3 71bd 12f0 0fbe f60f e7bd
000001e0: d641 b43c 6fb2 ccbd 50ad 90ba ac2e b7bd
000001f0: ae58 38bd 6400 32bc 8b1e 99bc 8099 86bd
00000200: c7f6 fcbd 5c52 8bbd 31fc c1bd 9556 eabd
00000210: 2860 e2bd ca0b 11be 40db d1bd 04f8 4ebd
00000220: a826 e2bd 2df1 24be 6da7 59be 0017 f2bd
00000230: 0e64 25be 2742 a6bc 1ce3 c4bd 6679 cebd
00000240: beb3 0ebe dd9c 21be a8c5 47be 97bb 96be
00000250: f5ee f6bc 5f93 16bd 80ec 53be 311f f2bc
00000260: 710a 52be d9d1 23be 8eb6 c7bd b35d 2ebe
00000270: 2f11 99bd b882 80bd 20d2 e7bd 32df 22be
00000280: c970 e3bd 7bc4 34bd 630a 91bc 9771 48bd
00000290: 3e30 b23b 837d 19be 1e66 c0bc bc74 0ebe
000002a0: da62 12be 01f6 7fbd 70fd ef3c f58a f9bd
000002b0: 0fbb 2a3c 9625 18be 2321 4abd ed70 ebbd
000002c0: 660f 15be 0618 38be 13f5 cdbd a685 9ebc
000002d0: 9d86 0ebe 2ce5 883d 0c72 83bd 88a2 37be
000002e0: 7353 12be c3e0 b1bd 38fe 11be 065a 30be
000002f0: a192 43bc b0c0 4fbe a327 52be 34e2 6dbd
00000300: 4b65 0c3d 8a87 ccbd 80fa 4fbe 20da a63c
00000310: 0a35 90bc 0a04 07be 0045 80bd d212 20be
00000320: 38a0 ccbd 1282 e9bd 6b0c c4bd 694f 08be
00000330: 9257 67bd 1066 dabc 0b0e 2abe 1ff9 82bc
00000340: f95e cabd b87e 49bd 8b44 a5bd 03be dcbd
00000350: 0eb6 99bd 021f 33be 7201 fdbd 4af9 07be
00000360: 595e 04be 9211 fcbd bba8 13be a7c7 81bd
00000370: c4b7 3ebd 6c6f c2bc 1f61 a9bd e35d d2bd
00000380: 0421 0bbe 17e2 28be a3f3 41bc 3276 adbd
00000390: e3bd f3bd af90 dabd 4b48 39be 908b e9bd
000003a0: b715 e8bd 7d5f debd c204 9bbd 0c02 0ebe
000003b0: d67c 0fbd a660 e1bd e33b 883c 1998 febd
000003c0: f4f2 60bd 27d0 4eba 0fb0 29be 6a4d 19be
000003d0: 4c9e 6cbd 4e39 e0bd 6796 e5bd 754d 8cbd
000003e0: 8b95 16be 1938 04bd 6c63 a3bd ec12 8fbe
000003f0: f7f7 98bd 6a1e 25be a036 f7bd 0a57 efbd
-0.14251208 -0.12890564 -0.10470146 0.027296156 -0.096519545 -0.08063702 -0.0558135 -0.08344947
-0.17142066 -0.11294238 -0.06105048 -0.14766735 -0.12491568 -0.013413415 -0.06778254 -0.11464512
-0.09849844 -0.121784784 -0.09226578 -0.11603166 -0.18570963 -0.13567637 -0.1854909 0.012352029
-0.109467775 -0.18455772 -0.09659495 -0.033034414 0.0383182 -0.05726323 -0.20710391 -0.01609629
-0.13867031 -0.020305445 -0.15697388 -0.12121042 -0.0046942947 -0.1297008 -0.13076617 -0.18141337
-0.10246937 -0.1797553 -0.1325677 -0.05900022 0.03358022 -0.14198308 -0.018494232 -0.098164156
-0.08051123 -0.18134013 -0.057916008 -0.117040165 0.055838127 -0.09911018 -0.08912317 -0.10805421
-0.0012587018 -0.024794133 -0.046960086 -0.05550666 -0.10313302 -0.15218914 -0.17558347 -0.074387535
-0.14872073 -0.11959285 -0.012619387 -0.19399329 -0.046246335 -0.0766034 -0.010751438 -0.09494594
-0.041600723 -0.107304625 -0.102539495 -0.10124676 -0.042517528 -0.062207013 -0.041354537 -0.24722384
-0.015255855 -0.18700238 -0.04238199 -0.15083246 -0.2574987 -0.12289429 -0.24588989 -0.018827375
-0.18628539 -0.020548468 -0.011344928 -0.15639982 -0.026627138 -0.17444226 -0.11041957 -0.048730668
-0.0661807 -0.14520603 -0.101688445 -0.0348407 -0.09936772 -0.060287464 -0.050810475 -0.040435046
-0.18091805 -0.14761595 -0.06553066 0.09954216 -0.14894831 -0.19742598 -0.04622556 -0.08971323
-0.048173476 -0.06183853 -0.23898175 -0.04369756 -0.043068025 -0.0590247 -0.14056423 -0.11282341
0.02200405 -0.09994971 -0.0011037979 -0.08944449 -0.045006447 -0.010864351 -0.018691322 -0.065722466
-0.123517565 -0.06802818 -0.0947193 -0.114422955 -0.110534966 -0.14164653 -0.10246897 -0.050529495
-0.11042529 -0.16107626 -0.21255274 -0.11820793 -0.16151449 -0.020295216 -0.0961363 -0.10081749
-0.13935754 -0.15782495 -0.19508994 -0.29439995 -0.03014324 -0.036761638 -0.20695686 -0.029555889
-0.20511796 -0.1599802 -0.097516164 -0.17027931 -0.07473981 -0.062749326 -0.11319375 -0.15905455
-0.111054964 -0.04413269 -0.017705148 -0.048936453 0.00543788 -0.14989285 -0.023486193 -0.13911718
-0.14295521 -0.062490467 0.029295653 -0.12184707 0.010420575 -0.14858088 -0.049348008 -0.11496148
-0.14556655 -0.17977914 -0.1005651 -0.019350838 -0.13918538 0.06684336 -0.06418237 -0.17933095
-0.14289646 -0.08685448 -0.14257133 -0.17221841 -0.0119368145 -0.20288348 -0.20522933 -0.058077052
0.034276288 -0.099867895 -0.20310402 0.020367682 -0.017603416 -0.13185135 -0.06263161 -0.1563218
-0.09991497 -0.11401762 -0.09572681 -0.13311543 -0.056479998 -0.026659995 -0.1660692 -0.01598793
-0.09881396 -0.049193114 -0.08069714 -0.10778429 -0.07505427 -0.17492297 -0.12353791 -0.1327869
-0.12926616 -0.12308039 -0.14419834 -0.06336909 -0.04656197 -0.02373477 -0.082704775 -0.10271814
-0.13586813 -0.16492496 -0.011837873 -0.084698096 -0.119014524 -0.106721275 -0.18093984 -0.114035726
-0.11332267 -0.10858057 -0.07569267 -0.13867968 -0.035031162 -0.11004762 0.016630119 -0.12431354
-0.0549192 -0.00078892935 -0.16571067 -0.14970937 -0.05776815 -0.1094843 -0.112103276 -0.06850711
-0.14705484 -0.03228006 -0.079779476 -0.27944124 -0.074691705 -0.16124883 -0.12070966 -0.11686523

fc2.weight f4 [5, 256]
00000000: e689 2c3d ca52 64bd 6c4f 693d 0020 b63a
00000010: ca1d 1ebd 8032 0f3d 0c05 4b3d 64ce da3c
00000020: 808b 343c d81b 203d 503b 15bc f0d7 cf3b
00000030: f4b3 ff3c 0050 413c 643a 2dbd e049 f73b
00000040: 305d 813b 484b 563c 4245 7ebd 0c67 613d
00000050: e0c8 3abd d6c4 3d3d ec45 63bd 42d4 50bd
00000060: b4f0 cbbc f0cf a7bb f465 903c c494 babc
00000070: 0e13 493d 1ca4 21bd f8c6 febc b496 4a3d
00000080: 06d8 0fbd 0c60 063d 3032 cbbc ec5e 563d
00000090: c601 65bd d843 d8bc ca6d 7d3d 6a7e 0cbd
000000a0: 6891 1d3c b036 663c b073 2c3d a428 55bd
000000b0: 00d8 56bb f0de c93b 7cbc 503d 1e2c 3bbd
000000c0: 4e98 4e3d 8638 38bd b82f 07bd 00c6 e8ba
000000d0: 50be d3bb a443 903c 247b 7bbd 5896 5cbc
000000e0: 2cda 55bd 46c3 5bbd 08d3 abbc bee4 57bd
000000f0: 240c acbc 7857 0d3c c018 0b3d d28e 373d
00000100: 1091 fe3c 3499 24bd 38c4 3f3d 0433 393d
00000110: 000e 45b9 f071 523c c45e eb3c 8066 6abc
00000120: c416 f1bc f089 433c 9613 6ebd 4a50 26bd
00000130: d6bc 7c3d b245 713d 8017 ffba a490 0f3d
00000140: 68aa 5bbd d0ab af3c 86ac 58bd 846c 473d
00000150: c283 12bd f206 10bd ac38 db3c 2ee3 76bd
00000160: 10b7 3fbc 6297 543d 68b1 8f3c e8e7 55bc
00000170: 344b a83c 3098 df3c a8ed 68bc 70e4 a6bc
00000180: 6890 353d 2016 813c 202d 613d 785f 67bc
00000190: 20e1 073d b064 20bc 6a5c 183d 486e 0bbd
000001a0: 8c91 1e3d fe93 5dbd 18b4 1b3c 8061 ff3a
000001b0: 7c65 223d 6886 943c b898 783c 7057 1fbc
000001c0: fe64 53bd 5680 46bd a0c6 71bd e0bc 46bb
000001d0: 68d9 acbc 4432 e6bc 589d 77bc a0eb 813c
000001e0: 28a5 64bc 903f 7abc bc71 dabc e292 263d
000001f0: 8039 073a 38dc e03c be8c 603d d476 b6bc
00000200: 6026 38bb e06d 41bd 18d4 2e3d 2865 2b3c
00000210: 5a23 6ebd e42b 143d b097 da3b d4bb 26bd
00000220: b8a3 5bbc 9437 153d e842 f73c f8ca 7d3c
00000230: f474 ea3c 6890 c63c 8832 72bc 2c53 a9bc
00000240: ec32 41bd e4eb 2cbd 00c2 e1bb e0d1 d3bc
00000250: c6de 73bd d65e 5bbd b44f c3bc 7c83 4cbd
00000260: 129d 64bd 10a0 3c3d a49a b43c c02e 913b
00000270: 709b dc3b 8003 9a3c c64a 2f3d a04c 973b
00000280: 144a af3c 28a4 7a3d 9a99 0a3d c0de e93c
00000290: 542a 183d 5890 44bd 7ebd 37bd 8455 efbc
000002a0: a036 4abd 08dd 93bc 24f4 4e3d 8081 4dba
000002b0: 728f 30bd 0a48 49bd 44b0 02bd 4084 733d
000002c0: 80bb 793c 50a9 0fbd 6899 313c d614 4cbd
000002d0: 4485 4a3d 9618 48bd 348c 7b3d 886a dcbc
000002e0: 720e 663d cc5b 29bd 90eb 92bb c62f 25bd
000002f0: a00f cfbb 7cc8 eebc fe24 10bd d4c8 32bd
00000300: a6c7 433d 5a9e 143d 6808 6bbd 80d6 4f3d
00000310: 9212 033d 40c9 acbc c83d 223c aeb6 73bd
00000320: b8e7 293d d800 dfbc b439 a23c cc0f 1d3d
00000330: 4c23 6bbd bccb 233d c64f 1ebd 8040 0b3b
00000340: 5eff 203d 98af 183d 50ee 833b dc18 4a3d
00000350: 9e7c 38bd 74d6 ecbc 68b9 6f3c 8237 0a3d
00000360: 94df 2a3d 56e5 6cbd f689 403d 262f 6d3d
00000370: f0cd 5bbd c8ea 493d ac74 673d 5873 51bc
00000380: 20c0 f63b ec3f 60bd 7442 59bd e221 43bd
00000390: 5041 85bb 04a6 26bd 103c 6ebd 7048 5b3d
000003a0: d854 f13c 3cb3 823c f2ee 1bbd c46d 513d
000003b0: d02e e93c a2fd 1cbd 20df 70bd 8051 f7bc
000003c0: 78bc 62bc d051 793d 74b6 e33c 2018 693b
000003d0: ee24 63bd a022 553d 701c 17bc 14e4 85bc
000003e0: a40c c73c 00b5 93bc 8a94 763d 48b2 77bd
000003f0: 4091 b2bb 3ab9 6a3d 44d2 ebbc 8cf0 13bd
0.042123698 -0.055743016 0.05696051 0.0013895035 -0.038602628 0.03496027 0.04956536 0.026709743
0.0110195875 0.039089054 -0.0091083795 0.0063428804 0.031213738 0.011798859 -0.042292014 0.0075466484
0.0039478764 0.013079472 -0.06207777 0.055029914 -0.045601726 0.046330296 -0.055486605 -0.050983675
-0.02489505 -0.0051212236 0.01762674 -0.022776015 0.049090438 -0.039463148 -0.031100735 0.049460128
-0.035118125 0.03280644 -0.024804205 0.05233662 -0.055909894 -0.026399538 0.06187228 -0.034300245
0.009617187 0.014051124 0.042102516 -0.05204071 -0.0032782555 0.0061606094 0.050961003 -0.04569637
0.050438218 -0.04497578 -0.033004493 -0.0017759204 -0.006461896 0.017610379 -0.061396733 -0.013463579
-0.052210018 -0.053653024 -0.020974651 -0.05270838 -0.021001883 0.008626811 0.03395915 0.04481394
0.03107503 -0.04018517 0.04681799 0.045214668 -0.000187926 0.012844548 0.028731711 -0.0143066645
-0.0294298 0.011934742 -0.058124147 -0.040603913 0.061703525 0.058904357 -0.001946196 0.03505005
-0.05362931 0.021444231 -0.052898906 0.048687473 -0.035770185 -0.035162874 0.026760422 -0.06027525
-0.01170136 0.051902182 0.017540649 -0.013055779 0.020543672 0.027294248 -0.014216818 -0.0203726
0.04432717 0.01575762 0.054974675 -0.014121883 0.03317368 -0.009789631 0.037197508 -0.03404072
0.038713023 -0.054096214 0.009503387 0.0019484013 0.039647564 0.018130496 0.01517313 -0.009725437
-0.051609986 -0.048462234 -0.059027314 -0.003032498 -0.021099761 -0.02810014 -0.015113197 0.015859425
-0.013955392 -0.015273944 -0.02666556 0.040667422 0.00051584095 0.027448758 0.054821722 -0.022273459
-0.0028099045 -0.047223926 0.042682737 0.010461129 -0.058139183 0.03617467 0.0066709146 -0.04070647
-0.013405733 0.036429957 0.03018327 0.015490286 0.02862022 0.02423878 -0.014782555 -0.020669542
-0.047167704 -0.04221715 -0.0068895817 -0.025856912 -0.059538625 -0.05355724 -0.023841716 -0.04993008
-0.055813856 0.046051085 0.022046395 0.004430622 0.006732397 0.018800497 0.04279592 0.0046172887
0.021397628 0.061191708 0.033837892 0.028548598 0.037149742 -0.04798922 -0.04485845 -0.029215582
-0.0493685 -0.018049732 0.0505258 -0.00078394264 -0.04310555 -0.049140967 -0.03190638 0.059452295
0.015242457 -0.03507358 0.010839798 -0.04982456 0.0494435 -0.048851572 0.061413005 -0.026906267
0.05616612 -0.04134731 -0.0044836476 -0.040328763 -0.0063190013 -0.029148333 -0.03519153 -0.043648556
0.04779782 0.03628383 -0.057381064 0.050741673 0.032000132 -0.021092057 0.009902425 -0.05950039
0.04148075 -0.027222082 0.019802906 0.038345143 -0.05740671 0.039989218 -0.038650297 0.0021248162
0.039306037 0.037276834 0.004026212 0.049340114 -0.04504072 -0.028910853 0.014631607 0.033744343
0.041717127 -0.0578359 0.04700657 0.057906292 -0.053663194 0.04929617 0.05650775 -0.012783848
0.0075302273 -0.05474846 -0.05304189 -0.047639735 -0.0040666237 -0.04068567 -0.05816275 0.05353588
0.029459402 0.015954606 -0.038069673 0.05113007 0.028464705 -0.03832782 -0.05880654 -0.03019023
-0.01383888 0.060869038 0.027796961 0.0035567358 -0.05545514 0.052034974 -0.009223089 -0.016344108
0.02429802 -0.018030643 0.06020025 -0.060472757 -0.005449444 0.057305552 -0.028786786 -0.036118075

fc2.bias f4 [5]
00000000: 0c71 a8bc 6048 483d d4f7 01bd 0afc 52bd
00000010: dcd5 e83c
-0.020561717 0.048897147 -0.031730488 -0.051509894 0.028422289
