Models/Torch2/my_model52300.pth (torch_old, 60054 bytes, 8 tensors)

conv1.weight f4 [16, 2, 3, 3]
00000000: 7768 9f3e bd97 08bf 709c 5cbe d0b5 9e3e
00000010: 1418 ddbd c37e c8be 774b 50be e779 9cbe
00000020: 2a0c 16be d2e8 2cbe 96ad 3b3f be97 7b3f
00000030: 6a0b 9cbd 9352 6bbe 7310 b0b9 d09d 8b3d
00000040: 7a83 03bd 62d6 b63b 0d09 ccbe ce54 c7be
00000050: 62cd 05be bb89 633f e514 543e f9fe 393f
00000060: 08b3 393f cd9b 513f 999a 9c3c 390e 2f3e
00000070: df1a 40bf a94b a83e 05a0 aa3d 9c90 383e
00000080: cf59 62bf 5aa2 023d 5cf5 8f3e 3ac5 3ebf
00000090: 4f4c 173f 1804 323f 68e4 1d3f ab67 d1be
000000a0: 98a8 dabe f42f 4bbe d5f6 1a3f 0f51 0c3f
000000b0: cce6 29be 3dea c63d 51d8 9c3e 7724 31bf
000000c0: 8428 543e 1d2d eabe 352c 1a3e e2b1 003d
000000d0: effc 9c3e 5fbe f7be eef9 883e 4b82 5bbe
000000e0: 21c5 c4bd f7b4 273f a0eb 703e c9a0 e7bd
000000f0: 45ab 60bd c57a 0a3f dcf6 023f c19d c7bd
00000100: 949e 18be bb09 2e3f 21b4 d6bd 94f7 0f3d
00000110: e5ef 1b3f 16ac 13be 4681 1e3e dc15 25be
00000120: fa1a 2bbe 362c 2cbe b4c0 313f 0d17 37be
00000130: 87df ea3d a00e e5bc 6c8d 29be 81c5 ac3e
00000140: 6f77 33bd af01 d73b 6501 a7be 253f 9f3e
00000150: f215 2b3d f195 a23d 0614 4cbe 0001 f83d
00000160: e931 9e3c 6187 93be 6d73 f93e 3cab 05be
00000170: cf0f f4bd 94d3 713f f91c b33e 0fc4 0c3f
00000180: f5b4 5bbe 28fa 053f 828a 6bbe 8ee7 15bf
00000190: 7ff6 d2be c811 e3be 80f8 b2bd 8ff3 61bf
000001a0: 3803 dc3d 73aa 05be 41e8 933c f89f 8cbc
000001b0: afd7 e33d e638 abbd fd45 12bd 541f b9bd
000001c0: 96fb ab3d 90a8 2abe d57a 1c3e ec70 8a3e
000001d0: 228f ae3d 055b 1f3d 169b dbbd 2a8e c93d
000001e0: 1914 253e 14f5 8e3e 46a8 57be 59a6 bdbd
000001f0: 3a1b 40be ef20 1abe 8a2e adbd c76e db3d
00000200: dd27 c0bd 61db 26be cca4 dc3e e04a babd
00000210: 89a7 1cbd ed3f e7bd 53e0 0b3f 42c8 01bd
00000220: 35e4 8ebe 3f46 5dbe c70d 30bd d436 45be
00000230: 52c4 f4be 8833 fdbd 887b 52be 5345 00be
00000240: 4320 36bc 0955 51bc 8d04 acbd 5a54 f5be
00000250: 7819 0ebe c9db fcbd 17ae 1a3e 55b8 e6be
00000260: f537 87be 9706 a3bd 78cf 18be 18a3 4b3f
00000270: 115e 413e f2db 113f 5a84 ff3e ecb9 6d3d
00000280: 3485 233f c15d 5dbd f8c4 1cbf 1ce1 033e
00000290: 798c ae3c 4ca1 203f 830b bbbe cfcf c63d
000002a0: 2ab6 dfbe 01f2 c93e 9375 4c3c 2a69 a4bd
000002b0: 28ec cabe b991 493f f300 df3d 1535 143e
000002c0: a0f4 d1be 10c8 3d3d 5b99 cbbd c6fa 0e3f
000002d0: dd3a a7bd 8f71 ad3d 8ae7 53bd 452a 2f3f
000002e0: fa98 01bc d7c4 6fbe 5e4a 533f b089 00be
000002f0: 2739 10be 24d4 173f 597b ffbd af59 d4bd
00000300: 7d58 3e3e bdba 2a3f 5f99 d63e 884c c73d
00000310: e572 463f bb74 2a3f ed30 1d3e a92e 1e3d
00000320: 2db7 fb3d b6c8 f43e 419f b4be 9530 963e
00000330: b2af 75be 3e07 8c3e 08b0 92ba deaa 803e
00000340: b729 1a3f d8f0 8cbd 2c63 7abd 6bac 433e
00000350: b0f1 523f 5248 de3d d484 03be 342a 683d
00000360: 1bb0 83be 2907 33be 7316 8bbc ef27 e73e
00000370: 85ef 013e 4b05 34be 8ef2 0d3f b4c7 ab3e
00000380: 7736 123d cf48 ccbd 4c0d 9cbd 0d77 04be
00000390: 1751 0dbe f96a 12be 9557 113f ceb1 53be
000003a0: 4e5a b5bd 66c9 d73e 95f2 e7bd 4c3d 32be
000003b0: bbcc 12be dfbc aebe e867 703f 5a55 d03e
000003c0: ab08 5d3f e767 1ebf 6e5b 063f 9fcc c6bd
000003d0: f4be f1bd 74b6 12bf e19b 07bb 82ea 98bc
000003e0: 10f0 65bf 6443 903c 8612 543e 458f 513f
000003f0: b780 60bd 7c55 64be d310 843d 0be5 96bd
0.31134388 -0.53356534 -0.21544051 0.30998087 -0.10795608 -0.39159212 -0.20341288 -0.30561754
-0.14653078 -0.16885689 0.73311746 0.98278415 -0.076193646 -0.22980718 -0.00033581592 0.0681721
-0.032107808 0.0055797556 -0.39850655 -0.38931888 -0.13066629 0.88882035 0.20711096 0.7265468
0.72538805 0.8187836 0.019116687 0.1709527 -0.75041 0.32870224 0.083313026 0.18023914
-0.8841829 0.03189311 0.28116882 -0.74519694 0.5910081 0.69537497 0.61676645 -0.40899405
-0.42706752 -0.19842511 0.60532886 0.54811186 -0.16591948 0.09712646 0.30633786 -0.69196266
0.2071858 -0.45737544 0.15055926 0.031419642 0.30661723 -0.4838743 0.2675318 -0.21436422
-0.09607912 0.65510505 0.23527384 -0.11309964 -0.054850835 0.5409358 0.5115793 -0.09746886
-0.14904243 0.679836 -0.104835756 0.03514822 0.60912925 -0.14421114 0.15479001 -0.1612162
-0.1670951 -0.1681374 0.69434667 -0.17879887 0.11468416 -0.027961075 -0.16557854 0.33744434
-0.043815073 0.00656148 -0.3261825 0.31102863 0.041768976 0.07938755 -0.19929513 0.12109566
0.019310908 -0.28814223 0.48720875 -0.13053602 -0.11917078 0.9446347 0.34983042 0.5498666
-0.21455748 0.52334833 -0.23002055 -0.5855645 -0.41203687 -0.44349504 -0.08738804 -0.88262266
0.107428014 -0.13053302 0.018055083 -0.017166123 0.11125123 -0.08360462 -0.035711277 -0.090391785
0.083975956 -0.16665864 0.15281232 0.27039278 0.08523394 0.038905162 -0.1072294 0.09841569
0.16120948 0.27921355 -0.21060285 -0.09260244 -0.18760386 -0.15051626 -0.08456142 0.107144885
-0.09382603 -0.16294624 0.4309448 -0.090963125 -0.03824571 -0.1129149 0.54639167 -0.03168512
-0.27908483 -0.21608828 -0.04298189 -0.19259197 -0.4780603 -0.123633444 -0.20554936 -0.12526445
-0.01111609 -0.012776622 -0.083993055 -0.47915918 -0.13876903 -0.12346608 0.15105473 -0.4506251
-0.2640988 -0.07960241 -0.14922893 0.79545736 0.1888354 0.56976235 0.49905664 0.058038637
0.63875127 -0.05404449 -0.6123805 0.12878841 0.021307217 0.6274612 -0.3653222 0.09707605
-0.43693668 0.39442447 0.012479204 -0.08027871 -0.39633298 0.7873798 0.10888853 0.14473374
-0.41006947 0.046333373 -0.099413596 0.558514 -0.08165524 0.08468925 -0.051734485 0.68423873
-0.007910008 -0.23414932 0.8253535 -0.12552524 -0.14084302 0.59308076 -0.124746986 -0.10368668
0.18588443 0.6669119 0.41913888 0.09731394 0.77519065 0.66584367 0.15350695 0.038618717
0.122907974 0.4780938 -0.3527775 0.2933394 -0.23992804 0.27349275 -0.0011191377 0.2513036
0.602199 -0.06881875 -0.061129734 0.19108741 0.82400036 0.10853638 -0.12843639 0.056680873
-0.25720295 -0.174832 -0.016978478 0.45147654 0.12689026 -0.17580144 0.55448234 0.335508
0.035696473 -0.09974825 -0.07619724 -0.1293604 -0.13800465 -0.1429862 0.56774265 -0.20673296
-0.08855115 0.42145842 -0.11325566 -0.17406195 -0.14335911 -0.34128472 0.9390855 0.40690118
0.8634135 -0.6187729 0.5248326 -0.09706997 -0.118039995 -0.5730965 -0.0020692276 -0.01866651
-0.8981943 0.01761026 0.20710191 0.81859237 -0.054810252 -0.22298235 0.064485215 -0.07367905

conv1.bias f4 [16]
00000000: fda0 abbe aa3f adbe 8850 7fbe 2ba9 19bf
00000010: 1315 40be 49bc 1fbe f868 9ebe 1be6 ddbd
00000020: 06c9 cbbd 79ba dbbe e91c 59bf ddba e9be
00000030: 7ca8 18bf 355f 85be 8c4c bdbe afeb 88bf
-0.33521262 -0.33837634 -0.24933064 -0.60023755 -0.18758039 -0.15599169 -0.3093946 -0.10834905
-0.099504516 -0.42915705 -0.8480974 -0.45650378 -0.59632087 -0.260492 -0.36972463 -1.0696925

conv2.weight f4 [32, 16, 3, 3]
00000000: b2a1 a13e 2ba5 30be 935b d43e da4a e13e
00000010: 6060 d2bd bccd d53e 3c1d 12bc 483e 773c
00000020: 15dc 103e aacb 643e 8bb9 16bf 5e45 81bc
00000030: 4bb6 86bd 8ca7 b13d e2ad b3be 3dcf 2b3f
00000040: 401b dcbd 48db 183f 4f66 1c3f 2b75 13be
00000050: 2ffc 853e 2d3f 913e 636b 82be a26d ddbd
00000060: b859 8f3e eb5f 04bf 3097 513e 4a56 97bd
00000070: 8381 3f3e 5cc8 813d 4e97 b83d 7fec b0bc
00000080: e4f8 943d 32e8 083e 2b82 993c a20b c33d
00000090: a7a6 193e cc8a 93be e490 9d3e 0ab3 123e
000000a0: 712f 00be 5455 4bbe b63e 0ebe 8e48 48bd
000000b0: cf33 813c 0e6e b7be b3a6 1c3e e4e9 31bf
000000c0: fd24 3bbf 3ed0 75be fa62 49be fa2d 98bd
000000d0: 4061 633d 82c3 00bf 173f 54bd c301 7b3a
000000e0: 8be7 cd3d b61f c1bd d46c 20bb e082 16bd
000000f0: 8b2b 46bd b046 973d 333d 1a38 daf6 b0b9
00000100: e17c 9abd 5c3b 99bd f0e0 9d3d 31aa 19bd
00000110: a719 1bbd a726 1b3e 0a85 88be 6227 f13d
00000120: 6592 f4bc c631 3d3e 31ea a9be 769c ed3b
00000130: 4f06 ea3c c0c7 453e 3552 2e3e 683e b8bd
00000140: 1883 853e d996 e93d a606 e0bd 1108 19be
00000150: f913 e6bd 0167 8d3e b25a b1be 727d 6f3d
00000160: 063a 3f3d bdef c4bd e45a ef3e 0deb 3ebe
00000170: 5134 c33d c89b bf3e 396d 17be 1e5a 08bd
00000180: 63b2 253f 3d04 0ebe fc39 0a3f 4c6e 473e
00000190: 9f9c 40bd 18a1 b43d 7b6a 213e 0196 d23d
000001a0: 218d 15bd e3c2 353e 1558 3ebe a559 823d
000001b0: 412d 1dbe beac 073e b9ad dfbd a9e6 f63c
000001c0: 0dd9 573c ac17 b73b 94db d9bc 68b0 173e
000001d0: c477 0abe 4177 90bc c605 52be 9db0 02bf
000001e0: 2d1f ac3d 85fd 57bd ce86 733e bcef 143f
000001f0: 2c98 bdbd 0326 f23e bb47 dabd aefa c4bd
00000200: b984 0abe 8819 32be 41c8 da3d e6c1 88be
00000210: ebe2 0abe 972b 593e 029b 6dbe f34e b73e
00000220: 000d 0abf 99ff b93e 7f02 043f bee5 46be
00000230: d5ee fb3e db19 8c3e 37d3 71bd 15bb bb3d
00000240: a2d5 8c3e 9db4 91bd 440a 2c3e dabc 4f3e
00000250: 8f89 3abe 9065 5e3e 30b2 37bb 89be b0ba
00000260: f113 3e3d 4ff5 a73e 6cc9 94bc 39a7 733e
00000270: 1ecd 16be 2720 49bd 713c 693d 04c3 4d3e
00000280: fb55 31be e9b3 853e c541 143e d762 c7bd
00000290: bbf5 cc3d 4c1a ca3e 347f 873c 154c d93e
000002a0: 6c9e c13d e7a6 eebd 5f81 303e da79 f0bb
000002b0: b30d 403d d84f 11be e754 37bd 230e 66bd
000002c0: c85a 073e 9af9 d13c 8c96 333c 263d 453d
000002d0: fc60 583e 39b8 43be d1c0 cdbb d618 103e
000002e0: 05b8 1dbd e231 643e 1ab0 7ebd e843 babd
000002f0: 2e9c 763d 1c63 753e e191 413e 700f 8f3d
00000300: be84 ec3d 2ce8 a83d da89 ec3c 389e dc3d
00000310: c85e 263e 1a6c a73c c5a8 ab3c 43f7 44bb
00000320: 5dee df3d fc3b f73b b00f 79bc dbdb 343c
00000330: a270 8bbd 7b66 2e3d 31e5 4abd 7a08 6b3e
00000340: 30b5 5cbe e3b7 ab3e b5b4 5a3e ebaf 683d
00000350: de0d 2c3c 0c64 783e bc2e 7fbd a3ed 8d3d
00000360: f13a b8bd fcd5 133e 670a b2bd d969 5abc
00000370: 8405 0d3d bd13 78bd d686 0e3e 903a 473d
00000380: 9f71 bd3c 954d 103e 3e43 233e 1e8b a13d
00000390: df99 dfbd d741 c73d 4bbc afbd 59c1 96bc
000003a0: 899c dc3d 9606 a7bd 6d9c 663e d4fb 84bd
000003b0: 7231 5ebd d3a5 3c3e 806c 44bd 2daa cdbd
000003c0: 6e1e 933e ccd0 4abd 0565 c93e 685b 3d3e
000003d0: 483d 873d 5495 833e dc44 c93b 50a8 e43c
000003e0: 523e 573d 8d4a 3a3e 94c3 0cbe 5e2a 0b3e
000003f0: 65fd ad3c e8d3 083e c2b5 20be 3590 dcbd
0.31568676 -0.17250507 0.41476116 0.4400242 -0.10272288 0.41758525 -0.008918103 0.015090533
0.14146455 0.22343317 -0.58876866 -0.015780147 -0.065777384 0.08674535 -0.350936 0.67113096
-0.10747385 0.59709597 0.6109361 -0.14400165 0.26168963 0.28368512 -0.25472555 -0.108119264
0.27998137 -0.5170886 0.2046783 -0.07389505 0.18701749 0.06337044 0.09013234 -0.021597145
0.072740346 0.13369825 0.018738827 0.09523703 0.15004979 -0.2881683 0.30774605 0.1432611
-0.12518097 -0.19856769 -0.1389111 -0.04889732 0.015771775 -0.35826153 0.15297966 -0.69497514
-0.73103315 -0.2400522 -0.19666663 -0.07430644 0.055512667 -0.5029832 -0.05181798 0.00095751527
0.10053929 -0.094298765 -0.002447893 -0.036745906 -0.04838137 0.073865294 3.6773457e-05 -0.00033753255
-0.0754335 -0.07482025 0.07708919 -0.037515823 -0.03786626 0.15151463 -0.26664 0.1177509
-0.029854963 0.18476018 -0.33186486 0.0072513176 0.028567461 0.1931448 0.17023547 -0.08996278
0.2607658 0.11405725 -0.10938768 -0.14944483 -0.11234278 0.27617648 -0.34639508 0.058469243
0.046686195 -0.09616039 0.46749032 -0.18644352 0.09531463 0.3742354 -0.14787759 -0.033289067
0.6472532 -0.13868804 0.5399473 0.19475669 -0.047024366 0.08819789 0.15763275 0.10282517
-0.036511544 0.17750125 -0.18588288 0.063647546 -0.15349294 0.1324949 -0.10921807 0.030139284
0.0131743075 0.0055875387 -0.02659396 0.14813387 -0.1352225 -0.01763499 -0.20510015 -0.5105074
0.08404384 -0.05273201 0.23781893 0.58178306 -0.0925754 0.47294626 -0.10658213 -0.09618126
-0.13527192 -0.17392552 0.10682727 -0.26710433 -0.13563125 0.21208034 -0.23203662 0.3580242
-0.53926086 0.36327818 0.5156631 -0.19423577 0.49205652 0.27363476 -0.05903932 0.091665424
0.2750674 -0.071145274 0.16800791 0.20286885 -0.18216537 0.2171843 -0.0028029792 -0.0013484518
0.046405736 0.32804343 -0.018162452 0.23794259 -0.14726683 -0.04910293 0.056942407 0.20093924
-0.17317955 0.26113823 0.14478214 -0.09735649 0.10007807 0.39473188 0.016540147 0.42440858
0.09454045 -0.11652928 0.17236851 -0.0073387446 0.046888065 -0.14190614 -0.044758704 -0.056165826
0.13218224 0.025631715 0.010961186 0.04815402 0.21130747 -0.19113244 -0.006279089 0.14071974
-0.038505573 0.22284654 -0.062179662 -0.09094983 0.06020754 0.23963588 0.18903305 0.06985366
0.11548756 0.08247408 0.028874326 0.10772365 0.16247094 0.020437289 0.020954499 -0.0030054606
0.10934136 0.0075449925 -0.015201494 0.011038746 -0.068085924 0.0425782 -0.04953498 0.22952452
-0.21553493 0.33538732 0.21357997 0.056808393 0.010501353 0.24256915 -0.06230043 0.06930091
-0.08995617 0.14437097 -0.0869339 -0.0133309 0.03442909 -0.0605657 0.13918623 0.048639834
0.023125468 0.14092095 0.1594362 0.078878626 -0.109180205 0.09729355 -0.08580836 -0.018402742
0.10772044 -0.08155553 0.22520609 -0.06493345 -0.054246373 0.18422632 -0.047955036 -0.10042224
0.28734154 -0.04951553 0.39334884 0.184919 0.06603485 0.25699866 0.006142242 0.027912289
0.052549668 0.18192501 -0.13746482 0.1359038 0.021238992 0.13362086 -0.15694335 -0.10769693

conv2.bias f4 [32]
00000000: 1e6f be3e 792d 4bbd 8951 303c 1253 a9be
00000010: 34c1 903d 49fc f83c 035f 1dbd e023 673d
00000020: 8a23 8abe d998 c43d 66fd 233e 4f42 3ebc
00000030: f468 20bc 93c1 fe3d e9c2 94bd ba80 febd
00000040: 7183 61bd b6f2 7f3e 3504 fb3d 18ed 10be
00000050: 75ec 85bd b3cb 323d 0cab 8bbd a84a 34be
00000060: 0850 4a3e 0203 4cbe e810 13be fd61 033d
00000070: 1021 fcbd a995 07be 726c d6bc bb94 04be
0.3719415 -0.049603913 0.010761627 -0.3307119 0.070681006 0.030393736 -0.03842069 0.056430697
-0.2698024 0.09599466 0.16014633 -0.011612489 -0.009790648 0.12439265 -0.07263739 -0.124268964
-0.055056993 0.2499493 0.12256662 -0.14152944 -0.06539241 0.043651294 -0.06819734 -0.17606604
0.19757092 -0.19923022 -0.14361918 0.03207587 -0.12310994 -0.13240685 -0.026174758 -0.12947361

fc1.weight f4 [256, 32]
00000000: a664 ba3c 6232 923d 7da2 1ebe 2c48 23bb
00000010: d7e5 113d 4a85 513d 6846 983d b392 adbd
00000020: 0fe1 863d 8dc9 46be bc30 1ebd 0699 fd3d
00000030: 4174 c63d 5738 16be 223d abbd f10f f23d
00000040: 5e07 95bd d096 223e 9ba4 6a3d 7adc 98bd
00000050: e7b3 35bd f970 f1bc a91a e43d 69c1 27bd
00000060: 8256 edbd a0a7 98bc da10 a63d 14b1 8cbd
00000070: 2125 24be 8b5c a3bb 7e6c ffbd 1ee3 bb3c
00000080: 3623 b23d a4b5 49be 0d5b 24be 10c3 a1bd
00000090: 56d1 4d3d 6069 973d b012 f6bd 9c3e f5bd
000000a0: 1fc7 abbd 188a f33d abfe 21be ca04 7e3d
000000b0: b986 ffbd 6dfb 9e3d 4de2 993d 6bbe e13d
000000c0: 0a68 ccbc 41f9 a33d 85c1 00be bb22 77bd
000000d0: 2d03 d1bd c2d0 803d c74c e1bd 3701 c6bd
000000e0: 487a 96bd e525 913d 9990 903d d2df 663d
000000f0: 19bd d83d 9212 9b3d 735a d03c 657c a6bd
00000100: 7e6b 06be 92a9 c8bd add0 86be 636f 883d
00000110: 2a07 c13d b44e 5bbd c947 debd 77f6 203e
00000120: 7116 203e db59 713e 77c7 7d3e 5b78 363c
00000130: de06 11be 7b5b 97be aa47 5ebe 6c69 76bd
00000140: bdba 63be baba 183d c25d 213e 82d2 563e
00000150: 2760 3a3e 7fe1 0f3d 88b7 cebc b086 283d
00000160: 9b7f 18bd d24e 893d 740f 013d 56fc 573e
00000170: 0393 b43c f883 8cbe 32a4 1ebe 2a48 ec3c
00000180: 8096 12be d5a3 16be 2a03 92bb c90e 2bbe
00000190: 8853 183e b097 13be 114d 033d 237f 2ebe
000001a0: c83c 1abe 7900 8d3d ff96 7c3d da49 babd
000001b0: 8dad cb3d f34a 17be 82fe 16be 2129 fbbd
000001c0: 46f0 31bd 0b53 6e3d 4123 88bb 9afd ca3d
000001d0: 3887 a63d 2a30 85bd 7080 4cbd 7f51 cdbd
000001e0: 5270 32bd c2a7 3cbe 60b5 20be c5ce 23bc
000001f0: aefa 83bd 65e0 c23d f33a d1bd 66f3 d53c
00000200: 3f0c a13c 5576 69bd 41ad 103e dcf8 e6bd
00000210: adff 17be 0ab5 57be c806 20be f857 b73d
00000220: 0cd9 2e3b 7e18 71bc 7b77 e53d 3ca6 193d
00000230: 82db f53d 97c6 efba 97b3 3cbe aa56 763c
00000240: 52fe 47be f4a2 923b ebc2 32be eb03 883d
00000250: 33f8 1abe 38b9 d63d 0f3f 2fbe faec 8dbc
00000260: fa06 eabd 28f9 c4bd 6549 a43d 3f07 fb3d
00000270: 67a5 003e 0452 a0bb ec69 45be 5391 12bc
00000280: e7ef 31be 135e b13d 042b e8bd 4ab4 0abd
00000290: 030d 52bd fd78 66bd fcdf a23d 4ae3 3ebc
000002a0: 3805 81bd 8583 4dbc 3a20 3d3e fabf 18be
000002b0: e761 fdbd 715f 003e 3bc8 c13d 7d75 c9bc
000002c0: 77f8 08be bb4b 69bd 9e59 db3b 195b 943d
000002d0: 8741 be3d b06c 4cbe 8260 ba3d d1cf 46bc
000002e0: 9e74 2b3d d209 47bc 88d3 5b3d c707 21be
000002f0: 6b3a fd3b 08eb 30bd 6a7a a83c ae95 e9bd
00000300: da4e 91bc 4126 0dbe ce04 06be 92a8 d63d
00000310: a97f 1fbe 7ff3 803d 453b c03d 511e 64bd
00000320: 85ea a8bc 2071 873d 8d05 c53c c64c 55be
00000330: 512c 923c ba7e 6e3c afd7 ecbd 1c84 0d3d
00000340: 17e9 93bc 342d 993d 2ef2 98bd c44c 09be
00000350: cb07 883c daae ccbd b054 f63d bab2 0dbd
00000360: e8f6 2ebe 9b24 b73d b425 083e 2304 153e
00000370: 73b2 ab3d c508 90bd d244 9bbd e485 40be
00000380: 3add d13d 8f91 603d 9783 97bd 7c16 86be
00000390: 3be4 423e 9050 bf3c 5030 033e dd8f 1c3e
000003a0: a703 18be 8879 ccbc f65a 66bd 6c8c 50bd
000003b0: e0a5 e7bc 3edc 793e 9712 c6bd eddb 633d
000003c0: 6d99 62bd 696b dfbd 5f46 903c 7d71 9cbd
000003d0: 49a1 b33d d596 38be 3bfc c93c cc6a d6bd
000003e0: 9ad8 103e b817 67bd a97b 4fbe a338 853d
000003f0: f7b3 b9bd dde4 dcbd ac28 ef3d 93a6 943d
0.022753071 0.07138516 -0.15491672 -0.0024914844 0.035619583 0.051152505 0.07435304 -0.08475246
0.06585895 -0.19412823 -0.038620695 0.123827025 0.096901424 -0.1466993 -0.083612695 0.11819447
-0.07276796 0.15877843 0.057285886 -0.074639276 -0.04436102 -0.029472815 0.111378975 -0.040955935
-0.11588766 -0.018634617 0.08108683 -0.068697125 -0.16029789 -0.004985397 -0.12471865 0.022935446
0.08698122 -0.19698197 -0.16050358 -0.07898533 0.050248466 0.073931456 -0.12015283 -0.119748324
-0.08387589 0.11891574 -0.15819804 0.062016286 -0.12476868 0.077627994 0.075138666 0.110226475
-0.024951953 0.08006526 -0.12573822 -0.060335856 -0.10205684 0.062898174 -0.11000972 -0.096682005
-0.07347542 0.07087306 0.0705883 0.056365795 0.105829425 0.075719014 0.025433755 -0.08129195
-0.13126943 -0.09797968 -0.26331082 0.0666187 0.094251946 -0.053541854 -0.10853536 0.15719019
0.1563356 0.23569433 0.24783121 0.011137093 -0.14162776 -0.29561982 -0.21707025 -0.060159132
-0.22239204 0.03728745 0.15758422 0.2097874 0.18200742 0.03512716 -0.025233999 0.041144073
-0.03723107 0.06704487 0.031508878 0.21092352 0.022042757 -0.27444434 -0.15492323 0.028843004
-0.14315224 -0.14710934 -0.0044559436 -0.16704859 0.14875615 -0.14413333 0.032055918 -0.17040686
-0.15062249 0.06884856 0.06166744 -0.09096117 0.099452116 -0.14774685 -0.14745525 -0.12263704
-0.043442033 0.058184665 -0.004154593 0.09911652 0.0813126 -0.06503327 -0.049927175 -0.1002531
-0.04356415 -0.1842337 -0.15694189 -0.009998028 -0.06444298 0.09515456 -0.10216322 0.026117038
0.01965916 -0.056997616 0.14128591 -0.11277935 -0.14843626 -0.21065155 -0.15627587 0.089523256
0.0026679663 -0.014715312 0.1120443 0.03751205 0.120047584 -0.0018293437 -0.18427883 0.015035311
-0.19530609 0.004474992 -0.17457168 0.06641372 -0.15133743 0.104845464 -0.17113899 -0.017324913
-0.11427112 -0.09617835 0.080218114 0.122572415 0.12563096 -0.0048925895 -0.19278687 -0.008945781
-0.17376672 0.08660521 -0.113363296 -0.033863343 -0.05128194 -0.056267727 0.07952878 -0.01165087
-0.062998235 -0.012543564 0.18469325 -0.14916983 -0.12372189 0.12536408 0.09462019 -0.024592156
-0.13376032 -0.056956988 0.006694033 0.07243938 0.09289842 -0.19963336 0.09100439 -0.012134508
0.04185926 -0.012148337 0.05366853 -0.15725623 0.007727911 -0.043192893 0.020566184 -0.11405502
-0.017737795 -0.13784124 -0.1308777 0.10481371 -0.15576042 0.06296443 0.09386305 -0.055692974
-0.02061964 0.06613374 0.024050498 -0.20830068 0.017843397 0.014556581 -0.11564576 0.034549817
-0.018055482 0.07479325 -0.07468067 -0.1340819 0.016605278 -0.09994288 0.120278716 -0.034594275
-0.17086375 0.08942529 0.13295633 0.1455236 0.08383646 -0.07032923 -0.07581486 -0.18801075
0.10247274 0.054826315 -0.07398146 -0.2618903 0.19032376 0.023353845 0.12811399 0.15289254
-0.14845143 -0.024960294 -0.05623909 -0.050915167 -0.028277338 0.24400422 -0.096715145 0.05562966
-0.0553221 -0.10909159 0.01761168 -0.07638834 0.08770997 -0.18026288 0.024656406 -0.10469589
0.14145127 -0.056419104 -0.20262016 0.06504943 -0.09067529 -0.1078584 0.116776794 0.07258334

fc1.bias f4 [256]
00000000: 7062 ccbd e9b7 2cbe 4d4e b43b cb81 16bd
00000010: b58b 20be 59e5 2bbe 912c 03be eb30 eabb
00000020: 3ffd 2dbe 972a 08bc 7b5a 44bd 484f 50be
00000030: 9f5f 84be 1bb4 6bbd 17f8 c6bd d78f 0dbe
00000040: 407a 26be 70b8 16be e6fe 1ebe 980f e2bd
00000050: 0a88 d2bd 42a3 f8bd e38d 23be 3609 42bc
00000060: c1c3 87be e430 54be 9ff4 30be 4b38 c5bd
00000070: 03f5 443d 241b ebbd df17 84be 2557 57bd
00000080: 803f 80bd ac3f 16be d9cc 21be ce84 18be
00000090: 512d 51ba cb5f 6ebe bcf2 b1bd c66c 1abe
000000a0: 8fd2 79be 46d5 24be 4aa0 e2bd fa0c 5abd
000000b0: 3660 fdbd 89db 01be 4d4b 09be 57a7 3abe
000000c0: aa36 a3bd 6a7f 83be a61e 30bd 7533 87bd
000000d0: 19f2 20be 95a7 1abe 4092 24be 89de 1cbe
000000e0: 35b6 66bd 4c1e b4bd 71d7 89bd 8ead 20be
000000f0: e7ea efbd cf52 0abe 3f1b 72be 151b 02be
00000100: 1905 febd 0263 3cbd f9b2 4dbe a25b b5be
00000110: 9226 2fbe 37c2 e5bd d240 88bd cfa9 aa3b
00000120: 16bd d83c cbb0 cfbd 6846 e03a 9ed8 ec3b
00000130: dff4 24be 3bdf 9dbd 21ef acbd e26c 66be
00000140: 8633 97bd 6807 8cbe 5e30 3bbe 8ad5 05be
00000150: a907 77be fb33 04be d583 98be b4e7 cebd
00000160: ceb2 58be 9fd2 1fbc a4d1 a9bc dd79 49be
00000170: 5031 b9bd fe96 87be 7d07 80be 5c02 19be
00000180: 9ed3 46be 548d fdbd 1ae9 22be fb50 dcbd
00000190: 429c f4bd 5fbd 17bd c88a 08be 6cba c4bd
000001a0: 8b60 56be b8cd 27be 0eed 95be 0144 113e
000001b0: 7476 32be 32e6 69bd 460f e9bd 1852 a6bd
000001c0: e5b7 21be f38e ab3d 1164 2cbe 21b2 91bd
000001d0: 9c42 75bd e854 22be 5486 f2bd 34b5 fabd
000001e0: 2f5d 3bbe e0e6 c1bd 14b5 b8bd 82e1 4fbd
000001f0: 42b6 b5bd 8566 3fbe 98c4 febd c4c6 81bd
00000200: 21a5 17be 47f3 54be 3954 01be 92a8 00be
00000210: 7e4c 3bbe 5b2e 30be 4a77 9fbd c8f6 efbd
00000220: 8acc c5bd 2bc4 3fbe 5fe3 55be 4f26 5cbe
00000230: 8f30 28be ec5f 4c3d 1ae6 b3bd cb73 3cbe
00000240: 9a60 32be db1d bdbd 6914 60be 5ec4 adbe
00000250: 159f 90bd eef3 04be e1e6 11be b3a9 273c
00000260: ccde 6abe f757 3ebe c3d5 fcbd c078 65be
00000270: 0fdd 7bbe 4642 9bbd 2d2c 30be 91f7 0abe
00000280: f4b3 22be b20c fabd cafa 94bd 67b3 8fbd
00000290: 6594 86bc 5a26 4ebe ceff 2abd 53d1 e7bd
000002a0: dd6c 2fbe 71f5 1dbe 109c 33be df9e fabd
000002b0: 325c 06bc fe41 51be fcd4 45be 0ad8 64be
000002c0: 08da 00be 22f6 e4bd b322 3bbe cadf fdbc
000002d0: 2356 1fbe 8d48 21bd 4807 22be 82d5 57be
000002e0: a429 3cbe 06ea acbd 9292 06be bb72 3dbe
000002f0: 4e89 98bd f71e 7bbe 1c3d 82be a0b6 a1bc
00000300: 4ff1 2cbc 55f5 0dbe 8a4b 73be 9cbf 2ebd
00000310: 6395 52bc 99a7 27be 40b2 bdbd 65b2 57be
00000320: 5628 29be f6d7 32be 38d3 cbbd b33d 57be
00000330: d455 01bd e6a2 96bd ec22 36be 09b7 a0bd
00000340: ca97 fabd f08c d23d d892 13be d122 14be
00000350: 855d e8bd 1055 7fbe ae59 b1bd 35f1 1dbe
00000360: ce9b f5bd 36b6 1fbe 2e00 49be 0ea9 cdbd
00000370: d984 6abc 2f20 57bd de12 9bbd cabc d9bd
00000380: a072 28be 31c9 2abe bb7b 443c f857 08be
00000390: a9dc 01be f495 03be 7af2 4bbe 88c1 34bd
000003a0: 833f 3bbe c408 7bbe 39fa 3fbe ee2c 10be
000003b0: 9f2f 09be af36 b1bd 5d9a a3bd 0555 24be
000003c0: 8c09 0ebe f3ac 08be d9e4 28be e38d 4cbe
000003d0: c707 c3bd d846 23be 8e56 e8bd cffd 11be
000003e0: c7b8 6abe 439b d5bd 41f8 0ebe dd6e 58be
000003f0: b2ff 14be 3d35 59be 3d3c 32be 5693 25be
-0.09979713 -0.16867031 0.0055024982 -0.036744874 -0.15678294 -0.16786708 -0.1280997 -0.0071469448
-0.16991137 -0.008310935 -0.04793785 -0.20342743 -0.25854203 -0.05754481 -0.09715288 -0.13824402
-0.16257572 -0.14718795 -0.15526924 -0.110381305 -0.10279854 -0.12140514 -0.15972094 -0.011843016
-0.26516536 -0.20721775 -0.17280816 -0.09629878 0.048085224 -0.11479786 -0.25799462 -0.052573342
-0.06262112 -0.14672726 -0.158008 -0.14894411 -0.000797947 -0.2327873 -0.08688876 -0.15080556
-0.24396728 -0.16096982 -0.11065729 -0.05323503 -0.123718664 -0.12681402 -0.13407631 -0.18227898
-0.07969411 -0.25683147 -0.04299798 -0.066016115 -0.15717353 -0.1510299 -0.16071415 -0.15319265
-0.05632611 -0.08794841 -0.06730545 -0.15691206 -0.11714726 -0.13508151 -0.23643206 -0.12705643
-0.12403316 -0.04599286 -0.20087804 -0.35421473 -0.17104557 -0.11218684 -0.066529885 0.005208231
0.02645735 -0.101411425 0.0017110826 0.007227971 -0.16109036 -0.077085935 -0.08444048 -0.22502473
-0.07382874 -0.273494 -0.1828017 -0.1306974 -0.24124016 -0.12910454 -0.2978808 -0.101027876
-0.21161959 -0.009754806 -0.020729847 -0.19675393 -0.09042609 -0.26482385 -0.25005713 -0.14942306
-0.19416663 -0.12380472 -0.15909234 -0.10757633 -0.11943866 -0.037045833 -0.13334191 -0.0960587
-0.20935266 -0.16387069 -0.2928242 0.14186098 -0.17427999 -0.057104297 -0.11379866 -0.08121127
-0.15792806 0.08376875 -0.16835047 -0.071140535 -0.059877977 -0.15852702 -0.11842027 -0.12241593
-0.18297265 -0.09467864 -0.09018913 -0.05075217 -0.088726535 -0.18691452 -0.12439841 -0.0633674
-0.14809085 -0.20795928 -0.12629785 -0.12564304 -0.18290898 -0.17205183 -0.077864245 -0.11716992
-0.09658153 -0.18727176 -0.20887516 -0.21498989 -0.16424774 0.049896166 -0.08784123 -0.18403547
-0.17419663 -0.0923421 -0.21882786 -0.3393888 -0.070615925 -0.12983677 -0.1424823 0.010233331
-0.22936553 -0.18588243 -0.12345459 -0.22409344 -0.24596046 -0.07581 -0.17204352 -0.13571002
-0.15888959 -0.12209453 -0.07274397 -0.0701664 -0.016428182 -0.20131817 -0.04174786 -0.11319222
-0.17131372 -0.1542566 -0.17540002 -0.122373335 -0.008200692 -0.2043533 -0.19319528 -0.22348037
-0.12583172 -0.111797586 -0.18274955 -0.0309905 -0.15560202 -0.03937583 -0.1582309 -0.2107754
-0.1837526 -0.08443074 -0.1314185 -0.18500797 -0.07448064 -0.24523531 -0.25437248 -0.019740403
-0.010555579 -0.13863118 -0.23759285 -0.0426632 -0.012852999 -0.16372527 -0.09262514 -0.21064146
-0.16519293 -0.17465195 -0.09952396 -0.2101963 -0.031575993 -0.07355289 -0.17786759 -0.07847411
-0.12235983 0.10280788 -0.14411485 -0.14466406 -0.113459624 -0.24934793 -0.08659683 -0.15424044
-0.11992608 -0.15596852 -0.19628975 -0.1004201 -0.0143139 -0.052520927 -0.07571958 -0.10631712
-0.16449976 -0.16678311 0.01199239 -0.13314807 -0.12681831 -0.12850171 -0.19916716 -0.04412988
-0.18285947 -0.24515063 -0.18747796 -0.1407964 -0.13397072 -0.08653008 -0.07988427 -0.16048057
-0.1387083 -0.13347225 -0.16493548 -0.19976 -0.09522968 -0.15944993 -0.11344634 -0.14256977
-0.2292205 -0.104300044 -0.13961889 -0.21136041 -0.14550665 -0.21211715 -0.17405792 -0.16169485

fc2.weight f4 [5, 256]
00000000: e689 2c3d ca52 64bd 6c4f 693d 0020 b63a
00000010: ca1d 1ebd 8032 0f3d 0c05 4b3d 64ce da3c
00000020: 808b 343c d81b 203d 503b 15bc f0d7 cf3b
00000030: f4b3 ff3c 0050 413c 643a 2dbd e049 f73b
00000040: 305d 813b 484b 563c 4245 7ebd 0c67 613d
00000050: e0c8 3abd d6c4 3d3d ec45 63bd 42d4 50bd
00000060: b4f0 cbbc f0cf a7bb f465 903c c494 babc
00000070: 0e13 493d 1ca4 21bd f8c6 febc b496 4a3d
00000080: 06d8 0fbd 0c60 063d 3032 cbbc ec5e 563d
00000090: c601 65bd d843 d8bc ca6d 7d3d 6a7e 0cbd
000000a0: 6891 1d3c b036 663c b073 2c3d a428 55bd
000000b0: 00d8 56bb f0de c93b 7cbc 503d 1e2c 3bbd
000000c0: 4e98 4e3d 8638 38bd b82f 07bd 00c6 e8ba
000000d0: 50be d3bb a443 903c 247b 7bbd 5896 5cbc
000000e0: 2cda 55bd 46c3 5bbd 08d3 abbc bee4 57bd
000000f0: 240c acbc 7857 0d3c c018 0b3d d28e 373d
00000100: 1091 fe3c 3499 24bd 38c4 3f3d 0433 393d
00000110: 000e 45b9 f071 523c c45e eb3c 8066 6abc
00000120: c416 f1bc f089 433c 9613 6ebd 4a50 26bd
00000130: d6bc 7c3d b245 713d 8017 ffba a490 0f3d
00000140: 68aa 5bbd d0ab af3c 86ac 58bd 846c 473d
00000150: c283 12bd f206 10bd ac38 db3c 2ee3 76bd
00000160: 10b7 3fbc 6297 543d 68b1 8f3c e8e7 55bc
00000170: 344b a83c 3098 df3c a8ed 68bc 70e4 a6bc
00000180: 6890 353d 2016 813c 202d 613d 785f 67bc
00000190: 20e1 073d b064 20bc 6a5c 183d 486e 0bbd
000001a0: 8c91 1e3d fe93 5dbd 18b4 1b3c 8061 ff3a
000001b0: 7c65 223d 6886 943c b898 783c 7057 1fbc
000001c0: fe64 53bd 5680 46bd a0c6 71bd e0bc 46bb
000001d0: 68d9 acbc 4432 e6bc 589d 77bc a0eb 813c
000001e0: 28a5 64bc 903f 7abc bc71 dabc e292 263d
000001f0: 8039 073a 38dc e03c be8c 603d d476 b6bc
00000200: 6026 38bb e06d 41bd 18d4 2e3d 2865 2b3c
00000210: 5a23 6ebd e42b 143d b097 da3b d4bb 26bd
00000220: b8a3 5bbc 9437 153d e842 f73c f8ca 7d3c
00000230: f474 ea3c 6890 c63c 8832 72bc 2c53 a9bc
00000240: ec32 41bd e4eb 2cbd 00c2 e1bb e0d1 d3bc
00000250: c6de 73bd d65e 5bbd b44f c3bc 7c83 4cbd
00000260: 129d 64bd 10a0 3c3d a49a b43c c02e 913b
00000270: 709b dc3b 8003 9a3c c64a 2f3d a04c 973b
00000280: 144a af3c 28a4 7a3d 9a99 0a3d c0de e93c
00000290: 542a 183d 5890 44bd 7ebd 37bd 8455 efbc
000002a0: a036 4abd 08dd 93bc 24f4 4e3d 8081 4dba
000002b0: 728f 30bd 0a48 49bd 44b0 02bd 4084 733d
000002c0: 80bb 793c 50a9 0fbd 6899 313c d614 4cbd
000002d0: 4485 4a3d 9618 48bd 348c 7b3d 886a dcbc
000002e0: 720e 663d cc5b 29bd 90eb 92bb c62f 25bd
000002f0: a00f cfbb 7cc8 eebc fe24 10bd d4c8 32bd
00000300: a6c7 433d 5a9e 143d 6808 6bbd 80d6 4f3d
00000310: 9212 033d 40c9 acbc c83d 223c aeb6 73bd
00000320: b8e7 293d d800 dfbc b439 a23c cc0f 1d3d
00000330: 4c23 6bbd bccb 233d c64f 1ebd 8040 0b3b
00000340: 5eff 203d 98af 183d 50ee 833b dc18 4a3d
00000350: 9e7c 38bd 74d6 ecbc 68b9 6f3c 8237 0a3d
00000360: 94df 2a3d 56e5 6cbd f689 403d 262f 6d3d
00000370: f0cd 5bbd c8ea 493d ac74 673d 5873 51bc
00000380: 20c0 f63b ec3f 60bd 7442 59bd e221 43bd
00000390: 5041 85bb 04a6 26bd 103c 6ebd 7048 5b3d
000003a0: d854 f13c 3cb3 823c f2ee 1bbd c46d 513d
000003b0: d02e e93c a2fd 1cbd 20df 70bd 8051 f7bc
000003c0: 78bc 62bc d051 793d 74b6 e33c 2018 693b
000003d0: ee24 63bd a022 553d 701c 17bc 14e4 85bc
000003e0: a40c c73c 00b5 93bc 8a94 763d 48b2 77bd
000003f0: 4091 b2bb 3ab9 6a3d 44d2 ebbc 8cf0 13bd
0.042123698 -0.055743016 0.05696051 0.0013895035 -0.038602628 0.03496027 0.04956536 0.026709743
0.0110195875 0.039089054 -0.0091083795 0.0063428804 0.031213738 0.011798859 -0.042292014 0.0075466484
0.0039478764 0.013079472 -0.06207777 0.055029914 -0.045601726 0.046330296 -0.055486605 -0.050983675
-0.02489505 -0.0051212236 0.01762674 -0.022776015 0.049090438 -0.039463148 -0.031100735 0.049460128
-0.035118125 0.03280644 -0.024804205 0.05233662 -0.055909894 -0.026399538 0.06187228 -0.034300245
0.009617187 0.014051124 0.042102516 -0.05204071 -0.0032782555 0.0061606094 0.050961003 -0.04569637
0.050438218 -0.04497578 -0.033004493 -0.0017759204 -0.006461896 0.017610379 -0.061396733 -0.013463579
-0.052210018 -0.053653024 -0.020974651 -0.05270838 -0.021001883 0.008626811 0.03395915 0.04481394
0.03107503 -0.04018517 0.04681799 0.045214668 -0.000187926 0.012844548 0.028731711 -0.0143066645
-0.0294298 0.011934742 -0.058124147 -0.040603913 0.061703525 0.058904357 -0.001946196 0.03505005
-0.05362931 0.021444231 -0.052898906 0.048687473 -0.035770185 -0.035162874 0.026760422 -0.06027525
-0.01170136 0.051902182 0.017540649 -0.013055779 0.020543672 0.027294248 -0.014216818 -0.0203726
0.04432717 0.01575762 0.054974675 -0.014121883 0.03317368 -0.009789631 0.037197508 -0.03404072
0.038713023 -0.054096214 0.009503387 0.0019484013 0.039647564 0.018130496 0.01517313 -0.009725437
-0.051609986 -0.048462234 -0.059027314 -0.003032498 -0.021099761 -0.02810014 -0.015113197 0.015859425
-0.013955392 -0.015273944 -0.02666556 0.040667422 0.00051584095 0.027448758 0.054821722 -0.022273459
-0.0028099045 -0.047223926 0.042682737 0.010461129 -0.058139183 0.03617467 0.0066709146 -0.04070647
-0.013405733 0.036429957 0.03018327 0.015490286 0.02862022 0.02423878 -0.014782555 -0.020669542
-0.047167704 -0.04221715 -0.0068895817 -0.025856912 -0.059538625 -0.05355724 -0.023841716 -0.04993008
-0.055813856 0.046051085 0.022046395 0.004430622 0.006732397 0.018800497 0.04279592 0.0046172887
0.021397628 0.061191708 0.033837892 0.028548598 0.037149742 -0.04798922 -0.04485845 -0.029215582
-0.0493685 -0.018049732 0.0505258 -0.00078394264 -0.04310555 -0.049140967 -0.03190638 0.059452295
0.015242457 -0.03507358 0.010839798 -0.04982456 0.0494435 -0.048851572 0.061413005 -0.026906267
0.05616612 -0.04134731 -0.0044836476 -0.040328763 -0.0063190013 -0.029148333 -0.03519153 -0.043648556
0.04779782 0.03628383 -0.057381064 0.050741673 0.032000132 -0.021092057 0.009902425 -0.05950039
0.04148075 -0.027222082 0.019802906 0.038345143 -0.05740671 0.039989218 -0.038650297 0.0021248162
0.039306037 0.037276834 0.004026212 0.049340114 -0.04504072 -0.028910853 0.014631607 0.033744343
0.041717127 -0.0578359 0.04700657 0.057906292 -0.053663194 0.04929617 0.05650775 -0.012783848
0.0075302273 -0.05474846 -0.05304189 -0.047639735 -0.0040666237 -0.04068567 -0.05816275 0.05353588
0.029459402 0.015954606 -0.038069673 0.05113007 0.028464705 -0.03832782 -0.05880654 -0.03019023
-0.01383888 0.060869038 0.027796961 0.0035567358 -0.05545514 0.052034974 -0.009223089 -0.016344108
0.02429802 -0.018030643 0.06020025 -0.060472757 -0.005449444 0.057305552 -0.028786786 -0.036118075

fc2.bias f4 [5]
00000000: 0c71 a8bc 6048 483d d4f7 01bd 0afc 52bd
00000010: 1999 233d
-0.020561717 0.048897147 -0.031730488 -0.051509894 0.039940927
