Models/Torch2/my_model16700.pth (torch_old, 60054 bytes, 8 tensors)

conv1.weight f4 [16, 2, 3, 3]
0	0x3e294c88	0.165331
1	0xbea0f644	-0.31437886
2	0xbd4bcc58	-0.049755424
3	0xbda4f70a	-0.080549315
4	0xbbd7a3c5	-0.006580802
5	0xbe6da6b1	-0.23208119
6	0xbe30f630	-0.17281413
7	0xbe62e9b8	-0.22159469
8	0xbe35c4c8	-0.17750847
9	0xbe2bd9a6	-0.16782245
10	0x3effcdf0	0.49961805
11	0x3eb64854	0.35602057
12	0xbd514e42	-0.051100023
13	0xbe6b5293	-0.22980718
14	0x3dba65e7	0.091014676
15	0x3e15f070	0.14642501
16	0x3cbad2ac	0.022805534
17	0xbd04715d	-0.032334674
18	0xbe5f2fe9	-0.2179562
19	0xbe82fe2c	-0.25584543
20	0xbd561e1c	-0.05227481
21	0x3f1063f5	0.5640252
22	0x3e6802ee	0.22657368
23	0x3ec054ef	0.375648
24	0x3ee6c055	0.45068613
25	0x3ee4a126	0.44654197
26	0x3dea26d9	0.11433191
27	0x3d58b5c1	0.05290771
28	0xbe9a4305	-0.30129257
29	0x3e804aa7	0.25056955
30	0x3ca75d38	0.020430192
31	0x3e84d8d0	0.25946665
32	0xbf0265b3	-0.5093643
33	0xbc88f9bb	-0.016720643
34	0x3e874278	0.264179
35	0xbef740e3	-0.48291692
36	0x3eed6483	0.46365747
37	0x3e658f51	0.22417952
38	0x3eacc422	0.33743387
39	0xbea62a4a	-0.3245414
40	0xbeb5a458	-0.35476947
41	0xbe711566	-0.23543319
42	0x3e5fc458	0.21852243
43	0x3e504489	0.20338644
44	0x3e6bca99	0.23026504
45	0xbe1b1714	-0.15145522
46	0x3dba00f0	0.0908221
47	0xbeeea556	-0.46610516
48	0x3d78e3c1	0.060764078
49	0xbebfd378	-0.37466025
50	0x3e30f9e3	0.17282824
51	0x3d819de5	0.06328944
52	0x3d9f53a5	0.07779626
53	0xbec978ce	-0.3934998
54	0x3e8b0bc9	0.2715743
55	0xbe5b824b	-0.21436422
56	0xbdb60793	-0.088881634
57	0x3eaed8d0	0.3414979
58	0x3e4472c0	0.19184399
59	0xbda28d5c	-0.079371184
60	0x3d535a68	0.05159989
61	0x3ec02273	0.37526283
62	0x3eddd58c	0.43326986
63	0xbdce49d6	-0.10072677
64	0xbd8e85a3	-0.06959083
65	0x3ebebcf0	0.37253523
66	0xbdb23bd4	-0.087028176
67	0x3df128b7	0.11775344
68	0x3e4cf337	0.20014654
69	0xbe1268d0	-0.14297795
70	0x3e975166	0.2955429
71	0xbe23a842	-0.15982154
72	0xbe30ad89	-0.17253698
73	0xbdeb5d80	-0.11492443
74	0x3ee96da4	0.45591462
75	0xbe1e7eea	-0.15478101
76	0x3e5f7b3c	0.21824354
77	0xbda49447	-0.08036094
78	0xbe270fda	-0.1631464
79	0x3ea1fefa	0.31639844
80	0xbdc927f6	-0.09822075
81	0x3d5a95a0	0.05336535
82	0xbe2b3b37	-0.16721807
83	0x3e388842	0.18020728
84	0x3ae408ab	0.0017397603
85	0x3d81aa10	0.06331265
86	0xbe19dfb4	-0.15026742
87	0x3df9768f	0.121808164
88	0x3d805ec7	0.06268077
89	0xbe74ad6d	-0.23894282
90	0x3e936a25	0.2879192
91	0xbe02cc1d	-0.12773176
92	0xbde84d3b	-0.113428555
93	0x3f0465f4	0.5171807
94	0x3eaf299f	0.34211442
95	0x3efeed93	0.4979063
96	0xbe5bb4f5	-0.21455748
97	0x3edd121f	0.43177888
98	0xbe6b8a82	-0.23002055
99	0xbe9da4c4	-0.3078977
100	0xbec90015	-0.39257875
101	0xbe79af3a	-0.2438325
102	0xbd3481d3	-0.044069123
103	0xbf033078	-0.5124583
104	0x3e357713	0.17721204
105	0xbe2c1073	-0.1680315
106	0xbd61918f	-0.055070456
107	0x3d328410	0.043582976
108	0x3e0a4af1	0.1350515
109	0xbdab38e6	-0.08360462
110	0xbd0014c4	-0.031269804
111	0xbdb91f54	-0.090391785
112	0x3db165a7	0.08661967
113	0xbe2aa890	-0.16665864
114	0x3d8598db	0.065232955
115	0x3e7d98be	0.24765298
116	0x3e0e7c54	0.13914615
117	0x3cf69dbe	0.030104514
118	0xbddb9b16	-0.1072294
119	0x3da89b5b	0.08232757
120	0x3e5444c6	0.2072936
121	0x3e3b9d06	0.18321618
122	0xbe57a846	-0.21060285
123	0xbdbcb8c6	-0.0921493
124	0xbe401b3a	-0.18760386
125	0xbe1a20ef	-0.15051626
126	0xbdb033d6	-0.08603637
127	0x3dcd7e78	0.100338876
128	0xbd678ce8	-0.056530863
129	0xbe26db61	-0.16294624
130	0x3e88045a	0.2656582
131	0xbca27c83	-0.019834762
132	0xbd6c6377	-0.057712045
133	0xbdee2104	-0.11627391
134	0x3e8b8a02	0.2725373
135	0xbdaadde4	-0.083431035
136	0xbe811968	-0.25214696
137	0xbe1984cb	-0.14992063
138	0x3e1963ed	0.14979525
139	0xbe53b52d	-0.20674582
140	0xbea46e8f	-0.321156
141	0x3a2320df	0.0006222855
142	0xbdf7a463	-0.12091901
143	0xbe15d695	-0.14632638
144	0xbdb29726	-0.087202355
145	0x3d988251	0.07446731
146	0xbdc6ff4a	-0.09716661
147	0xbdd21a58	-0.10258931
148	0xbd9cd7d2	-0.07658352
149	0xbd35ad0a	-0.044354476
150	0xbce73e8c	-0.028228067
151	0xbe8375a2	-0.25675684
152	0xbd425e6e	-0.047453336
153	0xbc16d3e8	-0.009205796
154	0xbe0e3e63	-0.13890986
155	0x3f096494	0.53669095
156	0x3e716265	0.23572691
157	0x3ebb8385	0.3662378
158	0x3ea82374	0.3283955
159	0x3e3ae628	0.1825186
160	0x3eb9d9be	0.36298937
161	0xbc87d8e9	-0.016582923
162	0xbe9d4fa0	-0.30724812
163	0x3e2ddd36	0.16978917
164	0x3e4200f4	0.18945676
165	0x3e84dc7d	0.2594947
166	0xbda80c4e	-0.08205472
167	0x3ea382d9	0.31935766
168	0xbe4ac538	-0.19801795
169	0x3e56b5fc	0.20967859
170	0x3d750f31	0.05982894
171	0xbdef06b6	-0.11671202
172	0xbe309c67	-0.17247163
173	0x3ece9bbf	0.403532
174	0xbc12e835	-0.008966495
175	0x3e31a90f	0.17349647
176	0xbe70d2c0	-0.23517895
177	0x3ce3ff28	0.027831629
178	0xb83ead95	-4.546119e-05
179	0x3e94e4b1	0.29080728
180	0x3ce5cb1c	0.028050952
181	0x3dd934df	0.106057875
182	0xbc811fb2	-0.015762184
183	0x3ed2bc6f	0.41159388
184	0xbad74ccd	-0.0016426087
185	0xbe6fc4d7	-0.23414932
186	0x3eb571be	0.3543834
187	0xbe1de56e	-0.15419552
188	0xbdaf7626	-0.08567457
189	0x3e57c1f2	0.21070078
190	0xbdf6685f	-0.12031626
191	0xbd07305e	-0.03300511
192	0x3cff215c	0.031143837
193	0x3e9f4419	0.31106642
194	0x3e9df6ed	0.30852452
195	0x3dda576d	0.106612064
196	0x3e97695f	0.2957258
197	0x3eae9b67	0.34102938
198	0x3d312447	0.043247487
199	0xbb7a8038	-0.0038223397
200	0x3e81c7a0	0.25347614
201	0x3e32b0d5	0.17450269
202	0xbe628567	-0.22121201
203	0x3ead7263	0.33876333
204	0xbe5bfdb4	-0.21483499
205	0xbcccd38b	-0.025003215
206	0x3e175108	0.14777005
207	0x3e77ea98	0.24210584
208	0x3ea2d889	0.31805828
209	0xbe1af417	-0.15132175
210	0xbd98045c	-0.074227065
211	0x3e917942	0.28412825
212	0x3ebf0efd	0.37316123
213	0x3e6f6450	0.2337811
214	0xbdd4957e	-0.10380076
215	0x3dbc2a57	0.09187763
216	0xbe25431e	-0.16138884
217	0xbdbc8215	-0.09204499
218	0x3c4b86d8	0.012422286
219	0x3ebce563	0.36893758
220	0x3cdb3b80	0.02676177
221	0xbe34054b	-0.17580144
222	0x3e8a3768	0.26995397
223	0x3b826623	0.003979461
224	0x3d80b6f8	0.062848985
225	0xbdc7296e	-0.09724699
226	0xbd884324	-0.06653431
227	0xbde683a0	-0.11255574
228	0xbe0fe40b	-0.14051835
229	0xbe086637	-0.13320242
230	0x3f058bc4	0.5216639
231	0xbe53b1ce	-0.20673296
232	0xbcb1b689	-0.021693485
233	0x3e3dc554	0.18532306
234	0xbe26a16f	-0.1627252
235	0x3cafd60e	0.021464374
236	0xbe06f4d7	-0.13179336
237	0xbe6da37d	-0.23206897
238	0x3f07ed37	0.53096336
239	0x3e812ce0	0.2522955
240	0x3f2249d6	0.63393915
241	0xbf0d0ee9	-0.55100876
242	0x3eb67e98	0.35643458
243	0x3d0499d3	0.03237326
244	0xbdbad813	-0.09123244
245	0xbe66c070	-0.22534347
246	0xbd15e474	-0.036594823
247	0xbe420093	-0.18945532
248	0xbf212b6c	-0.6295688
249	0xbccb75ea	-0.0248365
250	0x3e8c5e9a	0.27415925
251	0x3eeef07c	0.4666785
252	0x3a8dca28	0.0010817694
253	0xbe640c32	-0.22270277
254	0x3de802f4	0.11328688
255	0x3d5b94d7	0.05360874

conv1.bias f4 [16]
0	0xbe195c1a	-0.1497654
1	0x3e523350	0.20527387
2	0x3e3d1cef	0.18468069
3	0xbea878fa	-0.32904798
4	0xbdea9386	-0.11453919
5	0xbdbbbaf7	-0.0916652
6	0xbe8f1d20	-0.27951908
7	0x3b80ead7	0.003934245
8	0xbc3cf20b	-0.011532317
9	0x3d905d9f	0.07049107
10	0xbe9b5bbb	-0.30343422
11	0xbdc68f36	-0.09695284
12	0xbeb23fd9	-0.34814337
13	0x3d9f6bad	0.077842094
14	0xbe5d0d91	-0.21587206
15	0xbed5b1d8	-0.41737247

conv2.weight f4 [32, 16, 3, 3]
0	0x3e224761	0.15847541
1	0xbdf1d26c	-0.11807713
2	0x3e0edb7e	0.13950917
3	0x3e11db8f	0.14243911
4	0x3cd2cc78	0.025732264
5	0x3e623513	0.22090559
6	0x3d11335a	0.035449363
7	0xbd437b68	-0.04772511
8	0x3e8e234f	0.27761313
9	0x3d24769a	0.04015217
10	0xbe89547e	-0.26822275
11	0x3bd2b5fd	0.006430386
12	0x3c13928d	0.009007108
13	0x3d2db31a	0.042407133
14	0x3e10fc2b	0.14158694
15	0x3eab5212	0.33461052
16	0xbe60b3ab	-0.21943538
17	0x3ec97581	0.3934746
18	0x3e8c731e	0.27431577
19	0xbe092889	-0.13394369
20	0x3ea45d54	0.32102454
21	0x3d9ba1d1	0.075992234
22	0xbe811471	-0.25210908
23	0xbd98d04e	-0.07461606
24	0x3e271a33	0.16318588
25	0xbe99a0f8	-0.30005622
26	0x3e0df5a2	0.13863233
27	0x3bc7c43a	0.00609639
28	0x3c955c25	0.018232414
29	0x3b0ba532	0.002130818
30	0x3d704ff3	0.058669996
31	0x3e143dfe	0.14476773
32	0x3e110799	0.14163055
33	0x3dfaf430	0.12253606
34	0xbda62148	-0.08111817
35	0x3df3086e	0.11866842
36	0x3d435984	0.04769279
37	0xb9d86016	-0.0004127032
38	0x3e644664	0.22292477
39	0x3c9835a4	0.018580265
40	0x3c692f8a	0.014232526
41	0xbd9c9dd3	-0.0764729
42	0x3d87f3fc	0.06638333
43	0xbd02a191	-0.031892363
44	0xbd5307f7	-0.051521268
45	0xbe856cbe	-0.26059526
46	0x3c3dcb0d	0.011584056
47	0xbedbf9e4	-0.4296409
48	0xbe696c78	-0.22795284
49	0x3d2ddf49	0.04244927
50	0xbe8cc501	-0.27494052
51	0xbe2b1b14	-0.16709548
52	0x3dedebf1	0.11617268
53	0xbeb1bc44	-0.34713948
54	0xbd75419e	-0.05987703
55	0x3bf9982b	0.007617017
56	0x3d8dcc97	0.06923788
57	0xbdb0fa86	-0.086415336
58	0xbd0e47c9	-0.03473643
59	0x3aeebb8b	0.0018213851
60	0xbc34b6f3	-0.011029947
61	0x3d76da45	0.06026675
62	0x3c163ba5	0.009169494
63	0x3d21e111	0.03952128
64	0xbd73d60a	-0.059530295
65	0xbd2f4082	-0.04278613
66	0x3ddcb60e	0.10776912
67	0xbd6ed288	-0.058306247
68	0x3d2a2611	0.04154021
69	0x3d84a6f0	0.06477153
70	0xbe2c39c9	-0.16818918
71	0x3dee3927	0.11631995
72	0x3d1829c2	0.0371492
73	0x3e953cf8	0.29148078
74	0xbd343fdf	-0.044006225
75	0x3d9bf10e	0.07614337
76	0x3e5f9614	0.21834594
77	0x3da9064f	0.082531564
78	0x3e0d134b	0.13776891
79	0x3e29302e	0.16522285
80	0x3e02b6fe	0.12765118
81	0x3d0ddbc0	0.034633398
82	0x3dbf89d8	0.093524635
83	0xbe26718d	-0.16254254
84	0xbc557129	-0.013027468
85	0x3e23e893	0.16006689
86	0xbdc163b2	-0.094428435
87	0x3de4089e	0.11134456
88	0x3dd86f5c	0.10568115
89	0xbdfe74b5	-0.12424604
90	0x3e3395a5	0.17537554
91	0xbde490c4	-0.11160424
92	0x3e168407	0.14698802
93	0x3e614c11	0.22001673
94	0xbe382cd3	-0.17985849
95	0x3e0d62e3	0.13807254
96	0x3e2a807c	0.16650575
97	0xbe2c7d93	-0.16844778
98	0x3e884c68	0.26620793
99	0x3d41fcc1	0.047360186
100	0xbc6d8ab4	-0.014498401
101	0x3d6ae28b	0.057344954
102	0x3dfe370c	0.12412843
103	0x3daa8da4	0.08327797
104	0x3d24045f	0.04004323
105	0x3e0dd95d	0.13852449
106	0xbdc45f8f	-0.09588539
107	0x3dc27560	0.09495044
108	0xbdc2250d	-0.09479723
109	0x3d629947	0.055321958
110	0xbb2fdc9e	-0.002683438
111	0x3da53cac	0.08068213
112	0x3dbbcfc5	0.09170488
113	0xbac14b71	-0.0014747215
114	0xbd12eebf	-0.035872217
115	0x3dc8b2d9	0.097997375
116	0x3c2c1320	0.010502607
117	0x3d92604e	0.07147275
118	0xbe67c96b	-0.22635429
119	0x3db5b6d3	0.088727616
120	0x3e7161b5	0.23572429
121	0xbe805ace	-0.25069278
122	0x3e7f48cc	0.24930114
123	0x3e87787e	0.26459116
124	0xbe97b8b5	-0.29633108
125	0x3ecc35f2	0.39884907
126	0xbccd921c	-0.025094084
127	0xbca1cb61	-0.019750299
128	0xbe149820	-0.14511156
129	0xbd622cc4	-0.055218473
130	0x3d81a793	0.0633079
131	0xbddac32b	-0.106817566
132	0x3cbc65fd	0.02299785
133	0xbc565331	-0.013081358
134	0x3cbceee0	0.023063123
135	0x3e03984b	0.12851064
136	0xbee1668e	-0.44023556
137	0x3eaab576	0.3334157
138	0x3e449784	0.19198424
139	0xbea9dfbb	-0.33178505
140	0x3ebfa869	0.37433174
141	0x3e67935e	0.2261481
142	0xbe732028	-0.23742735
143	0x3ee6a34b	0.45046458
144	0xbd0da72f	-0.034583267
145	0xbdb54b5d	-0.08852265
146	0x3c935f46	0.017989766
147	0x3d4fbde1	0.050718192
148	0xbe2ba05e	-0.16760394
149	0x3e2c94ee	0.16853687
150	0xbbe82df7	-0.0070855576
151	0xbd4b3781	-0.04961348
152	0x3ddb59a9	0.10710461
153	0x3e31a953	0.17349748
154	0xbdc8a034	-0.09796181
155	0x3ebe0cad	0.37119046
156	0xbe5096c5	-0.20370014
157	0xbd93349e	-0.0718777
158	0x3e308c03	0.1724091
159	0x3ddd0173	0.10791292
160	0xbe25f4c5	-0.16206653
161	0x3e6c6fac	0.23089474
162	0x3c4ff14a	0.012691805
163	0xbe0e2f98	-0.13885343
164	0x3decdf08	0.11565977
165	0x3e603012	0.21893337
166	0xbdc18fdb	-0.094512664
167	0x3ec8a3f6	0.39187592
168	0x3cbbe3c4	0.022935756
169	0xbe0d6bf1	-0.13810708
170	0x3cc3247c	0.023821108
171	0x3d618e55	0.05506738
172	0xbdb4b144	-0.08822873
173	0xbcbfa70a	-0.02339508
174	0xbd8fd095	-0.07022206
175	0x3d24844f	0.04016524
176	0x3cf649a2	0.030064408
177	0x3cfa326c	0.030541621
178	0xbd24be99	-0.04022083
179	0x3df2048f	0.11817276
180	0x3dccef6c	0.100066036
181	0xbe2e1727	-0.1700102
182	0x3b150c72	0.0022743014
183	0x3e0b6fbf	0.13616847
184	0xbd991cef	-0.07476222
185	0x3db3188d	0.08744917
186	0xbd2a831a	-0.041628934
187	0xbdb10a69	-0.08644564
188	0xbd2dc4e3	-0.042424094
189	0x3e559676	0.20858178
190	0x3dc0178a	0.0937949
191	0x3dfa3767	0.122175984
192	0x3d5d67f9	0.054054234
193	0x3dbcbebd	0.09216068
194	0xbe19fcfe	-0.15037915
195	0xbcc64244	-0.02420152
196	0x3e2ed13e	0.17072007
197	0xbd930e6c	-0.07180485
198	0x3d207a70	0.039179265
199	0x3cd654ee	0.026163545
200	0x3dbd90f1	0.09256161
201	0x3d49e471	0.049290124
202	0xbcaf434d	-0.021394396
203	0x3d40b989	0.04705194
204	0xbcd8540c	-0.026407264
205	0x3d43d90c	0.047814414
206	0xbcada90a	-0.021198768
207	0x3e16b460	0.14717245
208	0xbe040f5f	-0.12896489
209	0x3e1376d9	0.14400806
210	0x3e590bea	0.21195951
211	0xba39152a	-0.00070603436
212	0x3c47b70c	0.012189638
213	0x3df18a52	0.11793961
214	0xbd893fc2	-0.06701614
215	0x3cc51813	0.024059331
216	0xbd82fef7	-0.06396287
217	0x3e0189f4	0.12650281
218	0x3b9697dd	0.00459574
219	0xbc5008bb	-0.012697394
220	0x3d9e9b9a	0.077445224
221	0xbdb1981a	-0.08671589
222	0x3e111dfe	0.14171597
223	0x3cc6cc5f	0.024267374
224	0xbdd6e032	-0.104919806
225	0x3a2fc497	0.00067050144
226	0x3dff588c	0.12468061
227	0x3e07bcab	0.13255565
228	0xbd621c42	-0.05520273
229	0x3dd81a1e	0.105518565
230	0x3e10574d	0.14095803
231	0x3d64f443	0.05589701
232	0x3d5bdb61	0.053676013
233	0xbdc84f63	-0.09780767
234	0x3c986aa8	0.018605545
235	0xbc825488	-0.015909448
236	0x3dcb24f8	0.099191606
237	0x3d5721d6	0.052522503
238	0x3d725706	0.059165023
239	0x3dbc5da7	0.0919755
240	0x3ce1e3e8	0.027574494
241	0xbc8e545f	-0.017374216
242	0x3e7fcfc2	0.24981597
243	0x3dca0f58	0.09866208
244	0xbd7b95e9	-0.061422262
245	0x3e5dd877	0.21664606
246	0x3db07a04	0.08617023
247	0xbcc82ea7	-0.024436308
248	0x3ddc29d0	0.107501626
249	0x3da4c63f	0.08045625
250	0xbd6db767	-0.058036234
251	0x3ddaf911	0.10692037
252	0x3d7387bb	0.059455615
253	0x3dd63167	0.104586415
254	0xbd775c10	-0.060390532
255	0xbd5911b0	-0.052995384

conv2.bias f4 [32]
0	0x3ecbc446	0.39798182
1	0x3e4c54e0	0.19954252
2	0x3927ac00	0.00015990436
3	0xbd326ac4	-0.04355885
4	0xbd51e6f4	-0.051245645
5	0x3da58228	0.08081466
6	0xbdc1671c	-0.09443495
7	0x3dded2d5	0.10880057
8	0xbd74c61f	-0.059759255
9	0x3e2ddfd6	0.16979918
10	0x3c59c422	0.013291391
11	0x3c7eda0d	0.015554917
12	0x3c64686d	0.013940913
13	0x3db9c7bd	0.090713
14	0xbcd6ceaf	-0.026221601
15	0xbd150b32	-0.03638763
16	0x3c804bbb	0.015661111
17	0xbd18384b	-0.03716306
18	0x3da04ff0	0.07827747
19	0xbe16419a	-0.14673463
20	0x3d31f0cf	0.043442544
21	0x3d2dd6ae	0.042441063
22	0xbe128c52	-0.1431134
23	0xbe12f110	-0.1434977
24	0xbda84080	-0.082154274
25	0x3c3b5542	0.011433901
26	0xbd5aeca8	-0.05344835
27	0xbd041dfe	-0.032255165
28	0xbddd3752	-0.10801567
29	0xbde2a6af	-0.110669486
30	0xbdc7339a	-0.09726639
31	0xbdb87552	-0.09006752

fc1.weight f4 [256, 32]
0	0x3d167d97	0.036740866
1	0x3da34c9e	0.07973598
2	0xbde18959	-0.11012525
3	0x3ba8714a	0.0051404582
4	0x3cce032e	0.025148
5	0x3d4084c2	0.047001608
6	0x3d813e25	0.06310681
7	0xbdb0706e	-0.08615194
8	0x3d4f144f	0.050556477
9	0xbe341108	-0.17584622
10	0xbcffc20e	-0.031220462
11	0x3e1bd34c	0.15217322
12	0x3dcd6e4f	0.10030805
13	0xbe1e5981	-0.1546383
14	0xbd936f28	-0.07198936
15	0x3dbe0124	0.09277561
16	0xbd9336ce	-0.071881875
17	0x3e191601	0.149498
18	0x3d9455ee	0.07242952
19	0xbda6b74f	-0.08140432
20	0xbd1ec1b9	-0.038758967
21	0xbcf4f665	-0.029902646
22	0x3d8ab9f8	0.06773752
23	0xbd580467	-0.052738573
24	0xbdd2db80	-0.102957726
25	0xbca06c1c	-0.0195828
26	0x3da6e1bb	0.081485234
27	0xbdb2e9c7	-0.08735996
28	0xbe2d7014	-0.16937286
29	0x3bbdf7e8	0.005797375
30	0xbdf37171	-0.118868716
31	0x3cfcb3e5	0.0308475
32	0x3de0b72a	0.10972436
33	0xbe32d29b	-0.17463152
34	0xbde5711d	-0.11203215
35	0xbd5bd0d1	-0.05366594
36	0x3da0a499	0.078438945
37	0x3df66a1f	0.1203196
38	0xbdd29129	-0.10281593
39	0xbde2af68	-0.11068612
40	0xbd139760	-0.036033034
41	0x3e111792	0.14169148
42	0xbe046bb6	-0.12931713
43	0x3e0ccba9	0.13749565
44	0xbdd485d9	-0.10377092
45	0x3dd889df	0.10573172
46	0x3df0da12	0.117603436
47	0x3e213b7d	0.15745349
48	0x3b93809f	0.004501417
49	0x3df4350d	0.11924181
50	0xbdf062a8	-0.11737567
51	0xbd5a73c4	-0.05333306
52	0xbda80ea3	-0.08205917
53	0x3d90f360	0.0707767
54	0xbdd0cfbd	-0.10195873
55	0xbd9ce2d0	-0.076604486
56	0xbd85525a	-0.06509848
57	0x3da9dc24	0.082939416
58	0x3dd50518	0.10401362
59	0x3d69b984	0.057061687
60	0x3e07f1ad	0.13275786
61	0x3dea6526	0.11445074
62	0x3d5fc423	0.05463041
63	0xbd9acc99	-0.07558555
64	0xbd674cfb	-0.0564699
65	0xbd50befb	-0.050963383
66	0xbe6459b8	-0.2229985
67	0x3d97883a	0.0739903
68	0x3df10a2d	0.11769519
69	0x3d30e2a6	0.0431849
70	0x3d4534d8	0.0481461
71	0x3e1f77d1	0.1557305
72	0x3ba3835c	0.0049900245
73	0x3e41d886	0.18930253
74	0x3e42ba7a	0.19016448
75	0x3d59d229	0.05317894
76	0xbcaab8cf	-0.020840077
77	0xbe328003	-0.17431645
78	0xbe17255b	-0.14760344
79	0xbba277ed	-0.004958144
80	0xbe0ecc35	-0.13945086
81	0x3d23b159	0.039964054
82	0x3e3234d4	0.17402965
83	0x3db50dcc	0.08840522
84	0x3e026836	0.12735066
85	0xbdf02af9	-0.117269464
86	0xbd088678	-0.033331364
87	0x3dee4f91	0.1163627
88	0x3e113c5d	0.14183183
89	0xbca6a9c1	-0.020344617
90	0xbc072141	-0.008247674
91	0x3e48a797	0.1959518
92	0xbc895079	-0.016762005
93	0xbe4a1d80	-0.19737816
94	0x3d5acf1a	0.053420164
95	0x3cc34da9	0.023840742
96	0xbe15e489	-0.1463796
97	0xbe01e8e6	-0.126865
98	0x3cd7186e	0.026256766
99	0xbe256b48	-0.16154206
100	0x3e221b2d	0.15830679
101	0xbe02d0f0	-0.12775016
102	0x3d327c83	0.043575775
103	0xbe2c8b27	-0.16849957
104	0xbe143c29	-0.14476074
105	0x3db15c39	0.08660168
106	0x3dc56adb	0.09639522
107	0xbdc009df	-0.09376883
108	0x3ddbd750	0.10734427
109	0xbe065446	-0.13118085
110	0xbe0ed4b8	-0.13948333
111	0xbde3ba57	-0.11119526
112	0xbd0508e9	-0.0324792
113	0x3dfc4482	0.12317754
114	0x3c719e1b	0.014747168
115	0x3e0c952a	0.13728777
116	0x3dc162cd	0.09442673
117	0xbd31e035	-0.04342671
118	0xbd0ec565	-0.03485622
119	0xbd9d8fda	-0.07693453
120	0xbce4fa65	-0.027951429
121	0xbe32f4f1	-0.1747625
122	0xbe186d23	-0.14885382
123	0xbcae838b	-0.021302959
124	0xbd770aaa	-0.060312904
125	0x3dc83c47	0.09777122
126	0xbdcd06ae	-0.1001104
127	0x3d475419	0.048664186
128	0x3b69fc34	0.0035703303
129	0xbd38edaf	-0.045148548
130	0x3e118e12	0.14214352
131	0xbdec0b68	-0.11525613
132	0xbdf26855	-0.11836306
133	0xbe3e201d	-0.18566938
134	0xbe08dcd2	-0.13365486
135	0x3dd168cf	0.10225069
136	0x3d366382	0.04452849
137	0x3dce509b	0.10073968
138	0x3d8ea106	0.069643065
139	0x3e090a2e	0.1338279
140	0x3db383d3	0.08765378
141	0x3d42eba0	0.04758799
142	0xbe1eb106	-0.15497217
143	0x3d3ca69f	0.04605734
144	0xbe2361af	-0.15955232
145	0x3cb00e37	0.021491153
146	0xbe2e0769	-0.16995014
147	0x3d2495d9	0.04018197
148	0xbe109441	-0.14119054
149	0x3d075d98	0.033048242
150	0xbe1cb2c4	-0.15302569
151	0xbc5bb6b0	-0.013410255
152	0xbddaadd4	-0.10677686
153	0xbdf38645	-0.11890844
154	0x3ddb6239	0.10712094
155	0x3e0232f1	0.12714745
156	0x3e043dc7	0.12914191
157	0xbdb13bda	-0.08653994
158	0xbe2aa2dd	-0.1666369
159	0x3c2ccbd3	0.010546642
160	0xbe0628a5	-0.13101442
161	0x3dc96be1	0.098350294
162	0xbde41d87	-0.111384444
163	0x3d0cec91	0.034405295
164	0xbbe21e9a	-0.0069006206
165	0xbd1ec44f	-0.038761433
166	0x3df6c8f2	0.12050046
167	0x3cfd68e2	0.030933801
168	0xbd4d6000	-0.05014038
169	0xbd015596	-0.03157576
170	0x3e0a586a	0.1351029
171	0xbe3043c8	-0.17213356
172	0xbe118935	-0.14212497
173	0x3e22b11b	0.15887873
174	0x3db0631f	0.08612656
175	0xbc0f89d4	-0.008760888
176	0xbdcbaaef	-0.09944712
177	0xbcee1383	-0.029062038
178	0x3d2aadff	0.04166984
179	0x3cfa78ed	0.03057524
180	0x3dab9bfd	0.08379362
181	0xbe3b1968	-0.1827141
182	0x3d8e3e28	0.06945449
183	0x3ac00b5d	0.0014651824
184	0x3db4fdf7	0.088375024
185	0x3d08f514	0.03343685
186	0x3c93c6e1	0.018039169
187	0xbe16b32e	-0.14716789
188	0xbd48de25	-0.04903998
189	0xbc88f883	-0.016720062
190	0x3c205c3b	0.009787614
191	0xbd922b97	-0.0713722
192	0xbbad3907	-0.005286339
193	0xbdc025fa	-0.093822435
194	0xbdaeda37	-0.08537715
195	0x3e15ebc4	0.14640719
196	0xbdbccb8c	-0.09218511
197	0xbc28c477	-0.010300747
198	0x3d76a1f8	0.06021306
199	0x3c68d867	0.014211751
200	0x3b80a12e	0.003925464
201	0x3d005e00	0.031339645
202	0x3dd032c0	0.1016593
203	0xbe28522d	-0.16437598
204	0xbb9778c9	-0.004622553
205	0x3dfc2118	0.12311
206	0xbe14063f	-0.14455508
207	0x3d7854c5	0.060627718
208	0x3d79a748	0.060950547
209	0x3deda9c9	0.116046496
210	0xbd7c3e5b	-0.061582904
211	0xbdaef29b	-0.08542367
212	0x3d6282f7	0.05530068
213	0xbdbabeb7	-0.09118407
214	0x3dffb86b	0.12486347
215	0xbd49b32b	-0.049243134
216	0xbe30f14e	-0.1727955
217	0x3d5e26ee	0.054236345
218	0x3e0863d4	0.13319331
219	0x3e15bb53	0.1462224
220	0x3db404c5	0.08789972
221	0xbc919fcf	-0.017776398
222	0xbd8e95af	-0.06962144
223	0xbe33b7cd	-0.17550583
224	0x3dca86f1	0.09889019
225	0x3d33d429	0.043903504
226	0xbd81cece	-0.06338273
227	0xbe43c4f9	-0.19118108
228	0x3da74033	0.08166542
229	0x3cb852bd	0.02250039
230	0x3de5ef1c	0.11227247
231	0x3e2c4361	0.16822578
232	0xbe199086	-0.14996538
233	0xbd06b40a	-0.032886542
234	0xbdcf27c3	-0.10115006
235	0xbdbaf459	-0.09128637
236	0xbce04f2c	-0.027381502
237	0x3e3650c0	0.17804241
238	0xbd9ff865	-0.07811049
239	0x3d8ee90b	0.06978043
240	0xbdca8d60	-0.098902464
241	0xbd8c61c5	-0.068545856
242	0x3d465ac0	0.04842639
243	0xbd8b130b	-0.067907415
244	0x3d86acc6	0.06575923
245	0xbe2a3641	-0.16622259
246	0x3c2948d3	0.010332304
247	0xbdc63d69	-0.09679682
248	0x3df3cab4	0.11903897
249	0xbd2c44c1	-0.042057756
250	0xbe19dca4	-0.15025574
251	0x3d0f380f	0.03496557
252	0xbdc823fa	-0.09772487
253	0xbd9760b2	-0.0739149
254	0x3de21a59	0.11040182
255	0x3d8e9f68	0.06963998

fc1.bias f4 [256]
0	0xbe136e8f	-0.14397644
1	0xbdd805f9	-0.10548014
2	0x38f18ec1	0.000115183655
3	0x3cb970fb	0.022636881
4	0xbdbd962e	-0.0925716
5	0xbde58549	-0.11207063
6	0xbda22569	-0.07917292
7	0xbd92e2ac	-0.071721405
8	0xbe2eeb14	-0.17081863
9	0xbe02850d	-0.12746067
10	0x3d054aac	0.032541916
11	0xbe12b128	-0.14325392
12	0xbda0a8b7	-0.0784468
13	0xbbc602d3	-0.006042817
14	0xbd318503	-0.04333974
15	0xbde24468	-0.11048204
16	0xbd8059ef	-0.062671535
17	0xbe1385ed	-0.14406557
18	0xbdc96c79	-0.09835143
19	0xbdfc947a	-0.12333007
20	0xbe12d1e2	-0.14337876
21	0xbd9c4741	-0.07630778
22	0xbe378a74	-0.1792391
23	0x3c4da0c0	0.012550533
24	0xbdbae1fa	-0.09125133
25	0xbe31dd11	-0.17369486
26	0xbe03b7f0	-0.12863135
27	0xbccd796b	-0.02508231
28	0x3d3747c2	0.044746168
29	0xbcf87f97	-0.030334277
30	0xbe2bda9e	-0.16782615
31	0xbb0593f8	-0.0020382386
32	0xbe157069	-0.14593662
33	0xbbd3c547	-0.0064627263
34	0xbdc2f543	-0.09519436
35	0xbdf4b7c5	-0.11949114
36	0x3bded3bd	0.0068001435
37	0xbdbbef89	-0.09176547
38	0xbe041791	-0.12899615
39	0xbd8e5ae9	-0.069509335
40	0xbdf68b26	-0.12038259
41	0xbddaaf62	-0.10677983
42	0xbe05b15b	-0.13055937
43	0xbd5adfce	-0.053436093
44	0xbb432f8e	-0.0029782983
45	0xbdf43ced	-0.11925683
46	0x3d982ed3	0.07430806
47	0xbd94bb44	-0.072622806
48	0xbdab652f	-0.083689086
49	0xbe397d76	-0.18114266
50	0xbcc8d875	-0.024517277
51	0xbdf473ce	-0.119361505
52	0x3d6385f2	0.055547662
53	0xbd9885ee	-0.0744742
54	0xbdb92845	-0.09040884
55	0xbde14c62	-0.11000897
56	0x3c0b048c	0.008484971
57	0xbcccd17a	-0.02500223
58	0xbbe12ab7	-0.006871547
59	0xbd29493a	-0.0413296
60	0xbdb8d207	-0.090244345
61	0xbe1f7273	-0.15571003
62	0xbe2d04fc	-0.16896433
63	0xbd2816b8	-0.04103729
64	0xbdd09f75	-0.10186664
65	0xbdc00a57	-0.09376972
66	0xbd108514	-0.035283163
67	0xbe0b8c2a	-0.13627687
68	0xbd178eb7	-0.037001338
69	0xbd68f219	-0.056871507
70	0xbc29721e	-0.010342149
71	0xbcb236a4	-0.02175457
72	0x3c465e54	0.0121074505
73	0xbd6c3fdc	-0.05767809
74	0xbdb456fc	-0.088056535
75	0xbc97dd03	-0.018538004
76	0x3cbe8f4f	0.023261694
77	0xbd6bc6f6	-0.05756279
78	0xbd29f31a	-0.041491605
79	0xbea518e2	-0.32245547
80	0xbc478b29	-0.012179174
81	0xbe1fc6db	-0.15603201
82	0x3ccb8004	0.024841316
83	0xbe2943d1	-0.16529776
84	0xbe6c4e77	-0.23076807
85	0xbdf5be71	-0.119992144
86	0xbe6b204e	-0.22961542
87	0xbc224ad3	-0.009905535
88	0xbe360207	-0.17774211
89	0xbcaeda89	-0.02134444
90	0x3bbd583a	0.0057783397
91	0xbe1e5604	-0.154625
92	0xbcb3b32a	-0.021936018
93	0xbe1ce918	-0.15323293
94	0xbde51f43	-0.11187603
95	0xbd4af313	-0.04954822
96	0xbd29cef2	-0.041457124
97	0xbe0e20c8	-0.13879693
98	0xbdbd52fc	-0.09244344
99	0xbd194d40	-0.037427187
100	0xbdd1b7f5	-0.10240165
101	0xbd67c2ee	-0.056582384
102	0xbd624347	-0.055239942
103	0xbd58eb99	-0.05295906
104	0xbe3bae23	-0.18328147
105	0xbe152722	-0.14565709
106	0xbde06b6a	-0.109579876
107	0x3da29204	0.079380065
108	0xbe1885e8	-0.14894831
109	0xbe22e785	-0.1590863
110	0xbd19a395	-0.03750952
111	0xbd9ec46e	-0.0775231
112	0xbc5c1955	-0.013433774
113	0xbd2b7ad6	-0.041865192
114	0xbe11ec92	-0.142504
115	0xbb9621b7	-0.004581656
116	0xbcbdef35	-0.023185352
117	0xbd3ec6a1	-0.046576146
118	0xbe04bd30	-0.12962794
119	0xbde70069	-0.11279375
120	0xbd014cf3	-0.031567525
121	0xbd8cbea6	-0.06872301
122	0xbb9bbe40	-0.004752904
123	0xbd18d311	-0.037310664
124	0xbd3d425c	-0.046205863
125	0xbde7124d	-0.112827875
126	0xbc1831e0	-0.009289235
127	0xbd675acf	-0.056483086
128	0xbddb149c	-0.1069729
129	0xbd58804a	-0.05285672
130	0xbd9a8013	-0.075439595
131	0xbe034e7e	-0.12822911
132	0xbcbe15d7	-0.023203773
133	0xbddcafca	-0.107757166
134	0xbd973978	-0.07384008
135	0xbd7b8b58	-0.061412185
136	0xbdb61216	-0.08890168
137	0xbdfd3246	-0.123631045
138	0xbe52d9fc	-0.20590967
139	0xbe1e3519	-0.15449943
140	0xbe2374ac	-0.15962476
141	0x3cfa7093	0.030571258
142	0xbdd07c08	-0.10179907
143	0xbdd9342b	-0.106056534
144	0xbe13492f	-0.14383386
145	0xbc065826	-0.008199727
146	0xbe211443	-0.15730385
147	0xbe3d716b	-0.18500297
148	0xbd18d36d	-0.037311006
149	0x3b6f1c4b	0.003648537
150	0xbdee41ae	-0.11633621
151	0xbc300d9c	-0.010745432
152	0xbe575248	-0.21027482
153	0xbe20b4ec	-0.15694016
154	0xbd5553b7	-0.05208179
155	0xbdeaab25	-0.114584245
156	0xbdc029a0	-0.09382939
157	0xbd81c607	-0.06336599
158	0xbdf0a0b5	-0.117494024
159	0xbe1e7dbd	-0.15477653
160	0xbd60671d	-0.054785836
161	0x3d290900	0.04126835
162	0xbccd7f7a	-0.0250852
163	0xbd13bef5	-0.036070783
164	0xbc6b480b	-0.014360438
165	0xbdf78bff	-0.12087249
166	0xbccf8a8a	-0.025334615
167	0xbe12261c	-0.1427235
168	0xbe11dba0	-0.14243937
169	0xbd70c569	-0.058782015
170	0xbd5e25df	-0.054235335
171	0xbdebc76f	-0.11512648
172	0x3c983120	0.018578112
173	0xbe1ce3f1	-0.15321328
174	0xbd337ecc	-0.043822095
175	0xbe017c6f	-0.12645124
176	0xbcdb66fd	-0.026782507
177	0xbe32f029	-0.17474426
178	0xbdb8b792	-0.09019388
179	0xbc7af3b4	-0.015316892
180	0xbe0dff2f	-0.13866876
181	0xb9b7b0be	-0.00035036163
182	0xbd93653e	-0.07197045
183	0xbe34cb1c	-0.17655605
184	0xbdf23779	-0.11826987
185	0xbd8c862f	-0.06861531
186	0xbe123f0f	-0.14281867
187	0xbe24b10f	-0.16083167
188	0xbd2b7c4c	-0.041866586
189	0xbe392fcb	-0.18084638
190	0xbe903c18	-0.28170848
191	0xbc421776	-0.011846414
192	0x3ce35ae7	0.027753307
193	0xbdc31149	-0.09524781
194	0xbe31ca27	-0.17362271
195	0x3d068238	0.03283903
196	0x3d0732a1	0.033007268
197	0xbdf26578	-0.1183576
198	0xbd7baf7d	-0.061446656
199	0xbdcac200	-0.09900284
200	0xbdf049cc	-0.11732826
201	0xbdb9cf21	-0.0907271
202	0xbdf7c0ec	-0.12097344
203	0xbde8ec24	-0.11373165
204	0xbcd33805	-0.025783548
205	0xbd131def	-0.03591722
206	0xbe1de8ba	-0.1542081
207	0x3c292337	0.010323337
208	0xbddd5b57	-0.10808437
209	0xbd0724ab	-0.032993954
210	0xbda1f727	-0.07908469
211	0xbdaab760	-0.08335757
212	0xbd641b62	-0.055690177
213	0xbd9c790e	-0.07640277
214	0xbdd0ddb6	-0.10198538
215	0xbe002823	-0.12515311
216	0xbdba00a6	-0.09082155
217	0xbdde3720	-0.10850358
218	0xbe120a93	-0.14261846
219	0xbd5bca84	-0.05365993
220	0xbcdddf2b	-0.027083954
221	0xbcbbf2fd	-0.022943014
222	0xbd7856f3	-0.060629796
223	0xbda13a19	-0.078724094
224	0xbe097860	-0.13424826
225	0xbe34a22a	-0.17639986
226	0xbdb9ab80	-0.09065914
227	0xbd86ce1e	-0.065822825
228	0xbddf8d72	-0.109156504
229	0xbd9ded63	-0.077112935
230	0xbe05a791	-0.13052203
231	0xbd6043a5	-0.05475201
232	0xbda9c9b4	-0.08290425
233	0xbdd90112	-0.10595907
234	0xbd37f4fe	-0.044911377
235	0xbd62fac3	-0.055414926
236	0x3c3227b1	0.010873721
237	0xbd7a7297	-0.061144438
238	0xbd41a632	-0.047277637
239	0xbdfe610b	-0.12420853
240	0xbd813982	-0.06309797
241	0xbdaddc7b	-0.08489319
242	0xbe29b00f	-0.16571067
243	0xbe06f9c5	-0.13181217
244	0xbd6d3323	-0.057910096
245	0xbdf2fa42	-0.11864139
246	0xbdeb1322	-0.11478259
247	0xbd83fabc	-0.06444308
248	0xbe0c52e0	-0.1370349
249	0xbcbe9e57	-0.023268862
250	0xbcec7eab	-0.028868994
251	0xbe49dd1d	-0.19713254
252	0xbd8e16f9	-0.069379754
253	0xbe25a573	-0.16176395
254	0xbd6da5b8	-0.05801937
255	0xbd61f24e	-0.05516272

fc2.weight f4 [5, 256]
0	0x3d2c89e6	0.042123698
1	0xbd6452ca	-0.055743016
2	0x3d694f6c	0.05696051
3	0x3ab62000	0.0013895035
4	0xbd1e1dca	-0.038602628
5	0x3d0f3280	0.03496027
6	0x3d4b050c	0.04956536
7	0x3cdace64	0.026709743
8	0x3c348b80	0.0110195875
9	0x3d201bd8	0.039089054
10	0xbc153b50	-0.0091083795
11	0x3bcfd7f0	0.0063428804
12	0x3cffb3f4	0.031213738
13	0x3c415000	0.011798859
14	0xbd2d3a64	-0.042292014
15	0x3bf749e0	0.0075466484
16	0x3b815d30	0.0039478764
17	0x3c564b48	0.013079472
18	0xbd7e4542	-0.06207777
19	0x3d61670c	0.055029914
20	0xbd3ac8e0	-0.045601726
21	0x3d3dc4d6	0.046330296
22	0xbd6345ec	-0.055486605
23	0xbd50d442	-0.050983675
24	0xbccbf0b4	-0.02489505
25	0xbba7cff0	-0.0051212236
26	0x3c9065f4	0.01762674
27	0xbcba94c4	-0.022776015
28	0x3d49130e	0.049090438
29	0xbd21a41c	-0.039463148
30	0xbcfec6f8	-0.031100735
31	0x3d4a96b4	0.049460128
32	0xbd0fd806	-0.035118125
33	0x3d06600c	0.03280644
34	0xbccb3230	-0.024804205
35	0x3d565eec	0.05233662
36	0xbd6501c6	-0.055909894
37	0xbcd843d8	-0.026399538
38	0x3d7d6dca	0.06187228
39	0xbd0c7e6a	-0.034300245
40	0x3c1d9168	0.009617187
41	0x3c6636b0	0.014051124
42	0x3d2c73b0	0.042102516
43	0xbd5528a4	-0.05204071
44	0xbb56d800	-0.0032782555
45	0x3bc9def0	0.0061606094
46	0x3d50bc7c	0.050961003
47	0xbd3b2c1e	-0.04569637
48	0x3d4e984e	0.050438218
49	0xbd383886	-0.04497578
50	0xbd072fb8	-0.033004493
51	0xbae8c600	-0.0017759204
52	0xbbd3be50	-0.006461896
53	0x3c9043a4	0.017610379
54	0xbd7b7b24	-0.061396733
55	0xbc5c9658	-0.013463579
56	0xbd55da2c	-0.052210018
57	0xbd5bc346	-0.053653024
58	0xbcabd308	-0.020974651
59	0xbd57e4be	-0.05270838
60	0xbcac0c24	-0.021001883
61	0x3c0d5778	0.008626811
62	0x3d0b18c0	0.03395915
63	0x3d378ed2	0.04481394
64	0x3cfe9110	0.03107503
65	0xbd249934	-0.04018517
66	0x3d3fc438	0.04681799
67	0x3d393304	0.045214668
68	0xb9450e00	-0.000187926
69	0x3c5271f0	0.012844548
70	0x3ceb5ec4	0.028731711
71	0xbc6a6680	-0.0143066645
72	0xbcf116c4	-0.0294298
73	0x3c4389f0	0.011934742
74	0xbd6e1396	-0.058124147
75	0xbd26504a	-0.040603913
76	0x3d7cbcd6	0.061703525
77	0x3d7145b2	0.058904357
78	0xbaff1780	-0.001946196
79	0x3d0f90a4	0.03505005
80	0xbd5baa68	-0.05362931
81	0x3cafabd0	0.021444231
82	0xbd58ac86	-0.052898906
83	0x3d476c84	0.048687473
84	0xbd1283c2	-0.035770185
85	0xbd1006f2	-0.035162874
86	0x3cdb38ac	0.026760422
87	0xbd76e32e	-0.06027525
88	0xbc3fb710	-0.01170136
89	0x3d549762	0.051902182
90	0x3c8fb168	0.017540649
91	0xbc55e7e8	-0.013055779
92	0x3ca84b34	0.020543672
93	0x3cdf9830	0.027294248
94	0xbc68eda8	-0.014216818
95	0xbca6e470	-0.0203726
96	0x3d359068	0.04432717
97	0x3c811620	0.01575762
98	0x3d612d20	0.054974675
99	0xbc675f78	-0.014121883
100	0x3d07e120	0.03317368
101	0xbc2064b0	-0.009789631
102	0x3d185c6a	0.037197508
103	0xbd0b6e48	-0.03404072
104	0x3d1e918c	0.038713023
105	0xbd5d93fe	-0.054096214
106	0x3c1bb418	0.009503387
107	0x3aff6180	0.0019484013
108	0x3d22657c	0.039647564
109	0x3c948668	0.018130496
110	0x3c7898b8	0.01517313
111	0xbc1f5770	-0.009725437
112	0xbd5364fe	-0.051609986
113	0xbd468056	-0.048462234
114	0xbd71c6a0	-0.059027314
115	0xbb46bce0	-0.003032498
116	0xbcacd968	-0.021099761
117	0xbce63244	-0.02810014
118	0xbc779d58	-0.015113197
119	0x3c81eba0	0.015859425
120	0xbc64a528	-0.013955392
121	0xbc7a3f90	-0.015273944
122	0xbcda71bc	-0.02666556
123	0x3d2692e2	0.040667422
124	0x3a073980	0.00051584095
125	0x3ce0dc38	0.027448758
126	0x3d608cbe	0.054821722
127	0xbcb676d4	-0.022273459
128	0xbb382660	-0.0028099045
129	0xbd416de0	-0.047223926
130	0x3d2ed418	0.042682737
131	0x3c2b6528	0.010461129
132	0xbd6e235a	-0.058139183
133	0x3d142be4	0.03617467
134	0x3bda97b0	0.0066709146
135	0xbd26bbd4	-0.04070647
136	0xbc5ba3b8	-0.013405733
137	0x3d153794	0.036429957
138	0x3cf742e8	0.03018327
139	0x3c7dcaf8	0.015490286
140	0x3cea74f4	0.02862022
141	0x3cc69068	0.02423878
142	0xbc723288	-0.014782555
143	0xbca9532c	-0.020669542
144	0xbd4132ec	-0.047167704
145	0xbd2cebe4	-0.04221715
146	0xbbe1c200	-0.0068895817
147	0xbcd3d1e0	-0.025856912
148	0xbd73dec6	-0.059538625
149	0xbd5b5ed6	-0.05355724
150	0xbcc34fb4	-0.023841716
151	0xbd4c837c	-0.04993008
152	0xbd649d12	-0.055813856
153	0x3d3ca010	0.046051085
154	0x3cb49aa4	0.022046395
155	0x3b912ec0	0.004430622
156	0x3bdc9b70	0.006732397
157	0x3c9a0380	0.018800497
158	0x3d2f4ac6	0.04279592
159	0x3b974ca0	0.0046172887
160	0x3caf4a14	0.021397628
161	0x3d7aa428	0.061191708
162	0x3d0a999a	0.033837892
163	0x3ce9dec0	0.028548598
164	0x3d182a54	0.037149742
165	0xbd449058	-0.04798922
166	0xbd37bd7e	-0.04485845
167	0xbcef5584	-0.029215582
168	0xbd4a36a0	-0.0493685
169	0xbc93dd08	-0.018049732
170	0x3d4ef424	0.0505258
171	0xba4d8180	-0.00078394264
172	0xbd308f72	-0.04310555
173	0xbd49480a	-0.049140967
174	0xbd02b044	-0.03190638
175	0x3d738440	0.059452295
176	0x3c79bb80	0.015242457
177	0xbd0fa950	-0.03507358
178	0x3c319968	0.010839798
179	0xbd4c14d6	-0.04982456
180	0x3d4a8544	0.0494435
181	0xbd481896	-0.048851572
182	0x3d7b8c34	0.061413005
183	0xbcdc6a88	-0.026906267
184	0x3d660e72	0.05616612
185	0xbd295bcc	-0.04134731
186	0xbb92eb90	-0.0044836476
187	0xbd252fc6	-0.040328763
188	0xbbcf0fa0	-0.0063190013
189	0xbceec87c	-0.029148333
190	0xbd1024fe	-0.03519153
191	0xbd32c8d4	-0.043648556
192	0x3d43c7a6	0.04779782
193	0x3d149e5a	0.03628383
194	0xbd6b0868	-0.057381064
195	0x3d4fd680	0.050741673
196	0x3d031292	0.032000132
197	0xbcacc940	-0.021092057
198	0x3c223dc8	0.009902425
199	0xbd73b6ae	-0.05950039
200	0x3d29e7b8	0.04148075
201	0xbcdf00d8	-0.027222082
202	0x3ca239b4	0.019802906
203	0x3d1d0fcc	0.038345143
204	0xbd6b234c	-0.05740671
205	0x3d23cbbc	0.039989218
206	0xbd1e4fc6	-0.038650297
207	0x3b0b4080	0.0021248162
208	0x3d20ff5e	0.039306037
209	0x3d18af98	0.037276834
210	0x3b83ee50	0.004026212
211	0x3d4a18dc	0.049340114
212	0xbd387c9e	-0.04504072
213	0xbcecd674	-0.028910853
214	0x3c6fb968	0.014631607
215	0x3d0a3782	0.033744343
216	0x3d2adf94	0.041717127
217	0xbd6ce556	-0.0578359
218	0x3d4089f6	0.04700657
219	0x3d6d2f26	0.057906292
220	0xbd5bcdf0	-0.053663194
221	0x3d49eac8	0.04929617
222	0x3d6774ac	0.05650775
223	0xbc517358	-0.012783848
224	0x3bf6c020	0.0075302273
225	0xbd603fec	-0.05474846
226	0xbd594274	-0.05304189
227	0xbd4321e2	-0.047639735
228	0xbb854150	-0.0040666237
229	0xbd26a604	-0.04068567
230	0xbd6e3c10	-0.05816275
231	0x3d5b4870	0.05353588
232	0x3cf154d8	0.029459402
233	0x3c82b33c	0.015954606
234	0xbd1beef2	-0.038069673
235	0x3d516dc4	0.05113007
236	0x3ce92ed0	0.028464705
237	0xbd1cfda2	-0.03832782
238	0xbd70df20	-0.05880654
239	0xbcf75180	-0.03019023
240	0xbc62bc78	-0.01383888
241	0x3d7951d0	0.060869038
242	0x3ce3b674	0.027796961
243	0x3b691820	0.0035567358
244	0xbd6324ee	-0.05545514
245	0x3d5522a0	0.052034974
246	0xbc171c70	-0.009223089
247	0xbc85e414	-0.016344108
248	0x3cc70ca4	0.02429802
249	0xbc93b500	-0.018030643
250	0x3d76948a	0.06020025
251	0xbd77b248	-0.060472757
252	0xbbb29140	-0.005449444
253	0x3d6ab93a	0.057305552
254	0xbcebd244	-0.028786786
255	0xbd13f08c	-0.036118075

fc2.bias f4 [5]
0	0xbca8710c	-0.020561717
1	0x3d484860	0.048897147
2	0xbd01f7d4	-0.031730488
3	0xbd52fc0a	-0.051509894
4	0x3db51e73	0.08843698
